Complete_thesis_stage_1_and_2/(d).Code_and_all_other_details/WAAM/PINN_TEMP_DEPENDENT_PROP/Models/model_epoch_15000.pt (torch, 38264 bytes, 7 tensors)

linears.0.weight f4 [64, 4]
-0.16256958 -0.6460734 -0.24554123 -0.12814654 -0.21009403 -0.33533087 0.0351863 0.30403104
-0.39260757 -0.2914588 -0.3414689 -0.32906747 -0.74585986 -0.3828989 0.28035724 0.440939
0.1690714 0.043739427 -0.04294805 0.018629951 -0.14092042 -0.24769145 -0.039528202 0.06771093
-0.33558506 -1.4848679 -0.28816047 -0.1481925 -0.09319525 -0.55091846 -0.12101401 0.21585745
0.12877975 0.748825 0.90391225 -0.25491187 -0.42607376 -0.4499443 0.02756775 -0.17730235
0.013612357 -0.021114765 -0.06649226 -0.5518909 -0.6745227 0.4322024 0.12537709 0.28584862
0.8428184 0.23590937 -0.23270142 -0.33798918 0.2866205 0.099510476 -0.06181181 -0.1429726
0.33274502 0.08291854 -0.20329636 -0.29575878 -0.31994212 0.54328126 -0.02107882 -0.10552168
-0.45524272 0.17328672 -0.07947116 0.55564255 0.64882565 -0.6169024 0.35267994 0.11880301
-0.12661615 0.13003133 0.13928139 0.46459422 -0.3422414 0.047127757 -0.10074531 0.6235962
-0.42064917 -0.2339675 -0.38457903 -0.62857443 -0.075153194 -0.126753 0.11724735 -0.07647033
-0.33641425 0.026536768 -0.20937276 0.12481865 0.42812797 0.14213231 0.27108815 0.400119
-0.13986045 -0.1832496 0.17958888 -0.052092537 0.14198118 0.04942354 0.2105999 -0.0074706
0.37060773 -0.2631296 0.03890039 -0.522413 0.43929884 -0.15668017 -0.21084872 -0.36075974
-0.37861735 -0.01977245 -0.17852469 0.31936523 0.17340876 -0.27558032 -0.24093509 -0.056044128
-0.05933432 -0.18660396 -0.28748974 -0.26065537 0.494578 -0.24069726 -0.3763932 -0.34372205
0.40778467 0.3796245 -0.34486794 -0.0141808335 0.45780596 -0.7508687 -0.10722881 -0.3548793
0.076524876 -0.1406918 0.24983768 0.091229714 0.7654395 -0.017904107 -0.1577028 0.16379386
0.29765195 0.20593664 0.15691091 -0.2701262 0.56848115 0.074449375 5.0267678e-05 -0.6714943
-0.9710703 0.1578414 -0.11830639 0.14176357 0.49595755 0.54189366 0.22486469 -0.049340084
-0.37878543 0.2387452 -0.05030082 -0.026169637 -0.31865382 0.03250566 0.093479335 -0.45082337
0.40779912 -0.6404529 0.31500885 -0.34243914 -0.052880164 0.14239037 -0.085998885 0.28285673
-0.12389791 0.015477438 0.09216258 0.054522384 0.12090824 -0.12017919 -0.21569036 -0.2462532
-0.16147944 0.2838591 -0.2080083 0.11053089 0.21723166 0.05339152 -0.04065653 0.17779085
0.5586691 -0.39539757 -0.14991441 -0.07134667 0.28626272 -0.040323853 0.34246355 0.2935094
0.29141438 -1.4788094 0.71038365 -0.11222286 0.32043138 -0.6228997 0.31214714 -0.13304636
-0.030443009 -1.6680847 0.34701753 0.30294684 0.2899435 0.40679163 0.27364442 -0.32151535
-0.31572938 0.111644365 0.13129535 0.24449109 -0.32117805 0.13277173 -0.14918824 0.15213785
-0.6420341 -0.81628436 -0.6087812 0.06449216 0.360928 0.64188087 0.031249741 -0.17181312
-0.093470104 -0.18633668 0.2637365 -0.029316325 0.32901654 0.085788004 -0.16500689 0.2022445
0.2499921 0.18188347 -0.021771971 -0.4695022 0.4138447 -0.1569362 0.19163826 -0.3909359
-0.08440749 -0.3223043 -0.16694933 0.19760437 0.12556294 -0.1827889 0.23398468 0.30011973
00000000: a478 26be 1165 25bf 296f 7bbe d938 03be
00000010: e422 57be 7db0 abbe 821f 103d f5a9 9b3e
00000020: dc03 c9be 163a 95be 03d5 aebe 887b a8be
00000030: acf0 3ebf 530b c4be fc8a 8f3e c2c2 e13e
00000040: 0e21 2d3e 1d28 333d 4bea 2fbd d79d 983c
00000050: 714d 10be d4a2 7dbe 53e8 21bd 07ac 8a3d
00000060: ced1 abbe 2710 bebf c589 93be c6bf 17be
00000070: 27dd bebd fe08 0dbf 31d6 f7bd bc09 5d3e
00000080: d7de 033e ffb2 3f3f cb66 673f cf83 82be
00000090: 5726 dabe 195f e6be c3d5 e13c bf8e 35be
000000a0: 5d06 5f3c dff8 acbc 182d 88bd b948 0dbf
000000b0: 85ad 2cbf a249 dd3e da62 003e c05a 923e
000000c0: f2c2 573f 3a92 713e 4849 6ebe eb0c adbe
000000d0: ecbf 923e 26cc cb3d 612e 7dbd 6967 12be
000000e0: 8e5d aa3e 32d1 a93d ec2c 50be b26d 97be
000000f0: 74cf a3be 7b14 0b3f 7dad acbc c01b d8bd
00000100: 9315 e9be 1372 313e c7c1 a2bd 973e 0e3f
00000110: 7019 263f 51ed 1dbf 7792 b43e fe4e f33d
00000120: aaa7 01be ef26 053e c89f 0e3e 4bdf ed3e
00000130: 443a afbe 0909 413d 8f53 cebd 00a4 1f3f
00000140: 545f d7be 2d95 6fbe 8be7 c4be 41ea 20bf
00000150: ebe9 99bd 8acb 01be 611f f03d 7a9c 9cbd
00000160: 7d3e acbe a363 d93c d065 56be eca0 ff3d
00000170: 9733 db3e 228b 113e 11cc 8a3e 66dc cc3e
00000180: 9437 0fbe c8a5 3bbe 26e6 373e fc5e 55bd
00000190: 8463 113e 5670 4a3d 80a7 573e efcb f4bb
000001a0: 4cc0 bd3e ecb8 86be 0456 1f3d dcbc 05bf
000001b0: c7eb e03e c470 20be bae8 57be 80b5 b8be
000001c0: 22da c1be d5f9 a1bc 2dcf 36be d783 a33e
000001d0: 1192 313e dd18 8dbe b0b7 76be 878e 65bd
000001e0: 8b08 73bd 1c15 3fbe db31 93be 9f74 85be
000001f0: 5439 fd3e 5879 76be 9cb6 c0be 56fc afbe
00000200: 27c9 d03e 245e c23e 8892 b0be ba56 68bc
00000210: 8b65 ea3e ee38 40bf c79a dbbd bdb2 b5be
00000220: 13b9 9c3d 8311 10be 73d5 7f3e a5d6 ba3d
00000230: d8f3 433f a2ab 92bc d87c 21be 94b9 273e
00000240: d665 983e 0ee1 523e 41ad 203e fb4d 8abe
00000250: fb87 113f ea78 983d 82d6 5238 0de7 2bbf
00000260: 1098 78bf 2da1 213e 9f4a f2bd 782a 113e
00000270: 26ee fd3e 8bb9 0a3f ee42 663e d418 4abd
00000280: 2af0 c1be 9f79 743e 3c08 4ebd b561 d6bc
00000290: 9826 a3be a824 053d 1872 bf3d 52d2 e6be
000002a0: 0ccb d03e b9f4 23bf d748 a13e 2f54 afbe
000002b0: df98 58bd c8ce 113e 2f20 b0bd 99d2 903e
000002c0: 30be fdbd 1595 7d3c bcbf bc3d dd52 5f3d
000002d0: bd9e f73d 8220 f6bd efdd 5cbe cd29 7cbe
000002e0: de5a 25be fb55 913e 2100 55be 055e e23d
000002f0: fa71 5e3e 11b1 5a3d 7687 26bd ce0e 363e
00000300: f004 0f3f 8d71 cabe 2a83 19be 341e 92bd
00000310: 0791 923e a02a 25bd 6257 af3e dd46 963e
00000320: 4434 953e a049 bdbf b4db 353f 19d5 e5bd
00000330: 950f a43e 5b76 1fbf c0d1 9f3e 4e3d 08be
00000340: 9e63 f9bc cd83 d5bf 48ac b13e d91b 9b3e
00000350: 7973 943e fe46 d03e 1f1b 8c3e a99d a4be
00000360: 48a7 a1be cda5 e43d 4a72 063e df5b 7a3e
00000370: 7371 a4be 50f5 073e cdc4 18be 06ca 1b3e
00000380: 595c 24bf 03f8 50bf 16d9 1bbf 7714 843d
00000390: 8ecb b83e 4e52 243f 75ff ff3c c7ef 2fbe
000003a0: 416d bfbd 0bcf 3ebe 7808 873e ca28 f0bc
000003b0: db74 a83e 9fb1 af3d 91f7 28be 2f19 4f3e
000003c0: eefd 7f3e a93f 3a3e 225b b2bc 9862 f0be
000003d0: 74e3 d33e e2b3 20be d23c 443e c028 c8be
000003e0: d6dd acbd 1205 a5be c4f4 2abe cd58 4a3e
000003f0: 9293 003e 032d 3bbe ae99 6f3e 4ba9 993e

linears.0.bias f4 [64]
-0.0030588089 -0.018476844 -0.22926956 -0.24667823 -0.11499625 -0.23719442 -0.28321707 0.11411109
0.2930584 -0.1528621 -0.4681052 -0.2462397 0.35321102 0.13005263 -0.03300545 -0.19323353
0.006222029 0.15479442 0.08199679 0.39238968 -0.55750656 0.030861037 -0.14888874 0.20941143
-0.024860032 0.09538034 -0.007585656 -0.21663065 -0.05181954 0.12291943 -0.08797804 0.21229176
0.089406095 -0.13431916 -0.0033395034 -0.03683598 0.08704534 -0.26549008 -0.13756707 0.33672142
0.013122903 -0.75053024 0.13892724 0.12679352 0.20090507 -0.07775258 -0.06777039 0.14102547
0.31383386 0.04828752 0.3713218 0.06374791 0.121999815 -0.11431116 0.13785677 -0.13781807
0.14446811 0.035952047 0.103776515 0.08874598 -0.032481477 0.0046447245 -0.03216031 0.0035842217
00000000: 4c76 48bb c05c 97bc a4c5 6abe 3899 7cbe
00000010: 2783 ebbd 18e3 72be d401 91be 13b3 e93d
00000020: c00b 963e e287 1cbe 7cab efbe 4326 7cbe
00000030: 13d8 b43e 842c 053e b930 07bd 03df 45be
00000040: 2ae2 cb3b 6e82 1e3e efed a73d 4de7 c83e
00000050: c0b8 0ebf 49d0 fc3c 4a76 18be f36f 563e
00000060: 44a7 cbbc c556 c33d 1891 f8bb 6dd4 5dbe
00000070: ba40 54bd 2fbd fb3d d52d b4bd 0363 593e
00000080: 8b1a b73d f68a 09be 92db 5abb 53e1 16bd
00000090: d444 b23d 51ee 87be 62de 0cbe c066 ac3e
000000a0: 7201 573c c022 40bf f142 0e3e 29d6 013e
000000b0: 0fba 4d3e bf3c 9fbd 34cb 8abd fb68 103e
000000c0: d5ae a03e 22c9 453d e41d be3e 448e 823d
000000d0: 0adb f93d f81b eabd 532a 0d3e 2e20 0dbe
000000e0: 73ef 133e 7442 133d c888 d43d 74c0 b53d
000000f0: 4c0b 05bd c632 983b 87ba 03bd 43e5 6a3b

linears.1.weight f4 [64, 64]
0.011795815 -0.21509963 0.03822694 -0.37647253 0.17141494 -0.068933465 -0.029432595 -0.061106145
0.4493727 0.13204944 -0.080851905 -0.19039065 0.013168759 0.1691187 -0.10961799 -0.112313725
-0.006269017 -0.26966402 -0.11581085 -0.12302887 0.006123956 0.0895231 -0.10353591 -0.042812053
-0.060725912 -0.27494976 0.08000232 0.17634968 0.16287494 0.071491204 0.23601821 0.2711913
0.051188253 -0.027780449 0.017617386 0.03265941 -0.026017416 0.27697495 -0.2509108 0.21672332
-0.120911844 0.017047517 0.02514622 0.023469774 -0.19521323 -0.07643101 0.21973623 -0.15436459
0.22249228 -0.23035277 0.36499953 -0.065906145 0.16797045 -0.16347824 -0.30848998 -0.14251435
-0.14412616 0.01597855 -0.20305955 0.058901962 0.13631745 0.05848035 0.08461835 0.059595123
0.03639451 0.16485526 -0.048617847 -0.1176675 0.1557144 -0.10069833 0.20225988 0.15523735
0.031226397 -0.19268446 -0.19160286 -0.10732953 -0.029775457 -0.023049673 0.09331228 -0.17140228
0.12034951 -0.023477748 -0.21295913 -0.047762144 0.023737384 -0.18294467 0.01816959 -0.06470818
-0.13864842 -0.08110882 -0.043414593 0.20361213 -0.1812226 0.3155571 0.018350547 -0.04164484
0.052832153 0.18499605 -0.2197868 0.10031569 -0.2124994 -0.06893838 0.17028445 -0.09316223
0.12332615 -0.27620906 0.023561293 -0.034399573 0.49522752 -0.023680441 -0.097702794 -0.102066234
-0.01248806 0.09752005 0.14302742 0.07806223 0.044944428 -0.21286605 -0.10332348 -0.034325704
0.011641823 -0.22720863 0.18729968 -0.022575725 -0.20668077 -0.093519054 0.09750261 -0.07283272
0.106982216 0.012304474 0.082616575 0.17153935 -0.014493375 -0.1852085 -0.09219875 -0.1776111
-0.15068537 -0.12601772 0.09053932 -0.1082946 -0.10512864 -0.13249072 -0.044971876 -0.07141337
-0.11580864 -0.034336008 -0.112651326 0.20331109 0.054706614 -0.08811249 -0.10265214 0.20550074
-0.15746439 0.073037796 0.20506823 0.11997266 -0.0414294 0.11440185 -0.08505307 0.15257002
0.16872384 0.046445224 0.16880687 -0.056449436 0.028290363 -0.105432846 0.25262296 -0.15638421
0.21305606 -0.15265627 -0.049737945 0.15923406 0.6907316 -0.13117266 -0.0061737653 0.21388614
-0.0816506 -0.16605571 0.0045617605 0.0016056595 -0.03958295 0.11790224 0.28414115 -0.086230084
-0.1522154 0.029254094 -0.07203681 0.111630194 0.08265656 0.17706692 -0.21126361 0.15532799
0.2422347 0.19613917 -0.0019961142 0.6606531 -0.027163992 0.27841312 0.13802083 -0.26053005
0.29970136 0.44045457 0.12598942 0.2218075 -0.7664714 -0.18471919 -0.1194507 0.38048354
0.27130738 -0.47436252 0.076662846 0.027474783 0.19694977 -0.14239617 0.30871946 -0.22602208
0.2389952 -0.30893132 0.059530172 -0.35023382 0.12380804 -0.36601686 0.12149462 -0.31864908
-0.5646165 -0.25930834 0.00968016 -0.37283295 0.09157537 -0.02200873 0.54101807 -0.44660458
0.3107899 0.4457363 -0.1272942 -0.34101546 0.080125906 -0.21307482 0.20751397 -0.31226566
-0.38655543 -0.2649746 -0.0038367854 -0.3513827 -0.033746183 -0.19914222 0.21501322 0.17526369
0.37013596 -0.32511044 0.054417424 -0.0039025762 -0.09641478 -0.19226333 -0.019318398 0.10454661
00000000: 3c43 413c 1443 5cbe da93 1c3d 02c1 c0be
00000010: 6687 2f3e fd2c 8dbd a01c f1bc 704a 7abd
00000020: 2e14 e63e f837 073e af95 a5bd c4f5 42be
00000030: c7c1 573c 742d 2d3e 667f e0bd bd04 e6bd
00000040: 536c cdbb 6711 8abe 3d2e edbd 8ff6 fbbd
00000050: 77ab c83b e357 b73d a30a d4bd b15b 2fbd
00000060: bcbb 78bd 37c6 8cbe 42d8 a33d 0395 343e
00000070: b0c8 263e fb69 923d c2ae 713e 96d9 8a3e
00000080: c6aa 513d d393 e3bc 5652 903c e0c5 053d
00000090: 7a22 d5bc a9cf 8d3e 6177 80be b8ec 5d3e
000000a0: a1a0 f7bd 3ca7 8b3c 72ff cd3c af43 c03c
000000b0: fae5 47be dd87 9cbd 8902 613e c011 1ebe
000000c0: 04d5 633e 99e1 6bbe 38e1 ba3e cdf9 86bd
000000d0: 7200 2c3e d766 27be 66f2 9dbe 48ef 11be
000000e0: cf95 13be 73e5 823c d8ee 4fbe 2f43 713d
000000f0: cd96 0b3e 1789 6f3d 634c ad3d 041a 743d
00000100: 6912 153d d1cf 283e 8223 47bd a9fb f0bd
00000110: 9873 1f3e ed3a cebd 371d 4f3e 8af6 1e3e
00000120: 80ce ff3c 134f 45be 8a33 44be 96cf dbbd
00000130: a9eb f3bc abd2 bcbc 821a bf3d 1484 2fbe
00000140: ce79 f63d 6854 c0bc f511 5abe 3da2 43bd
00000150: e774 c23c d955 3bbe 64d8 943c b985 84bd
00000160: daf9 0dbe 621c a6bd 80d3 31bd b37f 503e
00000170: 6b92 39be b390 a13e e353 963c c893 2abd
00000180: 8766 583d 9b6f 3d3e ca0f 61be 5072 cd3d
00000190: 7199 59be 912f 8dbd 0c5f 2e3e d7cb bebd
000001a0: 6c92 fc3d 466b 8dbe 9d03 c13c 91e6 0cbd
000001b0: 768e fd3e 7cfd c1bc 6718 c8bd 1a08 d1bd
000001c0: b89a 4cbc 98b8 c73d c875 123e 17df 9f3d
000001d0: a617 383d 8ff9 59be 439b d3bd 1c99 0cbd
000001e0: 58bd 3e3c 61a9 68be 7dcb 3f3e baf0 b8bc
000001f0: 20a4 53be eb86 bfbd 73af c73d 5229 95bd
00000200: 7e19 db3d b498 493c e132 a93d 03a8 2f3e
00000210: 9f75 6dbc 4ca7 3dbe b3d2 bcbd afdf 35be
00000220: 444d 1abe ca0a 01be ae6c b93d 8fc9 ddbd
00000230: af4d d7bd a6ab 07be 6e34 38bd 2c41 92bd
00000240: 152d edbd eaa3 0cbd bdb5 e6bd c830 503e
00000250: 0b14 603d 5274 b4bd 493b d2bd c96e 523e
00000260: 583e 21be d794 953d 68fd 513e 3ab4 f53d
00000270: e0b1 29bd 844b ea3d 4e30 aebd 513b 1c3e
00000280: f1c5 2c3e 593d 3e3d b5db 2c3e 8637 67bd
00000290: 31c1 e73c 2ded d7bd cc57 813e 2f23 20be
000002a0: 5e2b 5a3e ed51 1cbe 04ba 4bbd 410e 233e
000002b0: c9d3 303f 2052 06be 4c4d cabb f804 5b3e
000002c0: 6e38 a7bd 820a 2abe d27a 953b fe74 d23a
000002d0: bb21 22bd bb76 f13d f37a 913e 6699 b0bd
000002e0: 5bde 1bbe 48a6 ef3c 0988 93bd 5f9e e43d
000002f0: d847 a93d 0851 353e 7d55 58be 4d0e 1f3e
00000300: 600c 783e b5d8 483e 3dd1 02bb 9020 293f
00000310: 0587 debc 2a8c 8e3e 5555 0d3e 3264 85be
00000320: 7572 993e 4383 e13e 5f03 013e 8121 633e
00000330: 7837 44bf 0727 3dbe 92a2 f4bd bdce c23e
00000340: cde8 8a3e a5df f2be 6901 9d3d cc12 e13c
00000350: 33ad 493e 4dd0 11be 7a10 9e3e 5572 67be
00000360: 28bb 743e 3f2c 9ebe e9d5 733d d951 b3be
00000370: 128f fd3d 9066 bbbe 2cd2 f83d f925 a3be
00000380: b58a 10bf 10c4 84be 8999 1e3c f6e3 bebe
00000390: de8b bb3d a74b b4bc 2980 0a3f 5ba9 e4be
000003a0: db1f 9f3e 8c37 e43e 6959 02be 9499 aebe
000003b0: 0d19 a43d 4930 5abe 8b7e 543e 49e1 9fbe
000003c0: 98ea c5be c0aa 87be 9472 7bbb 6fe8 b3be
000003d0: 7039 0abd f0eb 4bbe 6d2c 5c3e 5378 333e
000003e0: 7682 bd3e e074 a6be cee4 5e3d 5dc2 7fbb
000003f0: 1d75 c5bd aee0 44be 9e41 9ebc 881c d63d

linears.1.bias f4 [64]
-0.06759768 0.026435725 0.06107048 -0.13196456 -0.021147734 -0.060490727 -0.07291789 0.09763469
-0.04530761 0.039279234 -0.05043241 -0.2716683 0.042831663 0.035879545 0.117981 -0.080992594
0.051761463 0.0071709245 -0.1209583 0.019352797 0.045870677 0.011673266 0.054321278 -0.036288057
-0.011852322 0.05385109 0.3566831 -0.044207256 -0.07418433 -0.15476593 0.10499941 -0.06963187
0.037184387 -0.022114681 -0.045975957 -0.02460605 -0.034856897 -0.05508457 -0.05279542 0.03533371
-0.09328752 0.009489977 0.0145385 -0.03284093 0.025386779 0.021526994 0.01918995 0.04815662
0.050077666 -0.069779485 -0.072953574 0.03885389 0.121445164 -0.06024476 -0.07784181 0.02034755
-0.04198 -0.14952445 0.024686322 0.044198547 -0.11993566 0.01914594 0.049544424 0.020302488
00000000: a770 8abd bc8f d83c 0a25 7a3d b821 07be
00000010: 033e adbc 20c5 77bd fa55 95bd b2f4 c73d
00000020: 7994 39bd 43e3 203d 3792 4ebd 1b18 8bbe
00000030: 4170 2f3d 6ef6 123d 06a0 f13d 72df a5bd
00000040: d403 543d 13fa ea3b fcb8 f7bd c289 9e3c
00000050: e4e2 3b3d 3a41 3f3c fd7f 5e3d c9a2 14bd
00000060: 3e30 42bc f692 5c3d 2b9f b63e ab12 35bd
00000070: f4ed 97bd f67a 1ebe ee09 d73d 279b 8ebd
00000080: a84e 183d d929 b5bc 4951 3cbd a192 c9bc
00000090: 1bc6 0ebd 5ca0 61bd 0340 58bd 15ba 103d
000000a0: 870d bfbd d97b 1b3c e432 6e3c 3684 06bd
000000b0: eff7 cf3c 6159 b03c 3e34 9d3c e03f 453d
000000c0: 3d1e 4d3d 8ce8 8ebd af68 95bd 4225 1f3d
000000d0: 3eb8 f83d 36c3 76bd 876b 9fbd e8af a63c
000000e0: 38f3 2bbd f01c 19be f83a ca3c 8909 353d
000000f0: d4a0 f5bd f2d7 9c3c 18ef 4a3d 6751 a63c

linears.2.weight f4 [64, 64]
-0.096857324 -0.015256632 -0.07207398 0.17543124 -0.092996545 -0.21558493 -0.057518847 -0.00034130507
-0.056765467 -0.018945418 -0.19631281 -0.21693446 0.2098405 0.09640403 -0.020034421 -0.080580905
-0.060908463 0.090861656 -0.10493011 -0.030110903 -0.018826952 -0.07162932 0.19106387 0.30008617
0.15120628 -0.047330417 -0.28422987 0.065949924 -0.23569725 -0.121849366 -0.16266637 0.13016076
0.16199489 0.13362731 -0.058855504 -0.21098468 0.021274814 -0.09256279 -0.2437534 0.06951308
0.001162383 -0.114947945 0.08339758 -0.15023209 0.043377742 0.08570461 0.16895512 -0.13117786
-0.18544437 -0.13412122 -0.13933288 -0.04723729 -0.08081911 -0.17896163 -0.010748893 -0.057736333
-0.13250932 -0.31372225 0.16739126 0.17825359 -0.024171676 0.12317707 0.070607185 0.0108954115
0.13325736 -0.044163883 0.3168526 0.20393568 0.055054296 0.070786275 -0.052685317 0.0006157355
-0.07379011 -0.07753931 -0.109592155 -0.10695679 0.061128806 -0.06974698 0.0059032743 -0.31690323
-0.06420052 0.14245553 -0.13262664 0.097004846 -0.084735066 0.12534076 0.098433286 0.29456943
-0.104690716 0.12839867 -0.14306335 -0.0060776086 -0.100850485 -0.09344301 0.21956481 -0.118044116
-0.0390268 -0.2273184 -0.092438795 -0.079945736 -0.22203918 -0.24182338 0.017079327 0.021557562
0.018184293 0.16842225 -0.20437558 -0.15993628 0.09755768 0.027745461 -0.19493942 -0.102532625
-0.15834965 -0.1502461 -0.13501039 0.042516008 0.16856128 0.0012581097 0.083863586 0.06781661
-0.33300522 0.027164446 0.19595237 0.14277273 -0.03923628 -0.012943659 0.061895628 0.25331247
-0.09016073 0.0222493 0.14809975 -0.47525573 0.13158178 -0.0791127 -0.19995874 0.033976693
-0.28346097 0.059218466 -0.33232042 0.13275972 -0.061564285 0.32578185 -0.49281332 -0.22558858
0.5477596 0.105145 -0.5476691 -0.2209284 0.2716579 -0.13001142 0.2384289 0.8936104
0.03678059 0.08270993 -1.2726761 0.08425537 -0.20133899 -0.93773687 0.30505 -0.1864994
0.64431113 -0.2922309 0.14958435 0.22367911 -0.25071302 -0.4178451 -0.45186704 -0.6790076
-0.38207105 -0.19386949 0.054092146 -0.1342597 0.4142822 0.2914748 -0.12586732 0.19751248
0.035273045 -0.08015448 -0.063563175 0.149026 0.21435994 -0.055975337 -0.16662915 0.07525258
-0.1292126 0.12577105 -0.18871933 0.010807448 -0.23730832 -0.06340758 0.122479476 -0.3706463
0.14131308 -0.19724117 -0.1749161 0.029135285 0.22769766 0.196716 0.010447141 -0.23255411
0.20985076 0.11198469 -0.12689063 0.047160275 -0.12975988 0.0181849 0.16859846 0.06970185
-0.18027146 -0.013349611 0.24647735 -0.066571504 -0.122949414 -0.024307 -0.12173444 0.020561656
-0.187998 -0.079701394 0.04669673 0.20056501 0.21150097 0.25883368 -0.20594893 0.09100744
0.016742602 0.053374205 0.12156601 0.07603201 0.084109865 0.022796687 -0.14918685 -0.1560649
0.23579165 0.121243864 -0.1480937 0.005214185 0.1223415 -0.21034111 -0.1298424 -0.23172617
-0.16743535 0.0076008104 -0.2298346 -0.05433149 -0.08868833 0.2082002 0.044800114 -0.04713764
0.006050682 0.10171269 -0.14389688 -0.17490086 0.109991364 -0.1867656 -0.040238697 0.016059518
00000000: 225d c6bd f4f6 79bc 869b 93bd 3fa4 333e
00000010: f974 bebd 4cc2 5cbe e298 6bbd 31f1 b2b9
00000020: e882 68bd 6c33 9bbc 3a06 49be 1124 5ebe
00000030: 6ee0 563e 7a6f c53d 3a1f a4bc 9a07 a5bd
00000040: 277b 79bd ad15 ba3d 99e5 d6bd 24ab f6bc
00000050: fb3a 9abc 65b2 92bd 3fa6 433e e5a4 993e
00000060: d2d5 1a3e 8add 41bd 9486 91be c110 873d
00000070: 9f5a 71be 298c f9bd 0392 26be dd48 053e
00000080: fde1 253e 99d5 083e 7812 71bd 5e0c 58be
00000090: 8548 ae3c 8f91 bdbd 7e9a 79be e05c 8e3d
000000a0: 1a5b 983a d469 ebbd 5acc aa3d 71d6 19be
000000b0: dcac 313d e685 af3d 9202 2d3e 7d53 06be
000000c0: 21e5 3dbe 1357 09be 47ad 0ebe e37b 41bd
000000d0: 7d84 a5bd b841 37be 201c 30bc ef7c 6cbd
000000e0: 86b0 07be 34a0 a0be 9d68 2b3e 1c88 363e
000000f0: ae03 c6bc 4244 fc3d 809a 903d ab82 323c
00000100: 9e74 083e 30e5 34bd 813a a23e 84d4 503e
00000110: 9d80 613d 65f8 903d 8fcc 57bd 4f69 213a
00000120: 451f 97bd eecc 9ebd da71 e0bd 290c dbbd
00000130: 3362 7a3d 81d7 8ebd 4170 c13b 2441 a2be
00000140: 907b 83bd dddf 113e 47cf 07be 7aaa c63d
00000150: 9489 adbd 5459 003e 6497 c93d ced1 963e
00000160: 1668 d6bd f17a 033e 337f 12be ad26 c7bb
00000170: b38a cebd 0c5f bfbd 99d5 603e 1dc1 f1bd
00000180: 91da 1fbd 28c6 68be 8d50 bdbd 97ba a3bd
00000190: 3d5e 63be 8ca0 77be f2e9 8b3c 7c99 b03c
000001a0: 3af7 943c e276 2c3e d547 51be 56c6 23be
000001b0: 52cc c73d 734a e33c 339e 47be a0fc d1bd
000001c0: 6926 22be 1dda 19be 2a40 0abe 4425 2e3d
000001d0: 549b 2c3e 28e7 a43a acc0 ab3d 6fe3 8a3d
000001e0: a97f aabe f987 de3c bda7 483e 0433 123e
000001f0: 39b6 20bd a411 54bc 4586 7d3d 2cb2 813e
00000200: 30a6 b8bd 2a44 b63c 76a7 173e b854 f3be
00000210: 60bd 063e d705 a2bd fcc1 4cbe 252b 0b3d
00000220: cc21 91be 108f 723d e725 aabe 2af2 073e
00000230: d52a 7cbd e1cc a63e 0752 fcbe b100 67be
00000240: f939 0c3f 4356 d73d 0b34 0cbf 0e3b 62be
00000250: bf16 8b3e b721 05be b526 743e a7c3 643f
00000260: 3ea7 163d d363 a93d 0de7 a2bf 148e ac3d
00000270: cf2b 4ebe 860f 70bf 832f 9c3e b3f9 3ebe
00000280: 93f1 243f 4a9f 95be a42c 193e 230c 653e
00000290: 755d 80be cbef d5be 1e5b e7be 71d3 2dbf
000002a0: d19e c3be b985 46be ba8f 5d3d 607b 09be
000002b0: cc1c d43e 2f3c 953e 5de3 00be b640 4a3e
000002c0: 787a 103d 0828 a4bd 692d 82bd 469a 183e
000002d0: 2c81 5b3e 6546 65bd d5a0 2abe 061e 9a3d
000002e0: 4f50 04be 20ca 003e a43f 41be b911 313c
000002f0: f400 73be d5db 81bd 85d6 fa3d 5ac5 bdbe
00000300: 60b4 103e 97f9 49be 351d 33be 1fad ee3c
00000310: 9329 693e eb6f 493e 7c2a 2b3c aa22 6ebe
00000320: 1ee3 563e 3b58 e53d 9eef 01be 222b 413d
00000330: c6df 04be 80f8 943c 13a5 2c3e d8bf 8e3d
00000340: 1599 38be 54b8 5abc 8f64 7c3e a456 88bd
00000350: e7cc fbbd 791f c7bc e84f f9bd eb70 a83c
00000360: 8c82 40be 7c3a a3bd 1245 3f3d ea60 4d3e
00000370: b693 583e d985 843e 47e4 52be 1c62 ba3d
00000380: c827 893c e99e 5a3d 9af7 f83d acb6 9b3d
00000390: cb41 ac3d 1ec0 ba3c 70c4 18be 7acf 1fbe
000003a0: 5e73 713e b44e f83d e0a5 17be c1db aa3b
000003b0: 2e8e fa3d a963 57be 68f5 04be a049 6dbe
000003c0: 2c74 2bbe 3810 f93b c359 6bbe b28a 5ebd
000003d0: 3aa2 b5bd 6f32 553e 5380 373d 6613 41bd
000003e0: cd44 c63b be4e d03d b459 13be 3619 33be
000003f0: 2743 e13d 7b3f 3fbe 55d1 24bd 408f 833c

linears.2.bias f4 [64]
0.03642422 0.039147273 0.07928927 -0.02893285 0.0973426 -0.04802527 -0.020216057 0.02894637
-0.11570526 0.023501653 -0.06323224 0.037964538 0.039038867 0.031289812 0.064061016 -0.051563546
0.0374596 0.062833264 0.030066356 0.03867709 0.025730822 0.031393185 0.03347208 0.04546752
0.072961 0.035498127 -0.038335897 0.018645426 -0.038202196 0.06965795 0.036697708 0.020839343
-0.02393206 0.04053279 -0.03576913 0.022415066 -0.05247619 0.11916018 -0.034864765 -0.022145066
-0.014327489 -0.032931365 0.038697287 -0.023029985 0.022233216 -0.043050207 0.111989036 0.062137295
0.062991396 -0.035826948 -0.0542698 -0.043867316 -0.031206511 -0.037317026 0.05106578 0.056565795
-0.016189737 0.042234134 0.04362527 0.03538128 -0.03492767 -0.037070163 -0.12812202 0.042028077
00000000: 9031 153d e458 203d 6a62 a23d 9604 edbc
00000010: 8f5b c73d 25b6 44bd 259c a5bc f020 ed3c
00000020: e1f6 ecbd 8a86 c03c e87f 81bd b480 1b3d
00000030: 38e7 1f3d bf29 003d 6c32 833d 4c34 53bd
00000040: 3d6f 193d baae 803d b84d f63c de6b 1e3d
00000050: 72c9 d23c 2496 003d 051a 093d 263c 3a3d
00000060: 946c 953d 7c66 113d 1a06 1dbd 4bbe 983c
00000070: e879 1cbd d4a8 8e3d 5650 163d 45b7 aa3c
00000080: 2b0d c4bc b605 263d a782 12bd cd9f b73c
00000090: 46f1 56bd 410a f43d 5bce 0ebd 9269 b5bc
000000a0: d8bd 6abc 0ae3 06bd 0c81 1e3d 61a9 bcbc
000000b0: 6f22 b63c 6a55 30bd 825a e53d ad83 7e3d
000000c0: a201 813d 47bf 12bd 034a 5ebd 37ae 33bd
000000d0: cca4 ffbc bdd9 18bd 5a2a 513d 89b1 673d
000000e0: 57a0 84bc b3fd 2c3d 69b0 323d f6eb 103d
000000f0: 5110 0fbd e2d6 17bd 6b32 03be a225 2c3d

linears.3.weight f4 [1, 64]
-0.35407054 -0.3382418 -0.40866825 0.36380336 -0.45586133 -0.6783588 0.23150046 -0.27489948
0.5384464 -0.35369813 0.16038604 -0.38219893 -0.42567277 -0.32123688 -0.12149147 0.26596132
-0.23235327 -0.27087092 -0.2017177 -0.3350625 -0.21714363 -0.32720828 -0.25686383 -0.23014666
-0.3584562 -0.46891934 0.049110264 -0.1508315 0.60737956 -0.30175507 -0.39804184 -0.2795452
0.7139459 -0.20694718 0.22264956 -0.09384928 0.16259629 -0.38052154 0.18188457 0.13039404
0.052540526 0.26049984 -0.33929816 0.1595594 -0.21640915 0.27027565 -0.545647 -0.216117
-0.38707086 0.2455101 0.22933261 0.26510897 0.58467555 0.21374774 -0.418864 -0.2509895
0.53662646 -0.32889912 -0.10971829 -0.12277753 0.29454613 0.30984858 0.6660512 -0.49278152
00000000: bc48 b5be 072e adbe f73c d1be 6f44 ba3e
00000010: a866 e9be eca8 2dbf 750e 6d3e a0bf 8cbe
00000020: a0d7 093f ec17 b5be 3d3c 243e 94af c3be
00000030: c8f1 d9be 2979 a4be 85d0 f8bd 152c 883e
00000040: 04ee 6dbe 98af 8abe 168f 4ebe 508d abbe
00000050: e65a 5ebe d887 a7be a883 83be 91ab 6bbe
00000060: 9287 b7be 3216 f0be d827 493d 9373 1abe
00000070: 3a7d 1b3f a47f 9abe 24cc cbbe 8c20 8fbe
00000080: 29c5 363f f6e9 53be 3ffe 633e 0d34 c0bd
00000090: a47f 263e b8d3 c2be f33f 3a3e 0486 053e
000000a0: bc34 573d 3c60 853e 7db8 adbe 8a63 233e
000000b0: 5c9a 5dbe 9261 8a3e 86af 0bbf c64d 5dbe
000000c0: 272e c6be 0067 7b3e 2bd6 6a3e 5dbc 873e
000000d0: 4cad 153f b0e0 5a3e 5875 d6be b281 80be
000000e0: 5a60 093f 7765 a8be fcb3 e0bd c972 fbbd
000000f0: c0ce 963e 79a4 9e3e 5582 2a3f dc4d fcbe
