Complete_thesis_stage_1_and_2/(d).Code_and_all_other_details/WAAM/PINN_TEMP_DEPENDENT_PROP/Models/model_epoch_23000.pt (torch, 38264 bytes, 7 tensors)

linears.0.weight f4 [64, 4]
-0.1848321 -0.7212796 -0.24422705 -0.14665216 -0.22405083 -0.42563885 0.031459976 0.3304409
-0.29173827 -0.86888003 -0.3414537 -0.50524354 -0.7563313 -0.44460914 0.320185 0.41832888
0.16693614 0.058392137 -0.046907254 0.012546567 -0.16089629 -0.109651364 -0.03902948 0.027145104
-0.26245537 -1.3503329 -0.28424472 -0.16610551 -0.17642477 -0.62613904 -0.14973907 0.3132441
0.1124451 1.0312614 0.9201436 -0.24851763 -0.3406523 -0.5081871 0.020107789 -0.17889921
0.10412176 0.3272432 -0.03476824 -0.8103113 -0.7083372 0.7039873 0.18796283 0.14342524
0.84897053 0.45120603 -0.35635173 -0.00953621 0.30857813 0.18722947 -0.06656636 -0.10719897
0.3659387 0.11902181 -0.19468533 -0.30275172 -0.31142038 0.40975466 -0.018279301 -0.15031658
-0.49112952 0.18078959 -0.085979424 0.57136077 0.6648497 -1.1586126 0.34485894 0.24974914
-0.17337286 0.41592148 0.12942049 0.6066366 -0.47983474 -0.032945078 -0.21305208 0.86954933
-0.39541495 -0.19029808 -0.40359655 -0.757024 -0.05110259 -0.11945302 0.1252938 -0.07086396
-0.33330166 -0.02467768 -0.2079605 0.119149454 0.34415033 0.3492547 0.27515137 0.4262526
-0.090805076 0.042387497 0.18487115 -0.09194161 0.14107016 0.038567446 0.20831597 -0.004038969
0.3844558 -0.2816334 0.042482913 -0.55453694 0.6776171 -0.08165754 -0.15774933 -0.48902643
-0.52295345 0.13484004 -0.17907315 0.3542629 0.16870263 -0.5640876 -0.24792211 -0.018650671
-0.032995205 -0.26367447 -0.28126872 -0.2769959 0.55175954 -0.2685508 -0.52407646 -0.29483017
0.40472424 0.5474607 -0.34268478 -0.021757571 0.4728344 -0.8052562 -0.0930999 -0.4194166
0.07526353 -0.09265284 0.26574403 0.09380552 0.7885415 -0.09768311 -0.1808384 0.091279484
0.31860903 0.1631866 0.1607497 -0.26168165 0.67124254 -0.09651623 0.06592813 -0.84020144
-0.7904913 0.08583784 -0.13957563 0.07850863 0.87387973 0.1616272 0.12097634 0.56486344
-0.38540092 0.15115295 -0.0514847 -0.034327246 -0.3459504 -0.049490087 0.09468529 -0.97433996
0.34383243 -1.3736203 0.3294923 -0.4611159 -0.123952456 0.46962708 -0.15857166 0.43752167
-0.118595235 0.004995347 0.0942623 0.061894335 0.1201942 -0.08438565 -0.2119877 -0.26467654
-0.16201143 0.0863554 -0.21199653 0.11213674 0.19410034 -0.032181688 -0.040398605 0.20266798
0.5354999 -0.2742791 -0.1500454 0.007975365 0.29192594 -0.36426142 0.35101545 0.38355854
0.23171005 -1.4294679 0.72661215 -0.11629684 0.3330667 -0.8056605 0.30782214 -0.16550578
-0.039422307 -1.3966746 0.34439433 0.33288532 0.34120592 1.0401759 0.28376523 -0.36369586
-0.3094065 0.09080968 0.1316199 0.25910437 -0.32175958 -0.007782171 -0.147452 0.1422174
-0.69305193 -0.75709695 -0.6026136 0.106227666 0.3589846 0.9911353 0.028336298 -0.18638314
-0.12071428 -0.19954911 0.26441357 -0.014811003 0.2925598 0.047574826 -0.14087912 0.20370828
0.30313236 0.547184 -0.010720524 -0.66142637 0.4706301 -0.03870932 0.20354475 -0.4203717
-0.118104935 -0.29361722 -0.1706179 0.1939905 0.13749427 -0.21021622 0.2351836 0.3514307
00000000: a044 3dbe c8a5 38bf a816 7abe fc2b 16be
00000010: 956d 65be 56ed d9be 2ddc 003d 8d2f a93e
00000020: b85e 95be ec6e 5ebf 05d3 aebe a457 01bf
00000030: ee9e 41bf cfa3 e3be 4aef a33e 342f d63e
00000040: 4ff1 2a3e 982c 6f3d d221 40bd 1e90 4d3c
00000050: ffc1 24be e590 e0bd 60dd 1fbd 695f de3c
00000060: 8d60 86be b5d7 acbf 8688 91be 9017 2abe
00000070: b2a8 34be a64a 20bf 3355 19be 8861 a03e
00000080: 9e49 e63d 6000 843f 888e 6b3f 687b 7ebe
00000090: fa69 aebe 8d18 02bf 17b9 a43c 5b31 37be
000000a0: ca3d d53d 6c8c a73e 2469 0ebd 9070 4fbf
000000b0: 9655 35bf 8338 343f 5479 403e 11de 123e
000000c0: 2256 593f 7a04 e73e bc73 b6be c43d 1cbc
000000d0: f4fd 9d3e 15b9 3f3e f253 88bd 228b dbbd
000000e0: 515c bb3e b5c1 f33d 975b 47be 4602 9bbe
000000f0: 7e72 9fbe 5dcb d13e 79be 95bc 97ec 19be
00000100: 5475 fbbe e820 393e fb15 b0bd b344 123f
00000110: 9733 2a3f 6b4d 94bf 5a91 b03e 3dbe 7f3e
00000120: a888 31be a9f3 d43e ce86 043e 894c 1b3f
00000130: e6ac f5be 6bf1 06bd 532a 5abe c99a 5e3f
00000140: d473 cabe 80dd 42be 35a4 cebe 53cc 41bf
00000150: f350 51bd c9a3 f4bd 054d 003e 2021 91bd
00000160: 84a6 aabe d928 cabc 99f3 54be a104 f43d
00000170: 7934 b03e 83d1 b23e a4e0 8c3e c83d da3e
00000180: 03f8 b9bd 839e 2d3d dd4e 3d3e e24b bcbd
00000190: b274 103e e6f8 1d3d c850 553e 5459 84bb
000001a0: 64d7 c43e 4132 90be 9002 2e3d 22f6 0dbf
000001b0: 5078 2d3f 113c a7bd 0a89 21be ac61 fabe
000001c0: 47e0 05bf 8213 0a3e f45e 37be f261 b53e
000001d0: 62c0 2c3e 0c68 10bf 4bdf 7dbe 4bc9 98bc
000001e0: fb25 07bd 5700 87be 7402 90be 68d2 8dbe
000001f0: 1d40 0d3f 7e7f 89be e029 06bf fbf3 96be
00000200: 0438 cf3e 6226 0c3f 6174 afbe ef3c b2bc
00000210: 5a17 f23e 4525 4ebf 29ab bebd c6bd d6be
00000220: c423 9a3d c6c0 bdbd 9a0f 883e 1c1d c03d
00000230: dbdd 493f 150e c8bd b42d 39be bdf0 ba3d
00000240: b920 a33e 631a 273e 929b 243e 23fb 85be
00000250: 8dd6 2b3f 4daa c5bd 5405 873d 7117 57bf
00000260: a35d 4abf c0cb af3d eaec 0ebe 22c9 a03d
00000270: 95b6 5f3f 9a81 253e 71c2 f73d e49a 103f
00000280: 4553 c5be d7c7 1a3e 9fe1 52bd ba9a 0cbd
00000290: 6920 b1be 1eb6 4abd 5cea c13d 586e 79bf
000002a0: ce0a b03e cad2 afbf 37b3 a83e 6217 ecbe
000002b0: c9da fdbd f672 f03e 9c60 22be d702 e03e
000002c0: 0fe2 f2bd 02b0 a33b 980c c13d ea84 7d3d
000002d0: 6028 f63d 62d2 acbd 4e13 59be af83 87be
000002e0: 53e6 25be 1adb b03d 9e15 59be f2a7 e53d
000002f0: 3dc2 463e f2d0 03bd 0279 25bd 3288 4f3e
00000300: 8516 093f 4f6e 8cbe 80a5 19be 1bab 023c
00000310: 5177 953e 7980 babe 4cb8 b33e c961 c43e
00000320: 6645 6d3e cef8 b6bf 4103 3a3f 0a2d eebd
00000330: b887 aa3e c43f 4ebf dd9a 9d3e 597a 29be
00000340: 4979 21bd 3cc6 b2bf 7454 b03e f26f aa3e
00000350: 8bb2 ae3e 7c24 853f ad49 913e 5836 babe
00000360: 876a 9ebe 6dfa b93d 5ec7 063e 54a9 843e
00000370: acbd a4be 9501 ffbb a8fd 16be 70a1 113e
00000380: da6b 31bf 1bd1 41bf e344 1abf e48d d93d
00000390: d4cc b73e 0bbb 7d3f 8621 e83c 39db 3ebe
000003a0: 0c39 f7bd 9a56 4cbe 3761 873e d9a9 72bc
000003b0: 66ca 953e d2dd 423d 9e42 10be e798 503e
000003c0: 2a34 9b3e 4014 0c3f 23a5 2fbc 3d53 29bf
000003d0: 6ef6 f03e aa8d 1ebd 096e 503e f63a d7be
000003e0: 00e1 f1bd ff54 96be 75b6 2ebe 72a5 463e
000003f0: 4ccb 0c3e ec42 57be f8d3 703e baee b33e

linears.0.bias f4 [64]
-0.0095855035 -0.008929181 -0.37369558 -0.28134188 -0.12038169 -0.25526112 -0.30048665 0.17427701
0.29947814 -0.20293888 -0.6553573 -0.4327976 0.924529 0.15058511 -0.04447242 -0.22645316
0.013361882 0.1961726 0.15520497 0.6631824 -0.811749 0.030693984 -0.15853421 0.24684645
-0.042982854 0.10130003 -0.018620573 -0.51587987 -0.037393667 0.14543019 -0.102837615 0.3305963
0.09558485 -0.16697358 0.012183849 -0.08179603 0.091607235 -0.3534287 -0.20596483 0.9932151
0.007804777 -1.3893511 0.17708176 0.49177572 0.20555153 -0.08825824 -0.072526924 0.17683855
0.38636604 0.07866549 0.39173955 0.059979603 0.13089187 -0.18022716 0.14524804 -0.1520709
0.17104007 0.045940224 0.117545456 0.18593581 -0.096236706 -0.0061234254 -0.032295484 0.01640686
00000000: 840c 1dbc b34b 12bc 0755 bfbe 0b0c 90be
00000010: ad8a f6bd 96b1 82be 63d9 99be ac75 323e
00000020: 3355 993e 36cf 4fbe 7fc5 27bf a697 ddbe
00000030: efad 6c3f fc32 1a3e b628 36bd 56e3 67be
00000040: cceb 5a3c 78e1 483e 0dee 1e3e 52c6 293f
00000050: c8ce 4fbf f371 fb3c cb56 22be 51c5 7c3e
00000060: ca0e 30bd 6476 cf3d 2c8a 98bc b410 04bf
00000070: 1a2a 19bd a7eb 143e 879c d2bd eb43 a93e
00000080: fdc1 c33d 1ffb 2abe c49e 473c ad84 a7bd
00000090: 939c bb3d 9bf4 b4be 72e8 52be 5843 7e3f
000000a0: 37bf ff3b 42d6 b1bf ec54 353e 07ca fb3e
000000b0: 1a7c 523e bcc0 b4bd ff88 94bd 2a15 353e
000000c0: c5d1 c53e 5f1b a13d 1692 c83e 2cad 753d
000000d0: 8508 063e 788d 38be e7bb 143e 79b8 1bbe
000000e0: 2125 2f3e d12b 3c3d acbb f03d f565 3e3e
000000f0: c017 c5bd 04a7 c8bb 4548 04bd ae67 863c

linears.1.weight f4 [64, 64]
0.013269699 -0.2148594 0.029222364 -0.43147373 0.16469313 -0.07360054 -0.034711488 -0.03532467
0.45822653 0.12748402 -0.092158236 -0.20117989 0.026229592 0.17797238 -0.11055012 -0.118862785
0.028839791 -0.26174927 -0.11040703 -0.1114594 -0.007010204 0.090265095 -0.10509523 -0.03460091
-0.06473284 -0.27409738 0.07629463 0.17178987 0.16450776 0.09375697 0.23256676 0.28683373
0.04979636 -0.03390893 0.01679635 -0.032448355 -0.025815912 0.2685812 -0.25437066 0.22598341
-0.116136216 0.0019819045 0.029565638 0.0341857 -0.1912103 -0.07832155 0.21973085 -0.14830111
0.2319138 -0.2235714 0.37191296 -0.064349666 0.17410803 -0.19988172 -0.30539683 -0.14407793
-0.14019123 0.010243632 -0.20092753 0.06597486 0.1316158 0.054025363 0.08529675 0.06295546
0.049848687 0.25788254 -0.0529109 0.016178582 0.1661659 -0.093905814 0.21355838 0.27080762
0.024680799 -0.19060285 -0.20316958 -0.13670312 -0.028082134 -0.030224185 0.09147024 -0.19143993
0.24410735 -0.01128637 -0.2057462 -0.033799686 0.008956356 -0.19006407 0.021809962 -0.05967958
-0.15388644 -0.085054025 -0.07275085 0.21072513 -0.17155547 0.3940608 0.01905928 -0.015763786
0.04617095 0.20895888 -0.21781623 0.104339674 -0.22919255 -0.08180842 0.16198662 -0.08685087
0.080070525 -0.29440013 0.029701136 -0.025987785 0.49010822 -0.022740599 -0.096097134 -0.09031638
0.0060847877 0.102422446 0.14063652 0.087887734 0.0685831 -0.33625782 -0.10803813 -0.032096773
0.02302451 -0.31531557 0.18389016 -0.0053112376 -0.23784612 -0.1068396 0.12639084 -0.06281308
0.109865256 0.023284439 0.08654044 0.17410709 -0.016447749 -0.18573768 -0.08818629 -0.16187853
-0.15452592 -0.12265639 0.09092742 -0.1126799 -0.10635069 -0.13339658 -0.04567295 -0.07305531
-0.1286271 -0.03680779 -0.11550757 0.20385364 0.05559098 -0.08533053 -0.10316123 0.20179398
-0.15525383 0.07361016 0.21244389 0.120683834 -0.042608898 0.121695325 -0.08294363 0.15921897
0.1682946 0.05455777 0.16910346 -0.084389694 0.028207306 -0.106284246 0.25393108 -0.15803508
0.21055786 -0.15334672 -0.051589932 0.1584076 0.69223714 -0.13076742 -0.007842662 0.21331012
-0.07995411 -0.17034166 0.00024241827 0.0014354103 -0.040168904 0.10370134 0.28446546 -0.087475054
-0.14948227 0.018208167 -0.07096948 0.10818086 0.08140906 0.17904247 -0.20939922 0.15274696
0.17199355 0.17919037 -0.007126714 0.23495235 0.039929718 0.29893988 0.05246854 -0.21679758
0.2813018 0.2540728 0.12965539 -0.12798734 -0.5641652 0.011550693 -0.027559696 0.25447825
0.31287038 -0.4472579 0.14138755 0.036275543 0.25226364 -0.21886623 0.3424222 -0.12277109
0.14690138 -0.35492334 0.0055995253 -0.29869446 0.15582122 -0.26558182 0.16066115 -0.14841585
-0.4803467 -0.25359094 -0.07103935 -0.2669262 0.058326352 0.019572157 0.331407 -0.41308993
0.20721787 0.4512015 -0.14551139 -0.20931491 0.028158402 -0.15486741 0.26342082 -0.13723727
-0.10497396 -0.20793597 0.011546611 -0.39445052 -0.06301228 -0.210812 0.15237324 0.20488797
0.25700167 0.13920432 -0.008287168 0.118569024 -0.1479186 -0.23951413 0.02735207 0.15512678
00000000: 2769 593c 1a04 5cbe bd63 ef3c 20ea dcbe
00000010: 51a5 283e e1bb 96bd a22d 0ebd 9ab0 10bd
00000020: ab9c ea3e 2c8b 023e 75bd bcbd 1a02 4ebe
00000030: 71df d63c 643e 363e 1a68 e2bd 556e f3bd
00000040: 6d41 ec3c 0004 86be 151d e2bd d344 e4bd
00000050: dab5 e5bb e8dc b83d 2b3c d7bd afb9 0dbd
00000060: a792 84bd 7e56 8cbe 5c40 9c3d afe9 2f3e
00000070: b974 283e a703 c03d fb25 6e3e dfdb 923e
00000080: 45f7 4b3d 17e4 0abd 8098 893c 91e8 04bd
00000090: e47b d3bc 7a83 893e df3c 82be 3268 673e
000000a0: d3d8 edbd d7e2 013b a333 f23c 4e06 0c3d
000000b0: a2cc 43be 0c67 a0bd 2001 613e 3fdc 17be
000000c0: d07a 6d3e e7ef 64be 606b be3e c2c9 83bd
000000d0: 6049 323e cbad 4cbe f95c 9cbe 2a89 13be
000000e0: 4a8e 0fbe e8d4 273c f2bf 4dbe d41d 873d
000000f0: 4bc6 063e b349 5d3d 10b0 ae3d cbee 803d
00000100: 232e 4c3d 2e09 843e 1ab9 58bd f288 843c
00000110: 6527 2a3e b151 c0bd 0caf 5a3e 4ca7 8a3e
00000120: 632f ca3c 652d 43be b00b 50be e7fb 0bbe
00000130: 810c e6bc b698 f7bc c054 bb3d d408 44be
00000140: 47f7 793e 78ea 38bc 22af 52be 8a71 0abd
00000150: aebd 123c 28a0 42be ceaa b23c 9372 74bd
00000160: 6894 1dbe ce30 aebd 66fe 94bd 54c8 573e
00000170: 3dac 2fbe 56c2 c93e 3522 9c3c 0e23 81bc
00000180: c01d 3d3d 51f9 553e 380b 5fbe 0ab0 d53d
00000190: 74b1 6abe 2c8b a7bd d2df 253e dede b1bd
000001a0: 04fc a33d 9dbb 96be cc4f f33c 56e4 d4bc
000001b0: 77ef fa3e 7e4a babc 93ce c4bd cbf7 b8bd
000001c0: e662 c73b dcc2 d13d 0503 103e 7cfe b33d
000001d0: 4c75 8c3d fc29 acbe 1843 ddbd e877 03bd
000001e0: e69d bc3c 0b71 a1be b44d 3c3e e409 aebb
000001f0: ef8d 73be b8ce dabd 9a6c 013e 25a4 80bd
00000200: 0901 e13d 02bf be3c 1d3c b13d 2149 323e
00000210: 6ebd 86bc 0532 3ebe 039b b4bd 7cc3 25be
00000220: 0b3c 1ebe 4633 fbbd 2838 ba3d b8c4 e6bd
00000230: 64ce d9bd 1d99 08be 8f13 3bbd 069e 95bd
00000240: d3b6 03be c4c3 16bd 3c8f ecbd 02bf 503e
00000250: 5eb3 633d c6c1 aebd 3246 d3bd 15a3 4e3e
00000260: dcfa 1ebe ecc0 963d e48a 593e 1629 f73d
00000270: ab86 2ebd 663b f93d 5ade a9bd 4c0a 233e
00000280: 6b55 2c3e f877 5f3d 7529 2d3e 81d4 acbd
00000290: 0213 e73c 8eab d9bd 4103 823e f3d3 21be
000002a0: 7b9c 573e ec06 1dbe f74f 53bd 9a35 223e
000002b0: 7436 313f e5e7 05be 827e 00bc f86d 5a3e
000002c0: fbbe a3bd 0b6e 2ebe a931 7e39 6124 bc3a
000002d0: 2688 24bd 5e61 d43d 75a5 913e 1f26 b3bd
000002e0: e111 19be 4b29 953c 7258 91bd ed8d dd3d
000002f0: cbb9 a63d e956 373e c06c 56be b369 1c3e
00000300: 141f 303e ae7d 373e 3687 e9bb 5997 703e
00000310: 588d 233d a60e 993e 40e9 563d 2f00 5ebe
00000320: ca06 903e d415 823e 62c4 043e 1d0f 03be
00000330: 216d 10bf 1e3f 3d3c dfc4 e1bc f94a 823e
00000340: 8c30 a03e fdfe e4be e6c7 103e aa95 143d
00000350: b328 813e 781e 60be f651 af3e 696f fbbd
00000360: 516d 163e 83b8 b5be 397c b73b 7bee 98be
00000370: 998f 1f3e 57fa 87be 5b84 243e 53fa 17be
00000380: 01f0 f5be acd6 81be 147d 91bd 8daa 88be
00000390: 9de7 6e3d ca55 a03c 2eae a93e 8680 d3be
000003a0: ec30 543e e203 e73e f000 15be a656 56be
000003b0: 73ac e63c 9095 1ebe 18df 863e ed87 0cbe
000003c0: 96fc d6bd 2bed 54be ff2d 3d3c 6bf5 c9be
000003d0: 950c 81bd 1adf 57be bb07 1c3e 27ce 513e
000003e0: b995 833e 948b 0e3e e7c6 07bc 51d4 f23d
000003f0: f977 17be 3143 75be 7311 e03c 8ed9 1e3e

linears.1.bias f4 [64]
-0.061785482 0.023172585 0.06292189 -0.16677997 -0.02764879 -0.06893915 -0.07826566 0.097568445
-0.035543624 0.03334563 -0.05443063 -0.79607576 0.043373685 0.038452215 0.11782951 -0.08457061
0.04845298 0.011128768 -0.12216877 0.016543744 0.047356557 0.3886005 0.05703162 -0.033666376
-0.0044781123 0.05756594 0.62582135 -0.046432957 -0.07724815 -0.15968296 0.11290663 -0.07705285
0.045347694 -0.024583539 -0.057724576 -0.021936191 -0.03962962 -0.05624234 -0.054764703 0.03320393
-0.09575743 -0.00091568136 0.013929816 -0.031555895 0.02569102 0.005087942 0.02242658 0.05044163
0.048279714 -0.10050782 -0.2944658 0.042086218 0.12651269 -0.06024205 -0.078633234 -0.121837035
-0.046723615 -0.15191725 0.039686076 0.04872591 -0.11949809 0.031008508 0.057220362 0.027537595
00000000: c612 7dbd 6fd4 bd3c 31dd 803d 5ec8 2abe
00000010: b77f e2bc f82f 8dbd bf49 a0bd f7d1 c73d
00000020: 3196 11bd 6d95 083d a7f2 5ebd 9fcb 4bbf
00000030: 9ba8 313d 1280 1d3d 9950 f13d 5b33 adbd
00000040: a276 463d 7055 363c 9f33 fabd bf86 873c
00000050: f3f8 413d a5f6 c63e fd99 693d c1e5 09bd
00000060: 21bd 92bb 43ca 6b3d d435 203f 7c30 3ebd
00000070: 4734 9ebd ee83 23be 973b e73d e2cd 9dbd
00000080: 81be 393d 6b63 c9bc 9b70 6cbd 87b3 b3bc
00000090: ab52 22bd 5e5e 66bd f450 60bd d800 083d
000000a0: 791c c4bd 560a 70ba e239 643c c140 01bd
000000b0: f975 d23c c0b8 a63b f2b7 b73c e29b 4e3d
000000c0: f3c0 453d 0bd7 cdbd 39c4 96be 9962 2c3d
000000d0: 8b8c 013e 5ec0 76bd 760a a1bd b285 f9bd
000000e0: 4361 3fbd 3290 1bbe de8d 223d d294 473d
000000f0: 6abb f4bd 8e05 fe3c e65f 6a3d 8696 e13c

linears.2.weight f4 [64, 64]
-0.105447136 -0.009081528 -0.060087807 0.17885055 -0.09558518 -0.22388643 -0.06983066 0.019866955
-0.046441607 -0.001106419 -0.20585209 -0.23242015 0.2250109 0.098040685 -0.02163996 -0.09280377
-0.06977797 0.08505602 -0.13788752 0.014847752 -0.00871787 -0.05861354 0.20325764 0.29055917
0.1433522 -0.036954015 -0.26521507 0.053443253 -0.2452241 -0.11538091 -0.15230379 0.11706544
0.14315839 0.14276497 -0.043773994 -0.20893101 0.011754317 -0.11481214 -0.24808267 0.08177893
-0.013776126 -0.096378416 0.071552075 -0.16200821 0.060583584 0.08134995 0.16470519 -0.11708809
-0.19227931 -0.12839091 -0.14164741 -0.03766628 -0.07280129 -0.18749806 -0.020288765 -0.053645965
-0.14703697 -0.3253233 0.17376693 0.19080274 -0.040438093 0.13109277 0.07993988 0.050259683
0.13205528 -0.037781846 0.3240519 0.20310327 0.050357778 0.06639763 -0.059827402 0.013193956
-0.04219532 -0.0682144 -0.11498506 -0.11705591 0.0696907 -0.07077849 -0.00040582533 -0.3245141
-0.068278484 0.14088109 -0.15750311 0.12291471 -0.07933591 0.13478579 0.1039571 0.29118836
-0.10432888 0.13391672 -0.13349077 -0.010996931 -0.10643241 -0.09137122 0.23248285 -0.12439134
-0.04321227 -0.23132652 -0.07307487 -0.07880175 -0.22539528 -0.25772327 0.017155545 0.0267579
0.01088988 0.17710151 -0.21059602 -0.17815453 0.11585784 0.024457648 -0.19519565 -0.09562788
-0.15870336 -0.14614092 -0.13672951 0.047566094 0.17282349 -0.0061293286 0.07815799 0.06894896
-0.3488745 0.020059591 0.19884095 0.15018345 -0.049919322 -0.008603005 0.06451373 0.25066403
0.022223208 0.076586224 0.18574291 -0.5354584 0.14006628 -0.11836915 -0.2636509 0.10283444
-0.4620027 0.024322847 -0.36512753 0.27025548 -0.03024396 0.3353005 -0.5729418 -0.25784624
0.5275789 0.08430525 -0.5410702 -0.49744776 0.29301608 -0.18606113 0.25192687 0.9393609
0.10294352 0.13276917 -1.683865 0.07281102 -0.23261182 -1.1401216 0.42898244 -0.21915704
0.79775757 -0.32473224 0.28257284 0.22869827 -0.26614538 -0.36812875 -0.49181253 -0.6623058
-0.4192851 -0.21921822 -0.007316871 -0.28816217 0.5016498 0.27062607 -0.060056094 0.23920046
0.08577017 -0.14151613 -0.012000231 0.17916858 0.2577752 -0.12395314 -0.1973905 0.10382572
0.0741742 0.08199043 -0.1550349 0.06096226 -0.28019628 -0.027286569 0.1391141 0.13017403
0.15709859 -0.1759351 -0.17952676 0.02701332 0.23300017 0.19716647 0.0024695373 -0.22838439
0.15047519 0.12281748 -0.12590632 0.047266055 -0.1307641 0.014885493 0.17890494 0.07313304
-0.17894442 -0.01471506 0.25896218 -0.09688126 -0.12464492 -0.025076041 -0.115081936 0.017844344
-0.18768127 -0.079851426 0.039921932 0.19937733 0.21222046 0.26659626 -0.21315631 0.0914583
0.012424371 0.1174183 0.06119619 0.07564027 0.08221651 0.04749706 -0.16869582 -0.15515567
0.23178476 0.12857953 -0.13693096 0.006278816 0.061784264 -0.20938331 -0.12785111 -0.23482816
-0.15765935 -0.015136364 -0.23840393 -0.057141498 -0.08220663 0.20643911 0.04691578 -0.058154754
-0.070830524 0.10244877 -0.13694032 -0.17756407 0.11670865 -0.18821493 -0.04005991 0.15013991
00000000: abf4 d7bd b0ca 14bc a21e 76bd 9924 373e
00000010: 2ac2 c3bd 7c42 65be 6103 8fbd 06c0 a23c
00000020: 8e39 3ebd 4305 91ba e4ca 52be 8cff 6dbe
00000030: 4269 663e 8ec9 c83d 4946 b1bc e70f bebd
00000040: c1e7 8ebd da31 ae3d 6332 0dbe fc43 733c
00000050: 66d5 0ebc c014 70bd c522 503e 2cc4 943e
00000060: ebca 123e 185d 17bd 45ca 87be 50e7 5a3d
00000070: 071c 7bbe d44c ecbd 86f5 1bbe 01c0 ef3d
00000080: 1d98 123e fb30 123e 5c4c 33bd 03f2 55be
00000090: 2e95 403c a122 ebbd 6209 7ebe b67b a73d
000000a0: 43b5 61bc 0c62 c5bd e589 923d 7be5 25be
000000b0: 7e26 783d cd9a a63d 7aa8 283e e1cb efbd
000000c0: dee4 44be e878 03be 050c 11be f547 1abd
000000d0: d818 95bd 7eff 3fbe a034 a6bc dfbb 5bbd
000000e0: dc90 16be c790 a6be f5ef 313e cb61 433e
000000f0: 6aa2 25bd 2f3d 063e 85b7 a33d 19dd 4d3d
00000100: 8039 073e 23c1 1abd 21ea a53e 4efa 4f3e
00000110: f543 4e3d 7bfb 873d 940d 75bd 762b 583c
00000120: 00d5 2cbd feb3 8bbd 4a7d ebbd 02bb efbd
00000130: ffb9 8e3d 50f4 90bd f4c4 d4b9 b626 a6be
00000140: 97d5 8bbd 2243 103e 7f48 21be b5ba fb3d
00000150: de7a a2bd 4905 0a3e 76e7 d43d a416 953e
00000160: 61aa d5bd 7721 093e ceb1 08be 792c 34bc
00000170: 3cf9 d9bd d620 bbbd fc0f 6e3e e3c0 febd
00000180: 59ff 30bd dce0 6cbe 47a8 95bd d062 a1bd
00000190: 05ce 66be 4ef4 83be c989 8c3c 6233 db3c
000001a0: 786b 323c 195a 353e 7ca6 57be 246e 36be
000001b0: e046 ed3d 685b c83c 5ee1 47be 8dd8 c3bd
000001c0: 2283 22be f7a5 15be d202 0cbe aad4 423d
000001d0: a4f8 303e 89d8 c8bb 4c11 a03d 1d35 8d3d
000001e0: ae9f b2be 0354 a43c f69c 4b3e b1c9 193e
000001f0: 3478 4cbd 9ef3 0cbc c61f 843d 0957 803e
00000200: 720d b63c 3dd9 9c3d 6433 3e3e cd13 09bf
00000210: 896d 0f3e 866b f2bd 40fd 86be dd9a d23d
00000220: 9e8b ecbe b540 c73c fff1 babe ed5e 8a3e
00000230: 2ec2 f7bc 82ac ab3e 50ac 12bf 6c04 84be
00000240: 690f 073f 3ba8 ac3d 9483 0abf 79b1 febe
00000250: 3406 963e cf86 3ebe 8ffc 803e f579 703f
00000260: 0dd4 d23d a4f4 073e e388 d7bf f21d 953d
00000270: cb31 6ebe 81ef 91bf 96a3 db3e b46a 60be
00000280: d739 4c3f 4e43 a6be 63ad 903e e12f 6a3e
00000290: 3544 88be 5f7b bcbe dace fbbe df8c 29bf
000002a0: 89ac d6be be7a 60be 5dc2 efbb fe89 93be
000002b0: 1f6c 003f 808f 8a3e 61fd 75bd f7f0 743e
000002c0: 45a8 af3d 9be9 10be 9e9c 44bc f877 373e
000002d0: 1cfb 833e 25db fdbd bc20 4abe 94a2 d43d
000002e0: a5e8 973d 99ea a73d 78c1 1ebe 90b3 793d
000002f0: e375 8fbe 1588 dfbc ed73 0e3e 574c 053e
00000300: 74de 203e 5528 34be ddd5 37be 0a4b dd3c
00000310: 9997 6e3e 02e6 493e f6d7 213b 99dd 69be
00000320: 2b16 1a3e bb87 fb3d 96ed 00be 0d9a 413d
00000330: 06e7 05be 48e2 733c db32 373e c6c6 953d
00000340: 353d 37be 6f17 71bc b196 843e af69 c6bd
00000350: d645 ffbd 456c cdbc 14b0 ebbd 4d2e 923c
00000360: 852f 40be 2589 a3bd 2e85 233d 9229 4c3e
00000370: 5250 593e 4e7f 883e a645 5abe 7d4e bb3d
00000380: 978f 4b3c 0179 f03d dba8 7a3d 49e9 9a3d
00000390: 2161 a83d 478c 423d 99be 2cbe 21e1 1ebe
000003a0: fc58 6d3e 5aaa 033e a137 0cbe 87be cd3b
000003b0: 7f11 7d3d 9468 56be 67eb 02be cb76 70be
000003c0: 7471 21be 83fe 77bc 2920 74be 340d 6abd
000003d0: f35b a8bd c664 533e c32a 403d ae33 6ebd
000003e0: 980f 91bd a9d0 d13d 153a 0cbe 5bd3 35be
000003f0: f204 ef3d 6abb 40be dc15 24bd 47be 193e

linears.2.bias f4 [64]
0.04726328 0.044972356 0.11045501 -0.02953893 0.097751364 -0.14005038 -0.029676594 0.029151773
-0.085724056 0.026786469 -0.07064746 0.043960977 0.0457942 0.033951506 0.06876982 -0.058982022
0.041589487 0.06829383 0.025546035 0.044713687 0.0333277 0.030136915 0.03551279 0.050773192
0.07590216 0.032399785 -0.043533478 0.0394452 -0.04000776 0.07132163 0.037890974 0.01895228
-0.027250482 0.050646808 -0.04395663 0.033159938 -0.045003973 0.13842432 -0.037328277 -0.019725585
-0.008237908 -0.028671494 0.045645393 -0.0264055 0.023154384 -0.048304386 0.15762705 0.06330547
0.06484742 -0.039519195 -0.059852123 -0.05248586 -0.039252732 -0.043904487 0.05513337 0.06420675
-0.0056346557 0.04768909 0.050512057 0.04039506 -0.034912016 -0.046917763 -0.12754041 0.05175444
00000000: 2497 413d ef34 383d 3c36 e23d a0fb f1bc
00000010: de31 c83d 5e69 0fbe 541c f3bc b3cf ee3c
00000020: 1890 afbd 4c6f db3c 9eaf 90bd 6d10 343d
00000030: b392 3b3d bc10 0b3d 31d7 8c3d 2297 71bd
00000040: bd59 2a3d a3dd 8b3d eb45 d13c b325 373d
00000050: a082 083d b1e1 f63c dc75 113d 8df7 4f3d
00000060: 9772 9b3d a3b5 043d 2950 32bd 4a91 213d
00000070: 2ddf 23bd 1311 923d 9133 1b3d d041 9b3c
00000080: 673c dfbc 0773 4f3d de0b 34bd b7d2 073d
00000090: 1656 38bd 1bbf 0d3e 89e5 18bd 8d97 a1bc
000000a0: 4af8 06bc 7be0 eabc aaf6 3a3d 5950 d8bc
000000b0: 43ae bd3c d2da 45bd fc68 213e 4ca6 813d
000000c0: b9ce 843d e1de 21bd 8027 75bd 6afb 56bd
000000d0: 79c7 20bd 31d5 33bd 87d3 613d d47e 833d
000000e0: eba2 b8bb a355 433d bbe5 4e3d 4a75 253d
000000f0: e7ff 0ebd d72c 40bd f499 02be 77fc 533d

linears.3.weight f4 [1, 64]
-0.36107984 -0.34969267 -0.4881751 0.41249803 -0.48439905 -0.9610085 0.24153341 -0.28848782
0.554821 -0.35515916 0.1699472 -0.39936832 -0.43691558 -0.33450484 -0.14384188 0.2787287
-0.252049 -0.28935036 -0.21185382 -0.34405777 -0.23132028 -0.34021285 -0.27941725 -0.26408875
-0.3745291 -0.50286496 0.063465975 -0.17267603 0.61864376 -0.3160647 -0.43271157 -0.27399826
0.7288225 -0.21252772 0.2315175 -0.10795671 0.18579173 -0.45573676 0.21154828 0.13834026
0.05741023 0.2686645 -0.35214382 0.16620968 -0.22173333 0.28076336 -0.72453564 -0.26297668
-0.40365586 0.2651328 0.24134925 0.27509987 0.62762535 0.22509423 -0.4306089 -0.26025546
0.57945406 -0.34528315 -0.12915201 -0.12744972 0.3663463 0.31868926 0.6662773 -0.5031607
00000000: 75df b8be eb0a b3be 16f2 f9be f132 d33e
00000010: 2703 f8be a704 76bf 8954 773e adb4 93be
00000020: c008 0e3f 6cd7 b5be a406 2e3e 017a ccbe
00000030: 66b3 dfbe 3844 abbe 494b 13be 87b5 8e3e
00000040: 910c 81be bb25 94be 35f0 58be 5728 b0be
00000050: 39df 6cbe 6130 aebe c70f 8fbe a436 87be
00000060: 47c2 bfbe c2bb 00bf 73fa 813d fcd1 30be
00000070: 705f 1e3f 3bd3 a1be 5f8c ddbe 8049 8cbe
00000080: 1d94 3a3f dea0 59be ec12 6d3e 6818 ddbd
00000090: 3040 3e3e 5456 e9be 1da0 583e 12a9 0d3e
000000a0: fd26 6b3d 658e 893e 324c b4be df32 2a3e
000000b0: 100e 63be 37c0 8f3e 2b7b 39bf e1a4 86be
000000c0: fbab cebe 7dbf 873e 4224 773e e4d9 8c3e
000000d0: 0eac 203f 1a7f 663e c578 dcbe 3440 85be
000000e0: 1a57 143f f4c8 b0be 6d40 04be 2e82 02be
000000f0: be91 bb3e 3d2b a33e 2691 2a3f 24cf 00bf
