Complete_thesis_stage_1_and_2/(d).Code_and_all_other_details/WAAM/PINN_TEMP_DEPENDENT_PROP/Models/model_epoch_37000.pt (torch, 38264 bytes, 7 tensors)

linears.0.weight f4 [64, 4]
00000000: 46b6 49be 47a9 38bf ec38 75be 69c2 22be
00000010: 8d32 77be a5c0 f7be e37d fc3c 05d5 a83e
00000020: 759c 8bbe 2a84 80bf e167 afbe b9a5 01bf
00000030: 5cb2 42bf d5e4 c4be d199 ad3e 648e de3e
00000040: 08e0 2a3e 18f2 d03d eb05 47bd 9987 473c
00000050: 6c08 24be 75bc 82bd f616 2abd d047 d13c
00000060: 003f 80be c5d3 a1bf 58ea 90be fb5c 33be
00000070: d551 57be 1639 dcbe c65c 20be c94b a33e
00000080: 97d8 fa3d 875c 863f 06ee 6b3f a9ca 6fbe
00000090: 8ac7 a3be a448 e3be 81fb a53c 84b3 34be
000000a0: 6a37 ef3d bf91 013f 6a53 febc 4e1e 4fbf
000000b0: ff35 30bf e7b3 423f 2926 6c3e 2e2a 193e
000000c0: c61d 613f 3c14 0a3e 5ac0 bcbe d04d 363d
000000d0: 41f3 9c3e 6b03 4b3e 02c9 89bd 6345 dabd
000000e0: 8e30 c93e 9b91 9f3d 1df5 38be ecf2 95be
000000f0: 5539 9cbe 76a1 a13e 67bc a8bc 6cc9 1dbe
00000100: 3183 02bf 45e1 493e 5561 b5bd 2e1f 133f
00000110: 222e 1b3f 1dba 56bf 68d2 b13e 49a7 863e
00000120: 37c1 35be 5718 0a3f e630 f83d 97c7 203f
00000130: 5519 f8be d8a1 90be 13ef 6ebe 74ce 603f
00000140: e99b cebe 7aef eebd bbd0 cabe f2a1 45bf
00000150: 9f73 4ebd 0570 d3bd 1812 033e e86b 91bd
00000160: 441b a4be 327d 94bc 7a38 55be 42e5 fa3d
00000170: 2b0d a13e ed38 c03e d5de 8c3e 9b0b d83e
00000180: 4a17 bbbd 3c9e a6bc 7bc3 3f3e c9ba d3bd
00000190: a888 0a3e bb70 b13c 2d8f 543e a721 ecbb
000001a0: eaee c53e a543 93be 6a5c 393d 6704 11bf
000001b0: b395 353f d185 963e e877 ecbd bc4a f0be
000001c0: 8508 0dbf 77b2 403c ed03 32be bf24 b93e
000001d0: 6add 2b3e 69fd 14bf 9050 7dbe 6378 78bc
000001e0: 8797 efbc 0dd1 8fbe 0ea3 8dbe 2850 90be
000001f0: d58b 163f ad95 81be 76c9 0bbf 815b 9ebe
00000200: c23d cd3e 55d7 143f cd3b afbe 8e02 e6bc
00000210: 08b4 033f 5096 6abf fd56 bdbd 5e91 cbbe
00000220: 3042 8b3d ce89 6dbd 32d2 883e 0dc8 c13d
00000230: fbb1 3f3f 0505 43be 9cc4 3abe 9178 323d
00000240: c251 a53e 3e23 2e3e f983 263e 28e9 85be
00000250: ce65 2f3f edb2 36be bc46 d43d 2b53 59bf
00000260: f549 3ebf 0974 a23d 8c83 13be eb48 0b3e
00000270: 98d9 663f 91a0 4d3d 6eee e13d 0963 213f
00000280: 2dee c4be 48f2 c43d b13d 53bd bb0a 02bd
00000290: c608 acbe 7417 e6be c225 933d b095 79bf
000002a0: b4f3 ae3e fa0e eebf da39 a73e 31f9 f8be
000002b0: 28b6 02be b910 cf3e 2904 2dbe f366 e53e
000002c0: b4b5 f6bd 91a2 0e3c 4c34 c33d 1ecd 753d
000002d0: 95ae 003e 4c20 6bbd 1c9d 56be 348b 86be
000002e0: 20be 24be 4e7d a0bb e429 5bbe cc89 e83d
000002f0: 2e35 443e 08f4 24be cb6b 24bd 63e7 553e
00000300: a131 073f 0b9a 2ebe 5619 13be 501e 633c
00000310: 58de 8a3e 995d e1be 4c07 b23e b476 c73e
00000320: e61c 3a3e 63bf b2bf d150 3a3f e1b1 0bbe
00000330: d4c2 ae3e 18ff 48bf 7f1c 9b3e 6318 35be
00000340: 66f6 9cbd 94be 91bf 6be0 af3e df43 a53e
00000350: 22b8 b53e 5c62 943f af41 973e 94f0 b9be
00000360: e24a a0be 7dda b83d 046b 053e f3bb 833e
00000370: 9878 a1be 2d57 93bd bd62 16be 7c2b 103e
00000380: 2994 2ebf aa6c 45bf 5323 19bf db03 013e
00000390: 6269 ba3e 741f 9c3f 8bff d73c 2bc6 42be
000003a0: a667 16be 4d6f 9cbd 0fed 843e 81b6 a0bc
000003b0: 5e6d 9a3e 1cef d93d 4662 11be d248 583e
000003c0: db3f 9e3e fd5d 0f3f f1b5 103c 9e6e 2cbf
000003d0: fac2 fd3e 1d06 263d 2161 543e 8da5 d7be
000003e0: 03b0 06be 55f3 a6be a375 2ebe d0d2 3f3e
000003f0: 1001 063e 1454 febd 2218 723e 28f5 b53e
-0.19698438 -0.72133297 -0.23947495 -0.15894474 -0.24140377 -0.48389164 0.030821746 0.3297502
-0.27267805 -1.0040333 -0.3425894 -0.506435 -0.76053405 -0.38455835 0.33906415 0.4346801
0.16687024 0.10202426 -0.04858963 0.012178325 -0.16018838 -0.063836016 -0.041525804 0.025546938
-0.25048065 -1.2642752 -0.2830379 -0.17515938 -0.2102731 -0.43012303 -0.1566039 0.31893757
0.122483425 1.0496987 0.9216007 -0.23417152 -0.31988174 -0.44391358 0.020261528 -0.17646605
0.11680491 0.50613016 -0.031045634 -0.80905616 -0.6883239 0.7605576 0.23061432 0.14957497
0.87936056 0.13484281 -0.36865503 0.0445078 0.30654338 0.19825523 -0.06727792 -0.10657766
0.39294857 0.07791444 -0.18062253 -0.29286897 -0.3051249 0.31568497 -0.02059765 -0.15408868
-0.5098143 0.1971484 -0.08856455 0.5746945 0.6061727 -0.83877736 0.3473084 0.26299503
-0.17749487 0.5394339 0.12118702 0.6280455 -0.48456827 -0.28248477 -0.23333387 0.8781502
-0.40353325 -0.1166677 -0.39612374 -0.77200234 -0.050403234 -0.103241004 0.12799871 -0.071006596
-0.32052052 -0.018126104 -0.20822325 0.12250759 0.3145536 0.3754343 0.27513757 0.42196354
-0.091353014 -0.020339124 0.18726914 -0.10338361 0.13528693 0.0216602 0.20757742 -0.00720616
0.3865884 -0.28762546 0.04525415 -0.5664734 0.7093155 0.2939897 -0.11546308 -0.46932018
-0.55091125 0.011761299 -0.1738431 0.36160848 0.16783682 -0.58199173 -0.24737763 -0.015165421
-0.029247059 -0.2808918 -0.27663463 -0.28186154 0.58807117 -0.25309506 -0.5460428 -0.30929187
0.4008618 0.5814107 -0.34225312 -0.02807739 0.5144658 -0.9163561 -0.09245107 -0.39759344
0.06799734 -0.05799275 0.26722866 0.09461985 0.7488095 -0.19044884 -0.18239063 0.043572012
0.3228894 0.17005631 0.16261281 -0.26154447 0.68514717 -0.17841692 0.10365054 -0.8489253
-0.743316 0.07932288 -0.1440565 0.13602035 0.9017577 0.050201956 0.11031805 0.6304174
-0.38462964 0.09616524 -0.051572505 -0.031748515 -0.33600444 -0.44939768 0.07184936 -0.9749403
0.34170306 -1.859832 0.32661325 -0.48627618 -0.127648 0.40442446 -0.16896118 0.44805107
-0.12046376 0.008705751 0.09531459 0.060010068 0.12566598 -0.057403848 -0.2095837 -0.2627808
-0.16088152 -0.00489775 -0.21402699 0.11354408 0.19160911 -0.16108716 -0.040141862 0.20889048
0.528101 -0.1705095 -0.14365134 0.0138622075 0.2712276 -0.44016722 0.34771192 0.3895775
0.18175086 -1.3964657 0.72779566 -0.13642074 0.34133017 -0.7851424 0.30295178 -0.17685084
-0.07664184 -1.1386285 0.34350905 0.32278344 0.35492045 1.1592517 0.295423 -0.3631636
-0.3130713 0.09026048 0.13029104 0.2572933 -0.31537318 -0.07194362 -0.14686103 0.14079088
-0.68194824 -0.77118933 -0.59819525 0.12599127 0.36408526 1.2197099 0.02636697 -0.19020908
-0.14687976 -0.076384164 0.2596211 -0.019618275 0.30161566 0.106413096 -0.14197645 0.21121529
0.30908093 0.5600279 0.008832441 -0.6735629 0.49562818 0.040533174 0.20740177 -0.42118493
-0.1315308 -0.32607523 -0.17037062 0.18732762 0.13086343 -0.124183804 0.23642018 0.35538602

linears.0.bias f4 [64]
00000000: 5455 13bc 0a86 0dbc e69d c4be f42f 90be
00000010: 429a febd 9d8d 83be 1365 9abe d02f 313e
00000020: 3cee 9a3e dded 51be 9a24 29bf 5ffc debe
00000030: 2ed0 733f 932f 1c3e 1fc9 4cbd 817e 6bbe
00000040: 1251 353c f230 523e 5655 183e e079 2a3f
00000050: c89c 51bf b23d 093d 1975 23be 8eb4 7e3e
00000060: dab2 1fbd 80d5 d13d 256a 8bbc a552 08bf
00000070: f3cd 04bd 0087 103e 5196 d4bd 3936 a43e
00000080: 96a4 c03d fd88 2fbe c665 823c 4f1d bbbd
00000090: f624 be3d afce b4be 03b0 50be f978 813f
000000a0: 044d 1a3c 093f b5bf eaab 2f3e ffd5 033f
000000b0: 5a16 543e 68a5 b7bd 6334 99bd 0191 373e
000000c0: d15d c63e 29b1 983d a416 cb3e cf75 6a3d
000000d0: a7f5 063e ba3a 25be a799 163e 0493 1cbe
000000e0: c91d 2f3e 81e4 473d 8c11 ee3d 5be8 463e
000000f0: 0b61 afbd e1b9 e2bb 5bd5 0abd 5662 953c
-0.008992512 -0.008637914 -0.38401717 -0.28161585 -0.12431766 -0.2569398 -0.30155239 0.17303395
0.30259883 -0.20500894 -0.66071475 -0.4355192 0.9523953 0.15252523 -0.04999649 -0.22997476
0.011066692 0.20526484 0.14876303 0.66592216 -0.81879854 0.033506103 -0.15962638 0.24873564
-0.038988926 0.102458 -0.017018387 -0.53251106 -0.03242297 0.14113998 -0.10380233 0.3207262
0.09406392 -0.171421 0.01591767 -0.091364495 0.092843935 -0.35313937 -0.20379643 1.0115043
0.009417776 -1.4159862 0.17155424 0.5149841 0.20711651 -0.089670956 -0.07480695 0.17926408
0.3874345 0.074556656 0.3966571 0.057241257 0.13179646 -0.16135684 0.14707051 -0.15290457
0.17101206 0.048801903 0.116244406 0.19424574 -0.08563431 -0.006919131 -0.033894878 0.018235367

linears.1.weight f4 [64, 64]
00000000: 58a7 493c 0ab4 6cbe a584 db3c ddab efbe
00000010: 8a65 263e 0cd4 99bd 0d3c 18bd 8cf7 2fbd
00000020: dd1f ed3e a7b9 023e ec07 bfbd f529 4ebe
00000030: 22d6 dc3c bbaa 393e 8afd e1bd bb80 f1bd
00000040: e511 b1bd 87d0 85be 61f4 e3bd 6fd2 e5bd
00000050: 5292 26bc 37b0 be3d 155c dbbd 29df 09bd
00000060: 0122 73bd ea84 8bbe 648b c53d d7fd 2e3e
00000070: b9f6 233e abdf b03d 9ff4 6c3e 9f5e 913e
00000080: 596a 443d 1291 15bd a22c 923c 36f5 3fbd
00000090: 2908 b2bc 16a5 8a3e c776 82be 994f 6a3e
000000a0: 3a65 e3bd b247 acba 26fa f63c 60e5 0c3d
000000b0: 7a84 42be d73c a1bd 8ea4 5e3e 3a42 1abe
000000c0: 7109 6d3e 16cc 64be 76b7 bf3e c554 81bd
000000d0: 16c7 323e 09df 41be 3c25 9cbe 92d3 15be
000000e0: dde0 10be f749 983c b0ad 4bbe 9d5b 7a3d
000000f0: 387a 0e3e d733 793d 6f7f a33d 9d17 7c3d
00000100: 1792 483d 6e3e 843e a597 4fbd ad53 5c3d
00000110: 817a 373e f5a8 b1bd e0ff 5e3e 3d45 833e
00000120: 0514 913c e4ec 3ebe ff6b 48be bc31 04be
00000130: fa60 15bd 36d1 15bd d497 c93d fa5d 3fbe
00000140: 0373 373e b2e5 87bc dc0c 56be a4f8 2ebd
00000150: 5248 5e3c 05bc 49be 176d d23c 2e81 7ebd
00000160: 4769 22be abca b5bd ddd2 8abd 0f6e 623e
00000170: 792f 31be fff5 c43e f150 b23c c257 c3bc
00000180: 44e1 3f3d 5cee 5f3e dcb6 60be c018 063e
00000190: e775 6ebe 5470 96bd 8d1f 283e 70ba bbbd
000001a0: b108 8b3d dc0d 94be 72d4 083d 5c20 0fbd
000001b0: 8379 f63e 9648 98bc d78d bdbd 79ad c1bd
000001c0: e69b 51ba 5419 cc3d ee3c 0b3e 57b8 b43d
000001d0: 2191 863d 0c3d 8dbe 74f5 edbd bc68 e5bc
000001e0: 8e45 893c 6b69 a3be e65e 353e 7fda 23bc
000001f0: 51f8 6ebe 6328 d5bd a121 063e 1da5 81bd
00000200: 13d7 e33d 0d52 073d 7797 b33d ab19 603e
00000210: 2fab a0bc a0f6 3ebe 7426 b3bd ee3e 1fbe
00000220: c2c7 1ebe c849 f7bd f3a7 b83d f640 e7bd
00000230: 3bc3 dabd 6673 0bbe e1e9 41bd 072a 98bd
00000240: a5d5 ddbd 3e32 12bd c91a eebd 8e2f 523e
00000250: eb39 633d 2a36 a9bd 3666 d3bd 6c24 4e3e
00000260: 4617 1cbe b9b1 973d 1a44 593e d13c f53d
00000270: a87f 28bd a194 fc3d 7e15 a9bd 7bb4 213e
00000280: 78b1 253e bdf7 663d 7a73 2d3e b58b b5bd
00000290: aa6a e13c 6666 dcbd 3363 823e 1e35 21be
000002a0: 707b 593e ff89 1dbe fd29 48bd e67f 223e
000002b0: 61a7 313f 1c71 06be 34a5 0bbc e326 5b3e
000002c0: aa09 a3bd d315 2ebe 0cf2 493a 69f0 1c3b
000002d0: cdb1 1dbd 7df6 b73d c84b 923e 8414 b3bd
000002e0: d3d5 16be fcae cb3b 66ce 8dbd fa65 db3d
000002f0: 1aa8 9d3d 2e76 353e 6c96 55be 62ad 1c3e
00000300: 4c50 e23d 2cec 733e 006d 143d 5557 523e
00000310: c9dc b73d cb6a b13e 52e3 923d 6d80 4dbe
00000320: 20ef 6e3e f1cb 6a3e 03ef 4d3e 3268 a4be
00000330: 2675 24bf 68bb 96bd 4ae0 b73c 15be c33d
00000340: d9f6 9d3e 0944 78be a311 c43d 792c bdbd
00000350: cac4 a13e 2384 82be f402 bd3e 8ab3 b1bc
00000360: 42dd dc3d 4f27 c5be b174 db3a bc6d 77be
00000370: 16e8 0b3e a90e 63be 9ae4 483e e678 e2bd
00000380: 2209 e9be 5b41 35be 6fa0 9ebd 900c 52be
00000390: ff49 d63c 9191 543e 6b1d 113e 4455 e7be
000003a0: d5a4 083e 31e7 0c3f 542a 07be d845 a9be
000003b0: b703 b1bc e7df e3bd ae4d 953e 6668 a5bd
000003c0: cc21 d8ba 7ea1 11bd 91f6 2b3c 4917 bebe
000003d0: 8e58 eabc e6b8 38be 7eae bf3d 886c 6e3e
000003e0: 66a0 e3be c12e aa3c 80b8 48bd aaeb 283e
000003f0: 5aa3 35be a20f 7abe 55c8 8b3d 8201 813e
0.012307964 -0.23115554 0.026796648 -0.4681081 0.16249672 -0.07511148 -0.037166644 -0.04296069
0.46313372 0.12766133 -0.09327683 -0.20133193 0.026957575 0.18131535 -0.11034687 -0.117921315
-0.08645991 -0.26135656 -0.11130596 -0.11221778 -0.010166721 0.09310954 -0.10710923 -0.033660088
-0.0593586 -0.27249843 0.09645727 0.1708902 0.16012086 0.08636411 0.2314019 0.28392503
0.047952984 -0.036515303 0.017843548 -0.04686471 -0.021732407 0.27079076 -0.25481245 0.22881927
-0.11103292 -0.0013143925 0.030148577 0.034398437 -0.18995848 -0.078729324 0.2174246 -0.15064326
0.23148133 -0.22343478 0.37444657 -0.06314997 0.17458758 -0.18932737 -0.30497158 -0.14631489
-0.14148279 0.018589957 -0.19890475 0.061122525 0.1391381 0.060840454 0.079832904 0.061545957
0.048967447 0.2582888 -0.05068173 0.053790737 0.17917825 -0.08674804 0.21777296 0.25638762
0.017709741 -0.18645054 -0.19572447 -0.12909597 -0.036469437 -0.036576472 0.09843412 -0.18688193
0.17914967 -0.01658902 -0.20903343 -0.04271759 0.013567047 -0.1970063 0.025686784 -0.062134914
-0.15860473 -0.088765465 -0.067785 0.22112297 -0.17303266 0.3846893 0.021767111 -0.023845557
0.04684569 0.2186827 -0.21944755 0.13095379 -0.23287164 -0.07345644 0.16418286 -0.091664195
0.06788767 -0.28916824 0.03340573 -0.03494297 0.4813958 -0.0185893 -0.092555694 -0.094569154
-0.0007995948 0.099657685 0.13597462 0.088242225 0.0657065 -0.27585638 -0.11619082 -0.028004043
0.0167568 -0.31916365 0.17711982 -0.010000824 -0.23336913 -0.10408094 0.13098766 -0.06330321
0.111250065 0.033037234 0.08769124 0.21884792 -0.019612877 -0.18648767 -0.08747569 -0.1555135
-0.15505889 -0.120746195 0.09016409 -0.11291687 -0.106817685 -0.1361824 -0.047342185 -0.07429891
-0.10831765 -0.035692446 -0.116262026 0.20525953 0.055475157 -0.08262284 -0.103222296 0.20131081
-0.15243253 0.07406945 0.21217385 0.119744904 -0.041137367 0.12333036 -0.082560524 0.15791504
0.1618098 0.056388605 0.16938582 -0.088645376 0.027516682 -0.107617185 0.25466308 -0.15742919
0.21238494 -0.15384673 -0.04886817 0.15869102 0.69396025 -0.13129085 -0.008523274 0.21401553
-0.07960828 -0.17000513 0.00077036093 0.0023947007 -0.038499642 0.08982561 0.28573442 -0.087441474
-0.14730005 0.006215928 -0.06924133 0.1071281 0.076980785 0.17720863 -0.20858163 0.15300515
0.11050472 0.23820561 0.036236763 0.20541127 0.08977658 0.3465179 0.07172264 -0.20068522
0.23333406 0.2292936 0.20110707 -0.32110745 -0.64241254 -0.07359964 0.022445817 0.0955774
0.30852392 -0.24244703 0.095736764 -0.09236998 0.3159545 -0.25491437 0.36916316 -0.021692056
0.10784389 -0.38506553 0.0016743151 -0.24162954 0.13662753 -0.22173561 0.19618455 -0.11058216
-0.4551478 -0.17700712 -0.07745444 -0.20512605 0.026158331 0.20758654 0.14171378 -0.4518224
0.13344128 0.5504027 -0.1319974 -0.330611 -0.021608217 -0.1112669 0.29160827 -0.08076553
-0.0016489564 -0.0355544 0.010495798 -0.3712714 -0.02860668 -0.18039283 0.093594536 0.23283589
-0.44458312 0.020774247 -0.049004078 0.16496149 -0.17738095 -0.24420026 0.0682532 0.25196463

linears.1.bias f4 [64]
00000000: 36c8 77bd 3b92 5f3c 297a 843d c8be 5fbe
00000010: 6290 f1bc 250f 9cbd f687 a5bd f425 cc3d
00000020: 60ca debc 4555 083d 69ef 63bd eb66 81bf
00000030: 5ffc 383d 4c73 273d 1724 eb3d d23d b2bd
00000040: ae55 403d e996 943c 5c80 fcbd 2f53 7d3c
00000050: 4dcd 453d d997 d03e a25e 713d 6549 05bd
00000060: 0d21 cdbb 7495 773d 5fbe 203f 0c65 43bd
00000070: 361b a5bd c6a7 21be 71a6 f03d 709e a3bd
00000080: 7c24 773d 1db4 d7bc a9e0 8fbd 2551 afbc
00000090: f7a4 27bd 9b1c 6ebd c2a4 6abd ceb3 de3c
000000a0: 3df5 c8bd 1885 db3b 8ee4 0f3c 7d72 dbbc
000000b0: 872a d33c 4b70 24bc 8c2a b63c f5bf 543d
000000c0: 34fd 403d 7bc5 c7bd 1911 93be 6e83 2f3d
000000d0: a98e ff3d ef14 7cbd ec7d a2bd e196 08be
000000e0: 5d5b 45bd 97a9 1ebe b8fa 333d 5b1d 503d
000000f0: 7c8f f3bd 62dc 6e3d 94f9 7c3d 6476 fd3c
-0.06049367 0.013645704 0.06468613 -0.21850121 -0.029487792 -0.07620076 -0.08082573 0.099681765
-0.02719611 0.033284444 -0.05564824 -1.0109533 0.045162555 0.04088144 0.11481493 -0.087031975
0.04695671 0.018138366 -0.1232917 0.015461727 0.048291493 0.4074085 0.05892814 -0.032540698
-0.0062600435 0.060445264 0.62790483 -0.047703788 -0.08061831 -0.15786657 0.11750496 -0.07989204
0.06033753 -0.026331002 -0.070252724 -0.021400997 -0.040928807 -0.05813275 -0.05728603 0.027185347
-0.098124005 0.0066992156 0.008782519 -0.02678799 0.025777115 -0.010036538 0.022237085 0.051940877
0.047116473 -0.09754463 -0.28723982 0.04284995 0.12478382 -0.0615434 -0.07934174 -0.13338806
-0.048182834 -0.15494381 0.043940276 0.050809246 -0.11892602 0.058315642 0.061761454 0.030940242

linears.2.weight f4 [64, 64]
00000000: 6a6c e7bd 8325 c4bc 8d32 5fbd 092d 373e
00000010: 8d78 c4bd ac9a 69be 1aaf 9abd 31bb cc3c
00000020: 771e 15bd e4a9 393a 76c2 55be f5c7 71be
00000030: ff73 6b3e 74fa ce3d 240e 84bc 161b c8bd
00000040: 6688 90bd b359 ac3d 64a9 15be 3a96 f93c
00000050: e75c 67bb 6812 60bd 8e2d 583e 0d3d 923e
00000060: 3e7f fe3d f96f 01bd dabe 84be 3d02 433d
00000070: c3da 7ebe 3eaa e1bd e27f 1bbe 1ad9 e13d
00000080: 24dd 003e 781e 153e 3f47 72bd 332b 55be
00000090: dc22 dd3b 28f1 01be bc30 7cbe 7143 aa3d
000000a0: 1a84 aebc f3cf b4bd eb7b 8e3d 34aa 24be
000000b0: 4eff dc3d 43a3 a43d 3f2d 203e ff0a e4bd
000000c0: c00b 4bbe b69c ffbd cb87 13be d2f6 04bd
000000d0: c5b7 91bd 47bd 43be 265a d2bc 8b82 69bd
000000e0: 132a 2ebe 1d03 a9be a80d 333e 31bb 483e
000000f0: b6ef 43bd 926d 053e a959 af3d a024 283d
00000100: 7f01 063e 08ae 2abd e896 a63e 38e6 533e
00000110: f09a 443d 2b01 853d 8ad4 81bd aff9 633c
00000120: 172d 6dbc 4a9e 7bbd 6f06 eebd 39db f1bd
00000130: de36 903d 9ef2 8dbd a819 b93b 36d8 a6be
00000140: 8b0a 88bd dd2e 123e 364e 2cbe 885c b43d
00000150: e247 9ebd ef09 0b3e b118 dd3d 3eb3 943e
00000160: 43d8 2abe af05 0b3e 325e 06be 3261 57bc
00000170: e2b3 dabd a3e4 bbbd 522f 7c3e 164e 03be
00000180: 18f7 093b 42b6 7abe f1da d3bd 8018 a2bd
00000190: 113d 69be 0c43 8bbe b4f1 973c 39b5 c73c
000001a0: 41d1 2a3c b8b8 333e 945b 5bbe 7d55 5abe
000001b0: 6b7e 3a3e 5474 d83c cb22 62be 2b8d c0bd
000001c0: b9d1 29be b91d 0fbe 492b 0cbe 9db1 4a3d
000001d0: 574e 303e 7a43 a7bb a8a5 9f3d 8da1 8d3d
000001e0: 9f5e 33be 4e25 983c 8049 4a3e 28fc 1a3e
000001f0: 428a 4fbd 9e77 52bc b85d 8e3d 988f 043e
00000200: d93e 103d 6cf8 fe3d 061b 063e 9f01 10bf
00000210: d1e3 0f3e d00f 6abd d73e 43be c22d ea3c
00000220: 934e bebe ff61 fe3c 5f28 a1be dd7d ac3c
00000230: a4de a3bd 5cde 853e 50d5 1dbf 7be7 52be
00000240: bca7 133f daf2 df3d bf11 32bf a4d8 0bbf
00000250: fd7d 5f3e 4537 7c3d 22fc f73d cfc1 7f3f
00000260: 1966 c03e 8f84 5b3d 0f2b d0bf 82d0 173e
00000270: dec4 3abe 3398 9fbf 2097 e03e 4711 e0bd
00000280: 37cf 5f3f 1c6f ebbe 9439 a73d 2ffb 633e
00000290: d626 32be 86f5 0dbe ee6f c0be 004b 3bbf
000002a0: 9008 bdbe 102b afbe 947c 05bd 9226 87be
000002b0: fd11 4f3f 3beb 923e 34b1 9b3e b6be 413e
000002c0: 38eb 333e 0c1b b0bd c22a 94be 481f 863d
000002d0: 5b51 4b3e 8dfc 8ebd 8e14 33be db30 52bd
000002e0: 0d53 973e c38d 123e 7e99 5bbe b26b b0bb
000002f0: 5971 75be 1561 97bd f0a1 ec3b 8ed6 59bc
00000300: 7c28 233e d4b8 29be acdb 37be ee69 d73c
00000310: 57cd 733e c216 4a3e ae42 b93b 611b 6abe
00000320: 0b12 0f3e 8d67 ff3d 54f9 00be 63cd 433d
00000330: 8505 07be e741 813c 0ba3 333e 61df 983d
00000340: 5b59 36be d661 83bc 23c2 753e 9137 bebd
00000350: b1f9 00be b19b cfbc cdeb edbd 7a84 a53c
00000360: cfa6 2fbe f210 a6bd 9650 1c3d e982 4c3e
00000370: 9fae 5a3e 6c52 863e 9952 5ebe d100 c23d
00000380: 70bc 163d b659 e43d 85fe d73d fd7c 9c3d
00000390: 0b05 ab3d 7b7e 4f3d cdac 33be 7b97 21be
000003a0: 5c7c 683e 69a1 f83d 35d0 02be cbba b13c
000003b0: 4594 573d ee00 58be fb0e f3bd 019b 70be
000003c0: a0e8 1dbe 252c 85bc e2b8 74be 9544 73bd
000003d0: 2e96 abbd 9a9d 553e d419 333d d993 85bd
000003e0: 4418 28be faf0 d33d c523 0cbe 2101 37be
000003f0: 0e64 ee3d 2623 3fbe f6d6 2fbd a110 183e
-0.11299975 -0.023943668 -0.05449157 0.17888273 -0.09593306 -0.22812909 -0.07552929 0.024991604
-0.036406007 0.00070825056 -0.20874962 -0.23611434 0.22993468 0.10106364 -0.016120024 -0.09770791
-0.07057266 0.08415546 -0.14615399 0.030467141 -0.0035303177 -0.054705054 0.21111128 0.28562203
0.12426613 -0.031600926 -0.25926858 0.047609556 -0.24888138 -0.11018799 -0.15185502 0.11027737
0.12584358 0.14562404 -0.059149977 -0.2081726 0.0067485403 -0.1268965 -0.24627966 0.08313645
-0.021303225 -0.08828726 0.06957229 -0.16080552 0.10790883 0.08038952 0.1564226 -0.1113491
-0.19828701 -0.12481062 -0.1440727 -0.03246195 -0.071151294 -0.19115172 -0.025677752 -0.05700926
-0.17008238 -0.33010188 0.17485678 0.19602658 -0.047836028 0.13030079 0.08562023 0.041050553
0.13086508 -0.041669875 0.32537007 0.2069329 0.047999322 0.064943634 -0.06339367 0.01391451
-0.014476082 -0.061430253 -0.11622321 -0.118093915 0.07041715 -0.06931041 0.0056488104 -0.3258683
-0.06642636 0.1427569 -0.1682671 0.088067114 -0.07728554 0.13578008 0.10795725 0.29043
-0.1668406 0.13576387 -0.1312187 -0.013145732 -0.10678841 -0.09174468 0.24627426 -0.12822756
0.002105182 -0.24483588 -0.10344494 -0.07914829 -0.22777201 -0.2719959 0.01854787 0.024378406
0.010425867 0.17550933 -0.21421653 -0.21321674 0.18212287 0.026422657 -0.22083585 -0.09401926
-0.16583909 -0.13976182 -0.13688387 0.04948579 0.17217384 -0.0051044794 0.07795268 0.06915579
-0.17516564 0.018572476 0.197546 0.15135252 -0.050668962 -0.012845902 0.06951469 0.12945402
0.035216186 0.124497265 0.13096246 -0.56252474 0.14051749 -0.057143986 -0.1906694 0.028586272
-0.37169322 0.031052588 -0.31476113 0.02105611 -0.0800145 0.2614621 -0.61653614 -0.20596115
0.5767782 0.10934992 -0.6955833 -0.5462744 0.21825404 0.061576147 0.121086374 0.99905103
0.37577894 0.053593215 -1.626314 0.14825633 -0.18239161 -1.2468323 0.438653 -0.109407954
0.8742556 -0.45983207 0.08165279 0.22263788 -0.17397627 -0.13863191 -0.37585396 -0.73161316
-0.36920595 -0.34212542 -0.03258951 -0.26396614 0.8088682 0.28695092 0.30408633 0.18920407
0.17570198 -0.08598909 -0.28938872 0.06548935 0.19855253 -0.06981764 -0.1748831 -0.051316123
0.2955555 0.1431189 -0.21445271 -0.005383932 -0.2396902 -0.07391564 0.007221453 -0.013295783
0.15933412 -0.16574413 -0.17954892 0.026295628 0.238088 0.19735244 0.005653701 -0.22862007
0.13971727 0.124709226 -0.12595111 0.047803294 -0.131857 0.015778495 0.17542665 0.07464481
-0.17807524 -0.016037863 0.23999839 -0.09287942 -0.1259525 -0.025342794 -0.11617241 0.020204771
-0.17153476 -0.08108701 0.03816279 0.19971813 0.21355675 0.26234758 -0.21711196 0.09472812
0.0368008 0.111499235 0.105465926 0.07641027 0.08350571 0.05065773 -0.17546387 -0.15780441
0.2270369 0.121401615 -0.12774737 0.021695515 0.052631635 -0.21094105 -0.11868092 -0.2349663
-0.1542077 -0.016256401 -0.23898652 -0.059391577 -0.08378254 0.20860901 0.043725803 -0.0652234
-0.16415507 0.10348697 -0.1368552 -0.17871524 0.11640178 -0.18665752 -0.042929612 0.14850093

linears.2.bias f4 [64]
00000000: cc68 5b3d e893 463d 21ea 273d b1f6 01bd
00000010: 6e9f d13d c718 67bd 2fc7 07bd c36a 043d
00000020: af06 8bbd 1d71 063d 1a1a a4bd ef6a 473d
00000030: 01bc 483d 984a 113d d7cf 903d 3562 84bd
00000040: abb7 353d c1b3 8e3d 8cb9 c93c ef33 6a3d
00000050: 5b9b 363d c165 d23c dd63 d23c cb3d 5e3d
00000060: a42e aa3d 4de1 003d 3aba 27bd e1ac 763d
00000070: d77a 28bd 9c2d 963d 0d8e 163d b59a bb3c
00000080: c087 02bd 481e 6b3d b97f 49bd 3436 143d
00000090: d526 4cbd 8093 023e 48c1 32bd 8574 83bc
000000a0: 0e89 1bbc f6be 1dbd 3c90 533d e358 06bd
000000b0: e929 0b3d ad96 5fbd 76dc ed3d 78ce 8c3d
000000c0: 91d6 8b3d 7fdd 26bd 47fe 85bd 7210 6bbd
000000d0: 9064 1abd 53ee 44bd 7e19 7a3d 4333 a93d
000000e0: 740c 2abd 8e3e 493d a319 543d 1d23 333d
000000f0: 552f 07bd ffc6 5bbd 09cb 00be 32dc 6d3d
0.05356674 0.0484809 0.040994767 -0.031729404 0.10235487 -0.056420114 -0.03314894 0.03232838
-0.06788384 0.032822717 -0.08012791 0.048685964 0.04900742 0.03547153 0.07070892 -0.06464044
0.044364613 0.06967879 0.024624608 0.057178434 0.044581752 0.025683286 0.025682384 0.05425815
0.08309677 0.031464864 -0.040949084 0.060223464 -0.041132774 0.07332918 0.036756564 0.022900918
-0.031867743 0.057401925 -0.04919407 0.036184505 -0.04984172 0.1275158 -0.04364136 -0.016046772
-0.009493126 -0.038512193 0.051651224 -0.032799613 0.033975516 -0.054587055 0.11614315 0.06875318
0.06828035 -0.04073858 -0.0654264 -0.05738873 -0.03769356 -0.048078846 0.061059467 0.082617305
-0.041515782 0.049131922 0.05178226 0.04373466 -0.033004124 -0.053656574 -0.12577452 0.058071323

linears.3.weight f4 [1, 64]
00000000: 4e31 babe 71a0 b5be d702 febe faf2 d63e
00000010: 783f fcbe a6a5 82bf 9193 7d3e fb10 94be
00000020: 0dc2 0f3f 0475 b6be a0ac 313e ad30 cebe
00000030: 6341 e2be 25c1 b2be b4fe 1dbe c26f 913e
00000040: 1223 84be 1e64 98be fb11 61be 09dd b1be
00000050: d18d 6dbe bb9b a5be 32c6 96be 2127 8abe
00000060: 5d70 c1be 77e4 15bf 1d1b 903d 6079 39be
00000070: d008 213f c1c7 a4be 3d5b e3be 47cb 88be
00000080: 2ebc 3a3f 15b2 5cbe 1537 713e dc46 ffbd
00000090: 1f24 413e 82a1 e9be 6d79 663e d197 0d3e
000000a0: 5fd7 743d de36 8a3e b3a6 b6be 6bc3 2f3e
000000b0: 751f 62be 57ff 913e acff 44bf 9c48 92be
000000c0: 4a1c d1be 411b 8d3e a509 7c3e aa1f 8f3e
000000d0: 2e5e 213f 4df5 6a3e 7a79 ddbe 9233 87be
000000e0: 89c0 1c3f 6307 b3be 28c2 0fbe e840 08be
000000f0: 79aa c53e 0803 a53e e23b 2c3f b1ec 01bf
-0.36365741 -0.3547397 -0.49611542 0.4198225 -0.49267173 -1.0206802 0.24763323 -0.28919205
0.56155473 -0.3563615 0.17351007 -0.40271512 -0.4419051 -0.34912983 -0.15429193 0.28405577
-0.25808007 -0.29763883 -0.21979515 -0.3473895 -0.2319863 -0.32345375 -0.29448086 -0.26982978
-0.3778104 -0.58551735 0.070364214 -0.18112707 0.6290407 -0.3218365 -0.44405547 -0.26717588
0.7294339 -0.21552308 0.23556168 -0.12464687 0.18861435 -0.45631033 0.22507258 0.13827445
0.059775706 0.26994985 -0.35674056 0.1716439 -0.22082312 0.2851512 -0.76952624 -0.28571022
-0.40841895 0.27559856 0.24613054 0.27953845 0.6303433 0.22945137 -0.43256742 -0.26406533
0.61231285 -0.34966573 -0.14038908 -0.1330601 0.38606623 0.32228875 0.67278874 -0.5075179
