Complete_thesis_stage_1_and_2/(d).Code_and_all_other_details/WAAM/PINN_TEMP_DEPENDENT_PROP/Models/model_epoch_18000.pt (torch, 38264 bytes, 7 tensors)

linears.0.weight f4 [64, 4]
00000000: 26df 34be 909e 2fbf 04b4 7abe 7e6c 0abe
00000010: 6908 5bbe ac60 b2be f1b4 053d 8a4f a23e
00000020: ef2a b6be 4e4e e6be 9e80 aebe 9c96 c1be
00000030: 18fa 3dbf 2320 e0be 895c 993e fbcb e33e
00000040: f686 2a3e 47d9 303d e24d 37bd 4d06 653c
00000050: 9f4c 1bbe a473 40be d6a8 1ebd 4b5c 3e3d
00000060: dc68 92be 4183 b7bf 6b86 92be 225b 10be
00000070: b833 f7bd 7c4a 0ebf 76cc 0ebe 3ed1 813e
00000080: 1690 ea3d 1a1c 5f3f 4862 693f 9019 84be
00000090: 8827 c1be 7c55 ecbe 26e9 b03c 9f47 2cbe
000000a0: a0f9 333d 9dde 3fbd 656d 46bd 0fbf 28bf
000000b0: d67a 39bf 83fe 133f 30c1 233e a80f 5c3e
000000c0: 011c 5b3f 904b c13e bfa2 9dbe 9dbe 87be
000000d0: 6038 9a3e a187 213e 707d 85bd 617b 00be
000000e0: 6433 ac3e 557c e33d fa5a 4ebe ed93 9dbe
000000f0: bb16 a3be 4536 003f 26e3 98bc d824 03be
00000100: 5511 edbe 1fb2 183e d724 acbd 7c0a 113f
00000110: bd0e 343f 51f5 6bbf a6df b13e 63c1 3b3e
00000120: be8a f3bd 626e 0f3e 4002 103e e4df 063f
00000130: 3664 ccbe e3ad 89bd 26b3 2ebe 0a80 393f
00000140: 93e4 c7be bf59 a3be aaa0 cbbe edf5 2bbf
00000150: b97a 81bd c3a6 f9bd f3f7 fa3d cf3a 93bd
00000160: aa8f aabe 9a27 8fbc a778 55be 977b 003e
00000170: a2aa cc3e 63c4 803e 8642 8c3e 3811 d53e
00000180: 9944 f3bd bfe4 98bd cd9d 393e 19d4 6dbd
00000190: aafb 113e 9f2d 403d 956d 563e 9eb4 bdbb
000001a0: 4417 bd3e 16ce 81be 8686 2a3d 0068 0abf
000001b0: 44dc 043f 93ac 84be 2dc3 35be 5577 d5be
000001c0: f4bf d4be cc26 223d 8c7e 3abe 3278 b33e
000001d0: 7e62 2f3e 13ea debe 79af 7abe 0e90 18bd
000001e0: 3d1f 37bd 7f68 5bbe 82d8 91be 01fb 88be
000001f0: fd76 083f ea3a cdbe 64a7 edbe 4337 acbe
00000200: a6bb cf3e c555 f53e 3a8e afbe 384f 97bc
00000210: d803 ef3e 74f6 54bf eb8f c8bd 026f c2be
00000220: 97c5 983d b201 1abe 3f9c 843e 6098 bb3d
00000230: 8a37 463f 38f5 d9bd 710c 27be 661b 093e
00000240: eea7 9c3e bc6f 3e3e 500c 233e b46b 88be
00000250: 223c 213f cedc 943d 5142 073d 94bc 3ebf
00000260: 7e53 73bf 2514 2d3e 3ee3 02be 2c63 9a3d
00000270: 31e0 2b3f 9cf8 d23e af06 cd3d 95f6 203e
00000280: 588e c4be c780 403e d3e4 4fbd dfaf fdbc
00000290: 8ce5 b4be 0c31 5d3c 1a83 c43d 211b 2bbf
000002a0: 6f43 b43e c540 5bbf 4211 a93e c1a7 d3be
000002b0: 79f9 b6bd 630d 153e f229 e3bd cc4a a13e
000002c0: 502e f6bd 30f7 4d3c 055a bf3d 43f9 763d
000002d0: 52c5 f33d 721b d5bd eadf 5abe 4dde 83be
000002e0: 7056 25be 893d 3c3e f0f0 56be 4697 e13d
000002f0: 4ce4 4d3e c334 9d3d 48e2 29bd 0dc0 3c3e
00000300: 5cd1 0e3f 8ca9 a8be 3a34 1bbe 9838 c9bc
00000310: c0e1 aa3e 19b7 35be 9e9b b23e 59a8 aa3e
00000320: 56b0 8a3e 8b97 b4bf 63be 373f 9d6a d7bd
00000330: e1ff a53e b083 3dbf d9c5 9f3e e4e3 19be
00000340: d927 22bd 6220 d5bf 4d80 b13e 44fe 9f3e
00000350: 70a6 9f3e 675b 123f 7096 8b3e f494 b0be
00000360: 7ca2 9ebe 90db c43d fcd8 063e 70f0 823e
00000370: 453d a4be d16d 963d 2ea2 17be 394b 193e
00000380: b4a6 29bf b405 4abf 9335 1abf a67d b53d
00000390: eb12 b83e 281d 503f a9d9 e93c 7402 39be
000003a0: d553 cdbd 149c 44be 4ec9 863e 0cf3 93bc
000003b0: eafc 9a3e b075 093e b276 1ebe f456 453e
000003c0: f36a 893e 3c58 143e 8089 30bc 445f 09bf
000003d0: 3c7e db3e 0faf bebd a869 4d3e 2719 d5be
000003e0: ea33 cabd f209 95be 41d4 2dbe 5d51 483e
000003f0: 0b90 173e ab1e 36be df57 6f3e b16c a73e
-0.1766325 -0.6860132 -0.24482733 -0.13517949 -0.21389927 -0.3483938 0.032643262 0.31701308
-0.3557963 -0.44981617 -0.34082502 -0.37810218 -0.7420974 -0.43774518 0.2995341 0.44491562
0.16653046 0.04317596 -0.04475201 0.013978553 -0.15165947 -0.18794113 -0.038735233 0.046474736
-0.28595626 -1.433693 -0.28618178 -0.14097264 -0.120704114 -0.55582404 -0.13945183 0.25354952
0.114532635 0.87152255 0.9116559 -0.25800753 -0.37725472 -0.4615897 0.021595549 -0.16824196
0.043939233 -0.04684316 -0.04844417 -0.6591653 -0.7245306 0.5781023 0.15991664 0.21490347
0.85589606 0.37752962 -0.30788228 -0.26512614 0.30121136 0.15774395 -0.06518066 -0.12547065
0.33632958 0.11107699 -0.20151892 -0.3077692 -0.3185328 0.5008281 -0.018663 -0.12807024
-0.46302286 0.14911698 -0.08405464 0.5665662 0.7033499 -0.921712 0.34740943 0.1833549
-0.11891697 0.14006951 0.14063358 0.5268538 -0.39920205 -0.067226194 -0.17060527 0.72461
-0.39041576 -0.31904408 -0.39771014 -0.6717213 -0.063222356 -0.121900104 0.12254324 -0.07188951
-0.33312732 -0.017474938 -0.20846806 0.12547146 0.39973933 0.2514983 0.27394503 0.416147
-0.11878318 -0.07465505 0.18126602 -0.0580636 0.14256158 0.046918508 0.2094024 -0.0057893535
0.36931813 -0.25352544 0.041632198 -0.5406494 0.518986 -0.25912914 -0.17750235 -0.41692606
-0.415527 0.03958778 -0.18212336 0.3505264 0.17127416 -0.4353796 -0.24481 -0.037246756
-0.044707526 -0.21426581 -0.28485495 -0.26754 0.5330656 -0.4008401 -0.4641677 -0.3363591
0.40572852 0.47917 -0.34288198 -0.018470392 0.4668262 -0.8318856 -0.09793075 -0.37975317
0.07459562 -0.15039709 0.25900456 0.091599226 0.77428496 -0.10642475 -0.1631334 0.13389358
0.3059687 0.18597311 0.15922666 -0.2664467 0.6298238 0.07268678 0.03302223 -0.745065
-0.95049274 0.16902216 -0.12781999 0.07538447 0.67138964 0.412053 0.100110404 0.15719064
-0.3838985 0.18799125 -0.050755333 -0.030967651 -0.3533138 0.013500463 0.09595318 -0.6683827
0.35207698 -0.85645705 0.3302098 -0.41338924 -0.08934302 0.14555888 -0.11091985 0.31502378
-0.12020552 0.012571141 0.09343342 0.06029631 0.1190287 -0.104056254 -0.21374479 -0.2575554
-0.16146255 0.18382849 -0.20990348 0.11015181 0.2010662 0.07676079 -0.041475564 0.18432637
0.5578821 -0.32941854 -0.15156642 -0.024563119 0.3337536 -0.17745627 0.34884351 0.33331564
0.2708766 -1.4108747 0.7177488 -0.10518382 0.32421783 -0.74029064 0.31205633 -0.1502834
-0.039588783 -1.6650507 0.34668198 0.31248677 0.3118167 0.5717072 0.27263212 -0.34488642
-0.3098334 0.09612191 0.1316871 0.25574064 -0.32077995 0.073451646 -0.1480796 0.14970101
-0.66269994 -0.7891495 -0.60238 0.08861856 0.35951933 0.8129449 0.028546171 -0.18067342
-0.10025755 -0.19200164 0.26325458 -0.01806023 0.30271083 0.134238 -0.15474966 0.19271451
0.26839408 0.14486784 -0.01077497 -0.5366099 0.42869747 -0.093107335 0.20059836 -0.41620752
-0.09873183 -0.2910915 -0.169755 0.19562288 0.14801042 -0.17785136 0.23373364 0.32700112

linears.0.bias f4 [64]
00000000: 0e79 aebb 830d 74bc 14c3 a0be ac24 8bbe
00000010: 323f efbd d8bd 7ebe 84ac 96be a9e4 113e
00000020: bad4 973e fd63 3ebe 2694 14bf 724a afbe
00000030: 38af 153f bede 113e 03e3 08bd 2338 59be
00000040: ec26 103c 2c1e 353e 7700 e83d 0f32 083f
00000050: 5232 33bf f10b f43c d1cd 1ebe 5a3a 6d3e
00000060: afcb 1bbd 7052 ca3d c3dd 4fbc 93d2 babe
00000070: 1757 46bd 4868 0e3e f81b c4bd c034 903e
00000080: 3b86 c23d 8d3d 1dbe 9fc7 933b a657 32bd
00000090: bc9c b93d c717 9dbe 6887 3abe ef07 133f
000000a0: 133a 133c aab5 83bf 67ec 2f3e f3c5 683e
000000b0: 4a61 503e 9dd6 a9bd ca11 90bd 1e2d 263e
000000c0: c465 b73e a95f 863d 9d3a c43e 5ba9 813d
000000d0: 3d25 033e 897b 1cbe 3314 113e f1e1 16be
000000e0: aab9 233e c63f 2d3d dc95 e33d e607 153e
000000f0: 7070 51bd 3b13 1b3b 871f 07bd 0eab 193c
-0.0053244894 -0.0148958 -0.31398833 -0.27176416 -0.116819754 -0.24877107 -0.29428494 0.14247383
0.29654485 -0.1859283 -0.58038557 -0.34236485 0.5847049 0.14245126 -0.03341962 -0.2121282
0.008798342 0.17687291 0.11328214 0.53201383 -0.6999866 0.02979085 -0.155082 0.2316679
-0.038036045 0.09879005 -0.012687149 -0.3648878 -0.0484229 0.13906968 -0.09575647 0.28165245
0.09498259 -0.15355511 0.0045098807 -0.04354062 0.09063098 -0.30682203 -0.18215716 0.5743398
0.008986014 -1.0289814 0.17180024 0.22731762 0.20349613 -0.08292887 -0.07034643 0.16228148
0.3581983 0.065612145 0.38325968 0.0633113 0.12807174 -0.152815 0.14167862 -0.14734627
0.15988794 0.042297147 0.11112568 0.14553794 -0.05113262 0.0023662585 -0.03298905 0.0093791615

linears.1.weight f4 [64, 64]
00000000: 1e22 6b3c e274 61be 994f 0a3d 0ea5 dfbe
00000010: 0825 2b3e 47d3 92bd 3370 02bd 7880 33bd
00000020: 200a e83e 865b 043e a5ac b2bd fe6f 4abe
00000030: 56f8 bc3c 7667 343e 8fd0 dcbd 7f92 ecbd
00000040: 0c89 be3b 3b8a 88be f846 e9bd 5907 edbd
00000050: c29a 50ba f882 b53d c7a6 d3bd f2b8 1dbd
00000060: b241 86bd e541 8dbe 634d a33d 00b4 323e
00000070: 1a05 293e f096 b73d 322f 713e 14cb 933e
00000080: 0f6d 593d a578 f6bc 6973 6e3c 4d46 3ebc
00000090: 4c9e dbbc e27e 8b3e 4246 81be 8834 623e
000000a0: f4b7 ecbd 3b0a 093c f123 d53c 4746 fa3c
000000b0: d8de 45be aa3b 9bbd 599f 623e 085c 1abe
000000c0: 4d8d 6a3e fc9f 69be 733a bc3e 226f 89bd
000000d0: 8da4 2d3e f3f6 37be 7a8f 9dbe e5e6 11be
000000e0: 208a 0fbe f621 573c 10ff 4fbe e2de 833d
000000f0: 9600 0b3e aa90 5d3d fd90 b03d 4884 733d
00000100: 18c4 3c3d 3c32 513e 720b 4cbd 966d f5bd
00000110: 1108 243e d30f c9bd 8d19 543e 1bc8 6d3e
00000120: bf11 e53c 0a98 45be fadd 4abe 73b2 02be
00000130: a94c b4bc 6037 a7bc b068 c43d a1b8 39be
00000140: 160f 183e 742f c5bc 0591 57be 0e8e 17bd
00000150: 0025 813c f077 42be 107a b13c 7b7a 82bd
00000160: 42c3 1abe c1f6 aebd 5cbf 7bbd af0e 533e
00000170: 69c2 2fbe 9dac b93e 4d4c ab3c 3f15 33bc
00000180: 7c49 753d ff56 493e 1c2d 65be c9b6 b93d
00000190: 0153 64be ba6c 9fbd 780f 2c3e e854 bdbd
000001a0: 4014 da3d f9a6 92be dd12 b83c 7f13 bfbc
000001b0: bf78 fc3e 53a6 abbc b163 c0bd 167e c1bd
000001c0: ef8a a53a fca7 c23d e95f 0e3e 4e1b 9e3d
000001d0: 78cf 4b3d c3c3 82be e82e d9bd 732f 03bd
000001e0: a8f8 bd3c 4426 86be fc4a 3b3e 7aaf 0ebc
000001f0: bbb2 61be c223 d8bd f9fc e93d 6a37 95bd
00000200: 3aa8 dd3d c93a 903c 4047 ad3d c2c9 213e
00000210: 35cc 6dbc ddfc 3dbe a361 b9bd afa3 2abe
00000220: 4326 1cbe 4788 ffbd ecc8 b93d 52ef e6bd
00000230: c8fa d4bd 89a1 06be 1531 38bd 39bc 94bd
00000240: 05f7 f6bd eb13 13bd aed0 e9bd 8ab5 503e
00000250: 4a6c 603d a773 b3bd a83b d3bd f43e 503e
00000260: 1d5f 21be 9941 963d 6405 563e c54a f63d
00000270: b9a6 2dbd 833d f43d f0c4 abbd debe 213e
00000280: d44f 303e 9f57 4f3d 78f1 2c3e 66e3 92bd
00000290: 7416 e93c b3b0 d9bd e877 813e 1e55 21be
000002a0: 541c 573e 3fba 1cbe b147 4ebd 56fa 223e
000002b0: ccf5 303f 4e09 06be bed1 e5bb 1cf6 5a3e
000002c0: 1f6d a3bd 1ad1 2cbe c9f4 073b bc22 c53a
000002d0: c9b7 26bd 307a ea3d 6f77 913e 539b b2bd
000002e0: a9c9 1abe 0c6c db3c c37c 93bd 8b5d e23d
000002f0: 4016 a83d 66ca 363e 41fa 56be a557 1d3e
00000300: d14a 733e 2c21 4c3e ef4d 873c b8f0 143f
00000310: fa15 083c 6e33 993e 2e65 e23d 47df 8bbe
00000320: 0a35 913e 0e47 ca3e 0ab5 193e ac7a 453e
00000330: 6b2c 3abf abb2 2ebe fc85 abbd 15c1 c33e
00000340: 4431 993e 015e f9be 6911 a43d 8158 bd3b
00000350: 4063 703e 31cb 37be 5a53 aa3e 9990 62be
00000360: edda 4b3e 9b6e abbe 6e0e e03c 0d0f a3be
00000370: 0558 193e 813b acbe f298 103e a742 8ebe
00000380: 6499 06bf 379f 81be 9904 cbbc e07c 9fbe
00000390: 39a9 8c3d 7980 eb3a edcf fa3e b161 e9be
000003a0: c54f 883e cd0d f33e b666 19be 6fa8 a0be
000003b0: b7ee 4d3d 87c0 3fbe e04b 733e 1f13 8dbe
000003c0: c7c2 bbbe b43c 8abe e38f e3bb 5ce4 bfbe
000003d0: 261c 14bd 181a 51be 41d4 3c3e 6d1d 4c3e
000003e0: 6972 b93e 1d1a 88be 58e1 ab3c a726 323d
000003f0: 25bd ebbd 01b0 63be c466 ab3b 76fe e03d
0.014351396 -0.22017244 0.033767316 -0.43680614 0.16713345 -0.07169204 -0.031845283 -0.04382369
0.45320225 0.12925538 -0.087243356 -0.19769284 0.023067635 0.17617592 -0.10781967 -0.115513794
0.005814677 -0.2666796 -0.11390489 -0.11573667 -0.0007957631 0.08862871 -0.10334545 -0.038506456
-0.06555499 -0.27589336 0.07973745 0.17451477 0.16505852 0.08964336 0.2355316 0.28865874
0.053082522 -0.030086825 0.014553883 -0.011613441 -0.02680888 0.2724524 -0.25248915 0.22090352
-0.11558524 0.008364256 0.026018115 0.030551089 -0.1932329 -0.075797394 0.22131099 -0.1507417
0.22905464 -0.22814935 0.36763343 -0.0671065 0.16957302 -0.17965297 -0.30773526 -0.14248236
-0.14017534 0.0131306555 -0.20312142 0.06438996 0.13574442 0.05409304 0.08621404 0.059452325
0.046085447 0.20429319 -0.049815603 -0.119837925 0.16018702 -0.09817471 0.20712872 0.23220865
0.027962564 -0.1929628 -0.1981124 -0.12763385 -0.02200921 -0.020412147 0.0959028 -0.18136837
0.14849505 -0.024070479 -0.21051414 -0.03700071 0.015764713 -0.18991065 0.02166465 -0.063710175
-0.15113547 -0.08543158 -0.06146179 0.2061107 -0.17164005 0.36264506 0.020910406 -0.010930358
0.059884533 0.19662093 -0.22380489 0.090680666 -0.22297288 -0.0778441 0.16802776 -0.0924471
0.10648394 -0.28643015 0.022469932 -0.023324726 0.49310872 -0.020953333 -0.093940146 -0.09447877
0.0012629906 0.09504697 0.13903774 0.07720052 0.049758404 -0.2553998 -0.1060465 -0.032027673
0.023189858 -0.2620107 0.18290323 -0.008708829 -0.22040837 -0.10553695 0.11425204 -0.0728596
0.10823102 0.017606156 0.084608555 0.15799621 -0.014514019 -0.18553491 -0.09051826 -0.16664003
-0.1524897 -0.12477165 0.09071526 -0.112761155 -0.10399395 -0.13147558 -0.044968683 -0.07262463
-0.12058834 -0.035907667 -0.114167556 0.20381752 0.054790772 -0.08762293 -0.10314113 0.20336515
-0.15758939 0.073367305 0.20900494 0.1202598 -0.042395327 0.11925795 -0.08387172 0.15795466
0.17217952 0.05062067 0.16888988 -0.07172279 0.02845309 -0.10629406 0.25286794 -0.15755126
0.210069 -0.15305422 -0.05036134 0.15915808 0.69125056 -0.13089487 -0.0070135286 0.21382946
-0.079797976 -0.16876641 0.0020745269 0.0015040259 -0.040702615 0.11449087 0.28411433 -0.08721032
-0.1511599 0.02678492 -0.07201531 0.11052998 0.08207369 0.17850646 -0.20993902 0.15365465
0.23759009 0.19934529 0.016516654 0.5817981 0.008306021 0.2992205 0.11054455 -0.27318785
0.28360778 0.39507335 0.15010467 0.19285077 -0.72724026 -0.17060344 -0.08375165 0.38233247
0.299204 -0.48704532 0.08011133 0.0057783728 0.23475361 -0.17948605 0.33266717 -0.22125472
0.19907732 -0.33482823 0.02735063 -0.3184742 0.14974983 -0.33639148 0.14120844 -0.27785227
-0.52577806 -0.25316784 -0.024782466 -0.3114996 0.06868214 0.0017967365 0.4898676 -0.45582345
0.2662336 0.47471467 -0.14980587 -0.31378505 0.050276484 -0.18725787 0.23759413 -0.2755365
-0.3667204 -0.26999438 -0.006944643 -0.37478912 -0.036159657 -0.2042011 0.18440343 0.199331
0.362201 -0.26582423 0.020981476 0.043493893 -0.11510686 -0.22235109 0.0052307565 0.109860346

linears.1.bias f4 [64]
00000000: 65ca 82bd 36d4 dd3c a6b1 7d3d 798f 20be
00000010: e2a7 b7bc 1967 84bd e0e0 9abd 018e c73d
00000020: bdef 2bbd 1b5a 203d 6fbb 59bd 46e0 d0be
00000030: 6d3e 2f3d 4b54 1b3d 3796 f03d 81d5 a8bd
00000040: 3431 533d c560 a23b d318 f8bd 47e9 8e3c
00000050: bec0 3e3d a975 e23d e2dd 663d 25c0 0ebd
00000060: ffcb ddbb c6ae 643d a39a f53e c0fe 38bd
00000070: 934c 9abd 350f 23be c451 e53d a0b6 96bd
00000080: 76cd 2e3d fc64 bcbc 9dba 3fbd 7a02 bebc
00000090: 1abb 17bd 7c7a 63bd a20b 5ebd 9d67 183d
000000a0: ad00 c1bd c5f8 903a c914 883c f085 29bd
000000b0: 1a9b cd3c d262 a73c 13dd 9a3c 049c 493d
000000c0: 1157 493d ee67 bebd 3580 f7bd 1c02 273d
000000d0: 1be0 fe3d e272 7abd 3dc1 a0bd 5051 20bd
000000e0: b6c0 37bd 44ce 19be 3bcd f83c 8cf1 403d
000000f0: fd5c f5bd 2815 ab3c afab 5a3d 0827 cd3c
-0.0638626 0.02707873 0.061936997 -0.1567973 -0.02241892 -0.06464977 -0.07562423 0.09743882
-0.04197668 0.03914843 -0.053157266 -0.40796107 0.042784143 0.037922185 0.11747401 -0.08243848
0.051560596 0.0049553835 -0.1211411 0.01744522 0.046570532 0.11057598 0.056363948 -0.034851212
-0.006768703 0.05583074 0.4796954 -0.045164824 -0.075341366 -0.1592377 0.11197236 -0.07359052
0.04267641 -0.022997372 -0.046808828 -0.02319454 -0.03704367 -0.055536732 -0.054210313 0.03720819
-0.09423957 0.0011060467 0.016611474 -0.0413875 0.025098372 0.020432863 0.018904245 0.049221054
0.0491553 -0.09297167 -0.120850004 0.040773496 0.124450885 -0.061144717 -0.07849357 -0.039140046
-0.044861518 -0.1502009 0.030371299 0.047105357 -0.11980627 0.020884112 0.053386386 0.025043026

linears.2.weight f4 [64, 64]
00000000: 4e24 c3bd f98e 19bc 7fc0 89bd 1890 373e
00000010: c2fe bdbd bf56 60be 11a0 81bd 0be0 083c
00000020: ce97 80bd a3f2 92bc a1ac 4dbe 7915 63be
00000030: acd4 5c3e 8ebc c63d 4301 b5bc 450b b0bd
00000040: 8633 87bd b4ea b13d 8f70 e7bd 6fcb e3bc
00000050: 4005 6fbc 61ff 8dbd c8c2 473e ed68 973e
00000060: 7048 1b3e 219b 31bd 760c 8fbe a750 7d3d
00000070: 11eb 75be a9aa eebd 242c 20be c8d7 003e
00000080: 4f44 223e 76ce 043e b86c edbc fd93 54be
00000090: a0f4 933c c9a3 d0bd 0836 7bbe 0340 9a3d
000000a0: 5268 27bb 4151 e0bd 648a 9f3d 6f0c 29be
000000b0: cb60 593d bfeb a83d 0b80 2c3e d1b9 00be
000000c0: cbc0 3ebe 8004 06be 03d0 0cbe 7132 2fbd
000000d0: 91a4 9ebd 37d7 3abe bd5c 5fbc 3afb 5fbd
000000e0: 2184 09be 521c a3be 0329 2f3e b034 3c3e
000000f0: d012 ffbc 26a9 023e 086a 953d 97c8 8f3c
00000100: 8132 0c3e 18b0 25bd 310a a43e 2390 4f3e
00000110: 2258 5d3d d3b2 8b3d 5073 6abd 87e6 ef3b
00000120: a0ac a8bd 7d6a a2bd d192 e6bd 31bc e0bd
00000130: 5d27 843d 3338 8fbd 45b0 5a3a a159 a4be
00000140: c8d2 88bd d510 103e c5ea 0cbe f2b3 c63d
00000150: 1ead a8bd 58a4 023e c55d cd3d 5eee 953e
00000160: 0975 cfbd a56b 063e a11b 11be 7523 f0bb
00000170: 689b d4bd 0465 b7bd 298e 683e 9964 f6bd
00000180: dc2f 2abd 969d 6ebe d807 8abd b8c0 9fbd
00000190: ff28 64be 542b 7ebe ef1d 903c 8047 c63c
000001a0: c41d 823c 27fd 2f3e 04b9 54be 3b0c 35be
000001b0: 8705 da3d 0fee cb3c be40 44be d0da cbbd
000001c0: 302f 1fbe 5b28 19be dc9d 08be cd5f 3c3d
000001d0: 91fd 2d3e 4897 6bbb 0d77 a73d 5ad3 8e3d
000001e0: a20f afbe 2871 c13c 2c63 4a3e f743 163e
000001f0: 8311 37bd 48b7 23bc bb8e 7b3d 2954 853e
00000200: 2fcf 54bc af14 5f3d cc58 2f3e 0fe8 febe
00000210: 8d44 f73d f4b3 d6bd 2607 7ebe fb70 a03d
00000220: 6eab c9be eace 803d bd83 b4be 68c9 5c3e
00000230: d37e 3abd f6e6 a73e cfb2 08bf 29b7 79be
00000240: 2241 0b3f c936 d93d 487a 0abf 1576 b6be
00000250: a43a 8f3e 0a1c 13be f759 843e f07a 693f
00000260: eab8 5c3d 5815 f13d 5d36 bebf c361 9e3d
00000270: bad0 5bbe c84b 86bf f723 cd3e 9f47 5ebe
00000280: d37f 393f 5407 86be 816c 833e 5701 5f3e
00000290: cf7c 85be 19ad d5be 8e54 f7be e791 29bf
000002a0: 8fff d5be ef6c 3fbe b73f c3bb 2cd8 59be
000002b0: 9b1e d53e 02f0 933e 1026 c2bd ccc0 663e
000002c0: 8ae9 623d 0c51 01be de4b ddbc eaf1 393e
000002d0: 94b8 763e fbb6 d5bd 41f9 33be 32b7 ce3d
000002e0: 0b5a f3bc 7cca cb3d b1ce 32be 8340 2e3d
000002f0: 0c67 7fbe d2cc 53bd 8ce3 113e 02ea 82bc
00000300: fbed 163e 1fc4 40be 05d9 36be 1bee bf3c
00000310: e59d 683e b65f 4b3e 797a 0c3c f42c 6dbe
00000320: 4397 413e cd10 ed3d 3dfe febd cd5f 3c3d
00000330: adbc 06be b802 6d3c 08df 303e 2ee4 953d
00000340: fdbc 35be 22c5 3bbc c7ec 813e ca71 aabd
00000350: 4b00 00be 6fda c3bc c7f5 f3bd 29c9 ac3c
00000360: 321b 40be da46 a5bd 29c8 383d d1fe 4d3e
00000370: 480d 5a3e a028 853e 998f 53be 9625 bc3d
00000380: f8ea 863c 49f0 ac3d 69bc 9f3d a7f4 963d
00000390: 4bc5 ab3d 0525 173d e1fa 21be 55a5 21be
000003a0: 10a4 6f3e ac41 fb3d 4ff6 10be 40df cf3b
000003b0: 2d50 bf3d 9bf8 54be 9503 05be 997c 70be
000003c0: f5f7 25be c928 9dbb c65f 70be d538 6abd
000003d0: fa38 afbd 2a6d 543e 3738 413d 9ad9 53bd
000003e0: ac02 5cbc 8904 d33d f999 10be e0cf 35be
000003f0: d69f ea3d eb46 41be 677e 23bd a2c5 713d
-0.09528409 -0.009372466 -0.06726169 0.17926061 -0.09277107 -0.21908091 -0.06329358 0.008354197
-0.062789544 -0.017937964 -0.20085384 -0.2217616 0.21565503 0.09703933 -0.022095328 -0.085958995
-0.06601624 0.08687344 -0.11300766 -0.027806966 -0.014588654 -0.06933475 0.19507897 0.2957224
0.15164351 -0.043360833 -0.27939194 0.061844494 -0.24015452 -0.116536446 -0.15641838 0.12582314
0.1584637 0.12969384 -0.028982505 -0.20759578 0.018060982 -0.101874895 -0.2453233 0.075317405
-0.0025544357 -0.10952998 0.07790068 -0.1650865 0.053070825 0.0824809 0.1684572 -0.12570883
-0.18628232 -0.13087654 -0.13751225 -0.042772714 -0.07746232 -0.1824616 -0.01363295 -0.054682948
-0.1342931 -0.31857544 0.17105488 0.18379474 -0.0311369 0.12759838 0.072956145 0.017551703
0.1369114 -0.04045114 0.32039025 0.20269828 0.054039128 0.068212174 -0.057238877 0.007321182
-0.082360506 -0.07930467 -0.11258472 -0.10973395 0.064528205 -0.06993141 0.0008342306 -0.3209963
-0.06680828 0.14068921 -0.13761432 0.097022906 -0.082361445 0.12758005 0.10027651 0.29283422
-0.101297446 0.13127 -0.14170696 -0.0073284456 -0.10381204 -0.08954814 0.2271048 -0.12030906
-0.04154955 -0.23302302 -0.06739777 -0.0780043 -0.22281264 -0.24821216 0.017592398 0.024204016
0.015883334 0.17186414 -0.20773703 -0.17680447 0.106455855 0.024893789 -0.19165322 -0.099538445
-0.15545344 -0.149568 -0.13341469 0.0459898 0.16991259 -0.0035948325 0.08177004 0.06973906
-0.34191614 0.023613527 0.19764394 0.14674364 -0.044694435 -0.009992428 0.061415415 0.26040772
-0.01298885 0.054463085 0.17123717 -0.49786422 0.12073622 -0.10483542 -0.24807414 0.07834049
-0.39388603 0.06289466 -0.35256758 0.21561205 -0.045531105 0.32793397 -0.5339784 -0.24386276
0.5439626 0.106061526 -0.54092836 -0.35636964 0.27974427 -0.14366165 0.25849888 0.9120321
0.053887285 0.11771649 -1.486034 0.0773349 -0.21466342 -1.0491877 0.40066501 -0.21707009
0.7246067 -0.26177466 0.2566872 0.21777855 -0.26071784 -0.41733626 -0.48306698 -0.66238254
-0.41796538 -0.18693899 -0.005958523 -0.2127387 0.41624913 0.2889405 -0.09479916 0.22534484
0.0553985 -0.12628573 -0.027013715 0.18158689 0.24093848 -0.104352914 -0.17575552 0.100935355
-0.029706022 0.0995073 -0.17461659 0.042541992 -0.24941653 -0.051709004 0.14246958 -0.015980724
0.1473922 -0.18824814 -0.17856224 0.023428967 0.22716482 0.1986073 0.008574122 -0.2316168
0.18905358 0.1157547 -0.12450836 0.0459898 -0.13157912 0.01446598 0.1727258 0.073189124
-0.17747875 -0.011460574 0.2537596 -0.08322485 -0.12500112 -0.023907868 -0.11912113 0.021092014
-0.18760374 -0.080701545 0.045112763 0.20116736 0.21294129 0.26007557 -0.20660247 0.091868564
0.016469464 0.08444268 0.07799608 0.073708825 0.0838724 0.03690054 -0.15818359 -0.15785725
0.23402429 0.12268385 -0.1415646 0.006343752 0.09341464 -0.2079796 -0.12989648 -0.2348503
-0.1620787 -0.0047961217 -0.23474035 -0.057183105 -0.08555789 0.20744768 0.04717275 -0.051721193
-0.013428371 0.103035994 -0.14121236 -0.1775508 0.114562675 -0.1887471 -0.03991547 0.059026368

linears.2.bias f4 [64]
00000000: c0b4 243d 9228 293d 2ba9 ce3d b202 f5bc
00000010: 0b59 c23d b55d c2bd 2b64 a6bc 0c85 ce3c
00000020: beb6 dfbd 7f9d bb3c aac8 87bd a89c 273d
00000030: d80f 2c3d 2437 043d 3895 8c3d 0543 67bd
00000040: cde5 1a3d 700e 893d f1f3 c53c 2e9e 2a3d
00000050: cfdf df3c 7c54 f93c 7bdf fe3c 45ec 443d
00000060: 5caa 963d 1fc7 0b3d 95db 26bd bd21 ac3c
00000070: c5b3 21bd 43d1 913d 3017 143d e587 9a3c
00000080: 249e c1bc 225b 363d 125a 1dbd bd51 9f3c
00000090: e883 46bd aa8d 113e 6ea1 08bd d518 91bc
000000a0: dd43 06bc a3d4 bdbc 0c3e 2d3d 148f 92bc
000000b0: 30fc ba3c 68ee 3bbd c53e 273e 4695 7e3d
000000c0: d148 833d 9db3 1abd f9a1 69bd 985f 42bd
000000d0: e283 1bbd 0d49 1ebd 0b57 633d b1e4 7a3d
000000e0: d744 71bc d039 373d e0f9 3d3d 78d8 123d
000000f0: fdb1 0bbd 28e4 24bd b52f 02be da36 373d
0.04021144 0.041298456 0.1009086 -0.029908512 0.0948964 -0.094905294 -0.020311436 0.025209926
-0.10923527 0.022902248 -0.066300705 0.040920883 0.042007297 0.03227915 0.06864399 -0.0564604
0.03781681 0.06692207 0.024164172 0.04165476 0.0273284 0.030435793 0.031112423 0.048076887
0.07356712 0.034125444 -0.040736753 0.021012181 -0.039478082 0.07119992 0.036154926 0.018863628
-0.023634978 0.044520505 -0.038415976 0.019448156 -0.04846564 0.14214197 -0.033357076 -0.017712036
-0.008194891 -0.023172682 0.0422955 -0.01789049 0.02282533 -0.04588166 0.16332538 0.062154077
0.06410373 -0.03776895 -0.057039235 -0.047454447 -0.03796757 -0.038643885 0.055502933 0.061253253
-0.014725885 0.04473287 0.046380877 0.035850972 -0.03410529 -0.04025665 -0.12713511 0.044730045

linears.3.weight f4 [1, 64]
00000000: c0bc b6be 8154 afbe 9367 ebbe 379a c33e
00000010: b189 f0be abc1 4abf 3447 713e 0c4f 92be
00000020: aae5 0b3f 205a b6be 37e2 273e 4c03 c7be
00000030: cf8e dbbe 8bbc a6be e0fc 03be 1f6d 893e
00000040: c271 74be e432 8ebe 0442 53be 631e adbe
00000050: 1ed5 68be 8af6 abbe c9e8 88be e726 7dbe
00000060: 9853 bbbe 3396 f3be 193a 5b3d a0ee 29be
00000070: 3de5 1d3f 7c41 9dbe e5f1 d2be 80e3 90be
00000080: 0fd7 393f 7325 55be 0376 673e f814 ccbd
00000090: 70b2 333e e7a1 ddbe 88b9 4c3e 6ca7 0b3e
000000a0: 8c48 623d 7e5f 893e 91ea afbe 6209 273e
000000b0: 34ce 64be 7f1e 8c3e 2c2a 20bf a277 63be
000000c0: 0d8c c9be f0b9 803e 8d75 6f3e 8eb7 893e
000000d0: e87f 1d3f dd1a 613e f361 d8be fe55 82be
000000e0: ab73 0d3f e3a7 acbe 5fef f0bd 7696 febd
000000f0: 7d8a a93e 6b99 a03e 8632 2a3f e4bc febe
-0.3569088 -0.3424416 -0.45977458 0.38203594 -0.4698005 -0.79201764 0.23562318 -0.28575933
0.54647315 -0.35615635 0.16394888 -0.38869703 -0.42882392 -0.32565722 -0.12889433 0.26841065
-0.2387152 -0.277732 -0.20630652 -0.33812246 -0.22737548 -0.33586532 -0.267401 -0.24721871
-0.36587214 -0.4757553 0.053522203 -0.16594934 0.61677915 -0.30714023 -0.41200176 -0.2829857
0.7259378 -0.20815067 0.22603612 -0.09964937 0.17548537 -0.43287584 0.1999265 0.13638085
0.055244967 0.26830667 -0.34358647 0.16312173 -0.22344285 0.27367017 -0.6256435 -0.22213605
-0.39364663 0.2514186 0.23384686 0.26897854 0.61523294 0.21982904 -0.4226223 -0.25456232
0.5525462 -0.33721837 -0.117644064 -0.12431042 0.3311347 0.3136705 0.6648334 -0.49753487
