Complete_thesis_stage_1_and_2/(d).Code_and_all_other_details/WAAM/PINN_TEMP_DEPENDENT_PROP/Models/model_epoch_21000.pt (torch, 38264 bytes, 7 tensors)

linears.0.weight f4 [64, 4]
0	0xbe3b28d9	-0.18277301
1	0xbf34f98c	-0.7069328
2	0xbe7b31b1	-0.24530675
3	0xbe108de3	-0.14116625
4	0xbe618a29	-0.2202536
5	0xbecbaa0e	-0.3977818
6	0x3d03466d	0.032049585
7	0x3ea652fc	0.32485187
8	0xbe978784	-0.29595578
9	0xbf2e13e4	-0.679991
10	0xbeaf8fb0	-0.34289312
11	0xbef48db4	-0.4776436
12	0xbf3f3cd8	-0.74702215
13	0xbedc1a96	-0.42989033
14	0x3ea0847d	0.3135108
15	0x3edde78c	0.4334072
16	0x3e2ada04	0.16684729
17	0x3d71a711	0.058997218
18	0xbd3dbabc	-0.046320662
19	0x3c64936b	0.013951163
20	0xbe22a79e	-0.15884253
21	0xbe0de410	-0.1385653
22	0xbd1edd89	-0.03878549
23	0x3d0a77f5	0.033805806
24	0xbe840167	-0.2578232
25	0xbfb19695	-1.3874079
26	0xbe926da5	-0.28599277
27	0xbe152543	-0.14564995
28	0xbe21923f	-0.15778445
29	0xbf136921	-0.5758229
30	0xbe1571a8	-0.14594138
31	0x3e919279	0.28432062
32	0x3de7c95b	0.113177024
33	0x3f7da5ea	0.9908129
34	0x3f6ad292	0.91727555
35	0xbe80f219	-0.25184706
36	0xbeb2fc1e	-0.34957975
37	0xbeeeb83c	-0.46624935
38	0x3ca7619c	0.020432286
39	0xbe2f306a	-0.17108312
40	0x3dc0b6de	0.09409879
41	0x3e077000	0.13226318
42	0xbd1a43fb	-0.037662487
43	0xbf4af783	-0.7928392
44	0xbf375c18	-0.716249
45	0x3f2655fa	0.6497494
46	0x3e2f99e5	0.1714855
47	0x3e2b9e26	0.16759548
48	0x3f56cfcb	0.83910817
49	0x3ed99912	0.42499596
50	0xbeb396fb	-0.35076126
51	0xbd88a71a	-0.06672497
52	0x3e9d765b	0.3075436
53	0x3e359390	0.17732072
54	0xbd87023d	-0.06592224
55	0xbdea3a8a	-0.11436947
56	0x3eb653e2	0.35610873
57	0x3e31609b	0.17322008
58	0xbe4bcaf3	-0.19901638
59	0xbe9ad0da	-0.30237466
60	0xbea16f38	-0.31530166
61	0x3ee59da6	0.4484684
62	0xbc962585	-0.018328438
63	0xbe1220f6	-0.14270386
64	0xbef5061c	-0.47856224
65	0x3e193fd6	0.14965758
66	0xbdaf2e6e	-0.08553778
67	0x3f1212b8	0.5705981
68	0x3f2cf5f1	0.67562777
69	0xbf8cfea1	-1.1015207
70	0x3eb1889f	0.34674546
71	0x3e5bb692	0.21456364
72	0xbe1c377f	-0.15255545
73	0x3e814dab	0.25254568
74	0x3e0805ae	0.13283417
75	0x3f15170e	0.58238304
76	0xbeeec5ba	-0.46635228
77	0x3c1be72b	0.009515564
78	0xbe50b077	-0.20379816
79	0x3f593bae	0.8485669
80	0xbec96935	-0.3933808
81	0xbea1f410	-0.31631517
82	0xbeceb307	-0.40370962
83	0xbf3c18eb	-0.7347552
84	0xbd5fae2b	-0.05460946
85	0xbde787f0	-0.11305225
86	0x3dff9824	0.124801904
87	0xbd92c88a	-0.07167156
88	0xbeab41e4	-0.33448708
89	0xbcd5441a	-0.02603345
90	0xbe5573bf	-0.20844935
91	0x3dfa2310	0.12213719
92	0x3eb79798	0.35857844
93	0x3e9d25f9	0.30693033
94	0x3e8cb8fc	0.27484882
95	0x3ed68d30	0.41904593
96	0xbdc517aa	-0.09623654
97	0x3c44328d	0.011974943
98	0x3e3cdb1c	0.18442959
99	0xbda0db36	-0.07854311
100	0x3e120adb	0.14261954
101	0x3d2aad29	0.041669045
102	0x3e55eb5c	0.20890564
103	0xbba4d15c	-0.0050298404
104	0x3ec0c845	0.37652794
105	0xbe8414f8	-0.25797248
106	0x3d2c8aa9	0.042124424
107	0xbf0cee1c	-0.55050826
108	0x3f2a83b3	0.6660721
109	0xbe87e10b	-0.26538882
110	0xbe2bf7ac	-0.16793698
111	0xbef50d63	-0.47861776
112	0xbefac137	-0.48975536
113	0x3d8668fe	0.065629944
114	0xbe3a3df7	-0.181877
115	0x3eb5db8e	0.3551907
116	0x3e2d7a3a	0.16941157
117	0xbf023607	-0.5086369
118	0xbe7d4392	-0.24732807
119	0xbcc788a8	-0.024357155
120	0xbd12b0d6	-0.035813175
121	0xbe812711	-0.25225118
122	0xbe90ae04	-0.28257763
123	0xbe8b32b7	-0.2718713
124	0x3f0d4da8	0.5519662
125	0xbe966e48	-0.29381013
126	0xbf03b16b	-0.51442593
127	0xbea06a8c	-0.3133129
128	0x3ecf6622	0.4050761
129	0x3f061969	0.5238252
130	0xbeaf7c69	-0.34274605
131	0xbcab398c	-0.020901464
132	0x3ef35d59	0.47532156
133	0xbf572238	-0.8403659
134	0xbdc30b54	-0.09523645
135	0xbecc8d7b	-0.3995169
136	0x3d9c7493	0.07639422
137	0xbdf88923	-0.12135532
138	0x3e86c28e	0.26320308
139	0x3dbcc244	0.09216741
140	0x3f4b108f	0.7932214
141	0xbdce1dcf	-0.10064279
142	0xbe34405a	-0.17602673
143	0x3dd69d68	0.104792416
144	0x3ea10038	0.3144548
145	0x3e364063	0.17797999
146	0x3e2437a8	0.16036856
147	0xbe86e2b3	-0.26344833
148	0x3f2a53b8	0.66533995
149	0xbd4bb1d6	-0.049730144
150	0x3d58c865	0.052925486
151	0xbf51eb7b	-0.8199994
152	0xbf565390	-0.83721256
153	0x3dbb5643	0.091473125
154	0xbe0bad6a	-0.13640371
155	0x3d9fad58	0.077967346
156	0x3f5ae59a	0.85506594
157	0x3e8418dd	0.2580022
158	0x3e04f6b7	0.12984739
159	0x3efcd08d	0.49377862
160	0xbec5668d	-0.38554803
161	0x3e221849	0.15829577
162	0xbd5165e3	-0.051122557
163	0xbd0be679	-0.034155343
164	0xbeaeefab	-0.34167227
165	0x3d31360d	0.043264437
166	0x3dc66798	0.09687728
167	0xbf706f62	-0.93919957
168	0x3eb6abc4	0.35677922
169	0xbf92d1f2	-1.147032
170	0x3ea8632b	0.3288816
171	0xbee413f8	-0.44546485
172	0xbdf4cf9a	-0.11953659
173	0x3eb01535	0.3439118
174	0xbe0d2ed3	-0.13787393
175	0x3ecd3236	0.4007737
176	0xbdf2cad5	-0.118550934
177	0x3ba89990	0.005145259
178	0x3dc0d316	0.094152614
179	0x3d7be400	0.061496735
180	0x3df42055	0.11920229
181	0xbdbfc5af	-0.09363877
182	0xbe5a024b	-0.21289937
183	0xbe863fbc	-0.262205
184	0xbe26019c	-0.16211551
185	0x3e0068d2	0.12539986
186	0xbe584a09	-0.21121992
187	0x3de52224	0.111881524
188	0x3e49fcc3	0.19725327
189	0x3c436982	0.0119270105
190	0xbd26964f	-0.04067069
191	0x3e493e48	0.19652665
192	0x3f0ad936	0.5423769
193	0xbe95e28f	-0.29274413
194	0xbe1b365e	-0.15157458
195	0xbb22bc45	-0.0024831456
196	0x3e9c465e	0.30522436
197	0xbe8c78c3	-0.27435884
198	0x3eb386b9	0.35063723
199	0x3ebccb84	0.3687402
200	0x3e8070a5	0.2508594
201	0xbfb77df5	-1.4335314
202	0x3f392f70	0.7233801
203	0xbddd8bde	-0.10817693
204	0x3eabdb3d	0.33565703
205	0xbf3b4db2	-0.7316543
206	0x3e9ed7a6	0.31023902
207	0xbe21c19d	-0.15796514
208	0xbd3e8d95	-0.046521742
209	0xbfc4202f	-1.5322322
210	0x3eb1258c	0.34598958
211	0x3ea3b472	0.31973606
212	0x3eac1a59	0.33613852
213	0x3f532f75	0.8249429
214	0x3e8cda30	0.27510214
215	0xbeb5a30a	-0.3547595
216	0xbe9e3cde	-0.30905813
217	0x3dbe955a	0.0930583
218	0x3e0724d8	0.13197649
219	0x3e84104c	0.25793684
220	0xbea582a6	-0.3232624
221	0x3cc2fab0	0.023801178
222	0xbe17760b	-0.14791124
223	0x3e15264f	0.14565395
224	0xbf3094f1	-0.68977267
225	0xbf4bd602	-0.79623425
226	0xbf1a5eb6	-0.6030077
227	0x3dc9c2f9	0.09851641
228	0x3eb761be	0.3581676
229	0x3f6eeb8a	0.93328154
230	0x3ce42dfc	0.027853958
231	0xbe3e5065	-0.18585356
232	0xbde0beba	-0.10973878
233	0xbe82eb21	-0.25570014
234	0x3e880711	0.2656789
235	0xbc84055a	-0.016115833
236	0x3e9ac521	0.30228522
237	0x3cd6d90f	0.026226548
238	0xbe13419a	-0.14380494
239	0x3e486d72	0.19573
240	0x3e95ea23	0.29280195
241	0x3e991552	0.2989908
242	0xbc39d103	-0.011341336
243	0xbf2212b1	-0.6330977
244	0x3ee8f8e2	0.45502383
245	0xbd400919	-0.046883676
246	0x3e4f6eac	0.20257062
247	0xbed68911	-0.41901448
248	0xbde130c1	-0.10995627
249	0xbe970142	-0.29493147
250	0xbe2ea6d2	-0.17055824
251	0x3e48769a	0.19576493
252	0x3e1839d5	0.14865811
253	0xbe4d609c	-0.20056385
254	0x3e704bf2	0.23466471
255	0x3eb00b77	0.34383747

linears.0.bias f4 [64]
0	0xbc015519	-0.007893824
1	0xbc361989	-0.0111144865
2	0xbeb65926	-0.3561489
3	0xbe8ed10f	-0.27893874
4	0xbdf3d85d	-0.119065024
5	0xbe819e74	-0.25316203
6	0xbe995582	-0.2994805
7	0x3e281481	0.16414072
8	0x3e98a7e2	0.29815584
9	0xbe4a5852	-0.19760254
10	0xbf221f29	-0.63328797
11	0xbec890c6	-0.39172953
12	0x3f5bd193	0.8586666
13	0x3e177e13	0.14794187
14	0xbd22a5ff	-0.039709087
15	0xbe62bc53	-0.22142152
16	0x3c3f071d	0.011659411
17	0x3e42483c	0.18972868
18	0x3e0e56a9	0.13900246
19	0x3f20a0f9	0.62745625
20	0xbf486f17	-0.7829451
21	0x3cf7728d	0.03020599
22	0xbe217d7a	-0.15770522
23	0x3e77a24d	0.24183007
24	0xbd2cb50b	-0.042164844
25	0x3dcddf41	0.10052348
26	0xbc87c111	-0.016571553
27	0xbef618f8	-0.48065925
28	0xbd2e6b26	-0.042582653
29	0x3e137a3c	0.14402097
30	0xbdcd5534	-0.10026017
31	0x3ea26262	0.31715685
32	0x3dc40b3d	0.09572456
33	0xbe275214	-0.16339904
34	0x3c0b28da	0.0084936265
35	0xbd91c4b9	-0.071176
36	0x3dbb68c0	0.09150839
37	0xbeaae182	-0.33375174
38	0xbe4c843f	-0.19972323
39	0x3f6c1a43	0.9222757
40	0x3c055b4c	0.008139443
41	0xbfaae7a6	-1.3351943
42	0x3e33b561	0.1754966
43	0x3ed27d7d	0.41111365
44	0x3e51eaba	0.20499697
45	0xbdb11a07	-0.086475424
46	0xbd92c654	-0.07166734
47	0x3e300d9b	0.1719269
48	0x3ec0e407	0.3767397
49	0x3d976884	0.07392982
50	0x3ec6e946	0.38849849
51	0x3d7b4d83	0.061353218
52	0x3e056c16	0.13029513
53	0xbe3164de	-0.17323634
54	0x3e139a8e	0.14414427
55	0xbe1a5ff7	-0.1507567
56	0x3e2b472b	0.16726367
57	0x3d365390	0.044513285
58	0x3dec9e70	0.11553657
59	0x3e3391ec	0.17536134
60	0xbda20be3	-0.079124235
61	0xbb43daa5	-0.002988496
62	0xbd05d7d5	-0.032676537
63	0x3c606790	0.013696566

linears.1.weight f4 [64, 64]
0	0x3c65810a	0.014007816
1	0xbe5e5f51	-0.21716048
2	0x3cfd3d22	0.03091294
3	0xbedf789e	-0.4364671
4	0x3e29d10b	0.1658365
5	0xbd94dda1	-0.07268835
6	0xbd08cb65	-0.033397097
7	0xbd1c1f45	-0.03811576
8	0x3ee98f03	0.45616922
9	0x3e0328a9	0.1280848
10	0xbdb90883	-0.090348266
11	0xbe4c7fa0	-0.1997056
12	0x3ccde2cd	0.025132561
13	0x3e35925d	0.17731614
14	0xbddf8682	-0.10914327
15	0xbdf0c840	-0.11756945
16	0x3cca2a0a	0.024678249
17	0xbe86ff49	-0.26366642
18	0xbde4c06d	-0.11169515
19	0xbde734d2	-0.112893716
20	0xbb9c3b5c	-0.0047678184
21	0x3db68cda	0.08913584
22	0xbdd53973	-0.10411348
23	0xbd1377ea	-0.03600303
24	0xbd86e44a	-0.065865114
25	0xbe8cdd55	-0.27512613
26	0x3d9e2ded	0.077236034
27	0x3e311f54	0.17297107
28	0x3e2930df	0.16522549
29	0x3dbf2d61	0.09334827
30	0x3e6f7b2f	0.23386835
31	0x3e93e66d	0.28886738
32	0x3d547134	0.05186577
33	0xbd042572	-0.032262273
34	0x3c7ea93a	0.015543276
35	0xbcd5c5c0	-0.026095271
36	0xbcda0417	-0.026613278
37	0x3e8a38a2	0.26996332
38	0xbe81d6a6	-0.25359076
39	0x3e653d5c	0.22386688
40	0xbded08b2	-0.11573924
41	0x3b8dcb2a	0.0043271976
42	0x3ce3c0b8	0.027801856
43	0x3d069df9	0.0328655
44	0xbe44d4e2	-0.19221833
45	0xbd9de161	-0.07709003
46	0x3e620c7e	0.22075078
47	0xbe18ba27	-0.14914761
48	0x3e6c7e93	0.23095159
49	0xbe66b55d	-0.22530122
50	0x3ebd66a9	0.36992386
51	0xbd86bff7	-0.06579583
52	0x3e304645	0.17214306
53	0xbe43988f	-0.19101165
54	0xbe9cf338	-0.3065431
55	0xbe129783	-0.1431561
56	0xbe0f21f6	-0.13977799
57	0x3c307d10	0.010772005
58	0xbe4f0145	-0.20215328
59	0x3d86b3c3	0.065772556
60	0x3e08885c	0.13333267
61	0x3d5aabff	0.053386685
62	0x3db06487	0.08612924
63	0x3d7c135a	0.061541893
64	0x3d4a8e75	0.049452264
65	0x3e773f9d	0.2414536
66	0xbd551e8c	-0.052031085
67	0xbca59efe	-0.020217415
68	0x3e25e6f5	0.16201384
69	0xbdc49e66	-0.096005246
70	0x3e57f37d	0.21088977
71	0x3e863a1b	0.26216206
72	0x3cdcb22c	0.026940428
73	0xbe4348f5	-0.190708
74	0xbe4e92ce	-0.20173189
75	0xbe0a1841	-0.13485815
76	0xbcd75e30	-0.02629003
77	0xbcdda882	-0.02705789
78	0x3dbc38d9	0.0919053
79	0xbe415c22	-0.18882802
80	0x3e3c9553	0.18416338
81	0xbc7e5bdb	-0.01552483
82	0xbe5462c5	-0.20740803
83	0xbd0c3a44	-0.034235254
84	0x3c343d7d	0.011000988
85	0xbe409940	-0.1880846
86	0x3cad4b78	0.02115415
87	0xbd7a499a	-0.06110535
88	0xbe1a2016	-0.15051302
89	0xbdad5024	-0.08462551
90	0xbd860ff9	-0.06546015
91	0x3e551c1c	0.20811504
92	0xbe2feafd	-0.17179485
93	0x3ec4a6f4	0.38408625
94	0x3ca03a71	0.019559117
95	0xbc4fbcb7	-0.0126792705
96	0x3d43cf15	0.04780491
97	0x3e519414	0.20466644
98	0xbe609f77	-0.21935831
99	0x3dc0d71e	0.0941603
100	0xbe67ed0e	-0.22649023
101	0xbda61c2b	-0.08110841
102	0x3e27da73	0.16391926
103	0xbdb61b8a	-0.088919714
104	0x3db83dd3	0.08996167
105	0xbe9574cd	-0.29190674
106	0x3cf0d6dd	0.02939933
107	0xbcc72fb8	-0.024314746
108	0x3efc1027	0.49231073
109	0xbcb802c6	-0.02246226
110	0xbdc59f08	-0.096494734
111	0xbdbc7571	-0.09202088
112	0x3ba8d594	0.0051524136
113	0x3dcc0b09	0.09963042
114	0x3e10f759	0.14156856
115	0x3daf1401	0.08548737
116	0x3d83ea9c	0.064412326
117	0xbe9c20b4	-0.304937
118	0xbdda1c76	-0.1064996
119	0xbd06bca2	-0.032894738
120	0x3cc5bae0	0.02413696
121	0xbe9a399a	-0.30122072
122	0x3e3d633a	0.18494883
123	0xbc080a4a	-0.008303234
124	0xbe6d56ac	-0.23177594
125	0xbdd7d82b	-0.10539278
126	0x3df90ad6	0.1216027
127	0xbd884267	-0.0665329
128	0x3ddfb0f9	0.10922427
129	0x3ca8d7ed	0.020610774
130	0x3dafbbf2	0.085807696
131	0x3e29f222	0.16596273
132	0xbc81ce75	-0.015845517
133	0xbe3e44c1	-0.18580915
134	0xbdb681a6	-0.08911447
135	0xbe279a14	-0.1636737
136	0xbe1d6f94	-0.15374595
137	0xbdfcbbb2	-0.123404875
138	0x3dba1e7d	0.090878464
139	0xbde7b4b0	-0.1131376
140	0xbdd84fd4	-0.10562101
141	0xbe0784ad	-0.13234206
142	0xbd39cea4	-0.045363083
143	0xbd957389	-0.07297427
144	0xbe05e138	-0.13074195
145	0xbd15de00	-0.03658867
146	0xbdebc6d8	-0.11512536
147	0x3e50a808	0.20376599
148	0x3d6254cf	0.05525666
149	0xbdafffa9	-0.08593685
150	0xbdd3a9ef	-0.10335147
151	0x3e4f2302	0.20228198
152	0xbe1f8c0d	-0.15580769
153	0x3d96dd68	0.07366449
154	0x3e593b64	0.21214062
155	0x3df6f9f5	0.12059394
156	0xbd2fe345	-0.04294135
157	0x3df80243	0.121098064
158	0xbdaa8645	-0.08326391
159	0x3e234a6c	0.15946358
160	0x3e2deab8	0.1698407
161	0x3d5a612b	0.053315323
162	0x3e2d2b6a	0.16911092
163	0xbda84d14	-0.082178265
164	0x3cea5472	0.02860472
165	0xbdd99899	-0.10624809
166	0x3e81c829	0.25348023
167	0xbe219b97	-0.15782009
168	0x3e572f1c	0.21014065
169	0xbe1d0c07	-0.1533662
170	0xbd506482	-0.0508771
171	0x3e228ea5	0.15874727
172	0x3f31259a	0.69198
173	0xbe05f1e3	-0.13080554
174	0xbbfeedce	-0.0077798134
175	0x3e5a8424	0.2133947
176	0xbda36218	-0.07977694
177	0xbe2e1674	-0.17000753
178	0x3a84dc96	0.001013654
179	0x3ad54d0e	0.0016273574
180	0xbd24d440	-0.04024148
181	0x3de27a19	0.110584445
182	0x3e919364	0.28432763
183	0xbdb37a4e	-0.08763562
184	0xbe19d9d6	-0.15024504
185	0x3cb63f69	0.022247033
186	0xbd91e302	-0.071233764
187	0x3dde4c60	0.10854411
188	0x3da83298	0.08212775
189	0x3e37ba30	0.17942119
190	0xbe56e9b1	-0.20987584
191	0x3e1c8961	0.15286781
192	0x3e499d87	0.19688998
193	0x3e35e7cb	0.17764203
194	0xbc85fcce	-0.016355898
195	0x3e908197	0.2822387
196	0x3cce7cfc	0.025206082
197	0x3e938106	0.28809375
198	0x3d562353	0.05227978
199	0xbe59c18d	-0.2126524
200	0x3e94eb62	0.29085833
201	0x3e8e341d	0.27774134
202	0x3de82dd5	0.11336867
203	0xbd411fa4	-0.047149315
204	0xbf11255d	-0.56697637
205	0xbcf0eba3	-0.029409235
206	0xbd410e1b	-0.047132593
207	0x3e95b29a	0.29237825
208	0x3e9fcdc5	0.31211677
209	0xbef7b607	-0.48381063
210	0x3e17724e	0.14789698
211	0x3d703d28	0.058652073
212	0x3e6b4c77	0.22978388
213	0xbe52e09e	-0.20593497
214	0x3eaab610	0.33342028
215	0xbe19ba80	-0.1501255
216	0x3e24735d	0.16059633
217	0xbeaff2a9	-0.34364823
218	0x3c0aad5a	0.008464182
219	0xbea0e211	-0.31422475
220	0x3e200417	0.1562656
221	0xbe8f2591	-0.27958348
222	0x3e15422f	0.14576028
223	0xbe2c1044	-0.1680308
224	0xbefc9363	-0.49331197
225	0xbe89dc17	-0.26925728
226	0xbd6f73dd	-0.058460105
227	0xbe912d0d	-0.28354684
228	0x3d87b961	0.06627155
229	0xbc654cc9	-0.013995358
230	0x3ec28a30	0.37996054
231	0xbecdb703	-0.4017869
232	0x3e689ec1	0.2271681
233	0x3edd63a4	0.43240082
234	0xbe0f9161	-0.14020301
235	0xbe443f2f	-0.19164728
236	0x3d2ce73e	0.042212717
237	0xbe304957	-0.17215477
238	0x3e818965	0.25300136
239	0xbe2085cd	-0.15676041
240	0xbe2516fc	-0.16122049
241	0xbe752e25	-0.23943384
242	0x3c79a6b2	0.015237497
243	0xbec68b10	-0.3877797
244	0xbd475e88	-0.048674136
245	0xbe61e5c9	-0.22060312
246	0x3e2dca05	0.16971596
247	0x3e499e20	0.19689226
248	0x3ebb428b	0.36574206
249	0xbc81bb8b	-0.015836498
250	0x3b8fc2f0	0.004387252
251	0x3dd137f9	0.10215754
252	0xbe11d676	-0.14241967
253	0xbe71cfea	-0.23614469
254	0x3c8cc595	0.017184058
255	0x3e0c6455	0.13710149

linears.1.bias f4 [64]
0	0xbd807412	-0.06272139
1	0x3cd31db0	0.025770992
2	0x3d807171	0.06271637
3	0xbe1da64b	-0.15395467
4	0xbcd8dba9	-0.02647193
5	0xbd8a9f3e	-0.06768654
6	0xbd9e7970	-0.07738006
7	0x3dc7a054	0.09747377
8	0xbd1e4721	-0.038642053
9	0x3d11ece1	0.035626296
10	0xbd5e4e96	-0.054274164
11	0xbf19fa19	-0.60147244
12	0x3d312741	0.043250326
13	0x3d20b414	0.039234236
14	0x3df0942c	0.117470115
15	0xbdac3fae	-0.084105834
16	0x3d4da3d0	0.050205052
17	0x3c170832	0.0092182625
18	0xbdfa069b	-0.12208291
19	0x3c89281f	0.016742764
20	0x3d417a6d	0.047235895
21	0x3ea196f2	0.31560475
22	0x3d6a01b6	0.057130538
23	0xbd0c3b5e	-0.034236304
24	0xbbb4a401	-0.005512715
25	0x3d6a6eef	0.0572347
26	0x3f1a2725	0.6021598
27	0xbd3d27e5	-0.046180625
28	0xbd9d2110	-0.07672322
29	0xbe23cf22	-0.15996984
30	0x3de5e2f5	0.11224929
31	0xbd9c33fd	-0.076271035
32	0x3d3835be	0.044973128
33	0xbcc350d5	-0.023842255
34	0xbd5c6e2e	-0.053816013
35	0xbcb95a6f	-0.02262613
36	0xbd201dac	-0.039090797
37	0xbd667b69	-0.056270037
38	0xbd607da4	-0.05480732
39	0x3d10c595	0.03534468
40	0xbdc377a8	-0.09544307
41	0xbaacd98d	-0.0013187394
42	0x3c8120e8	0.015762761
43	0xbd077cab	-0.033077877
44	0x3cd745df	0.026278434
45	0x3c325836	0.010885289
46	0x3caf777c	0.02141928
47	0x3d4e0626	0.050298832
48	0x3d473cf1	0.048642103
49	0xbdc67bb9	-0.09691567
50	0xbe632773	-0.22183017
51	0x3d2a7a6a	0.04162065
52	0x3e00d1bc	0.12580007
53	0xbd77e0c5	-0.06051709
54	0xbda1de10	-0.07903683
55	0xbdc75f9f	-0.09735035
56	0xbd3d2e01	-0.04618645
57	0xbe1b126f	-0.1514375
58	0x3d0e88e4	0.034798518
59	0x3d456f80	0.048202038
60	0xbdf57215	-0.1198465
61	0x3ccea07a	0.025223006
62	0x3d64c093	0.055847716
63	0x3cd86bb6	0.026418548

linears.2.weight f4 [64, 64]
0	0xbdcf79be	-0.10130642
1	0xbbf7da23	-0.0075638457
2	0xbd7febae	-0.06248062
3	0x3e383299	0.17988051
4	0xbdc1a968	-0.0945614
5	0xbe63943e	-0.22224519
6	0xbd8a7270	-0.067601085
7	0x3c80e225	0.015732834
8	0xbd583e35	-0.0527937
9	0xbc306752	-0.010766821
10	0xbe5133b1	-0.20429875
11	0xbe690195	-0.2275451
12	0x3e631f9a	0.22180024
13	0x3dc873b1	0.097876914
14	0xbcb4fe85	-0.02209402
15	0xbdb95c4f	-0.090508096
16	0xbd8ccb61	-0.06874729
17	0x3daf436a	0.0855778
18	0xbe003131	-0.12518765
19	0xbb3577cd	-0.0027689815
20	0xbc2f2166	-0.010689115
21	0xbd8242b5	-0.063603796
22	0x3e4cdaba	0.20005313
23	0x3e95a317	0.2922599
24	0x3e17b138	0.14813697
25	0xbd209b1b	-0.03921042
26	0xbe8ae89b	-0.2713059
27	0x3d691627	0.05690589
28	0xbe79913c	-0.24371809
29	0xbded899a	-0.11598511
30	0xbe1cfc72	-0.15330675
31	0x3df6a958	0.120440185
32	0x3e1c5fac	0.15270871
33	0x3e0fc6fb	0.14040749
34	0xbd02f21a	-0.031969167
35	0xbe552f88	-0.20818913
36	0x3c6639f5	0.014051904
37	0xbde1d098	-0.11026114
38	0xbe7d169c	-0.24715656
39	0x3da448df	0.080217116
40	0xbc18ed1a	-0.009333873
41	0xbdceb61f	-0.100933306
42	0x3d975e94	0.07391086
43	0xbe28d704	-0.16488272
44	0x3d733a3a	0.0593817
45	0x3da7bc00	0.08190155
46	0x3e2add0f	0.1668589
47	0xbdf60ec2	-0.120145336
48	0xbe429fd8	-0.19006288
49	0xbe04a0bd	-0.12951942
50	0xbe0e5397	-0.13899074
51	0xbd211e0f	-0.039335307
52	0xbd978268	-0.0739792
53	0xbe3edfa2	-0.18639997
54	0xbc93266c	-0.017962657
55	0xbd55f9a3	-0.052240025
56	0xbe12d220	-0.14337969
57	0xbea56dd5	-0.32310358
58	0x3e31297e	0.17300984
59	0x3e4104e2	0.18849519
60	0xbd185309	-0.037188563
61	0x3e05572f	0.13021539
62	0x3d9e6abe	0.07735203
63	0x3d3b1fcf	0.045684632
64	0x3e096934	0.13419038
65	0xbd15cab3	-0.036570262
66	0x3ea55f2a	0.32299167
67	0x3e4f9dd5	0.20275052
68	0x3d54b199	0.051927183
69	0x3d892877	0.06697171
70	0xbd720a2d	-0.059091736
71	0x3c356af5	0.011072864
72	0xbd8f003b	-0.06982466
73	0xbd9a6fbf	-0.07540845
74	0xbdea5811	-0.114425786
75	0xbde8eae3	-0.11372926
76	0x3d8ba3be	0.06818341
77	0xbd901d20	-0.07036805
78	0xb988764d	-0.00026028082
79	0xbea5a623	-0.32353315
80	0xbd8b98da	-0.068162635
81	0x3e0fdade	0.14048335
82	0xbe16e9b2	-0.14737585
83	0x3dea89c7	0.1145206
84	0xbda42d2d	-0.08016429
85	0x3e069b2d	0.13145132
86	0x3dd1fa3a	0.10252805
87	0x3e9562f1	0.2917705
88	0xbdd0960a	-0.10184868
89	0x3e081ebc	0.13292974
90	0xbe0c6f0c	-0.13714236
91	0xbc19ad2d	-0.009379667
92	0xbdd8eb5e	-0.10591768
93	0xbdba3fe6	-0.09094219
94	0x3e6b42f1	0.22974755
95	0xbdfb4643	-0.12269261
96	0xbd2ea05b	-0.042633396
97	0xbe6bda00	-0.23032379
98	0xbd8ae83f	-0.06782579
99	0xbd9fbd24	-0.077997476
100	0xbe65e002	-0.22448733
101	0xbe823186	-0.25428408
102	0x3c8d054e	0.017214444
103	0x3cd817d1	0.026378544
104	0x3c516a8a	0.012781749
105	0x3e33cb2f	0.17557977
106	0xbe564161	-0.20923378
107	0xbe375f3a	-0.1790742
108	0x3de8b996	0.11363523
109	0x3cc7367f	0.024317978
110	0xbe460cf8	-0.19340885
111	0xbdc69453	-0.09696259
112	0xbe210b17	-0.15726887
113	0xbe16e4c0	-0.14735699
114	0xbe09ffba	-0.13476458
115	0x3d413a88	0.04717496
116	0x3e306468	0.17225802
117	0xbbbf1c4b	-0.00583223
118	0x3da26868	0.0793007
119	0x3d8feaf9	0.07027239
120	0xbeb2a0ba	-0.3488825
121	0x3cace189	0.021103637
122	0x3e4b8e7e	0.19878575
123	0x3e18b304	0.14912039
124	0xbd464431	-0.048404876
125	0xbc0b1aa0	-0.008490235
126	0x3d8190df	0.0632646
127	0x3e850103	0.25977334
128	0x3add8ffb	0.0016903871
129	0x3d82646b	0.063668095
130	0x3e402a6f	0.18766187
131	0xbf00367a	-0.50083125
132	0x3e064d61	0.13115455
133	0xbdf71ffa	-0.12066646
134	0xbe880d5c	-0.26572692
135	0x3dca9f81	0.09893704
136	0xbedf5a0b	-0.43623385
137	0x3d32677f	0.043555733
138	0xbebad283	-0.36488733
139	0x3e8aabd2	0.27084213
140	0xbd041633	-0.032247733
141	0x3eac6441	0.33670238
142	0xbf0f1e3d	-0.55905515
143	0xbe835a3e	-0.25654787
144	0x3f094468	0.53620005
145	0x3dc40508	0.09571272
146	0xbf1447f6	-0.57922304
147	0xbedd3674	-0.43205607
148	0x3e958fcc	0.2921127
149	0xbe406b01	-0.18790819
150	0x3e883907	0.26606008
151	0x3f6caa15	0.92447025
152	0x3d873b49	0.066031046
153	0x3e098320	0.13428926
154	0xbfcff46b	-1.6246465
155	0x3d879e13	0.06621947
156	0xbe67bf28	-0.22631514
157	0xbf8c5aa2	-1.0965159
158	0x3ed8370d	0.422295
159	0xbe694ba7	-0.22782765
160	0x3f474f4d	0.7785538
161	0xbe9c5ef1	-0.30541185
162	0x3e93493d	0.28766814
163	0x3e644e19	0.22295417
164	0xbe8a119b	-0.26966557
165	0xbed9cc4d	-0.42538682
166	0xbefeb4fe	-0.4974746
167	0xbf29f22e	-0.6638516
168	0xbee0654d	-0.43827286
169	0xbe509a38	-0.2037133
170	0xbae43e4d	-0.0017413587
171	0xbe8160d5	-0.2526919
172	0x3ef503fa	0.47854596
173	0x3e8fe6a6	0.28105658
174	0xbdaa8eb3	-0.08327999
175	0x3e77e75b	0.24209349
176	0x3d8a6e3f	0.06759309
177	0xbe0a2f2d	-0.13494559
178	0x3b231d78	0.002488939
179	0x3e41cecd	0.18926544
180	0x3e8151bc	0.2525767
181	0xbdf43f54	-0.119261414
182	0xbe47a980	-0.19498253
183	0x3df15b53	0.11784997
184	0x3cc7afb1	0.024375768
185	0x3dab71f1	0.08371342
186	0xbe273c8e	-0.16331694
187	0x3d775a59	0.060388897
188	0xbe8b340c	-0.27188146
189	0xbd1f053a	-0.038823344
190	0x3e188fae	0.1489856
191	0x3dd543fb	0.10413357
192	0x3e1df8fb	0.1542701
193	0xbe37e082	-0.17956737
194	0xbe3780cf	-0.1792023
195	0x3cc91282	0.024544958
196	0x3e6c7c4a	0.23094288
197	0x3e4a3269	0.19745792
198	0x3b868b54	0.0041059647
199	0xbe6a4aa6	-0.22880039
200	0x3e1fc1e1	0.15601303
201	0x3df08f93	0.117461346
202	0xbe005f2f	-0.1253631
203	0x3d3c7e32	0.046018787
204	0xbe05bdbf	-0.13060664
205	0x3c6c09f6	0.014406672
206	0x3e359b64	0.17735058
207	0x3d954b91	0.07289804
208	0xbe376af7	-0.17911898
209	0xbc621b75	-0.013800492
210	0x3e83cf1c	0.2574395
211	0xbdb712bc	-0.0893912
212	0xbdff1973	-0.12456026
213	0xbcc1de4b	-0.023665568
214	0xbdee52b0	-0.11636865
215	0x3c9bf2d8	0.019036695
216	0xbe404ed8	-0.18780077
217	0xbda3a45e	-0.07990335
218	0x3d2e96da	0.042624332
219	0x3e4c444e	0.19947931
220	0x3e593526	0.21211681
221	0x3e879b34	0.26485598
222	0xbe594676	-0.21218285
223	0x3dbb00f1	0.09131039
224	0x3c371362	0.011174055
225	0x3de09dbf	0.10967588
226	0x3d84c93d	0.06483696
227	0x3d997965	0.07493857
228	0x3da9417e	0.08264445
229	0x3d38b051	0.045090023
230	0xbe291f84	-0.16515929
231	0xbe1fa5d7	-0.15590607
232	0x3e6de18a	0.23230568
233	0x3e02f55f	0.12788914
234	0xbe0d4e43	-0.13799386
235	0x3b69caa1	0.0035673755
236	0x3d90e3a0	0.07074666
237	0xbe5681bc	-0.20947927
238	0xbe03fcea	-0.12889448
239	0xbe7083f1	-0.23487832
240	0xbe227adc	-0.1586718
241	0xbc4e381a	-0.012586618
242	0xbe73ed36	-0.23820958
243	0xbd6ad833	-0.05733509
244	0xbda8a557	-0.08234661
245	0x3e535c6a	0.20640722
246	0x3d3ebe04	0.04656793
247	0xbd6ae63e	-0.057348482
248	0xbd3930c6	-0.04521253
249	0x3dd17e39	0.10229153
250	0xbe0cbf79	-0.13744916
251	0xbe3572d0	-0.17719579
252	0x3dec6de1	0.11544395
253	0xbe404e52	-0.18779877
254	0xbd23e7a0	-0.040015817
255	0x3de06306	0.10956387

linears.2.bias f4 [64]
0	0x3d378bc0	0.04481101
1	0x3d333b85	0.043757934
2	0x3de814b0	0.11332071
3	0xbcf134d1	-0.02944413
4	0x3dc5570c	0.096357435
5	0xbded33fe	-0.11582182
6	0xbcd5c427	-0.02609451
7	0x3cdda422	0.027055804
8	0xbdc47402	-0.09592439
9	0x3cc40cfb	0.02393197
10	0xbd8da906	-0.06917004
11	0x3d2e566e	0.042562895
12	0x3d35b04f	0.044357594
13	0x3d0a1b16	0.033717237
14	0x3d8e6021	0.06951929
15	0xbd709103	-0.058732044
16	0x3d2402df	0.0400418
17	0x3d8c2c78	0.06844419
18	0x3cc24206	0.023713123
19	0x3d36864f	0.04456168
20	0x3cff1e0a	0.031142253
21	0x3cf1a879	0.02949928
22	0x3d09170a	0.033469237
23	0x3d4a78a1	0.049431447
24	0x3d994b75	0.074850954
25	0x3d0711d5	0.03297599
26	0xbd2faaf1	-0.04288763
27	0x3cf54c36	0.029943567
28	0xbd237678	-0.039907902
29	0x3d92f6fa	0.07176013
30	0x3d175a80	0.036951542
31	0x3c9ac31c	0.018891864
32	0xbcd8961f	-0.02643877
33	0x3d47d4e8	0.048787028
34	0xbd2b9e98	-0.041899294
35	0x3cffe00a	0.03123476
36	0xbd39d980	-0.04537344
37	0x3e1150c7	0.1419097
38	0xbd1121c3	-0.03543259
39	0xbc9341ba	-0.017975677
40	0xbc01e23e	-0.0079274755
41	0xbcc0494c	-0.02347245
42	0x3d35922a	0.044328846
43	0xbcaec968	-0.021336272
44	0x3cc3ad40	0.023886323
45	0xbd429998	-0.04750976
46	0x3e59c962	0.21268228
47	0x3d80b249	0.06284005
48	0x3d84edf3	0.06490698
49	0xbd1e55ad	-0.038655926
50	0xbd721ada	-0.05910764
51	0xbd500605	-0.05078699
52	0xbd1e9184	-0.038712993
53	0xbd2b6016	-0.04183968
54	0x3d656467	0.056003954
55	0x3d82f1d4	0.06393781
56	0xbc5bd74e	-0.013418032
57	0x3d3f8355	0.046756107
58	0x3d48fbdc	0.049068317
59	0x3d1dcdc8	0.038526326
60	0xbd0be0d1	-0.03414995
61	0xbd35fbdc	-0.044429645
62	0xbe0388f7	-0.12845217
63	0x3d48c9b2	0.049020477

linears.3.weight f4 [1, 64]
0	0xbeb81181	-0.35950854
1	0xbeb19e78	-0.34691215
2	0xbef728e8	-0.48273396
3	0x3ece49bd	0.40290633
4	0xbef59223	-0.47963056
5	0xbf654cff	-0.8957061
6	0x3e759ffe	0.23986813
7	0xbe93c2f9	-0.2885969
8	0x3f0d2491	0.5513392
9	0xbeb614a8	-0.35562634
10	0x3e2ba847	0.16763411
11	0xbecaa675	-0.39580122
12	0xbede1aa3	-0.43379697
13	0xbea93c2a	-0.33053714
14	0xbe0cf215	-0.13764222
15	0x3e8c796f	0.27436396
16	0xbe7e1e21	-0.24816181
17	0xbe91c9e6	-0.2847435
18	0xbe579d0c	-0.21056002
19	0xbeaee4f8	-0.34159064
20	0xbe6cfd1d	-0.2314343
21	0xbead79ed	-0.33882084
22	0xbe8d1eca	-0.27562553
23	0xbe845a7a	-0.25850278
24	0xbebe5a53	-0.37178287
25	0xbefaf39f	-0.49013993
26	0x3d73c36a	0.059512533
27	0xbe2f6007	-0.17126475
28	0x3f1dd94b	0.6165969
29	0xbe9ff7b1	-0.3124366
30	0xbedac676	-0.4272954
31	0xbe8f127c	-0.2794379
32	0x3f3abfc9	0.7294889
33	0xbe57a4d2	-0.21058968
34	0x3e6af3b9	0.22944535
35	0xbdd4f8a7	-0.10398989
36	0x3e3ad386	0.18244752
37	0xbee7c5af	-0.45268008
38	0x3e553ed5	0.2082475
39	0x3e0cd9f8	0.13755023
40	0x3d696f26	0.056990765
41	0x3e89e34c	0.26931226
42	0xbeb29b5d	-0.34884158
43	0x3e293fd2	0.16528252
44	0xbe64f0a3	-0.2235742
45	0x3e8e5a88	0.27803445
46	0xbf2f7b95	-0.68547946
47	0xbe79e5b7	-0.24404036
48	0xbecc94ae	-0.39957184
49	0x3e8540c9	0.2602599
50	0x3e7402e8	0.23829234
51	0x3e8b9d09	0.27268246
52	0x3f2050dd	0.6262339
53	0x3e647ab4	0.22312433
54	0xbedac282	-0.42726523
55	0xbe841e59	-0.25804403
56	0x3f10ccbf	0.5656242
57	0xbeaf79fb	-0.3427275
58	0xbdff110c	-0.12454423
59	0xbe002b62	-0.12516549
60	0x3eb7b06d	0.3587679
61	0x3ea2310c	0.31678045
62	0x3f2a1651	0.664403
63	0xbf00491a	-0.50111544
