Complete_thesis_stage_1_and_2/(d).Code_and_all_other_details/WAAM/PINN_TEMP_DEPENDENT_PROP/Models/model_epoch_43000.pt (torch, 38264 bytes, 7 tensors)

linears.0.weight f4 [64, 4]
00000000: da44 4bbe 6fb1 39bf 9cc6 74be 927b 24be
00000010: dc64 78be e20c fdbe 456d fc3c 731a a93e
00000020: 2755 88be d844 84bf 0c6c afbe ee4b 00bf
00000030: 2fd4 41bf 5742 c6be 9bf2 af3e 886c e23e
00000040: 34e7 2a3e b033 e43d 4e26 48bd a0a6 4e3c
00000050: 51a2 24be 3be8 61bd 7006 2cbd bc93 d83c
00000060: 6518 7ebe f458 a2bf 16f0 90be fcc0 36be
00000070: 0905 5fbe aa87 d1be 3fa3 21be 58cf a13e
00000080: be71 013e 8c44 853f 3ce7 6b3f f2da 6bbe
00000090: 4989 a2be 4e84 d2be 130b a93c ecff 32be
000000a0: 136c f13d 32d9 173f 1641 fcbc a298 4ebf
000000b0: f3b5 2ebf 8bd7 573f 6d4e 6f3e c667 213e
000000c0: 25b1 623f 1deb 843d 7fe9 bebe d486 503d
000000d0: c9ef 9c3e 4a3c 4a3e 6dc3 8abd 74ac dcbd
000000e0: 4394 cb3e 97e6 453d 908b 36be 9b6b 95be
000000f0: 8123 9dbe 6f52 973e 9d3d a9bc c712 1fbe
00000100: a0a1 03bf 0861 513e 0188 b6bd 4320 133f
00000110: ba05 193f 16db 48bf 1a53 b23e 900e 873e
00000120: 96d8 32be c5a8 093f f3c2 f33d 301e 223f
00000130: fe4a f7be 53cb 9dbe b256 71be 1fed 603f
00000140: 21f9 cfbe ed70 ebbd 1f3a c9be ec00 46bf
00000150: f6d5 4cbd 78e1 d8bd e616 043e 2fa2 91bd
00000160: 77e6 a2be 7478 b4bc 6143 55be bb91 fd3d
00000170: 2d6d 9f3e 558e b33e 40cf 8c3e 114b d63e
00000180: 4db7 bcbd 63bf aebc f756 403e cf32 d2bd
00000190: 68fa 083e e96d 8a3c 4089 543e 7be6 08bc
000001a0: 21cb c53e 247c 9bbe 0856 3b3d 974f 11bf
000001b0: 2377 373f 995e 883e 01fc e2bd bfc5 edbe
000001c0: 96b3 0dbf 9c60 71ba acb8 31be e98c bb3e
000001d0: 23b3 2a3e 9aa9 14bf f1fa 7cbe c2a3 84bc
000001e0: 4956 f8bc e7b4 92be d50b 8dbe 0fa7 90be
000001f0: b855 183f d5c7 45be d893 0dbf c91f 9fbe
00000200: af63 cd3e a9e8 153f b54f afbe 79f7 ebbc
00000210: d859 053f 9ded 72bf f031 bdbd 12c4 c9be
00000220: 4afd 8c3d 9c3b 65bd 059d 883e f2bb c03d
00000230: 193e 3e3f 044d 28be 240d 3bbe 31bd 163d
00000240: 5069 a53e 42d3 2d3e 85fb 263e bd51 86be
00000250: a36a 303f 95ed 6fbe 9833 dd3d 06bf 58bf
00000260: 42d1 3dbf 92fd b03c a768 13be 648e 193e
00000270: 29d0 673f 2ccf e53d 424b e53d cef1 223f
00000280: cf95 c5be e1bc 9c3d 7e4f 52bd a0d2 01bd
00000290: 0c86 aabe 869f fcbe a86d 8f3d 7b45 78bf
000002a0: 675d b33e 21b1 f3bf 1529 a73e 44ea f5be
000002b0: e400 01be bb15 c73e ed41 2fbe c973 e53e
000002c0: 57cc f7bd aa1e 093c 3cb8 c33d 9743 733d
000002d0: 8a69 013e 3db8 7abd 0f1d 56be a441 86be
000002e0: fc24 25be ffb5 d2bc 9473 5bbe a7c7 e83d
000002f0: 274b 443e af63 52be 6c27 26bd 6dce 553e
00000300: 05d6 073f f49a 16be 115d 13be 3e2e 853c
00000310: b378 893e 7e06 efbe f586 b13e 919f c63e
00000320: 1610 343e 5c04 b1bf ec30 3a3f 4ec2 0dbe
00000330: 074a b03e 282f 54bf 66f1 9a3e faa7 35be
00000340: 7fd7 b0bd d077 90bf 36ee af3e 3df7 a23e
00000350: 980d b73e 6993 963f 2764 973e 91d6 b9be
00000360: abca a0be f24f bd3d de3d 053e 2e54 833e
00000370: 6ab8 a0be 94a2 a9bd a824 16be c5bf 103e
00000380: 33a4 2dbf c527 47bf f050 19bf 032d 043e
00000390: 016e ba3e 5cc7 a23f 9156 cf3c 3edb 44be
000003a0: 54ac 16be 6b21 94bd 9537 843e e473 99bc
000003b0: 8a11 9c3e 1428 f73d 915b 12be 4733 563e
000003c0: 06c4 a03e 021e 113f 6dd6 5e3c 07fc 2abf
000003d0: d747 ff3e 50c7 4b3d bf10 553e add2 d7be
000003e0: 3247 08be a1e3 aabe cd80 2ebe 979d 3f3e
000003f0: 02c3 083e 996b ebbd da68 723e cbf5 b53e
-0.19850484 -0.7253637 -0.23903888 -0.16062763 -0.24257225 -0.4942389 0.030813823 0.33027992
-0.26627466 -1.033351 -0.3426212 -0.5011586 -0.7571439 -0.38722488 0.3436478 0.44223428
0.1668976 0.11142671 -0.048864655 0.012612969 -0.16077544 -0.055153113 -0.041998327 0.026437633
-0.24813993 -1.2683396 -0.2830817 -0.17847055 -0.21779265 -0.40923816 -0.1578493 0.31603503
0.12641045 1.0411544 0.9214971 -0.2303274 -0.31745365 -0.41116565 0.020635163 -0.17480439
0.11788192 0.5931579 -0.030792754 -0.8070165 -0.6824638 0.8431327 0.23369761 0.15762243
0.8855155 0.06490157 -0.37287518 0.050909832 0.30651692 0.19749561 -0.06775556 -0.1077508
0.39761552 0.04831561 -0.17826676 -0.2918366 -0.3069115 0.2955508 -0.020659262 -0.15534507
-0.51418495 0.2044717 -0.089126594 0.574711 0.59774363 -0.784593 0.34829026 0.26378298
-0.17465433 0.53773147 0.11902418 0.6332731 -0.48299402 -0.30819187 -0.23568228 0.8786182
-0.40619758 -0.11496148 -0.39302155 -0.77345157 -0.050008737 -0.1058988 0.1289936 -0.07111012
-0.31816456 -0.022030093 -0.20826484 0.123813115 0.31137982 0.35069528 0.2750187 0.41854146
-0.09214649 -0.021331495 0.18783174 -0.10263597 0.13376772 0.016898112 0.20755482 -0.008355732
0.38631538 -0.3036815 0.045736343 -0.5676207 0.71666163 0.26634672 -0.11083222 -0.4643993
-0.5535215 -0.00092078163 -0.17355603 0.36630943 0.16669898 -0.5807129 -0.24705102 -0.016191367
-0.030314581 -0.28653643 -0.2754809 -0.28252456 0.59505796 -0.19314511 -0.55303717 -0.31078938
0.40115115 0.58558136 -0.342405 -0.028804528 0.52090216 -0.9489382 -0.092380404 -0.39407402
0.068842486 -0.05596505 0.26682296 0.09410848 0.74313504 -0.16435629 -0.18266732 0.03680152
0.3230691 0.1697512 0.16306885 -0.26234236 0.68912715 -0.23430474 0.10800856 -0.8466648
-0.7414743 0.021605287 -0.1439539 0.14995724 0.90552 0.112211555 0.11195995 0.63650215
-0.38590857 0.07653213 -0.05134534 -0.03169501 -0.33305395 -0.49340457 0.07003337 -0.9698102
0.35032198 -1.903843 0.3264853 -0.48030293 -0.12597996 0.38883767 -0.17114992 0.448149
-0.120995216 0.008369127 0.09556624 0.05939063 0.12637916 -0.06121086 -0.20909522 -0.26221955
-0.1612739 -0.025721548 -0.21430808 0.11366206 0.19169293 -0.20545839 -0.04056494 0.20879526
0.5306094 -0.14707547 -0.14390971 0.016257402 0.268499 -0.4668464 0.34673277 0.38793615
0.17584261 -1.3829455 0.727309 -0.13843653 0.34431478 -0.82884455 0.30262297 -0.17739859
-0.086348526 -1.1286564 0.34361428 0.31829253 0.3575256 1.1763736 0.29568598 -0.36296514
-0.31404623 0.09243764 0.13011882 0.25650162 -0.31390697 -0.082829624 -0.14662421 0.14135654
-0.67828673 -0.7779506 -0.59889126 0.12907796 0.3641205 1.271709 0.025309833 -0.1922426
-0.14714175 -0.072329365 0.25823656 -0.018732019 0.3048213 0.12068191 -0.14292742 0.20917998
0.31399554 0.56686413 0.013600928 -0.66790813 0.49859497 0.049750626 0.2080717 -0.4215292
-0.13308409 -0.33376792 -0.17041321 0.1871246 0.1335564 -0.11495132 0.2367281 0.35539088

linears.0.bias f4 [64]
00000000: 7cb8 0cbc e31d 13bc 8e30 c5be 759f 90be
00000010: f050 00be b0a9 83be 0696 9abe 30b8 2f3e
00000020: 472d 9b3e 08b7 51be 5623 29bf 9c15 debe
00000030: f817 743f c74f 1c3e bdc0 51bd 7446 6bbe
00000040: dd04 283c 8a3f 533e 3c44 143e fb6d 2a3f
00000050: 9567 51bf 042d 0b3d 9e93 23be 3864 7e3e
00000060: 953d 1dbd 828b d23d 335b 86bc 4e04 09bf
00000070: ddd1 03bd 109a 0f3e b219 d4bd fc04 a33e
00000080: 4010 c03d d43b 30be 256a 803c 143f bebd
00000090: b3e1 be3d 735b b4be aac5 4dbe 6f6e 813f
000000a0: 64d5 263c c4b2 b5bf b42e 303e 1969 023f
000000b0: 1280 543e c5c6 b7bd b0d7 99bd a85e 373e
000000c0: ba55 c53e 1623 953d 2f31 cb3e ac38 683d
000000d0: bbef 063e 2ee6 1cbe a711 173e 88a0 1cbe
000000e0: 7afe 2d3e 4633 4b3d 49e7 eb3d 043b 473e
000000f0: bc4d a3bd 0d95 e4bb f926 0dbd b6a0 963c
-0.008588906 -0.0089792935 -0.38513607 -0.28246656 -0.12530875 -0.257154 -0.30192584 0.17160106
0.3030798 -0.20479977 -0.66069543 -0.43375862 0.95349073 0.15264808 -0.0512092 -0.22976094
0.010255066 0.20629707 0.14479154 0.66574067 -0.8179868 0.033978477 -0.1597428 0.24842918
-0.038388807 0.10280515 -0.016400909 -0.53522193 -0.032182563 0.14023614 -0.103564635 0.3183974
0.093780994 -0.17210323 0.015675614 -0.09289375 0.093203925 -0.3522602 -0.20094934 1.0111827
0.010182712 -1.419518 0.17205316 0.50941616 0.2075198 -0.08973459 -0.07511842 0.17907202
0.38541967 0.07282083 0.39685962 0.05669467 0.13177387 -0.15322182 0.14752828 -0.15295613
0.16991606 0.049609445 0.115187235 0.19456106 -0.07973811 -0.006975776 -0.034460995 0.01838718

linears.1.weight f4 [64, 64]
00000000: 9bac 4b3c 3af7 71be e8f7 d93c f74b 01bf
00000010: 97d3 263e 729c 99bd 0473 19bd 964e 3bbd
00000020: 2269 ed3e abd3 023e 85b5 bebd 9af2 4dbe
00000030: a29e db3c 7198 3a3e a107 e0bd 8b7e f0bd
00000040: b096 ebbd 6ad9 85be 0560 e5bd e51b e7bd
00000050: 9dd6 26bc 9b5c be3d e085 dbbd d6cc 0abd
00000060: d16d 72bd 0691 8bbe f915 d03d 998c 2f3e
00000070: bae5 223e 9e76 af3d 5130 6d3e ecc7 913e
00000080: 8883 493d 21d1 15bd e428 903c 0b3c 44bd
00000090: 4ef1 acbc 4338 8b3e 017b 82be a63c 6a3e
000000a0: c05b e2bd 67ce b0ba 0c5d ef3c a145 0b3d
000000b0: 49e3 42be 033a a0bd 908f 5e3e 3105 1bbe
000000c0: 4eca 6c3e 4035 65be 2ab3 bf3e fdd2 81bd
000000d0: bc4c 323e ab03 40be 1a79 9cbe 3602 16be
000000e0: 78fa 10be 8bbf ab3c 55ef 4bbe ec3f 773d
000000f0: 442c 113e 1232 7f3d 44d2 a13d 8136 793d
00000100: aea2 463d 2a42 843e 837a 4abd a4e9 803d
00000110: 1154 3a3e 6d17 afbd 430f 603e 7413 823e
00000120: 9fc8 8a3c e534 3ebe ba83 46be 1f88 02be
00000130: a313 1fbd d536 19bd e841 cc3d 0c77 3ebe
00000140: bd6d 533e a989 92bc a3fa 56be 1085 37bd
00000150: 2c4a 753c ddcb 4bbe bd79 d93c b835 81bd
00000160: 26a7 24be ea51 b7bd 65f1 8ebd 2e76 643e
00000170: 8dde 30be 6936 c33e 00be b53c 3761 cbbc
00000180: 6661 483d 57ae 613e bc11 61be 7733 0d3e
00000190: 1c6d 6fbe 6958 92bd bedf 283e 7667 bfbd
000001a0: f59e 853d ba21 93be cd52 013d dc86 16bd
000001b0: aaa9 f53e 452d 93bc f7b6 bbbd 81f4 c2bd
000001c0: 7370 10bb 5dd6 ca3d 4f05 0a3e 7431 b33d
000001d0: 5e49 853d b1a3 88be 8db3 f0bd 8a4d debc
000001e0: adea 803c 1c3e a2be cac4 333e b977 29bc
000001f0: e3e6 6ebe d115 d6bd 2a0a 073e a8a4 81bd
00000200: c81c e43d f3f3 0f3d 96d9 b33d 3b87 743e
00000210: 2233 a7bc 0e4f 3fbe 3e0c b3bd 5677 1dbe
00000220: 04b7 1ebe 22dc f6bd 1b38 b83d 5af1 e7bd
00000230: 6c82 dabd 12bf 0bbe 3794 43bd 7ee1 98bd
00000240: 1543 d1bd e79c 11bd b853 eebd 4c8d 523e
00000250: b7bc 613d a331 a8bd 6b95 d3bd b63b 4e3e
00000260: 83bc 1bbe a1fc 973d a348 593e ec60 f43d
00000270: 28c2 26bd dae1 fd3d 2317 a9bd 5c19 223e
00000280: 3e90 243e eb69 683d 0e78 2d3e e4d9 b5bd
00000290: 8b95 e03c dc09 ddbd d268 823e 56a9 20be
000002a0: f3e0 593e e2e6 1dbe e9c5 44bd 6bb6 223e
000002b0: 46c7 313f 739d 06be 9ca8 0dbc 2d80 5b3e
000002c0: ee81 a2bd a6ec 2dbe f2fe 813a dbd0 273b
000002d0: 352a 1cbd aa2f b63d 907c 923e 3e38 b3bd
000002e0: d385 16be 00f8 8d3b 6207 8dbd 2b62 db3d
000002f0: d762 9b3d 38e9 343e dc65 55be d2be 1c3e
00000300: 1ff9 cc3d 1610 903e 2546 183d 80fc 763e
00000310: 7e57 cb3d 7790 b83e ff2f 953d a598 18be
00000320: d57b 613e f0c1 6d3e 0cb8 4d3e f90d 41be
00000330: 9112 2cbf fe67 38be 3f5b cc3c 0ed1 733d
00000340: d0a2 a83e 11bc 5fbe be4f f93d 2b4c c2bd
00000350: e759 a53e e22f 87be 5313 c43e 0b2a 4dbc
00000360: dbe5 c83d fd66 cabe 9ba9 86bc c98b 6dbe
00000370: 81e0 243e 9726 5bbe ec4e 4c3e 8a24 e5bd
00000380: 05bf e8be bea7 2fbe 39c1 a2bd 9132 44be
00000390: aa75 053c 9546 533e 574b 443e e38e edbe
000003a0: f6a3 f93d c050 103f 3859 06be 83e7 afbe
000003b0: 83d1 01bd 645c dfbd fc6f 9b3e 3d96 7ebd
000003c0: 36d6 5bbd 65aa 2e3c 1400 523c 44a6 bebe
000003d0: 968d 7cbc 5d17 3fbe 821a b13d acf5 7e3e
000003e0: 3456 dfbe 949d 2bbd 3fd1 6ebd ebd7 323e
000003f0: 015d 4ebe 05d4 87be 4812 ad3d 44b7 8f3e
0.012431289 -0.23629466 0.026607469 -0.5050654 0.16291653 -0.07500543 -0.037463203 -0.045729242
0.46369272 0.12776057 -0.09311966 -0.20112076 0.02680904 0.18222214 -0.10938955 -0.11742886
-0.11503351 -0.26142436 -0.11199955 -0.11284617 -0.010183004 0.09295007 -0.10718894 -0.033886753
-0.05918676 -0.27259082 0.10160441 0.17143477 0.15907946 0.08567546 0.23162962 0.2847284
0.049197704 -0.036576394 0.017597623 -0.047908824 -0.021111157 0.27191362 -0.2548447 0.22874698
-0.11052656 -0.0013489247 0.029219173 0.03400195 -0.19032015 -0.07823565 0.21734452 -0.15138699
0.23124048 -0.22383595 0.3744138 -0.06339071 0.17412084 -0.18751399 -0.30561143 -0.14649281
-0.14158046 0.020965358 -0.19915517 0.060363695 0.14177042 0.06230361 0.07901433 0.060842995
0.048494987 0.2583173 -0.049433243 0.062945634 0.18196131 -0.0854939 0.21880822 0.25405467
0.016941367 -0.18574865 -0.19386187 -0.12747239 -0.038837086 -0.037405808 0.09973508 -0.186001
0.2064733 -0.017887907 -0.20994048 -0.044804633 0.014971297 -0.19901986 0.026547307 -0.06309074
-0.16079387 -0.08951171 -0.06979636 0.22310707 -0.17272396 0.3812745 0.022185326 -0.02482663
0.04892101 0.22039162 -0.21979421 0.13789164 -0.23381466 -0.07145769 0.16491601 -0.093459055
0.06524459 -0.2873667 0.031573106 -0.036749706 0.47981006 -0.017965922 -0.09165757 -0.09519292
-0.0022039681 0.09904168 0.13478588 0.08749667 0.06508134 -0.26687387 -0.117529966 -0.027136583
0.015736902 -0.3168801 0.17555538 -0.0103434855 -0.23330264 -0.1045338 0.13187471 -0.06330234
0.11138302 0.035144757 0.087817356 0.23879711 -0.020410124 -0.186825 -0.087425694 -0.15377554
-0.15499502 -0.12053706 0.08995076 -0.11325331 -0.10669407 -0.13647106 -0.04774877 -0.07464884
-0.10217873 -0.035550024 -0.11637062 0.20561713 0.055111613 -0.082125925 -0.103312336 0.20139965
-0.1520863 0.07421232 0.21219115 0.11932549 -0.040712506 0.123965934 -0.08256366 0.15829986
0.16070649 0.056741636 0.16940328 -0.0887945 0.027415058 -0.10792896 0.25470597 -0.15689597
0.21277218 -0.15420106 -0.048040304 0.158899 0.6944469 -0.13146 -0.008646157 0.21435614
-0.07934938 -0.16984805 0.0009917899 0.0025606665 -0.03812619 0.0889581 0.2861066 -0.08750962
-0.14699487 0.0043325424 -0.06886174 0.107120834 0.075872116 0.17667091 -0.20839638 0.15307167
0.100084536 0.28137273 0.03717627 0.24119759 0.09928797 0.36047718 0.07284545 -0.1490198
0.22019894 0.23218513 0.2008974 -0.18852986 -0.6721583 -0.1800842 0.024945853 0.059525542
0.32936716 -0.21849085 0.12173413 -0.09487184 0.32295153 -0.2640372 0.38295993 -0.012522231
0.098094665 -0.395317 -0.016438296 -0.23197855 0.16101266 -0.2140144 0.19951981 -0.1118861
-0.45458236 -0.17153832 -0.079470105 -0.19159915 0.008145729 0.20632394 0.19169365 -0.46398076
0.12189476 0.56373215 -0.13119972 -0.34356317 -0.031693947 -0.10906294 0.30358875 -0.062154997
-0.053671084 0.010660742 0.012817401 -0.37236226 -0.015414616 -0.18661256 0.08647634 0.24898404
-0.43620455 -0.041898325 -0.05830502 0.17465179 -0.20152666 -0.26528946 0.084507525 0.28069508

linears.1.bias f4 [64]
00000000: 64f7 78bd 951e 443c adab 853d 7426 6cbe
00000010: 6a89 f7bc 6138 9fbd c242 a6bd afd7 cd3d
00000020: bb85 d5bc b168 093d c600 66bd 792e 82bf
00000030: c603 3b3d 52f3 2a3d 271d e83d 0172 b4bd
00000040: f509 3d3d 7136 8f3c 2be2 fcbd 7a56 7b3c
00000050: f6f6 473d 9ad4 d03e e13e 743d 1cc6 04bd
00000060: 5744 eabb 834b 7c3d 15b6 1f3f a20b 45bd
00000070: 1a3c a7bd d31b 21be 57f2 f03d cb05 a5bd
00000080: ba78 813d 2b46 d9bc bbbe 95bd d6c1 b5bc
00000090: e699 29bd b5ce 6ebd 2763 6dbd d419 dc3c
000000a0: 2466 cabd 9ef1 253c 60ae f83b f404 dfbc
000000b0: 65b5 d63c 286d 68bc 556e bb3c 8cc8 563d
000000c0: d434 403d 383b c8bd 7a35 8fbe 75bf 2f3d
000000d0: 21e3 fd3d 4632 7fbd 8a38 a3bd ffb4 03be
000000e0: 3b71 46bd 31b1 1fbe 665a 333d 5814 523d
000000f0: e9a1 f3bd 1709 833d 9201 803d d54f ff3c
-0.060782805 0.011970182 0.06526885 -0.23061544 -0.030216891 -0.07774425 -0.08118202 0.10050904
-0.026064744 0.033547107 -0.05615308 -1.0170432 0.045657896 0.041735955 0.11333685 -0.08810807
0.046152074 0.017482014 -0.123478256 0.015340442 0.048819505 0.40787202 0.05963028 -0.032415494
-0.00714926 0.06159545 0.6238721 -0.048106797 -0.0816576 -0.1573327 0.11764973 -0.080577455
0.06321855 -0.026522717 -0.073117696 -0.022187155 -0.041406535 -0.0583026 -0.057955887 0.026867785
-0.09882763 0.010128407 0.0075891465 -0.027224042 0.026209543 -0.014186181 0.022879759 0.05243735
0.04692538 -0.0977692 -0.27970487 0.042907197 0.12396837 -0.062303804 -0.07969768 -0.12862013
-0.04844783 -0.15594937 0.043787383 0.051288933 -0.11896116 0.06398218 0.062502995 0.031165997

linears.2.weight f4 [64, 64]
00000000: 0521 e9bd 901d febc 1e35 5abd a09e 373e
00000010: 1e7c c3bd 5dae 6abe 2ca1 9ebd 8e83 d53c
00000020: b191 0dbd df51 423a 5bb3 56be 5bd7 73be
00000030: 8bb2 6c3e 12a6 d03d 4fbd 70bc 50ed cabd
00000040: 4875 91bd 470b ab3d e1a8 13be 6770 023d
00000050: 08fa 0bbb 9152 5abd 0a1a 5a3e f6ea 913e
00000060: bead f73d a3b6 f7bc b29c 83be 3da3 3d3d
00000070: 7316 80be 40b7 debd 2a03 1dbe 83fe de3d
00000080: 86a0 013e ae84 143e eb71 73bd da41 54be
00000090: c0e7 b13b 0839 02be 340b 7bbe 824a a93d
000000a0: a834 bbbc 9369 b1bd 91a5 8d3d 67ca 21be
000000b0: 7216 e83d 5404 a43d 5f0a 1e3e 0676 e1bd
000000c0: 7b00 4cbe 303c 00be d04f 13be 1590 ffbc
000000d0: 15e8 90bd e220 45be 3ed0 debc 6abb 6abd
000000e0: 9fc0 2bbe 60a9 a9be 49b6 333e 5d4e 4a3e
000000f0: 7459 4cbd bc84 053e 047e b13d 1c61 113d
00000100: 26fa 053e 4d94 2bbd 0173 a63e 296e 553e
00000110: 3034 463d 1037 853d 0136 84bd 9cfd 643c
00000120: e745 5bbc 6f0d 81bd 1010 eebd 5a85 f4bd
00000130: 6999 903d 4d9e 8ebd 3ed1 fc3b a013 a7be
00000140: 8834 88bd c3a1 113e 704e 29be 30aa af3d
00000150: 4346 9dbd e2b5 0b3e 4224 de3d 2aaa 943e
00000160: 2e19 30be 900d 0b3e d015 05be 97e5 5abc
00000170: a3dc dbbd 0841 babd f6e7 7b3e f233 03be
00000180: df5f 943b 42df 7dbe f1d8 e6bd 9194 a1bd
00000190: f585 69be 9761 88be 1c98 b63c 1bf8 c33c
000001a0: a942 363c 2abd 343e 9a8b 5cbe bf65 66be
000001b0: 6fde 373e e9c2 dc3c b743 6abe 821e c1bd
000001c0: 7ebf 29be bf54 0ebe 6c52 0cbe 393a 4a3d
000001d0: 7276 303e e7f2 aebb ec79 9e3d a454 8f3d
000001e0: 50b4 9fbd 7ce9 953c cba2 4a3e 1d39 1b3e
000001f0: 818b 53bd eb0b 57bc abdc 8d3d e329 ddbb
00000200: 1efd 2e3d c757 1f3e 7369 043e a2d1 0cbf
00000210: 9d86 233e 33f9 5fbd b498 39be a394 713c
00000220: aac0 80be 257c 293c b102 9dbe 4dd5 a3bb
00000230: ae7c b6bd 0afb 783e 1885 17bf 64f4 4bbe
00000240: ae0b 133f c59e e63d e53f 36bf 3b17 05bf
00000250: 6f66 4f3e a57a 973d 6fcf d33d 0e0b 7c3f
00000260: 155c f13e 6dcc 0d3d e9c1 cdbf fd70 303e
00000270: 5522 36be 4531 9dbf eec1 cc3e 3044 acbd
00000280: adc3 583f 5e15 e7be e041 7bbd 56c9 733e
00000290: 3085 21be 6a1f c7bd 8dfe bbbe 8780 3abf
000002a0: e653 b8be 6cb3 afbe edfd d1ba 3fe6 0dbe
000002b0: d0fd 4c3f a5ce 8f3e d3d8 c23e bca2 3b3e
000002c0: 2088 3d3e 91b4 97bd c53f 91be d1f3 343d
000002d0: 19d6 523e 09eb 8abd 14e6 31be 7f86 7cbd
000002e0: 317e a43e b0bf 1a3e 21bf 60be ffb0 d9bc
000002f0: e664 69be af8a 96bd c2a3 8ebc d26a 2abd
00000300: 9452 233e 7946 24be a218 37be 3e8c c83c
00000310: 995b 743e 878c 493e 3aed dc3b d1c4 69be
00000320: f0b0 0e3e 459b fa3d 1840 01be ca67 463d
00000330: c59a 06be 2c6d 883c 3930 333e 7390 983d
00000340: 91d4 36be 152c 86bc b206 713e f28c b9bd
00000350: 5ab5 00be f02f cebc 3a02 eebd 9944 a83c
00000360: 963d 2cbe 2284 a5bd 74f6 1a3d 8d01 4c3e
00000370: c28a 5a3e 7e0a 863e 2dbb 5ebe 1013 c23d
00000380: ca45 133d 10c5 e53d 3f65 e73d 9803 9d3d
00000390: 6bb7 aa3d 8a8d 473d 38db 35be d4b2 21be
000003a0: 8858 673e a662 f73d f35d febd 81eb c23c
000003b0: 251b 573d 70ce 58be 229f eabd ae32 70be
000003c0: 8e44 1ebe 1efe 82bc 89e3 75be c69c 72bd
000003d0: b11f aabd 5b7c 553e 6439 2d3d c5af 8bbd
000003e0: 853c 3dbe 2535 d33d 9c9d 0bbe faba 36be
000003f0: 5047 ed3d 1464 3ebe b110 2fbd 09fc 173e
-0.11383251 -0.031019956 -0.053273313 0.17931604 -0.09545158 -0.22918077 -0.07745585 0.026063707
-0.03456277 0.00074127124 -0.20966856 -0.2381262 0.23114984 0.101879254 -0.014693572 -0.09908545
-0.07102448 0.0835176 -0.14419891 0.031845476 -0.0021358747 -0.053301398 0.21298996 0.28499573
0.120936856 -0.030238455 -0.25705487 0.046298254 -0.25017127 -0.10874796 -0.15333238 0.10888388
0.12658891 0.14503738 -0.059434813 -0.20728245 0.005429238 -0.12717068 -0.24515992 0.08266164
-0.022852257 -0.08662715 0.06916345 -0.15799867 0.11332406 0.08008638 0.15433644 -0.11008839
-0.19922058 -0.1252296 -0.14385915 -0.031196633 -0.07075516 -0.19250825 -0.027198907 -0.05730764
-0.16772698 -0.33137035 0.17550005 0.19756456 -0.049889997 0.13038915 0.08666614 0.035493
0.13083705 -0.041889478 0.32509616 0.20842804 0.048389614 0.06504643 -0.06455613 0.013976481
-0.013383365 -0.063013904 -0.116241574 -0.11939497 0.07060511 -0.06963787 0.0077153733 -0.3263216
-0.066506445 0.14221863 -0.16533828 0.085773826 -0.07679417 0.13643602 0.108467594 0.29036075
-0.17197105 0.13579392 -0.12996602 -0.013360403 -0.107354425 -0.09094435 0.24600205 -0.12812784
0.0045280303 -0.24792197 -0.11271847 -0.07889665 -0.22805007 -0.26636955 0.022289328 0.023922017
0.011124291 0.17650285 -0.21537629 -0.2249975 0.17955945 0.02694841 -0.22877394 -0.09429647
-0.16576955 -0.13899516 -0.13703316 0.04937193 0.17232683 -0.005339015 0.077380985 0.06998566
-0.07798064 0.01829981 0.19788663 0.15158506 -0.051646713 -0.0131254 0.06926855 -0.006749378
0.04272186 0.15560828 0.1293085 -0.55007374 0.1596932 -0.054681014 -0.18124658 0.01474491
-0.2514699 0.01034454 -0.30666116 -0.0049997927 -0.089104995 0.24314514 -0.5918746 -0.19917446
0.57439697 0.11260752 -0.71191245 -0.5198857 0.20253919 0.073964395 0.10342299 0.9845437
0.47140566 0.034618784 -1.6074802 0.17230602 -0.17786534 -1.2280661 0.39991707 -0.08411443
0.8467358 -0.4513349 -0.06134212 0.23807272 -0.15773463 -0.09722789 -0.36717644 -0.7285237
-0.3600151 -0.34316576 -0.001602111 -0.13857363 0.8007479 0.28087345 0.3805605 0.18323797
0.18508959 -0.07407487 -0.28368965 0.044177834 0.20589484 -0.06783111 -0.17372924 -0.061651703
0.32127526 0.15112185 -0.2194791 -0.026573656 -0.22792396 -0.073506705 -0.01741207 -0.041605778
0.1594947 -0.16042508 -0.1788049 0.024480935 0.23863067 0.19682513 0.006742147 -0.22828986
0.13934684 0.122366466 -0.12622106 0.048438825 -0.13144977 0.01665362 0.17498864 0.074494265
-0.17854525 -0.016378442 0.2353771 -0.09060086 -0.1256918 -0.025169343 -0.116215184 0.020540522
-0.16820368 -0.08081843 0.037832692 0.19922467 0.21341994 0.2617988 -0.2175109 0.09476292
0.035955228 0.11219227 0.11298608 0.07666701 0.083357655 0.048718967 -0.17759407 -0.15790874
0.22592366 0.120793626 -0.12420263 0.023793938 0.05251612 -0.211725 -0.114561334 -0.23456833
-0.15455839 -0.015990313 -0.24012579 -0.059231542 -0.08306826 0.20848219 0.04229106 -0.06820635
-0.18480118 0.10312871 -0.13634342 -0.17844763 0.115858674 -0.18592864 -0.042740528 0.14842238

linears.2.bias f4 [64]
00000000: 1f7f 623d 0ed2 493d cbe9 053d 71a3 02bd
00000010: e23c d43d 93e5 1dbb a721 0abd e82c 043d
00000020: a866 8cbd a21f 0b3d 1acf a9bd 8766 4c3d
00000030: 8672 4c3d 2b41 133d 214f 923d 07cc 87bd
00000040: c796 373d 92ff 8e3d 6d1c c13c 340b 733d
00000050: afe6 383d f8c8 c13c d4e2 b23c fc4b 613d
00000060: 2918 ae3d a1e7 fd3c 8063 2bbd 8d17 803d
00000070: dffd 2abd a8cd 973d 1e2f 133d e856 c23c
00000080: dc64 02bd 31a1 763d 0ff7 50bd 97e0 243d
00000090: b8d5 4ebd 0189 ff3d c461 35bd 4ecd 7abc
000000a0: 1fe7 23bc 83c9 23bd 6aba 5a3d d3a6 0bbd
000000b0: c309 103d 926e 66bd 3b45 ea3d c3fe 8f3d
000000c0: eb82 8d3d e8a2 27bd 7495 89bd b0dc 72bd
000000d0: 3144 1dbd ea84 49bd 862b 823d bbd2 b13d
000000e0: 3c9f 4abd 298f 4a3d a655 553d 360f 363d
000000f0: db16 06bd e1ab 64bd caf1 00be ed57 703d
0.055297013 0.04927259 0.032693665 -0.03189415 0.10363175 -0.0024093136 -0.0337235 0.03226939
-0.068555176 0.033965714 -0.082914546 0.049902465 0.049913906 0.03595082 0.07143999 -0.06630712
0.044821527 0.0698234 0.023573125 0.059336856 0.045141872 0.0236554 0.021836676 0.055004105
0.08500702 0.030994238 -0.041842937 0.06254492 -0.041746017 0.07412273 0.035933606 0.02372308
-0.03183447 0.060212318 -0.051016863 0.040253248 -0.050496787 0.12477303 -0.04428269 -0.0153077375
-0.010003834 -0.0399871 0.053400435 -0.034094643 0.03516556 -0.05625779 0.11438986 0.07031014
0.06909736 -0.040926844 -0.06717959 -0.059292495 -0.03839511 -0.049199022 0.06355958 0.08682772
-0.049468264 0.049452934 0.052083634 0.0444481 -0.03273664 -0.05582798 -0.12592235 0.058677603

linears.3.weight f4 [1, 64]
00000000: f25e babe 4f1b b6be e300 ffbe 93d7 d63e
00000010: 94a0 fcbe fe6b 83bf e8f8 7e3e 8b19 94be
00000020: 7623 103f 5ea2 b6be 144a 323e ed57 cebe
00000030: f88f e2be 4977 b4be 0164 20be ecb5 913e
00000040: b81c 84be fb29 99be a66f 63be d343 b2be
00000050: da28 6ebe cd77 a4be 34ad 98be e78c 8abe
00000060: 92af c1be 6201 17bf f058 933d 0e20 3bbe
00000070: 58ed 1f3f 954b a5be 4883 e4be fbc2 87be
00000080: 85be 3a3f 762b 5dbe 02d2 713e 2974 02be
00000090: 01ab 413e c800 ebbe cf72 6b3e 6ff3 0d3e
000000a0: 68a7 763d 3393 8a3e a9fe b6be e75d 313e
000000b0: d618 62be fb6c 923e aa58 46bf aa53 92be
000000c0: 718a d1be b3c9 8d3e 9dc5 7c3e d968 8f3e
000000d0: 24ab 213f 218f 6b3e 49a5 ddbe c09d 87be
000000e0: 39dd 1d3f f52a b3be 9ec1 11be bd5a 08be
000000f0: 56e1 c63e fa4c a53e 23ff 2b3f b72f 02bf
-0.36400563 -0.3556771 -0.49805364 0.41961345 -0.4934126 -1.0267332 0.24899638 -0.28925738
0.5630411 -0.3567075 0.17411071 -0.40301457 -0.44250464 -0.35247257 -0.15663148 0.28459108
-0.2580316 -0.2991484 -0.22210559 -0.3481737 -0.23257771 -0.3212265 -0.29819643 -0.27060625
-0.37829262 -0.58986485 0.07194698 -0.18273947 0.6247153 -0.32284227 -0.4463141 -0.26515946
0.7294696 -0.2159861 0.23615268 -0.12739624 0.18912889 -0.45899034 0.22993015 0.13862394
0.060218245 0.2706543 -0.35741165 0.17320977 -0.22079787 0.2859877 -0.7747904 -0.28579456
-0.40925935 0.27692947 0.24684758 0.2800968 0.63151765 0.23003818 -0.43290165 -0.2648754
0.61665684 -0.3499371 -0.14234015 -0.13315864 0.38843793 0.3228529 0.6718618 -0.5085406
