Complete_thesis_stage_1_and_2/(d).Code_and_all_other_details/WAAM/PINN_TEMP_DEPENDENT_PROP/Models/model_epoch_29000.pt (torch, 38264 bytes, 7 tensors)

linears.0.weight f4 [64, 4]
0	0xbe440856	-0.19143805
1	0xbf3a0b25	-0.72673255
2	0xbe770dca	-0.24126354
3	0xbe1da04e	-0.15393183
4	0xbe70d735	-0.23519595
5	0xbeeef79e	-0.46673292
6	0x3cfe20cc	0.031021498
7	0x3ea9229c	0.33034217
8	0xbe8fc66b	-0.28081068
9	0xbf79f3fe	-0.9763793
10	0xbeafb677	-0.34318897
11	0xbf029644	-0.5101054
12	0xbf43af2f	-0.76439184
13	0xbece3d56	-0.4028117
14	0x3ea9709a	0.3309372
15	0x3ed7c273	0.4214054
16	0x3e2abf5f	0.16674565
17	0x3da31dec	0.079646915
18	0xbd444d7c	-0.047925457
19	0x3c3b0f90	0.011417285
20	0xbe24aeef	-0.16082357
21	0xbda500b9	-0.080567785
22	0xbd24b84e	-0.04021483
23	0x3cc4c286	0.024018537
24	0xbe82ba9b	-0.25532994
25	0xbfa56690	-1.2921925
26	0xbe90d9c8	-0.28291154
27	0xbe2f525e	-0.17121264
28	0xbe4b5ebd	-0.19860359
29	0xbf017fe9	-0.505858
30	0xbe1d4320	-0.15357637
31	0x3ea39725	0.31951252
32	0x3df04a36	0.117329046
33	0x3f870dd7	1.0551099
34	0x3f6bf9a9	0.92177826
35	0xbe7657d1	-0.24056937
36	0xbea7e293	-0.3279005
37	0xbefc8dc2	-0.49326903
38	0x3ca3513c	0.019936197
39	0xbe386cc2	-0.18010238
40	0x3de583b6	0.112067625
41	0x3ec27988	0.37983346
42	0xbd0308ac	-0.031990692
43	0xbf501c77	-0.81293434
44	0xbf32911d	-0.69752675
45	0x3f2a3b19	0.66496426
46	0x3e5910e3	0.21197848
47	0x3e0f3570	0.13985229
48	0x3f5dd1bd	0.8664816
49	0x3e8da633	0.27665862
50	0xbeb9684a	-0.3621238
51	0x3ce6b08d	0.028160358
52	0x3e9dca54	0.30818427
53	0x3e4a79d1	0.19773032
54	0xbd88fcc7	-0.066888385
55	0xbdd5ac34	-0.10433236
56	0x3ec42b37	0.3831422
57	0x3de9774b	0.113997065
58	0xbe3ee5b4	-0.18642312
59	0xbe97c4b6	-0.29642266
60	0xbe9c8163	-0.30567464
61	0x3eb128ac	0.34601343
62	0xbca1d012	-0.019752536
63	0xbe1ce63d	-0.15322204
64	0xbf00d4c7	-0.5032467
65	0x3e40da0b	0.18833177
66	0xbdb2c71d	-0.08729384
67	0x3f12b5d9	0.5730873
68	0x3f1f8b7d	0.6232222
69	0xbf727abb	-0.9471852
70	0x3eb147b1	0.3462501
71	0x3e847bbb	0.2587565
72	0xbe357e86	-0.17724046
73	0x3f06418b	0.5244376
74	0x3dfe8e35	0.124294676
75	0x3f1f47b9	0.62218815
76	0xbef80bae	-0.4844641
77	0xbe46f784	-0.19430357
78	0xbe679a2b	-0.22617404
79	0x3f6073aa	0.8767649
80	0xbeccaa9f	-0.39973924
81	0xbd5d7ad2	-0.05407221
82	0xbecce263	-0.4001647
83	0xbf44be4e	-0.7685288
84	0xbd529876	-0.05141493
85	0xbde7b7a8	-0.113143265
86	0x3e01b0c8	0.12665093
87	0xbd91585c	-0.07096931
88	0xbea70b61	-0.3262587
89	0xbc89efff	-0.016838072
90	0xbe550397	-0.2080215
91	0x3df5a5fc	0.1199455
92	0x3ea4becf	0.32176825
93	0x3ec65038	0.38733077
94	0x3e8cdd82	0.27512747
95	0x3ed95e3a	0.42454702
96	0xbdbc40cd	-0.09192047
97	0xbb4fc238	-0.0031701457
98	0x3e3ec871	0.1863115
99	0xbdcfbdfb	-0.10143658
100	0x3e0d0435	0.13771136
101	0x3cfc0f8b	0.03076913
102	0x3e54c266	0.20777282
103	0xbbac58ba	-0.0052596005
104	0x3ec67fed	0.38769475
105	0xbe8f0067	-0.27929994
106	0x3d346010	0.044036925
107	0xbf0fe76b	-0.5621249
108	0x3f31833f	0.6934089
109	0x3e103d86	0.1408597
110	0xbe0532ab	-0.1300761
111	0xbef5f4f0	-0.48038435
112	0xbf0b160f	-0.54330534
113	0x3d8c3840	0.06846666
114	0xbe337de5	-0.17528494
115	0x3eb680f3	0.35645255
116	0x3e2d50aa	0.16925302
117	0xbf1446a4	-0.5792029
118	0xbe7dd414	-0.24787933
119	0xbc70aaa7	-0.014689124
120	0xbce6a167	-0.028153135
121	0xbe8badd7	-0.27281067
122	0xbe8ed717	-0.27898476
123	0xbe8f4d34	-0.2798859
124	0x3f11c0ba	0.569347
125	0xbe8c61f0	-0.2741847
126	0xbf0807d4	-0.53136945
127	0xbe9b950a	-0.30387145
128	0x3ecdd78e	0.40203518
129	0x3f0f5415	0.55987674
130	0xbeaf36ed	-0.34221593
131	0xbcd0e8c1	-0.02550161
132	0x3efd7f2a	0.4951108
133	0xbf5ee24d	-0.8706406
134	0xbdbdeb86	-0.09273438
135	0xbed1f4b1	-0.41006997
136	0x3d8b9833	0.06816139
137	0xbd61e4f6	-0.055149995
138	0x3e8923a6	0.2678501
139	0x3dc17d6f	0.09447753
140	0x3f43a2a5	0.7642005
141	0xbe2b0f56	-0.16705069
142	0xbe3a67e0	-0.18203688
143	0x3d7ca9a6	0.061685227
144	0x3ea4dcc7	0.3219969
145	0x3e2aa500	0.16664505
146	0x3e25b4e3	0.16182284
147	0xbe855fd2	-0.26049668
148	0x3f2d9f0f	0.6782083
149	0xbdd866a7	-0.105664544
150	0x3dbb9501	0.091592796
151	0xbf597f5e	-0.8495997
152	0xbf4175d5	-0.7557042
153	0x3e12632c	0.14295644
154	0xbe12c132	-0.1433151
155	0x3de176d2	0.11008991
156	0x3f647108	0.8923497
157	0xbc985fab	-0.018600306
158	0x3de8855d	0.11353562
159	0x3f1c984b	0.6116988
160	0xbec49be1	-0.38400176
161	0x3e07a675	0.13247092
162	0xbd54733e	-0.051867716
163	0xbd04eda9	-0.032453213
164	0xbeaff439	-0.34366015
165	0xbe89565f	-0.26823708
166	0x3da5a4f1	0.08088101
167	0xbf7ba189	-0.9829336
168	0x3eaa3398	0.33242488
169	0xbfd6c4c1	-1.6778795
170	0x3ea87829	0.32904175
171	0xbef857f4	-0.48504603
172	0xbe015938	-0.1263169
173	0x3ed9cabb	0.42537484
174	0xbe2ae513	-0.16688947
175	0x3ee5c035	0.44873205
176	0xbdf4e720	-0.11958146
177	0x3c15fbfe	0.009154318
178	0x3dc21f10	0.09478581
179	0x3d7a8316	0.06116017
180	0x3dfd0aa9	0.12355549
181	0xbd783d3f	-0.060605284
182	0xbe57ac20	-0.21061754
183	0xbe873f60	-0.2641554
184	0xbe24e4d1	-0.16102912
185	0x3ce06f69	0.027396875
186	0xbe5a80bd	-0.21338172
187	0x3de6309c	0.1123974
188	0x3e45ab75	0.19303687
189	0xbdbed147	-0.0931726
190	0xbd240123	-0.040040147
191	0x3e5599e1	0.20859481
192	0x3f07a47b	0.5298535
193	0xbe5a36d1	-0.21309973
194	0xbe14a0ae	-0.1451442
195	0x3c51fd0d	0.01281668
196	0x3e8e01b3	0.2773567
197	0xbec4da59	-0.38447836
198	0x3eb2fbe9	0.34957817
199	0x3ec717af	0.38885257
200	0x3e4bfced	0.19920702
201	0xbfb7cde1	-1.4359704
202	0x3f3a62d6	0.7280706
203	0xbe05265a	-0.13002911
204	0x3eaba402	0.33523566
205	0xbf4d4a53	-0.80191535
206	0x3e9befbf	0.3045635
207	0xbe329b3c	-0.1744203
208	0xbd6a9fde	-0.057281367
209	0xbf98b1a6	-1.1929214
210	0x3eafd769	0.34344032
211	0x3ea953a7	0.33071634
212	0x3eb31a2e	0.3498091
213	0x3f890ad3	1.0706428
214	0x3e959744	0.2921697
215	0xbeba4620	-0.36381626
216	0xbe9f7618	-0.31144786
217	0x3dbaf2d4	0.09128347
218	0x3e05f6b3	0.1308239
219	0x3e846269	0.2585633
220	0xbea30bc3	-0.3184491
221	0xbd511ea8	-0.051054627
222	0xbe16ad0e	-0.14714453
223	0x3e0f5bcd	0.13999863
224	0xbf308e1c	-0.6896684
225	0xbf3dd232	-0.7414886
226	0xbf19416e	-0.5986546
227	0x3df10ed3	0.117704056
228	0x3eba6281	0.36403278
229	0x3f90b154	1.1304116
230	0x3ce3ac5a	0.027792145
231	0xbe3f4482	-0.18678477
232	0xbe1133c2	-0.141799
233	0xbdedbddd	-0.11608479
234	0x3e8645c9	0.26225117
235	0xbc9ed4c1	-0.019388558
236	0x3e961add	0.2931737
237	0x3ddb5726	0.107099816
238	0xbe0faee6	-0.14031562
239	0x3e579cf2	0.21055964
240	0x3e9b7e04	0.3036958
241	0x3f24c7a9	0.6436716
242	0xba958e1e	-0.0011410152
243	0xbf2cfb7d	-0.6757124
244	0x3efa3578	0.48868918
245	0x3c8e85b3	0.017397737
246	0x3e52c7d9	0.20584048
247	0xbed718f8	-0.42011237
248	0xbe02c993	-0.12772207
249	0xbea1fe1d	-0.31639186
250	0xbe2e76ae	-0.1703746
251	0x3e410e2f	0.18853067
252	0x3e04a357	0.12952934
253	0xbe146c80	-0.14494514
254	0x3e7185f2	0.23586252
255	0x3eb5cc36	0.35507363

linears.0.bias f4 [64]
0	0xbc23c759	-0.009996259
1	0xbc04bb76	-0.008101335
2	0xbec4027c	-0.38283145
3	0xbe8f9118	-0.28040385
4	0xbdfb4201	-0.122684486
5	0xbe832e59	-0.25621298
6	0xbe99fd16	-0.30075902
7	0x3e33fe9d	0.17577596
8	0x3e9a4629	0.30131653
9	0xbe51ff21	-0.2050748
10	0xbf293b9d	-0.6610659
11	0xbee3eef6	-0.4451825
12	0x3f72da7b	0.94864625
13	0x3e1b9c79	0.15196408
14	0xbd483f54	-0.04888852
15	0xbe6b15ee	-0.22957584
16	0x3c4f5919	0.01265552
17	0x3e5012d7	0.20319687
18	0x3e1f1e24	0.15538841
19	0x3f2b1670	0.6683111
20	0xbf51c401	-0.81939703
21	0x3d059ce0	0.03262031
22	0xbe231d8c	-0.1592924
23	0x3e7f071f	0.2490506
24	0xbd25385b	-0.040336948
25	0x3dd0f399	0.102027126
26	0xbc958c1b	-0.018255284
27	0xbf07ac5f	-0.5299739
28	0xbd0976e9	-0.033560667
29	0x3e123fd0	0.14282155
30	0xbdd581e4	-0.10425165
31	0x3ea6fbfe	0.3261413
32	0x3dc2000a	0.09472664
33	0xbe2de392	-0.16981342
34	0x3c8174e0	0.0158028
35	0xbdb53d06	-0.0884953
36	0x3dbcccb6	0.09218733
37	0xbeb6d807	-0.3571169
38	0xbe53df75	-0.20690711
39	0x3f81ce8c	1.0141158
40	0x3c0835e9	0.008313634
41	0xbfb41fb8	-1.407218
42	0x3e31fd8d	0.17381878
43	0x3f03ffc6	0.51562154
44	0x3e53574c	0.2063877
45	0xbdb75394	-0.08951488
46	0xbd97cfaa	-0.07412656
47	0x3e375c9d	0.17906423
48	0x3ec76f0c	0.3895191
49	0x3d9f632d	0.07782588
50	0x3eca6949	0.3953345
51	0x3d6ff7e3	0.058586013
52	0x3e06ccee	0.13164112
53	0xbe300586	-0.17189607
54	0x3e15e796	0.14639124
55	0xbe1c6878	-0.15274227
56	0x3e30d34e	0.17268106
57	0x3d41c1cd	0.047303963
58	0x3df17e4d	0.11791668
59	0x3e458015	0.1928714
60	0xbdc3ddb8	-0.09563774
61	0xbbe66230	-0.007030748
62	0xbd072eda	-0.033003666
63	0x3c936f6e	0.01799747

linears.1.weight f4 [64, 64]
0	0x3c4da673	0.012551892
1	0xbe629257	-0.22126137
2	0x3ce1c855	0.027561346
3	0xbedc9e7d	-0.43089667
4	0x3e266923	0.16251044
5	0xbd992d64	-0.07479361
6	0xbd13d637	-0.036092963
7	0xbd1cce26	-0.038282536
8	0x3eec4ebb	0.46153817
9	0x3e02e756	0.1278356
10	0xbdbf451b	-0.09339353
11	0xbe4e6970	-0.20157409
12	0x3cdbbef5	0.026824454
13	0x3e378d87	0.17925082
14	0xbde45898	-0.111497104
15	0xbdf31d47	-0.118708186
16	0xbd15999d	-0.03652345
17	0xbe85bd6c	-0.2612108
18	0xbde24137	-0.11047595
19	0xbde40020	-0.11132836
20	0xbc1bcba8	-0.009509005
21	0x3dbe416c	0.09289822
22	0xbdda570f	-0.10661136
23	0xbd09c529	-0.033635292
24	0xbd76e680	-0.060278416
25	0xbe8b9fed	-0.2727045
26	0x3db2773c	0.087141484
27	0x3e2eb396	0.17060694
28	0x3e25dc2b	0.16197269
29	0x3db62edd	0.08895657
30	0x3e6cf831	0.23141553
31	0x3e90e8f8	0.2830274
32	0x3d3dd7f3	0.046348523
33	0xbd1233b0	-0.035693824
34	0x3c93ad09	0.018026846
35	0xbd322c34	-0.043499187
36	0xbcbea952	-0.023274098
37	0x3e89c7eb	0.26910338
38	0xbe82662c	-0.25468576
39	0x3e69d205	0.22834022
40	0xbde73bb6	-0.11290686
41	0xba24b004	-0.0006282332
42	0x3cfede7d	0.03111195
43	0x3d0daba1	0.034587506
44	0xbe4272ef	-0.18989156
45	0xbda233e8	-0.079200566
46	0x3e5f2061	0.21789695
47	0xbe190b9a	-0.14945832
48	0x3e6d4109	0.2316934
49	0xbe643182	-0.2228451
50	0x3ebf869a	0.3740738
51	0xbd80b288	-0.06284052
52	0x3e336fe6	0.17523155
53	0xbe4766a0	-0.19472742
54	0xbe9bdde5	-0.3044273
55	0xbe152265	-0.14563902
56	0xbe1066a6	-0.14101657
57	0x3c5e8e82	0.013583781
58	0xbe4bc13b	-0.1989793
59	0x3d8009dc	0.062518805
60	0x3e09b40d	0.1344759
61	0x3d6dc928	0.058053166
62	0x3da7b996	0.081896946
63	0x3d8084f6	0.0627536
64	0x3d4afa4e	0.049555115
65	0x3e83b5c2	0.25724608
66	0xbd5606dd	-0.05225264
67	0x3d1967d5	0.037452538
68	0x3e32e450	0.17469907
69	0xbdb6462a	-0.089001015
70	0x3e5d5fcb	0.21618573
71	0x3e855826	0.26043814
72	0x3c9fdfe9	0.019515948
73	0xbe409340	-0.18806171
74	0xbe4bc27f	-0.19898413
75	0xbe06de82	-0.13170817
76	0xbd062185	-0.03274681
77	0xbd0dc6dd	-0.03461348
78	0x3dc4d4cb	0.096108995
79	0xbe410245	-0.18848522
80	0x3e4a11e7	0.19733392
81	0xbc633748	-0.013868161
82	0xbe54738c	-0.20747203
83	0xbd204005	-0.039123554
84	0x3c35be9e	0.01109281
85	0xbe4716f5	-0.19442351
86	0x3cc7cdad	0.024390066
87	0xbd78c047	-0.060730245
88	0xbe2006d0	-0.15627599
89	0xbdb3604c	-0.087586015
90	0xbd8c9cb7	-0.068658285
91	0x3e5ed89e	0.2176232
92	0xbe30b9e0	-0.17258406
93	0x3ec67be8	0.38766408
94	0x3caaeabc	0.020863883
95	0xbcb54f44	-0.022132523
96	0x3d3d896d	0.046273638
97	0x3e5c557e	0.21516988
98	0xbe603488	-0.21895039
99	0x3df5d1c9	0.12002904
100	0xbe6d21cf	-0.23157428
101	0xbd9d4a80	-0.07680225
102	0x3e26e529	0.16298355
103	0xbdb5dc44	-0.08879903
104	0x3d946c93	0.072472714
105	0xbe95791b	-0.2919396
106	0x3d029156	0.031876884
107	0xbd01a8b2	-0.03165502
108	0x3ef7e97a	0.48420316
109	0xbca2e34f	-0.01988378
110	0xbdc00823	-0.09376552
111	0xbdbece49	-0.093166895
112	0x3ae9ca77	0.0017836828
113	0x3dcefd52	0.10106911
114	0x3e0c8307	0.13721858
115	0x3db42964	0.08796957
116	0x3d87791f	0.06614899
117	0xbe94fcdb	-0.29099163
118	0xbde89531	-0.11356581
119	0xbcf050f5	-0.029335478
120	0x3c9c3c18	0.019071624
121	0xbea35545	-0.31900993
122	0x3e37d042	0.17950538
123	0xbc09979f	-0.008397966
124	0xbe6ffa20	-0.23435259
125	0xbdd657ec	-0.104659885
126	0x3e047d1e	0.12938353
127	0xbd812584	-0.06305984
128	0x3de2b239	0.110691495
129	0x3ce9b731	0.028529735
130	0x3db2cd46	0.08730559
131	0x3e43e57b	0.19130509
132	0xbc92fe61	-0.017943563
133	0xbe3e75b2	-0.18599585
134	0xbdb3d1fa	-0.08780284
135	0xbe224a75	-0.15848716
136	0xbe1ed6fe	-0.155117
137	0xbdf91b65	-0.12163428
138	0x3db9949a	0.090615466
139	0xbde65bd4	-0.112479836
140	0xbddab6dc	-0.10679409
141	0xbe0a45b5	-0.13503154
142	0xbd3e5cb5	-0.04647513
143	0xbd96df42	-0.07366802
144	0xbde61fec	-0.11236557
145	0xbd13dbb5	-0.0360982
146	0xbded44df	-0.11585402
147	0x3e5180f8	0.20459354
148	0x3d64e3ed	0.05588143
149	0xbdac12f7	-0.08402055
150	0xbdd30b6f	-0.10304915
151	0x3e4e2bc3	0.20133881
152	0xbe1dabef	-0.15397619
153	0x3d970c93	0.07375445
154	0x3e586f6c	0.21136254
155	0x3df67eeb	0.120359264
156	0xbd2aeb66	-0.0417284
157	0x3dfa70e0	0.122285604
158	0xbda945cf	-0.08265268
159	0x3e21efec	0.15814179
160	0x3e28f66b	0.16500251
161	0x3d63925a	0.055559494
162	0x3e2d4402	0.16920474
163	0xbdb1c5cd	-0.08680306
164	0x3ce2bf55	0.027679125
165	0xbddb2cff	-0.10701942
166	0x3e824a64	0.2544738
167	0xbe21ebd6	-0.1581262
168	0x3e58880f	0.21145652
169	0xbe1d05a0	-0.15334177
170	0xbd4ee388	-0.05050996
171	0x3e225235	0.15851672
172	0x3f316b7e	0.69304645
173	0xbe062143	-0.13098626
174	0xbc04ee7a	-0.008113498
175	0x3e5acac5	0.21366413
176	0xbda38212	-0.07983793
177	0xbe2e64c5	-0.17030628
178	0x399b1a1e	0.00029583363
179	0x3ae63e71	0.0017566216
180	0xbd210e5d	-0.03932034
181	0x3dbf198f	0.09331047
182	0x3e91f51f	0.28507325
183	0xbdb2dcea	-0.08733542
184	0xbe17b01e	-0.14813277
185	0x3c32c677	0.0109115755
186	0xbd8fb561	-0.07017017
187	0x3ddcd400	0.10782623
188	0x3da1f1ce	0.07907449
189	0x3e362aad	0.17789717
190	0xbe55da4d	-0.20884056
191	0x3e1c8b83	0.15287594
192	0x3e28036b	0.16407554
193	0x3e47886f	0.19485639
194	0x3d196618	0.03745088
195	0x3e4435f5	0.19161208
196	0x3d931c24	0.07183102
197	0x3ea721d7	0.32643005
198	0x3d961c02	0.07329561
199	0xbe72a9b9	-0.23697557
200	0x3e817ec1	0.25292018
201	0x3e7639c3	0.24045472
202	0x3e44b37b	0.19209091
203	0xbeb1a494	-0.34695876
204	0xbf1b87f6	-0.60754335
205	0x3d6f3022	0.058395512
206	0x3c3dfe72	0.011596309
207	0x3e1afc88	0.15135396
208	0x3e9421ad	0.28931943
209	0xbe9454e3	-0.28971013
210	0x3d945f67	0.07244759
211	0xbd92891b	-0.07155057
212	0x3e9a0c27	0.30087397
213	0xbe74f230	-0.23920512
214	0x3eb4650d	0.35233346
215	0xbdaa1bba	-0.0830607
216	0x3dff5c3f	0.124687664
217	0xbebde01a	-0.37085038
218	0x3cabb9e1	0.020962657
219	0xbe84f362	-0.25966936
220	0x3df3d447	0.11905723
221	0xbe6fe89a	-0.23428574
222	0x3e43e806	0.19131479
223	0xbdef2bdc	-0.116782874
224	0xbeec99f1	-0.46211198
225	0xbe431270	-0.19050002
226	0xbd98d080	-0.07461643
227	0xbe69cd02	-0.2283211
228	0x3d432fc9	0.047652993
229	0x3e39a143	0.18127923
230	0x3e32c6a2	0.17458585
231	0xbee4dff2	-0.44702107
232	0x3e2140c4	0.15747362
233	0x3f05d7af	0.5228223
234	0xbe0e45ef	-0.13893865
235	0xbe9b7faf	-0.30370852
236	0xbb80c530	-0.0039297566
237	0xbdf42e96	-0.11922948
238	0x3e8d23bf	0.27566335
239	0xbddf688e	-0.10908614
240	0xbc74d256	-0.014942726
241	0xbdcb22d2	-0.09918751
242	0x3bf417a5	0.0074491077
243	0xbebf2712	-0.37334496
244	0xbd3d9f07	-0.04629424
245	0xbe3d93cc	-0.18513411
246	0x3de08d13	0.10964408
247	0x3e5aff5d	0.21386476
248	0xbe875bab	-0.26437125
249	0x3db3f668	0.08787233
250	0xbd06d4cf	-0.032917794
251	0x3e142022	0.14465383
252	0xbe1c15ec	-0.15242738
253	0xbe65c874	-0.22439748
254	0x3d419f67	0.04727116
255	0x3e565ba3	0.20933394

linears.1.bias f4 [64]
0	0xbd782603	-0.060583126
1	0x3c887655	0.016657988
2	0x3d827bb7	0.06371253
3	0xbe4ba9a9	-0.19888939
4	0xbcea56a5	-0.028605768
5	0xbd954a56	-0.07289569
6	0xbda38a91	-0.07985414
7	0x3dc9b502	0.098489776
8	0xbcf51fcc	-0.029922388
9	0x3d06ace2	0.032879718
10	0xbd60afb0	-0.05485505
11	0xbf7c0fc0	-0.9846153
12	0x3d353ff8	0.04425046
13	0x3d214128	0.03936878
14	0x3defc566	0.11707573
15	0xbdaf6eb2	-0.08566035
16	0x3d44193c	0.047875628
17	0x3c8a6485	0.016893635
18	0xbdfbeac0	-0.123006344
19	0x3c8271b6	0.015923362
20	0x3d42a841	0.04752374
21	0x3ed17e2e	0.4091658
22	0x3d6c62fd	0.05771159
23	0xbd06749b	-0.032826047
24	0xbbb08815	-0.005387316
25	0x3d70ea49	0.05881718
26	0x3f21581e	0.6302508
27	0xbd405617	-0.0469571
28	0xbda19560	-0.07889819
29	0xbe223ab2	-0.15842703
30	0x3ded9691	0.11600984
31	0xbda12717	-0.07868784
32	0x3d5b8c4e	0.0536006
33	0xbcd4cda1	-0.025976958
34	0xbd87a564	-0.06623343
35	0xbca6e612	-0.020373378
36	0xbd244330	-0.040103137
37	0xbd6b7066	-0.05748024
38	0xbd65bf5f	-0.05609071
39	0x3ce9e36d	0.028550828
40	0xbdc6a794	-0.09699932
41	0x3acb4e27	0.0015510962
42	0x3c3ed0e3	0.011646482
43	0xbcd36fcc	-0.025810145
44	0x3cd1be93	0.025603568
45	0xbb685955	-0.0035453637
46	0x3cb93916	0.022610229
47	0x3d50cea2	0.05097831
48	0x3d41a2ec	0.047274515
49	0xbdc9bce5	-0.09850482
50	0xbe9cf6b6	-0.30656976
51	0x3d2f3a50	0.04278022
52	0x3e014e07	0.12627421
53	0xbd777753	-0.06041653
54	0xbda1785d	-0.078842856
55	0xbe055eb6	-0.1302441
56	0xbd426808	-0.047462493
57	0xbe1cf671	-0.15328385
58	0x3d31fabb	0.043452006
59	0x3d4cc0b3	0.04998846
60	0xbdf3e018	-0.11907977
61	0x3d3a10d0	0.04542619
62	0x3d755c6f	0.059902605
63	0x3cf15cb0	0.029463142

linears.2.weight f4 [64, 64]
0	0xbde1f405	-0.11032871
1	0xbc665ac7	-0.014059729
2	0xbd68e301	-0.056857113
3	0x3e367e17	0.17821537
4	0xbdc50fc9	-0.096221514
5	0xbe67bc6c	-0.22630471
6	0xbd957065	-0.07296828
7	0x3cbc1afb	0.022962084
8	0xbd275713	-0.040854525
9	0x3b6373fc	0.0034706583
10	0xbe54a5ef	-0.20766424
11	0xbe6fc92e	-0.23416588
12	0x3e6943dd	0.22779794
13	0x3dcc11d1	0.09964336
14	0xbc9746c8	-0.018466368
15	0xbdc38df7	-0.09548562
16	0xbd8f450a	-0.0699559
17	0x3dad8c35	0.08474008
18	0xbe188208	-0.14893353
19	0x3cca1761	0.024669351
20	0xbbc0f20f	-0.0058882306
21	0xbd669ef7	-0.056303944
22	0x3e54bed7	0.20775925
23	0x3e930cc2	0.2872067
24	0x3e07859c	0.13234562
25	0xbd0b54ef	-0.034016546
26	0xbe862dc8	-0.26206803
27	0x3d4c3a63	0.04986037
28	0xbe7cd982	-0.24692348
29	0xbde73b21	-0.11290575
30	0xbe196b95	-0.14982446
31	0x3de70153	0.112795494
32	0x3e0427d9	0.12905826
33	0x3e12c6ec	0.14333695
34	0xbd72f5a8	-0.059316307
35	0xbe55d397	-0.20881496
36	0x3c1217ac	0.008916777
37	0xbdfde9f3	-0.12398138
38	0xbe7e90da	-0.24859944
39	0x3da95fc1	0.08270217
40	0xbc9d778d	-0.019222045
41	0xbdbd65a7	-0.09247904
42	0x3d910fb9	0.07083077
43	0xbe262f1a	-0.16228905
44	0x3dbdfd2d	0.09276805
45	0x3da59573	0.08085146
46	0x3e219684	0.15780073
47	0xbde8d8dc	-0.11369488
48	0xbe489fae	-0.19592163
49	0xbe0063ee	-0.1253812
50	0xbe12ebbf	-0.14347742
51	0xbd0e223e	-0.034700625
52	0xbd9358c4	-0.07194665
53	0xbe414b0c	-0.18876284
54	0xbcbd81f8	-0.023133263
55	0xbd6e0c34	-0.058117107
56	0xbe22ddea	-0.15904966
57	0xbea7eba4	-0.32796967
58	0x3e3223b6	0.17396435
59	0x3e46287c	0.19351381
60	0xbd346fa8	-0.044051796
61	0x3e057597	0.13033138
62	0x3daaffe7	0.08349591
63	0x3d1bc1af	0.038026508
64	0x3e05c089	0.13061728
65	0xbd1fe5ba	-0.039037444
66	0x3ea6ab7a	0.325527
67	0x3e5208ee	0.20511219
68	0x3d45ec3e	0.048321
69	0x3d84fe45	0.064938106
70	0xbd7f08e7	-0.06226435
71	0x3c72e148	0.014824219
72	0xbcad5366	-0.021157932
73	0xbd782d06	-0.060589813
74	0xbdee2ddd	-0.116298415
75	0xbdf16ea8	-0.11788684
76	0x3d91169e	0.07084392
77	0xbd8f31e7	-0.0699194
78	0x3b508225	0.0031815853
79	0xbea6bd4a	-0.3256629
80	0xbd89d2eb	-0.067296825
81	0x3e119d90	0.14220262
82	0xbe2d95dd	-0.169517
83	0x3dd6e7a3	0.104934
84	0xbd9f859d	-0.077891566
85	0x3e0b3c0f	0.1359713
86	0x3ddb935d	0.10721467
87	0x3e94632a	0.28981906
88	0xbe049d63	-0.12950663
89	0x3e0ae742	0.1356478
90	0xbe07172e	-0.13192436
91	0xbc58e082	-0.013237121
92	0xbdda4a02	-0.10658647
93	0xbdbade26	-0.09124403
94	0x3e76825a	0.24073163
95	0xbe02d743	-0.12777428
96	0xbc0ccf1b	-0.0085943
97	0xbe71879c	-0.23586887
98	0xbdb9b9d8	-0.0906865
99	0xbda259ca	-0.07927282
100	0xbe68b7f5	-0.22726424
101	0xbe8a5735	-0.2701966
102	0x3c77a07d	0.015113947
103	0x3cda022e	0.026612367
104	0x3c0af251	0.008480624
105	0x3e350c0b	0.17680375
106	0xbe59171b	-0.2120022
107	0xbe3789d1	-0.17923667
108	0x3e17c771	0.14822175
109	0x3cd11c89	0.025526302
110	0xbe541f24	-0.20715004
111	0xbdc0164e	-0.09379254
112	0xbe272338	-0.16322029
113	0xbe126914	-0.14297897
114	0xbe0cd93c	-0.13754743
115	0x3d49fb9d	0.049312223
116	0x3e311b49	0.17295565
117	0xbbb609a8	-0.0055553503
118	0x3d9ed776	0.0775594
119	0x3d895717	0.06706064
120	0xbea7ebf7	-0.32797214
121	0x3c98fd6e	0.018675532
122	0x3e4ade1d	0.19811292
123	0x3e1b09b0	0.15140414
124	0xbd4e7d90	-0.050412714
125	0xbc3a8518	-0.011384271
126	0x3d8bb22d	0.06821094
127	0x3e594cb6	0.21220669
128	0x3d0e8052	0.034790345
129	0x3da567b8	0.080764234
130	0x3e204fe3	0.15655474
131	0xbf12d491	-0.573556
132	0x3e060600	0.13088226
133	0xbdadbdf4	-0.08483496
134	0xbe64a4ea	-0.22328535
135	0x3d96fb61	0.073721655
136	0xbefbcd15	-0.49179903
137	0x3cec7516	0.028864425
138	0xbead8972	-0.33893925
139	0x3e1ba601	0.15200044
140	0xbd6061e3	-0.054780852
141	0x3e99fd54	0.30076087
142	0xbf1febda	-0.62469256
143	0xbe6e3811	-0.23263575
144	0x3f0c9113	0.54908866
145	0x3dbc052d	0.09180675
146	0xbf0b6697	-0.54453415
147	0xbf124530	-0.5713682
148	0x3e859912	0.26093346
149	0xbd8ba177	-0.06817906
150	0x3e38886f	0.18020795
151	0x3f7bb534	0.9832337
152	0x3e90337e	0.28164285
153	0x3dcdc8de	0.10048078
154	0xbfd8f82c	-1.6950736
155	0x3de4d68d	0.11173735
156	0xbe59a010	-0.21252465
157	0xbf9e44dc	-1.2364764
158	0x3eebb80e	0.4603886
159	0xbe2e87c5	-0.1704398
160	0x3f5ca8bd	0.86194974
161	0xbecd9438	-0.40152144
162	0x3e6fa8ee	0.23404285
163	0x3e5d1b4b	0.21592443
164	0xbe6472cd	-0.22309418
165	0xbe45d28c	-0.19318599
166	0xbed9e758	-0.42559314
167	0xbf324385	-0.69634277
168	0xbec2ab10	-0.38021135
169	0xbe9514c1	-0.29117396
170	0xbd2a472e	-0.04157179
171	0xbeaf6539	-0.34256914
172	0x3f3a35e8	0.72738504
173	0x3e8cb31e	0.27480406
174	0x3e02bbac	0.12766904
175	0x3e5a56b5	0.21322139
176	0x3e0e7bc6	0.13914403
177	0xbe0182de	-0.12647578
178	0xbe1bfa97	-0.15232311
179	0x3e030e95	0.12798531
180	0x3e67961c	0.22615856
181	0xbdd2f425	-0.10300473
182	0xbe378fb2	-0.17925909
183	0x3ccd512a	0.025063116
184	0x3e5100e7	0.204105
185	0x3de11755	0.10990778
186	0xbe385f07	-0.18005
187	0x3d0eea57	0.034891453
188	0xbe88046d	-0.26565877
189	0xbd2a3223	-0.04155172
190	0x3da80115	0.082033314
191	0x3df82816	0.12117021
192	0x3e22a70b	0.15884034
193	0xbe3196d2	-0.1734269
194	0xbe384829	-0.17996277
195	0x3ce8f491	0.02843693
196	0x3e71c457	0.23610054
197	0x3e4a1e7c	0.19738191
198	0x3b442a09	0.0029932281
199	0xbe69670e	-0.22793218
200	0x3e135c66	0.14390716
201	0x3e03f5ad	0.12886687
202	0xbe0106a9	-0.12600197
203	0x3d4106b3	0.04712553
204	0xbe06a33f	-0.13148211
205	0x3c797f35	0.015228082
206	0x3e35e2c6	0.17762288
207	0x3d97d9aa	0.07414563
208	0xbe365423	-0.17805533
209	0xbc7d2045	-0.015449588
210	0x3e8011d9	0.25013617
211	0xbdc3fc84	-0.09569648
212	0xbe0093ed	-0.12556429
213	0xbcd0776c	-0.02544757
214	0xbdeafc35	-0.11473886
215	0x3c9cf364	0.019159026
216	0xbe3afccd	-0.18260498
217	0xbda4e07c	-0.080506295
218	0x3d1f3736	0.038871013
219	0x3e4c550a	0.19954315
220	0x3e5a4e2e	0.21318886
221	0x3e87a6ca	0.26494437
222	0xbe5cc462	-0.21559289
223	0x3dbec44e	0.09314786
224	0x3d02f54c	0.031972215
225	0x3dec623a	0.11542173
226	0x3d7808bf	0.060555216
227	0x3d9b4cf8	0.0758304
228	0x3da950a3	0.08267333
229	0x3d4ce65b	0.05002437
230	0xbe316889	-0.17325033
231	0xbe1fea04	-0.15616614
232	0x3e6b3add	0.22971673
233	0x3e00b219	0.12567939
234	0xbe09cf76	-0.13458046
235	0x3c6e9309	0.014561423
236	0x3d4d0a47	0.05005863
237	0xbe56e698	-0.20986402
238	0xbe001517	-0.12508045
239	0xbe706f5d	-0.23479982
240	0xbe1f5657	-0.1556028
241	0xbc88051e	-0.016604003
242	0xbe740103	-0.23828511
243	0xbd6f5999	-0.058435056
244	0xbdac1852	-0.08403076
245	0x3e54e281	0.2078953
246	0x3d3c7e7f	0.046019074
247	0xbd706989	-0.058694396
248	0xbe12a246	-0.14319715
249	0x3dd39d18	0.10332698
250	0xbe0c59c7	-0.13706122
251	0xbe36a19a	-0.17835084
252	0x3def78ec	0.11692986
253	0xbe404e03	-0.18779759
254	0xbd2a0965	-0.041512866
255	0x3e251551	0.16121413

linears.2.bias f4 [64]
0	0x3d4fdfa1	0.05075038
1	0x3d4237ed	0.047416616
2	0x3d9a3ddc	0.0753133
3	0xbcfb756c	-0.03069564
4	0x3dce10da	0.10061808
5	0xbe02b470	-0.12764144
6	0xbd0417d7	-0.032249298
7	0x3d042ef0	0.032271326
8	0xbd8aa954	-0.06770578
9	0x3cfa3d48	0.0305468
10	0xbd9a9c30	-0.07549322
11	0x3d408123	0.046998154
12	0x3d443431	0.047901336
13	0x3d0c4abb	0.034250956
14	0x3d8e4375	0.0694646
15	0xbd7d38b0	-0.06182164
16	0x3d31cd90	0.04340893
17	0x3d8da5e4	0.06916407
18	0x3cd279e4	0.025692888
19	0x3d53aff5	0.051681478
20	0x3d25f3b3	0.040515613
21	0x3cf17095	0.029472629
22	0x3d04a99d	0.03238832
23	0x3d59860b	0.05310635
24	0x3da3ed54	0.08004251
25	0x3d02bad1	0.031916443
26	0xbd262c4d	-0.040569592
27	0x3d543022	0.051803716
28	0xbd25bc90	-0.04046303
29	0x3d936baf	0.071982734
30	0x3d1aed3f	0.03782391
31	0x3cb08a17	0.021550221
32	0xbcfd29f5	-0.030903796
33	0x3d5c0231	0.053713027
34	0xbd3f3637	-0.046682563
35	0x3d0e5f14	0.034758642
36	0xbd4400c5	-0.047852296
37	0x3e02978e	0.12753126
38	0xbd27711e	-0.04087936
39	0xbc91554d	-0.01774087
40	0xbc107e69	-0.008819201
41	0xbd0f94d9	-0.03505406
42	0x3d488f73	0.04896493
43	0xbd012239	-0.031526778
44	0x3cf64c7c	0.030065767
45	0xbd532b57	-0.051555004
46	0x3e07ede9	0.1327435
47	0x3d88453a	0.06653829
48	0x3d881907	0.066453986
49	0xbd267d3c	-0.040646777
50	0xbd7fb652	-0.062429734
51	0xbd606384	-0.054782405
52	0xbd1a0e1a	-0.037611105
53	0xbd3d420d	-0.04620557
54	0x3d6cdf28	0.057830006
55	0x3d97cdb0	0.07412279
56	0xbcf29ab9	-0.029614793
57	0x3d470aa9	0.04859415
58	0x3d51c336	0.05121156
59	0x3d2d67b3	0.042335223
60	0xbd0b8c2a	-0.034069218
61	0xbd4dba8d	-0.050226737
62	0xbe0095a5	-0.12557085
63	0x3d650803	0.055915844

linears.3.weight f4 [1, 64]
0	0xbeb9b45b	-0.36270413
1	0xbeb48a84	-0.3526193
2	0xbefc43b8	-0.49270415
3	0x3ed67b09	0.41890743
4	0xbefaeb71	-0.49007753
5	0xbf80c8f8	-1.0061331
6	0x3e7ac22b	0.24488132
7	0xbe9402b1	-0.28908303
8	0x3f0eef00	0.55833435
9	0xbeb63260	-0.35585308
10	0x3e3060ee	0.17224476
11	0xbecd8a4b	-0.40144572
12	0xbee14085	-0.43994537
13	0xbeaf51f4	-0.34242213
14	0xbe195d5d	-0.14977022
15	0x3e90abaa	0.2825597
16	0xbe82e117	-0.25562355
17	0xbe96d1e6	-0.29457015
18	0xbe5c4783	-0.21511655
19	0xbeb1311d	-0.34607783
20	0xbe6cb523	-0.23115973
21	0xbea92613	-0.3303686
22	0xbe92cfee	-0.28674263
23	0xbe891f0a	-0.26781493
24	0xbec0d119	-0.3765953
25	0xbf0818a3	-0.5316259
26	0x3d873ff2	0.066039935
27	0xbe3648f9	-0.17801274
28	0x3f2122d3	0.6294376
29	0xbea3bd25	-0.31980243
30	0xbedf39ae	-0.43598694
31	0xbe8a65a4	-0.2703067
32	0x3f3aaacc	0.72916865
33	0xbe5bae07	-0.21453105
34	0x3e6fb92d	0.23410483
35	0xbdf1efd0	-0.11813319
36	0x3e406876	0.18789849
37	0xbee8d0da	-0.4547184
38	0x3e5e00d4	0.21680003
39	0x3e0daaf9	0.13834752
40	0x3d70494b	0.058663648
41	0x3e89c77d	0.2691001
42	0xbeb5d919	-0.35517195
43	0x3e2d2c9b	0.16911547
44	0xbe624285	-0.22095688
45	0x3e911f05	0.2834398
46	0xbf41fa35	-0.7577241
47	0xbe8edf06	-0.27904528
48	0xbed064f3	-0.40702018
49	0x3e8ac77f	0.27105328
50	0x3e7a753b	0.24458782
51	0x3e8e61c8	0.27808976
52	0x3f20fab4	0.6288254
53	0x3e695e0e	0.22789785
54	0xbedd2b50	-0.43197107
55	0xbe8669ea	-0.2625268
56	0x3f1a10a0	0.6018162
57	0xbeb23651	-0.34807065
58	0xbe0b8634	-0.13625413
59	0xbe077d10	-0.13231301
60	0x3ec14138	0.3774507
61	0x3ea46297	0.32106468
62	0x3f2b9443	0.67023104
63	0xbf0177ae	-0.5057324
