Complete_thesis_stage_1_and_2/(d).Code_and_all_other_details/WAAM/PINN_TEMP_DEPENDENT_PROP/Models/model_epoch_1000.pt (torch, 38252 bytes, 7 tensors)

linears.0.weight f4 [64, 4]
00000000: 3c70 09bc 5745 86be a8a1 47be b2c6 a9bd
00000010: 436f 69bd b618 6dbe ce98 993d 6875 a53d
00000020: 6666 47be d3f7 e0bd 5891 68be 3ad2 33be
00000030: a923 84be a3f6 89bd 2b25 883e db0f 803e
00000040: ec05 813e d080 343e f83e 47bd 0f7b 053e
00000050: 7946 8a3d 10fc 18be f750 b3bd a6a4 393e
00000060: 3b7a 89be 7900 2cbe 2477 2abe 39af 01be
00000070: 70cc b7bd 3176 5cbd 1ab1 abbd 08cb 4b3d
00000080: dc99 583e da5f 823e 5cf0 943e 0122 b43d
00000090: a776 6ebe cb06 61be 7ff9 4c3e 9402 4bbe
000000a0: 8051 60be fa6d 953a 4343 933e 8f82 8bbe
000000b0: 8985 6bbe 849b 693e f4ad e73d b1bf 1d3e
000000c0: da85 923e a99f e33c 37e7 58be e44c 37be
000000d0: 02d0 143e 5099 beb9 1539 d9bd 1d21 f2bd
000000e0: 64b3 533e 5703 8b3d f2e9 8dbe 2c52 45bd
000000f0: bd28 63be 8cf3 be3b 6c34 f8bb 84c1 793d
00000100: b53a 98be 976c 083e edc3 a2be b68a 8a3e
00000110: 64c2 8d3e 6b22 33be 5d91 7a3e f7f6 0a3d
00000120: 848a 323e 832b d33c ad42 343d 9433 813e
00000130: 9002 6dbe 9b90 60be afd9 0b3e 74fe 2a3e
00000140: 3608 54bd f524 adbd f061 6e3d 7c91 87be
00000150: 8d28 71be 1022 993c ad11 183e ae4c 29be
00000160: 8457 1dbe 36b0 90be 7ad2 49be 6df6 1c3d
00000170: 0152 603e 4795 4bbe 2939 103e 28ec 803e
00000180: f136 e7bd d311 edbd 0c1e 633e 2144 a2bd
00000190: c81f 603d 64b1 0c3b 7033 663e ced6 6fbb
000001a0: ab5b 4e3e ff13 103e 1ccd 543e 2c97 3fbe
000001b0: b9db 9a3e b755 233d c634 26be e7a1 21be
000001c0: 98fe 06be f957 de3d 0e47 83be 4464 1c3e
000001d0: 691e 273e 4208 8b3d b8fb 1abe 03e0 ebbc
000001e0: eaf9 2ebd bed0 673e 3eda 93be 1d7b 18be
000001f0: 634f 2f3e 1948 74bd 7eab 5fbe f178 45be
00000200: b031 fa3d 1d70 683e 39b4 58be 3e0c fabc
00000210: facd 5e3e d984 87be bf79 4abe d037 06be
00000220: 8e4c 0f3e cae4 68be 2f08 2c3e fbf8 a13d
00000230: af14 823e dfb1 063e 1891 3ebe fc0f f13d
00000240: 30f2 f33c 54ee aabc faa4 5c3e 18b2 85be
00000250: 4d6f 883e 77b4 323d b736 89be 5ee4 74bd
00000260: 8468 86be 682d 513b 50b1 9a3a af6b e43c
00000270: b6d1 123e e9a1 753e c939 473e 3cb2 c7bd
00000280: 42cb 95be caa9 853e 0f5e 0bbd 28b5 25bd
00000290: f6ad 89bd 1eeb 10be 9a2c c13d 780c b5bd
000002a0: 36a8 613e 2a85 00be e060 873e db5c 7bbe
000002b0: 9899 303d 6d29 0b3e 3217 7dbd b236 5c3e
000002c0: 2aec edbc 408b b6bd d421 ee3c 1045 bb3b
000002d0: f2db 0d3e 2387 033d fa39 7ebe a663 d1bd
000002e0: 8145 abbd a78c 823e fd7f 45be 7a0b e63d
000002f0: 34fb 4b3e b9eb a43d d19a 37bd 06db ea3d
00000300: a7b9 223e d219 5ebd 9b0c 69be 7236 00bc
00000310: c3bc 173e 1d8c a6bd c553 863e f63f 613e
00000320: 75bf 113e 38f2 35be 29d5 873e 9a32 3a3e
00000330: dcc8 493e 9318 5d3c 8ffc 8c3e c99b dfbc
00000340: e29d 013d 6b70 7dbe 3d66 303e 5455 633e
00000350: 33a4 d93d cc11 16bd 9502 713e 08b7 90be
00000360: f020 54be 60fe 31bc 6c4e 813e 64fe 5f3d
00000370: 498b 00be 93cd 6e3d bf5a dcbd f7c1 df3d
00000380: 2933 29bd 0c66 35be 3fd5 81be 714a debd
00000390: 3c73 493e 9479 933d 89cf b2bc 9237 2dbe
000003a0: 74c5 edbd 3ec0 3abd 8b8b 883e dfd0 d8bd
000003b0: 6615 3e3e 9477 3dbe 994f 8ebe 1576 2d3e
000003c0: 282f 49be afdc 303e e9eb 4f3d 9069 95be
000003d0: ce54 6d3e ad76 09be d0d7 433e e116 76be
000003e0: 1042 353e 8b77 22bd dfbc 7bbe 4a20 983e
000003f0: 296d 103e 0514 3ebe ed50 633e 334a 813e
-0.008388575 -0.26224777 -0.1949526 -0.08289851 -0.056990873 -0.23153958 0.07499848 0.08079034
-0.19472656 -0.10984769 -0.22711694 -0.17560664 -0.25808457 -0.06736495 0.26590857 0.25012097
0.2519983 0.17627263 -0.048644036 0.13035224 0.06751723 -0.14939904 -0.08755677 0.18129215
-0.26851067 -0.16797055 -0.16647011 -0.12664498 -0.0897454 -0.053823654 -0.08383389 0.049754173
0.21152443 0.25463754 0.2908963 0.08795548 -0.2328745 -0.21975248 0.2001705 -0.19825202
-0.2190609 0.0011400573 0.28762254 -0.27248046 -0.23000158 0.22813231 0.11312476 0.15405156
0.28617746 0.027786093 -0.21181951 -0.17900425 0.14532474 -0.0003635385 -0.10606591 -0.11822722
0.20673901 0.067877464 -0.2771755 -0.04817407 -0.22183509 0.005827373 -0.0075746085 0.060975567
-0.2973229 0.13322674 -0.31790105 0.27058953 0.2768737 -0.17493598 0.24469514 0.03392693
0.17435652 0.025777584 0.0440089 0.25234663 -0.23145509 -0.21930163 0.13657258 0.16698629
-0.051765643 -0.084543146 0.05819887 -0.26478183 -0.23550625 0.018693 0.14850493 -0.16533157
-0.15365416 -0.28259438 -0.19709197 0.038320947 0.21906282 -0.19881164 0.14084305 0.25180173
-0.11289776 -0.11575665 0.2217943 -0.07923151 0.05471781 0.0021468038 0.2248056 -0.003659654
0.20152156 0.14070128 0.20781368 -0.18710011 0.3024576 0.039876666 -0.16231069 -0.15784417
-0.13183057 0.10856623 -0.25640148 0.15272623 0.16320194 0.067886844 -0.15135086 -0.02879334
-0.042718805 0.22638223 -0.28877443 -0.14890714 0.17120127 -0.05963907 -0.21842763 -0.19284417
0.122165084 0.22699018 -0.211625 -0.030523416 0.21758261 -0.26468542 -0.19773005 -0.13107228
0.13994047 -0.22743526 0.16799997 0.079088174 0.25406405 0.1315379 -0.18610036 0.11770627
0.02977857 -0.020865597 0.21547309 -0.26112437 0.26647416 0.043629136 -0.26799557 -0.0597881
-0.26251614 0.0031917933 0.0011802111 0.027883379 0.14337811 0.23987545 0.19455637 -0.097507924
-0.29256636 0.261061 -0.03402525 -0.040455967 -0.067226335 -0.1415219 0.09432335 -0.08840269
0.22036824 -0.12550798 0.26441097 -0.2454714 0.04311523 0.13590021 -0.0617897 0.2150524
-0.029043276 -0.089132786 0.029068865 0.00571502 0.13853434 0.0321113 -0.24826804 -0.102240846
-0.08362866 0.25497934 -0.19287105 0.11232658 0.19920045 0.08052773 -0.04482538 0.11467557
0.15891133 -0.054223843 -0.22758715 -0.007825481 0.148181 -0.08132193 0.26235786 0.21997055
0.14233191 -0.1776818 0.26529816 0.18183365 0.19705528 0.0134946285 0.27536437 -0.027295964
0.03164471 -0.24749915 0.17226501 0.22200519 0.10627022 -0.036638066 0.23536141 -0.28264642
-0.2071569 -0.01086387 0.25255144 0.054685965 -0.12553133 0.05830152 -0.10759496 0.10925668
-0.041308556 -0.17714709 -0.25358006 -0.10854042 0.19672865 0.072009236 -0.021827476 -0.1691573
-0.11609927 -0.045593493 0.26668963 -0.10586714 0.1856285 -0.18502647 -0.27795103 0.16939576
-0.19646895 0.17271684 0.05076209 -0.291821 0.23176882 -0.13424177 0.19125295 -0.24032165
0.17700982 -0.039664786 -0.24583767 0.29712135 0.14104141 -0.18562324 0.2219884 0.25251922

linears.0.bias f4 [64]
00000000: 4ed3 cc3c b1c6 2dbd b887 dc3c 7266 65bd
00000010: da91 8fbd 2c73 2fbd 04ea 933b 5f3a 103c
00000020: 4e7c 0abd c98d 193d afa5 3c3d f8fe 43bd
00000030: 7f68 5f3d 45d6 2e3d 1472 11bd 4ddb 3ebd
00000040: 28df aabd b252 813c f1e6 8abd 3eac 13bd
00000050: e84f 883d 39a0 643d 248e 6fbd a40b 073c
00000060: 48f2 0a3d 6f5c 173d 675a b03d da52 e039
00000070: 8390 24bd 232e 523c fdf5 91bc 0295 4a3d
00000080: 6687 fb3c 1bf5 4f3b 7295 a1bc 3475 1fbd
00000090: ad76 583d 32fa a7bc 0e9c 913c 1672 02bc
000000a0: da94 d23c af3d e53b 5de6 0cbb 867b 953c
000000b0: 2c5a 633d a84d 7bbc 3d60 22bd 64b2 b63c
000000c0: 3bf8 d7bc 2d81 0bbd 8df5 52bd d778 203d
000000d0: 6d35 2cbd 89e4 a63a b44f 773d a46d 21bd
000000e0: cd79 333d a8cf 63bc 2573 063d 12a8 0bbd
000000f0: 22fb 433d fbe1 babb b7be 2dbd aa10 24bd
0.025003102 -0.042425815 0.026920184 -0.056005903 -0.07010241 -0.042834446 0.004513981 0.008802979
-0.033809952 0.037488732 0.046056446 -0.04785058 0.054543015 0.042684812 -0.035509184 -0.04659586
-0.08343345 0.015786503 -0.0678233 -0.036052935 0.06655866 0.055816863 -0.058485165 0.008242521
0.033922464 0.036953386 0.08610993 0.0004278634 -0.04017688 0.012828383 -0.017817492 0.04945851
0.030704211 0.0031731788 -0.019724581 -0.038930133 0.052847553 -0.020505045 0.017774608 -0.0079617705
0.025705744 0.0069958786 -0.0021499612 0.018247377 0.055505916 -0.015338339 -0.03964256 0.02230186
-0.026363483 -0.03405874 -0.051503707 0.03917774 -0.04204314 0.0012732904 0.060378745 -0.039411202
0.04381733 -0.01390449 0.032824654 -0.03409583 0.04784692 -0.0057032085 -0.042418208 -0.040054955

linears.1.weight f4 [64, 64]
00000000: 24ff 9dbd 0c4d 90bd ad29 a6bc f7e8 51bd
00000010: 739b 373e f809 eebc 0629 9a3d 7134 6cbd
00000020: a64a 423e e006 103d e954 09be 7b59 39bd
00000030: ddae 37be 8a2f fd3c 390e 41be c554 9bbd
00000040: 084f 8e3d 316e 35be 8cea 8abd c2d8 4ebd
00000050: b1a8 c6bc c726 a03d 8abe fcbd ef5b 613d
00000060: ba4d 43bd 9d59 30be 3a64 1c3d d0f5 d03d
00000070: 49f1 413e fb95 42bd 33a2 2a3e 8e11 153e
00000080: 6792 7d3d beb9 34bd 2e8d 9d3d 7497 023e
00000090: d176 83bd c3cb 493e 0451 1ebe 4fb8 413e
000000a0: e28d adbd 554d 8f3d 1a38 87bc 5475 2c3c
000000b0: 7ced e53d f810 1abe 41d8 6a3e e75e 32be
000000c0: 8629 273e 17e3 27be c58f 2e3e c7e4 debc
000000d0: e83e 0e3e 5ef2 5dbe 8533 4abe 07e2 fabd
000000e0: 84c9 6fbe 527d 68bd 680a 6bbe cbe7 273e
000000f0: ea27 a83d 4b97 213d f070 1f3e c8e6 f53d
00000100: 4278 5ebd 01c9 003e 07ee 5bbd 9a12 50bd
00000110: db44 143e 704f d6bd 3c23 423e eea3 d0ba
00000120: e77d 813d a237 36be 99e1 2bbe 503f bcbc
00000130: 3dd7 f0bd 57ff 86bd 5845 993c e82a 70bd
00000140: afa5 d53d 0cfa 0d3b 2cdf 61be ca0c 9abd
00000150: e72a 153d 975d 27be 2213 27bc 8ed3 99bd
00000160: b667 bcbd 8daa 89bc 253d e9bc af19 283e
00000170: bf8a 5dbe 7e60 053e 4823 473a a4c5 03be
00000180: baa8 a1bd f0e9 dc3d 09cb 4cbe 48a3 d73d
00000190: cff7 40be 3c19 33bd 2a91 2f3e d8a2 80bd
000001a0: 2ee5 2d3e 363a 4ebe 5366 383d df3a 82bd
000001b0: ebab 373e 8697 9abd 9cf3 febd e686 13be
000001c0: 9caf 14be e28f d73d 99b0 2c3e 1b28 183e
000001d0: 4ed9 6b3d b746 26be 8350 96bd 7001 4dbd
000001e0: 8529 0cbe bf0b 45be 0636 623e 69e4 4abd
000001f0: 1a6c 41be 901f 87bd bd2c 893d 9e59 94bd
00000200: bdec d13d cd0b 18ba 3042 963d 77d7 2a3e
00000210: 698f ee3b be3e 2dbe 8c4b e0bd 4838 5fbe
00000220: c757 8ebd edf9 d2bd 83a3 d03d 32ff 0ebe
00000230: 51c6 93bd e749 07be 7a8e 19bb 7a7d 52bd
00000240: ff40 08be 63c9 fcbb 04e0 e9bd 0bdd 363e
00000250: 7841 483d dbf3 c3bd 5f18 b6bd 06dc 4c3e
00000260: 4556 24be 5486 453d dcfe 5e3e 0a5e 213e
00000270: b654 42bd 2846 033e 7c05 a5bd ef6f 293e
00000280: c4da e23d 7e76 a33d 9c13 433e 2d4d 9dbd
00000290: 43e9 f73c f695 58bd 7970 063e b9de 16be
000002a0: 1879 303e a8ba 13be 1810 12bd da81 143e
000002b0: 7678 8d3e f5bd c4bd 48af c1bb 8113 523e
000002c0: 832c b6bd 3ea7 1cbe 2904 393d 81e6 193c
000002d0: 9a2f 52bc b6de 0d3e 9874 483e a5b1 a9bd
000002e0: fc69 3bbe 554d 383d 8ff5 92bd 24d6 b33d
000002f0: 15b5 b13d 3b8a 443e bb40 61be 4c2f 283e
00000300: 15f0 003e 927b d8bc afbb 53be c746 403e
00000310: 4fe0 213d cb13 403e cc2e 98bd 314d 3abe
00000320: 2e55 2e3e d26d 043e 7f36 85bd e122 3dbe
00000330: 50a4 34be 0d9b 163e 9e00 1c3e 1f05 b03d
00000340: 7124 3c3e b212 29be 605a 493e 2f21 903c
00000350: 7920 923c acb3 51be 3929 fd3c de85 04ba
00000360: 0afa c83d 1eb3 58be d93c 083e 3e92 4abe
00000370: b315 0d3c 1fe4 803c a689 3a3d b801 93bd
00000380: c96a 50be dd90 f3bd 606e 233e 78f9 41be
00000390: 464e 2d3e 4020 363e 8ce7 7cbd 813a 62be
000003a0: 4e88 05bd 018b 2c3e da02 80bc 6d5e 3abe
000003b0: 5de5 b43c e0a6 1bbe 7c5e 0d3e 1def 79bc
000003c0: 59d7 5d3e 95be dfbd 3bcd cc3c 79ca 19be
000003d0: 7790 353d 2368 63be d1ad 8e3c 7404 043b
000003e0: 81e9 013e 0111 6abd 3f0d 88bc c273 3e3e
000003f0: e843 22be 499a acbd b09c 543c 252c 613e
-0.0771468 -0.070459455 -0.020283544 -0.051247563 0.17930393 -0.029057488 0.07527356 -0.0576672
0.18973789 0.035162807 -0.13411297 -0.04525135 -0.17937799 0.030906457 -0.18853082 -0.07584528
0.06948668 -0.17717816 -0.067830175 -0.050499685 -0.02425036 0.07819896 -0.1234103 0.055019315
-0.047681548 -0.17221685 0.03818152 0.10203135 0.18939699 -0.047506314 0.16663437 0.14557478
0.0619072 -0.04412245 0.076929435 0.12753087 -0.06419147 0.19706635 -0.15460593 0.18917964
-0.084743276 0.06997172 -0.016506243 0.01052602 0.11226937 -0.15045536 0.22934057 -0.17419015
0.16324434 -0.16395222 0.17047031 -0.027208699 0.13891184 -0.21674487 -0.19746216 -0.122501425
-0.23416716 -0.05676014 -0.22953188 0.16397016 0.08210738 0.039450925 0.15570426 0.12006909
-0.054313906 0.12576677 -0.053693797 -0.05079899 0.14479391 -0.1046437 0.18958753 -0.0015917995
0.06322842 -0.1779466 -0.16785277 -0.022979409 -0.117598034 -0.06591671 0.018709823 -0.05863467
0.10431992 0.0021663932 -0.2205779 -0.075219706 0.036417868 -0.16344295 -0.010197433 -0.07511054
-0.09199469 -0.016804958 -0.028471539 0.16416048 -0.21634959 0.1302509 0.0007596505 -0.12868363
-0.0789351 0.107868075 -0.19999327 0.1052919 -0.18844531 -0.043725237 0.1714522 -0.0628106
0.16981956 -0.20139393 0.04501946 -0.06358885 0.17936675 -0.07548432 -0.124488086 -0.14406928
-0.14520115 0.1052549 0.16864242 0.14859049 0.057580285 -0.16237913 -0.07339575 -0.0500502
-0.13687713 -0.19242762 0.22090921 -0.049534235 -0.18888894 -0.06597817 0.06697986 -0.072436556
0.10250232 -0.00058000983 0.07336843 0.16683756 0.0072802794 -0.16918465 -0.109519094 -0.21798813
-0.06950336 -0.10301576 0.101874374 -0.13964537 -0.0721556 -0.13211785 -0.002343087 -0.051389195
-0.13306044 -0.007714437 -0.11419681 0.17857759 0.04889056 -0.09567996 -0.08891367 0.20005807
-0.16048534 0.04822381 0.21776909 0.1575853 -0.047444068 0.12819731 -0.08057687 0.16546606
0.110768825 0.07981585 0.19050449 -0.07680736 0.030262595 -0.05287739 0.13128842 -0.147334
0.17233694 -0.14426672 -0.03565988 0.1450266 0.27630967 -0.09606544 -0.0059107877 0.20515253
-0.08895209 -0.15298173 0.045169983 0.009393335 -0.012828732 0.13854489 0.19575727 -0.08285836
-0.18302149 0.044995625 -0.07175743 0.087810785 0.08677117 0.19193356 -0.21997349 0.16424292
0.12591584 -0.02642611 -0.20677064 0.18777 0.039520558 0.1875755 -0.07430801 -0.18193509
0.17024681 0.12932518 -0.06504535 -0.18470336 -0.17640805 0.14707585 0.1523461 0.08594727
0.18373276 -0.16511038 0.19663382 0.017593948 0.01783775 -0.20478696 0.030903446 -0.0005055348
0.09813316 -0.21162078 0.13304462 -0.1978235 0.0086111305 0.015733777 0.045541428 -0.07178062
-0.20353235 -0.11892865 0.15960073 -0.18942821 0.1692439 0.1778574 -0.061744258 -0.2209263
-0.032600693 0.16849901 -0.01562636 -0.18200083 0.022082025 -0.15200377 0.13805574 -0.015254763
0.2166418 -0.109250225 0.025000205 -0.15018643 0.044327226 -0.22207694 0.017416866 0.0020144256
0.12686731 -0.057145122 -0.016607879 0.18598846 -0.15846217 -0.08427865 0.01297681 0.21989496

linears.1.bias f4 [64]
00000000: ddcd 88bd e2c8 3c3c 0f15 e43c 42ea 40bd
00000010: d098 bdbc b618 0bbd a2e6 0ebd 7268 193d
00000020: 91f3 9abc 1c42 7d3c 7250 eebc 5278 54bd
00000030: 6410 9b3c b2d7 d23c 793f 303a 4e6d 13bd
00000040: da94 6a3d c3ef b63c d1e0 67bd 0f17 9a3c
00000050: e219 d03c 5ff5 d0bc 1e7b db3c 5998 e33c
00000060: c797 6abc 33a6 d33c c003 e5bc db1a 90bc
00000070: 644f edbc 95a2 74bd 0c0c 9b3d db63 ecbc
00000080: 02d1 0a3d 458e ffbc e6a9 5ebc 0ad0 75bc
00000090: 8be3 9abc 16ec 08bd 099f ddbc 80e6 79bd
000000a0: 89d7 13bd 63b0 103b 221f 853c 288d 85bc
000000b0: 34d9 ff3c 4a25 dd3c 65df a739 df2b d03c
000000c0: f2fd 563c d419 7abc c35a 94bc 4e4e c83c
000000d0: 3fee 4b3d 2cc0 e2bc 99e0 18bd 688d dc3c
000000e0: a1bc abbc e038 7bbd 4d71 943c 9a20 bc3c
000000f0: 60d6 7ebd 133d 553c 6a4e d63c 0a77 6ebc
-0.0667989 0.011522504 0.027842073 -0.047098406 -0.023144156 -0.033959113 -0.034887917 0.037453122
-0.01891497 0.015457656 -0.029091094 -0.05187256 0.018928714 0.025737617 0.00067233254 -0.035992913
0.057270862 0.022331124 -0.056610886 0.018809823 0.025402967 -0.025507627 0.026792105 0.027782606
-0.014318413 0.025836086 -0.02795589 -0.01759093 -0.02896852 -0.059725363 0.07570657 -0.028856209
0.03389073 -0.03119577 -0.013590312 -0.015003214 -0.018907329 -0.033428274 -0.027053373 -0.061010838
-0.036094222 0.002207779 0.016250197 -0.01630266 0.0312315 0.02699532 0.00032019164 0.025411544
0.013122069 -0.015264947 -0.018109685 0.024451401 0.049787756 -0.027679525 -0.037323568 0.026922897
-0.020963969 -0.061333537 0.018120432 0.022964764 -0.062216163 0.0130150495 0.026160438 -0.014554748

linears.2.weight f4 [64, 64]
00000000: 84af a4bd ef11 e4bc 43c5 04be a5f4 293e
00000010: 01c3 b3bd e5f4 4cbe 9952 dabc 1dfc 4dbd
00000020: e394 3dbd 2783 92bc 842d 31be 0e5e 16be
00000030: ed0f 333e f225 7a3d 7869 273d b025 93bc
00000040: b117 83bd 7886 c13d 1692 dd39 e6a0 d9bd
00000050: 2437 59bd f46e 94bd 15b2 243e d901 fb3d
00000060: 4c70 223e 4539 90bd 1f22 4cbe aa5c d63d
00000070: f76e 0bbe ad57 82bb fa83 30be bc9b 153e
00000080: c1df 223e ffaa 203e 4b32 33bd 2554 4ebe
00000090: 5ced 363d d86d 35bd 87e4 6ebe 4827 ea3d
000000a0: fbce db3d e080 e0bd 929b b23d c369 19be
000000b0: 7f57 203d e989 b43d 917f 263e 41e5 2dbe
000000c0: 0e0c 4cbe 8057 04be ac44 0bbe 685b 62bd
000000d0: 662c bbbd bad6 27be 87b4 1c3d 217b a4bd
000000e0: 169c 0e3e fdb8 69be 0e5b 253e 91e3 263e
000000f0: 7d45 cb3c 8b37 f53d 67e5 333d ed75 a8bc
00000100: 9692 283e 6451 50bd 23c3 743e af1c 463e
00000110: 1e0a 783d 3440 be3d 432e 46bc 46b2 97bd
00000120: 80c4 96bd f1e3 a0bd a400 98bd 35f1 0bbd
00000130: 1312 a23c 415c 07be a08d 753d 725d 69be
00000140: 8012 90bd 33f2 143e 5754 1dba f113 3c3c
00000150: 8bf4 09be 923e 013e 8ac4 653d 1755 cc3d
00000160: 2c84 c2bd f2ba c23d 5600 6fbd 92ae 393d
00000170: 3729 533c 3db9 d4bb a568 503e 7b8a cabd
00000180: 1932 38bd 51ef 47be 5d22 8ebd eebf 91bd
00000190: 6c06 44be 24fa 29be 8716 093d 653a 8b3d
000001a0: 231d 253e 3158 303e fe2e 49be 3fa6 2dbe
000001b0: 8a8b b63d 6310 d93c 6e1e 4bbe 3591 1abe
000001c0: a471 27be 0f66 16be f347 07be b1f5 b23c
000001d0: 5eb1 1e3e dd7c d03c ca55 183e 176c 483d
000001e0: 60fa 9ebd 86a6 113e 22bd 473e 44ee f23d
000001f0: 80af b23c 2ef7 b5bc 379d b43c 5509 653e
00000200: 9e20 3abe 7338 a03d f993 39bb 3aa9 f73d
00000210: c85d c93d 5473 3f3a 4e16 e3bc 267e 133e
00000220: 390c d3bd 0962 30be 01bc d5bd bbb1 75bc
00000230: cc2e 67bd e9cc 75bd 4351 a63d 1b1f 52be
00000240: e3ea 683e aa05 973d 89c3 62be 1fa4 f43d
00000250: 1949 433d dc95 893d 4129 323e 8632 1b3e
00000260: 6020 cf3d 1d2e f3ba daf9 6bbe ee6f a13d
00000270: 2933 fd3c c853 2abe 6ca2 bdbd d36a 0bbe
00000280: d6fc 5b3e 0402 be3d 78d4 10be 870d 093e
00000290: 1c16 14be 3874 05bc b15f 52be 02c0 62be
000002a0: 0b96 45be 02bc b93d 3aff d93d 0126 1fbe
000002b0: 2a2e 483e 47a3 373e ddbb 073e 0187 d73d
000002c0: dfa3 1ebd 02eb 16be dadb 53be a1c2 c0bc
000002d0: 112a 373e aa52 c33b 482c 843c 33e8 9f3d
000002e0: aba3 2f3e 404b 293e bd2f 9dbd 9e4c eabd
000002f0: 8244 25be 57cb fe3d 996e c73b f426 ae3d
00000300: 1f60 2a3e de47 37be 9324 2abe 38ea a53c
00000310: 146e 5c3e 90bd 463e 7ab0 6d3c d7b7 68be
00000320: 9986 343e 19a4 d63d 15b3 f1bd b5ce 4a3d
00000330: b44f edbd b732 c2bc f0a7 ba3d ba07 bf3d
00000340: 1ca7 38be 9ad5 c4bb 8f1f 6c3e 4b87 a2bd
00000350: 082e 11be e403 68bc 45d2 01be 1b4c 3b3e
00000360: 2964 37be f471 9dbd 7f8e 08bd 43c0 4d3e
00000370: 2d86 4d3e 2403 073e 39e4 46be 84c5 a93d
00000380: 16fc 0f3c f6ab 813d 0ec4 0e3e 14b8 633d
00000390: 8ddf b43d 1748 613d de25 14be cdc3 3bbe
000003a0: 493c 693e 8ac5 f53d 47de 10be f6a4 04bd
000003b0: a15b ed3d 7e88 62be f72f debd d32b 62be
000003c0: d72c 0abe 6d74 51bc c439 5abe ceeb 9fbd
000003d0: 8bcd b7bd 1711 553e cc7c 223d 65d4 ecbb
000003e0: 6256 28be c8ab 813d 86a5 03be 7428 37be
000003f0: 40dd d23d 66f0 4dbe ff33 33bd 6cf2 8d3d
-0.080412894 -0.027840583 -0.12965874 0.1659723 -0.087774284 -0.20015295 -0.026650714 -0.050289262
-0.046284568 -0.017884804 -0.17302519 -0.14684317 0.17486544 0.061071344 0.040872067 -0.017962307
-0.06401003 0.09449476 0.00042261247 -0.10626392 -0.0530311 -0.07247725 0.16083558 0.12256212
0.1586315 -0.07042173 -0.19934891 0.10466893 -0.13616548 -0.003977737 -0.17237845 0.14610189
0.15905668 0.1569023 -0.043749135 -0.20149286 0.044659957 -0.04429421 -0.23329364 0.114332736
0.10732838 -0.10962081 0.08721079 -0.14981751 0.039145943 0.08815367 0.162596 -0.16981985
-0.19926473 -0.12924004 -0.13600415 -0.055262953 -0.09139328 -0.16390505 0.0382581 -0.080312975
0.1392673 -0.22824474 0.16148016 0.16297747 0.024813408 0.119734846 0.043919947 -0.020564044
0.16462168 -0.05085887 0.23902564 0.1934688 0.060556524 0.092895895 -0.012095991 -0.0740705
-0.07361698 -0.078559764 -0.07421997 -0.03416558 0.01978401 -0.13218786 0.059949517 -0.22789553
-0.070347786 0.14545517 -0.00060016423 0.011479364 -0.13472192 0.12621525 0.056095637 0.09977167
-0.09497866 0.09508313 -0.05834993 0.0453325 0.012888244 -0.0064918087 0.20352419 -0.09889694
-0.04496965 -0.19524886 -0.06940148 -0.07116686 -0.19143075 -0.16599327 0.03346875 0.06798247
0.16124396 0.17221142 -0.19646832 -0.16957949 0.08913334 0.026497072 -0.19835827 -0.15094455
-0.16351944 -0.1468737 -0.1321104 0.02184567 0.15497348 0.025450164 0.14876476 0.048931208
-0.07762599 0.1422368 0.19505742 0.11861852 0.0218122 -0.022212591 0.022047622 0.22366841
-0.18176505 0.07823267 -0.0028316958 0.12092824 0.098323405 0.0007303257 -0.027720597 0.1440359
-0.10305066 -0.17224897 -0.104362495 -0.0149959875 -0.056441113 -0.06000987 0.08120968 -0.20519678
0.22745852 0.07374127 -0.22144903 0.11945366 0.047677133 0.067180365 0.1739855 0.15155992
0.10113597 -0.0018553172 -0.2304453 0.07882677 0.030908184 -0.16633523 -0.09259495 -0.13614969
0.21483168 0.09277728 -0.1414355 0.13384067 -0.14461559 -0.0081453845 -0.20544316 -0.22143558
-0.19295518 0.09069063 0.10644384 -0.15541841 0.1954886 0.17933379 0.13255258 0.10523797
-0.0387305 -0.14738086 -0.20689335 -0.023530306 0.17887141 0.005960782 0.016134396 0.0780796
0.17152278 0.16532612 -0.07675121 -0.11440395 -0.16139415 0.12441128 0.0060861823 0.085035235
0.1663823 -0.17898509 -0.16615514 0.020253286 0.21526366 0.1940825 0.014507407 -0.2272638
0.1762947 0.10480518 -0.11801735 0.049513537 -0.11587468 -0.023705823 0.09114063 0.093276456
-0.18032497 -0.0060069086 0.23058914 -0.07935961 -0.14177716 -0.014161084 -0.12677868 0.1829075
-0.17909302 -0.076877505 -0.03333902 0.20092873 0.20070715 0.13184792 -0.19422998 0.08289626
0.008788129 0.06331627 0.13941976 0.055595472 0.088317014 0.05500039 -0.1446757 -0.18336411
0.22776903 0.12000568 -0.14147292 -0.03238388 0.115897425 -0.2212238 -0.10848992 -0.2208703
-0.13493668 -0.012784106 -0.21311098 -0.07808648 -0.08974751 0.208073 0.039669797 -0.007227468
-0.16439202 0.06331593 -0.12856111 -0.17886525 0.10296106 -0.20111236 -0.04375076 0.06931004

linears.2.bias f4 [64]
00000000: b2d7 a93c 0432 ad3c 539c 1d3d c6c0 96bc
00000010: 70ce 023d 90de 203d e72f a1bc dcbd ac3c
00000020: acc0 d5bc 835a a63c 1aef cdbc f2dc a23c
00000030: 4889 a83c 481b 943c 377b 8b3c 019f aebc
00000040: 578c b13c 0035 ae3c 23da b33c d286 ab3c
00000050: 6179 b33c ed05 c43c 9612 ac3c c483 b03c
00000060: 8545 c03c a42f a53c 4f26 8cbc 6c2d af3c
00000070: 2394 bdbc 7a12 bb3c feb9 a83c 3aac a03c
00000080: 3df1 b1bc 9ff9 ac3c a413 b0bc 33af a23c
00000090: 5403 bcbc f711 923d dbb0 a7bc 1dc4 bcbc
000000a0: c143 6cbc 40fd a4bc b973 9e3c 7446 b0bc
000000b0: b2dc ae3c a97c a7bc 5248 4a3d c29e d83c
000000c0: 1307 a13c e2b6 aebc 811d b7bc a485 a2bc
000000d0: 88d7 03bd 191c a9bc 8a7a aa3c 690d a53c
000000e0: af86 a9bc 66cb a53c 0356 b43c 8c67 9e3c
000000f0: 926c a9bc a241 a7bc f150 53bd 0959 a83c
0.020732734 0.021142013 0.03847916 -0.018402468 0.031935155 0.039274752 -0.019676162 0.021086626
-0.02609285 0.020306831 -0.025138427 0.019880746 0.020573273 0.018079415 0.017026527 -0.021316053
0.021673365 0.021265507 0.021954602 0.02093831 0.021908464 0.023928607 0.021004956 0.021547206
0.02347065 0.020164318 -0.01710811 0.021383964 -0.023141926 0.022835959 0.0205965 0.019613374
-0.021721477 0.021115122 -0.02149374 0.019858932 -0.022950806 0.07132333 -0.020470073 -0.023042733
-0.014420451 -0.02014029 0.01934229 -0.02151797 0.02134547 -0.020445185 0.049385376 0.02644289
0.019656694 -0.02132744 -0.022352936 -0.019839115 -0.03218797 -0.02064328 0.020810384 0.020147996
-0.020694105 0.02023859 0.02201367 0.019336484 -0.020681653 -0.020417038 -0.051590864 0.020550268

linears.3.weight f4 [1, 64]
00000000: adc0 88be ad32 95be 1ad6 0bbd 5295 8e3e
00000010: 4c10 91bd 5ba2 15bd 4e1a 403e 1286 b7bc
00000020: 57dc 263d a757 93be 5a87 693d 8cfa 96be
00000030: a76f 98be 0971 91be 64e4 41bc cefe e93d
00000040: 8a88 1bbe dc16 9fbd e0f4 fdbd e8d0 8cbe
00000050: b473 a0bd 88e3 a9bd a626 0bbe ab28 16be
00000060: b895 a2bd 0c83 a4be 5d37 9d3c e8b5 4cbd
00000070: b917 783e dcf2 cdbd 287a 75be 51ee 53be
00000080: 04e1 a43e 8c5e 21be f710 2a3e d517 07bd
00000090: b087 833d 7845 a5bc 2a4a c63d 3964 5c3d
000000a0: ec85 ed3b 3ce6 543e c57f 84be 310a d33d
000000b0: b8fd f9bd 262a 303e 06ae debc 8844 5fbd
000000c0: cb7e 61bd 1523 393e c614 cf3d ad60 293e
000000d0: e532 173d ed2d 153e 5d7d 5fbe da65 c6bd
000000e0: 0ea1 a93e 5d92 5fbe cd33 72bd ac76 cabd
000000f0: 3c8e 483e bc59 893e 9cb7 a53d 6871 8fbe
-0.267095 -0.29140225 -0.03413973 0.27848297 -0.070831865 -0.036531787 0.18760034 -0.022402797
0.040737476 -0.2877781 0.057013847 -0.29488027 -0.29772684 -0.2840655 -0.011834238 0.11425553
-0.15188804 -0.07768032 -0.12400222 -0.27503133 -0.078345686 -0.08295351 -0.13588962 -0.14663951
-0.07938713 -0.3213123 0.019191438 -0.049978167 0.242278 -0.100560874 -0.2397238 -0.20696379
0.32202923 -0.15758723 0.16608034 -0.032981712 0.06422365 -0.020174727 0.096821144 0.053806517
0.0072486307 0.20790952 -0.2587873 0.10304678 -0.12206596 0.17203578 -0.02718259 -0.054508716
-0.05505256 0.18079789 0.10111384 0.16540785 0.03691377 0.145683 -0.21825166 -0.096873954
0.33130687 -0.21833177 -0.059131432 -0.09885916 0.19585508 0.26826274 0.08091661 -0.2801621
