Complete_thesis_stage_1_and_2/(d).Code_and_all_other_details/WAAM/PINN_TEMP_DEPENDENT_PROP/Models/model_epoch_25000.pt (torch, 38264 bytes, 7 tensors)

linears.0.weight f4 [64, 4]
000000 10 a3 3f be bc 2f 3a bf 91 dd 78 be 6d 4e 19 be
       -0.18714547 -0.72729087 -0.24303271 -0.14971323
000010 2d ed 68 be e7 c2 e3 be f2 a0 ff 3c 01 92 a9 3e
       -0.22746725 -0.44484636 0.031204674 0.33119205
000020 db 27 93 be a5 29 6e bf 77 38 af be 3d 6a 02 bf
       -0.28741345 -0.93032295 -0.34222767 -0.50943357
000030 bc aa 42 bf 4d d5 db be bd 39 a6 3e c4 ca d4 3e
       -0.7604177 -0.42936173 0.32465926 0.41560948
000040 94 ce 2a 3e b6 6d 82 3d 7a bc 41 bd 19 33 3e 3c
       0.16680366 0.06368582 -0.047298886 0.011608862
000050 92 0d 25 be 40 52 c6 bd 8d 25 21 bd cf cb ca 3c
       -0.16118458 -0.09683657 -0.03934245 0.024755387
000060 2e ab 85 be 96 0e aa bf ad 15 91 be e1 d3 2e be
       -0.26107162 -1.3285701 -0.2833685 -0.17073013
000070 c9 b7 3e be 44 3b 14 bf 11 00 1b be 8a ce a2 3e
       -0.18624796 -0.5790293 -0.15136744 0.31798202
000080 a6 40 eb 3d 06 ae 85 3f 18 d3 6b 3f 9a ae 7a be
       0.1148694 1.0443733 0.9211898 -0.24480668
000090 7f 8c ab be 36 7c 03 bf c8 c6 a3 3c 3a 07 39 be
       -0.33505628 -0.51361406 0.019992247 -0.18069163
0000a0 dc e2 db 3d fe 58 b9 3e bd 49 08 bd 88 2b 50 bf
       0.10736629 0.36200708 -0.033273447 -0.81316423
0000b0 a5 08 34 bf 7c 28 2e 3f 3f e8 4b 3e 73 c4 0d 3e
       -0.7032569 0.68030524 0.19912814 0.1384447
0000c0 0e 21 5b 3f 3d 44 c7 3e 5f 94 b7 be 84 8b 23 3c
       0.8559731 0.3891925 -0.35855386 0.009981994
0000d0 b5 15 9e 3e 4b 8d 44 3e 0a e5 88 bd df 3e d6 bd
       0.30875936 0.19194524 -0.06684311 -0.104612105
0000e0 d5 15 bf 3e c2 b9 f6 3d 65 0b 44 be 31 b8 99 be
       0.37321344 0.12047149 -0.19144972 -0.3002334
0000f0 75 0b 9e be f1 79 c2 3e 60 9e 99 bc 93 0c 1c be
       -0.30868116 0.3798366 -0.018752277 -0.15239172
000100 ee 46 fe be 14 f7 3b 3e 13 fb b0 bd 8d 5a 12 3f
       -0.4966349 0.18355972 -0.086416386 0.5716942
000110 63 67 25 3f 0d 88 88 bf 5f c2 b0 3e 8d 2e 83 3e
       0.6461088 -1.0666519 0.34523293 0.25621453
000120 ab fb 32 be 00 fc ee 3e 58 65 02 3e 63 94 1d 3f
       -0.17478816 0.46676636 0.12733972 0.61554545
000130 1e d3 f6 be b9 48 e4 bd 79 c5 5f be 83 c0 5f 3f
       -0.48207945 -0.11146683 -0.21852674 0.87403125
000140 1e 52 cb be 07 e3 d5 bd a5 07 ce be bc 5f 43 bf
       -0.39711088 -0.10443693 -0.40240207 -0.76317954
000150 0b 40 52 bd af 6a f4 bd 82 d7 00 3e 5a de 90 bd
       -0.051330607 -0.11934411 0.1258221 -0.0707366
000160 e1 75 a9 be 82 fc a9 bc 9a c7 54 be 09 58 f2 3d
       -0.33097747 -0.020750288 -0.20779267 0.118331976
000170 8b 9c aa 3e 86 74 bc 3e da d2 8c 3e db fc d9 3e
       0.33322558 0.3680765 0.27504617 0.42575726
000180 0d 8b bb bd 86 c0 f6 3c 49 eb 3d 3e 0e 05 c6 bd
       -0.09157381 0.0301211 0.18546785 -0.09668933
000190 24 dc 0e 3e 5c 3f 15 3d 5c fe 54 3e d0 5e 84 bb
       0.13951164 0.036437377 0.20800155 -0.004039623
0001a0 cc be c5 3e d7 85 90 be 1f 28 30 3d 12 c0 0e bf
       0.3862213 -0.28227112 0.043007012 -0.55761826
0001b0 f9 d0 2e 3f 29 66 08 bb 92 4a 17 be b6 fb f8 be
       0.68287617 -0.0020812845 -0.1477454 -0.4862954
0001c0 0e 76 08 bf dd ff f1 3d fc 7b 35 be 36 9a b4 3e
       -0.5330514 0.1181638 -0.17723078 0.35273904
0001d0 cd fb 2c 3e cf d3 12 bf 26 07 7e be d9 c8 85 bc
       0.1689293 -0.57354444 -0.24807414 -0.016331123
0001e0 39 be f9 bc e0 f6 88 be 5f 98 8f be 83 8a 8e be
       -0.030486213 -0.2675085 -0.28045937 -0.2784005
0001f0 88 30 0e 3f 62 ec 8a be 21 2d 07 bf e6 b4 96 be
       0.555428 -0.2713347 -0.52803236 -0.2943489
000200 92 ae ce 3e 7e 32 0d 3f 47 58 af be 52 3e bc bc
       0.40367562 0.5515517 -0.34247038 -0.022978935
000210 a6 fb f4 3e 55 bb 53 bf b6 f2 bd bd 6e aa d6 be
       0.47848243 -0.8270772 -0.09274809 -0.41926903
000220 09 83 92 3d c4 b0 91 bd 8b e3 88 3e f9 05 c0 3d
       0.07153899 -0.071137935 0.26736102 0.09376139
000230 24 1a 47 3f 3a 01 f6 bd 7d 43 3a be 0c 37 a0 3d
       0.7777426 -0.12011953 -0.18189807 0.07822999
000240 6f f8 a3 3e 97 0c 26 3e fb 09 25 3e 01 7c 85 be
       0.32025477 0.1621574 0.16117088 -0.2607117
000250 e0 62 2c 3f a8 0a cc bd e1 2d 9c 3d 34 88 58 bf
       0.6733837 -0.0996297 0.07625938 -0.8458283
000260 96 c6 45 bf e9 50 00 3e 08 ca 10 be ef ba b5 3d
       -0.77256143 0.12530865 -0.14139569 0.088735454
000270 39 32 62 3f a2 5f 53 3d d4 62 ef 3d 85 f7 16 3f
       0.88357884 0.051604874 0.11688772 0.58971435
000280 46 f4 c4 be fd e6 15 3e 50 0f 54 bd 08 4c 09 bd
       -0.38467616 0.14638896 -0.051772416 -0.033519775
000290 a4 79 b1 be bf 5b 09 be d5 19 b7 3d e4 51 7b bf
       -0.34663117 -0.13413905 0.08940474 -0.9817183
0002a0 dd 9d ad 3e 2c 4c c0 bf 0d cf a8 3e 1e 60 f0 be
       0.33909503 -1.5023246 0.32970467 -0.46948332
0002b0 9d d2 fd bd 7b ea ec 3e fa ff 27 be 25 05 e4 3e
       -0.12393687 0.46272644 -0.16406241 0.44535175
0002c0 ff be f3 bd 57 0c ef 3b 6e 64 c1 3d 3a 24 7d 3d
       -0.11901664 0.007295172 0.094429836 0.061802126
0002d0 93 a5 f8 3d b9 22 95 bd a7 76 58 be a8 9e 87 be
       0.12140956 -0.072820134 -0.21139012 -0.26488233
0002e0 3e 71 25 be 42 da 77 3d 86 b9 59 be 52 05 e5 3d
       -0.1615648 0.06051088 -0.21262178 0.111826554
0002f0 d4 b5 46 3e b8 d3 6c bd c2 75 25 bd da 11 53 3e
       0.194053 -0.0578191 -0.040395506 0.20612279
000300 95 99 08 3f da 3a 81 be 56 b9 17 be 43 a2 43 3c
       0.5335935 -0.25240213 -0.14816794 0.011940542
000310 53 30 92 3e 21 14 ba be 9b 9a b3 3e 9c fb c5 3e
       0.28552493 -0.36343482 0.35078892 0.38668525
000320 d5 4a 60 3e ce 1b b9 bf e8 41 3a 3f 02 36 f9 bd
       0.21903546 -1.446161 0.72756815 -0.12168504
000330 24 31 aa 3e c0 d3 53 bf 8f ca 9c 3e 95 02 2d be
       0.33240616 -0.8274498 0.3062329 -0.16895516
000340 c4 45 32 bd d2 ae a5 bf 21 06 b0 3e ab 17 ab 3e
       -0.043523565 -1.2943976 0.34379676 0.33416495
000350 fb 8f b0 3e aa 3f 86 3f a0 cb 93 3e de 77 ba be
       0.34484848 1.0488179 0.2886629 -0.36419576
000360 42 cf 9e be e3 c0 ba 3d eb 76 06 3e 6f a9 84 3e
       -0.310175 0.091188215 0.13131301 0.25910518
000370 9a ee a3 be 35 ec e1 bc 0b c6 16 be 2b da 0f 3e
       -0.32017976 -0.027578453 -0.14723985 0.14048068
000380 85 50 31 bf 22 00 3f bf ee d0 19 bf 0e c9 e2 3d
       -0.6926349 -0.7460958 -0.60084426 0.110735044
000390 06 0a b9 3e 4b fa 85 3f 3d 84 e8 3c 35 68 3e be
       0.3614046 1.0467008 0.028383369 -0.1859444
0003a0 80 e1 04 be 9f 31 1d be 9f ed 86 3e 7e 7d 85 bc
       -0.12976646 -0.1535096 0.26353166 -0.01629519
0003b0 98 7a 94 3e a2 a5 cc 3d d8 9c 0f be 95 75 54 3e
       0.28999782 0.099925295 -0.14024675 0.20747979
0003c0 e0 81 9a 3e ab ef 21 3f d4 9b fd bb 70 b8 2b bf
       0.30177212 0.6325633 -0.0077395234 -0.67078304
0003d0 75 0f f5 3e 0a 20 60 bc b0 67 51 3e 9f e2 d6 be
       0.47863355 -0.013679514 0.2044971 -0.41969773
0003e0 72 07 fb bd da 8a 9a be 0a a8 2e be c7 0f 44 3e
       -0.122572795 -0.3018406 -0.1705629 0.19146644
0003f0 04 e7 08 3e f1 be 3a be e0 27 71 3e 3f 2f b5 3e
       0.13369375 -0.18236901 0.23550367 0.35387608

linears.0.bias f4 [64]
000000 c7 93 25 bc 99 e4 07 bc 23 3c c2 be 7e ea 8f be
       -0.010106034 -0.008294248 -0.37936506 -0.2810859
000010 3b 76 f8 bd 52 f8 82 be 11 e1 99 be 1e 88 34 3e
       -0.12131926 -0.25580078 -0.30054525 0.1763005
000020 e1 b9 99 3e f3 7b 51 be 34 e4 28 bf e1 e7 e5 be
       0.30024627 -0.20457439 -0.6597321 -0.44903472
000030 d4 b5 70 3f 62 09 1b 3e 77 c8 3f bd 4b cf 69 be
       0.9402745 0.15140298 -0.046822038 -0.22832982
000040 66 fb 5b 3c f2 cd 4c 3e ed c5 21 3e cf 20 2b 3f
       0.013426637 0.20000437 0.15798159 0.66846937
000050 75 50 51 bf 49 f9 00 3d 0b a8 22 be b6 66 7e 3e
       -0.8176339 0.031487737 -0.15884416 0.24843869
000060 4a 1c 2c bd 3f 23 d0 3d 4d 5c 9a bc 2d c1 06 bf
       -0.042019166 0.10162973 -0.01884284 -0.5263851
000070 1f 62 10 bd de 1c 14 3e f6 a6 d4 bd 69 56 a9 3e
       -0.035249826 0.14464137 -0.10383408 0.33073738
000080 da 3a c3 3d 8c 68 2c be 29 bc 6b 3c 80 93 af bd
       0.095327094 -0.16836756 0.014388123 -0.08573055
000090 7d fb bb 3d ac 7f b7 be 6b 7a 54 be 86 1b 81 3f
       0.09178827 -0.35839593 -0.20749824 1.0086524
0000a0 6c f3 ff 3b f3 26 b3 bf bc e9 34 3e c1 27 02 3f
       0.0078110006 -1.3996261 0.17667288 0.5084191
0000b0 b7 cf 52 3e 5e 31 b6 bd 1c 09 96 bd c9 82 36 3e
       0.2058705 -0.08896135 -0.07325956 0.17823328
0000c0 b9 3e c7 3e 70 a2 a2 3d f9 74 c9 3e 0f 14 73 3d
       0.3891504 0.07941139 0.39347056 0.0593453
0000d0 46 74 06 3e db 42 36 be 47 4b 15 3e 56 2a 1c be
       0.13130292 -0.17798941 0.14579497 -0.15250525
0000e0 c7 b9 30 3e 31 bb 3e 3d 1b 42 f2 3d d7 53 42 3e
       0.17258368 0.04656524 0.11829015 0.18977295
0000f0 86 1e ca bd 27 16 de bb 00 0b 05 bd 6f ad 8e 3c
       -0.09869103 -0.006777543 -0.032481194 0.017416684

linears.1.weight f4 [64, 64]
000000 19 7f 54 3c b9 3f 5d be da d2 e8 3c 2b 11 da be
       0.012969756 -0.2160634 0.028420854 -0.42591223
000010 72 59 27 3e f0 f4 97 bd 8a 9e 10 bd 20 76 12 bd
       0.16342714 -0.07419765 -0.035307445 -0.035757184
000020 8f 68 eb 3e b4 d9 02 3e ae 4a be bd ae 4b 4e be
       0.4597821 0.1277836 -0.09291588 -0.20146057
000030 b1 fc d8 3c c6 73 36 3e 4f 16 e4 bd 11 b2 f3 bd
       0.02648768 0.17817602 -0.111370675 -0.11899198
000040 df f6 74 3b 23 cf 85 be c2 cb e1 bd 56 a7 e3 bd
       0.0037378592 -0.26134595 -0.11025192 -0.11115901
000050 7a 44 07 bc f6 f0 bb 3d 6d c6 d8 bd b6 75 0b bd
       -0.008256072 0.09176819 -0.10584722 -0.034047805
000060 95 95 7f bd 33 f4 8b be 4c 49 a4 3d ab 27 2f 3e
       -0.062398512 -0.27334747 0.08021793 0.17104976
000070 c0 5f 27 3e 7e f0 bb 3d 0e 7a 6d 3e a0 8f 91 3e
       0.1634512 0.091767296 0.23191091 0.2842989
000080 ab d8 41 3d f3 63 0e bd cf d7 8f 3c 93 b7 1d bd
       0.04732577 -0.034763288 0.01755896 -0.03850515
000090 12 a5 ca bc ab 73 89 3e 67 4f 82 be 2f 99 68 3e
       -0.024736915 0.2684606 -0.25451204 0.22714685
0000a0 1a 09 eb bd 12 0c 38 3a 1a 35 fc 3c 70 1a 0d 3d
       -0.11476345 0.00070208416 0.03078704 0.03444904
0000b0 8a 01 43 be 8b a9 a1 bd 4a 05 60 3e a5 44 18 be
       -0.19043556 -0.07893666 0.21877018 -0.14869936
0000c0 3a 66 6d 3e f4 57 64 be 55 0a bf 3e be b4 81 bd
       0.23183528 -0.22299176 0.3731257 -0.06333302
0000d0 87 2e 33 3e 13 13 4c be 73 03 9c be d8 4a 14 be
       0.17498218 -0.19929151 -0.30471382 -0.14481676
0000e0 43 e7 0f be 16 21 2f 3c bd 9a 4c be 49 9d 83 3d
       -0.14053063 0.010689041 -0.19980903 0.06426484
0000f0 cb 4d 07 3e d4 0d 64 3d 15 b9 ab 3d 22 56 81 3d
       0.1321327 0.05567725 0.08384911 0.06315257
000100 2c 08 49 3d c5 f2 83 3e b6 2a 59 bd 92 81 ca 3c
       0.04908006 0.25771156 -0.053019248 0.024719987
000110 b8 1e 2e 3e 6e 24 bc bd f4 88 5b 3e 5d 25 88 3e
       0.17003906 -0.09186636 0.21438962 0.26591006
000120 24 8c b8 3c 97 ae 42 be 1a 9b 4e be 78 8e 09 be
       0.022527762 -0.19011913 -0.20176354 -0.13433254
000130 70 c4 f5 bc 79 c1 02 bd 62 c7 be 3d 29 de 42 be
       -0.030000895 -0.03192279 0.09315373 -0.1903006
000140 66 92 7c 3e 49 f6 44 bc 6e c7 52 be 49 37 12 bd
       0.24665222 -0.01202161 -0.20583889 -0.035697255
000150 2d b2 18 3c 76 d5 44 be 39 fc ba 3c bd b7 74 bd
       0.009319824 -0.19222054 0.022825347 -0.05974554
000160 c8 c4 1e be f4 15 b0 bd c6 74 97 bd ec b2 5a 3e
       -0.15504754 -0.08597937 -0.0739532 0.21357316
000170 d2 c9 2f be 25 f2 c6 3e b6 10 9f 3c 55 de a4 bc
       -0.17166832 0.38856617 0.019417148 -0.020125547
000180 11 66 41 3d 48 ec 57 3e 31 45 5f be 0e 28 e5 3d
       0.04721648 0.21086228 -0.21803738 0.111892805
000190 fb c0 6b be 3c 4e a4 bd 85 04 26 3e a2 c6 b2 bd
       -0.23022835 -0.080227345 0.16212662 -0.087292925
0001a0 9e 7f 9c 3d 55 65 96 be 5e b3 ee 3c 03 24 e6 bc
       0.076415285 -0.29374185 0.029138263 -0.028093344
0001b0 2b aa f9 3e b3 47 b3 bc db c6 c2 bd 22 c5 ba bd
       0.4876264 -0.021884775 -0.09510585 -0.09119631
0001c0 d1 16 8e 3b 61 5b d1 3d 20 3f 0e 3e 44 11 b3 3d
       0.004336216 0.10222507 0.13891268 0.087435275
0001d0 e7 dd 89 3d 55 ff 9d be c2 88 e1 bd 5b 9c fd bc
       0.06731778 -0.30858865 -0.110124126 -0.030958345
0001e0 14 a5 ab 3c 30 33 a1 be 90 5b 3a 3e a7 9f c3 bb
       0.020952739 -0.31484365 0.18198991 -0.00596996
0001f0 37 53 72 be 7b cc d9 bd c7 96 02 3e 74 fb 7f bd
       -0.23664556 -0.10634705 0.1275283 -0.062495664
000200 fc ba e1 3d dd e5 cf 3c c8 02 b2 3d 1d 9f 37 3e
       0.110219926 0.025378162 0.08691937 0.1793179
000210 10 5f 8a bc e1 38 3e be 94 33 b4 bd 06 52 24 be
       -0.016891032 -0.18576385 -0.087989 -0.16046914
000220 a5 a0 1e be 17 80 fa bd c4 1d ba 3d 64 68 e6 bd
       -0.15490969 -0.122314624 0.090877086 -0.1125038
000230 36 42 da bd 51 45 09 be 37 1d 3c bd 93 05 96 bd
       -0.1065716 -0.13405348 -0.0459263 -0.07325282
000240 8d 12 f6 bd bb cf 15 bd 95 d2 ec bd 7c 03 51 3e
       -0.12015257 -0.03657506 -0.11563603 0.20411485
000250 90 ac 64 3d 80 0e ae bd 49 fe d2 bd 6c 5c 4e 3e
       0.05582863 -0.084988594 -0.10302407 0.20152444
000260 40 c3 1e be 8a b4 96 3d 86 aa 58 3e b0 0c f7 3d
       -0.1550417 0.07358654 0.211588 0.12062967
000270 e5 af 2c bd 5f df f9 3d ab 86 a9 bd 9a bf 22 3e
       -0.042159934 0.12200808 -0.08277639 0.15893403
000280 12 4f 2b 3e 1e 42 61 3d 69 23 2d 3e 81 ce ad bd
       0.16729382 0.054994695 0.16908039 -0.08486653
000290 55 65 e4 3c a8 38 da bd 25 28 82 3e 36 03 22 be
       0.02788035 -0.106553376 0.25421253 -0.15821537
0002a0 2c e6 57 3e 13 f1 1c be 8b e2 52 bd d2 3c 22 3e
       0.21083897 -0.15326338 -0.05148558 0.15843514
0002b0 fd 45 31 3f 03 f2 05 be 98 8c 00 bc 9e 98 5a 3e
       0.6924742 -0.13080601 -0.00784602 0.21347281
0002c0 e6 a8 a3 bd fb 85 2e be 1a 81 d5 38 f8 bc b4 3a
       -0.07991199 -0.17043297 0.000101806785 0.0013789227
0002d0 3d 82 23 bd 82 ec c8 3d 25 be 91 3e e4 dd b2 bd
       -0.039919127 0.09810735 0.2846538 -0.087337285
0002e0 e9 73 18 be d3 57 78 3c 33 f2 90 bd 41 b7 dd 3d
       -0.14887966 0.015157658 -0.07077446 0.108259685
0002f0 79 f3 a4 3d 2a b7 36 3e 9f 0f 56 be 4a 6e 1c 3e
       0.08054251 0.17843309 -0.20904396 0.15276447
000300 6d 5e 31 3e 6c f1 39 3e 23 37 5c 3c e9 0b 55 3e
       0.17321177 0.18158501 0.01344088 0.20805325
000310 3e ac 5d 3d cc c0 9e 3e 8d d5 80 3d 0c f1 69 be
       0.05411934 0.31006467 0.062907316 -0.22845858
000320 6d 11 8a 3e 3c ec 7b 3e 58 6e 20 3e 46 35 83 be
       0.2696642 0.24601835 0.15667093 -0.25626582
000330 25 d9 13 bf 9b 05 82 3d 29 6e 0a bc f2 5c 4f 3e
       -0.5775321 0.063487254 -0.008449116 0.202503
000340 36 57 99 3e cd 93 bc be 9a d2 d2 3d 60 2a 35 bc
       0.2994935 -0.36831513 0.10294075 -0.011057466
000350 d0 68 8c 3e fc 28 69 be 16 e4 b0 3e 6c 1d d8 bd
       0.27423716 -0.2276954 0.34549016 -0.10552487
000360 52 63 0c 3e 86 1b b9 be 4f 89 79 3c 41 fa 8f be
       0.13709763 -0.3615381 0.015230491 -0.28120616
000370 f3 7c 0c 3e 48 18 80 be f3 d9 33 3e 8c dd 06 be
       0.1371954 -0.25018525 0.1756361 -0.13170451
000380 c9 3c f1 be 67 a8 64 be 8a e5 95 bd 3b 07 80 be
       -0.47116688 -0.22329865 -0.07319172 -0.25005516
000390 58 11 63 3d d8 1f b7 3d c7 29 85 3e 61 a2 da be
       0.055436462 0.089416206 0.26008436 -0.4270201
0003a0 ba e5 3c 3e d8 2a f6 3e 26 60 14 be 78 b9 80 be
       0.18447009 0.48079562 -0.14489803 -0.251415
0003b0 c8 b8 65 3c 95 c1 0c be 0f 2c 89 3e 61 16 00 be
       0.014021106 -0.1374572 0.26791427 -0.12508537
0003c0 6f ed 53 bd e6 ec 22 be 63 6d 09 3c 57 7d c5 be
       -0.051740106 -0.15910682 0.008387896 -0.3857219
0003d0 6b 00 71 bd fb e8 4a be 44 c5 07 3e 53 02 54 3e
       -0.05883829 -0.19815437 0.13258845 0.20704012
0003e0 ab ef 0d 3d 49 bb 2a 3e d2 c7 9a bc e1 89 05 3e
       0.034652393 0.16673006 -0.01889411 0.13040878
0003f0 40 19 17 be 80 d2 6b be d9 b9 0f 3d da 03 36 3e
       -0.14755726 -0.23029518 0.035089348 0.17774907

linears.1.bias f4 [64]
000000 bc 57 7a bd 73 b5 a6 3c 35 52 81 3d c6 c1 38 be
       -0.061118826 0.020350194 0.06314508 -0.18042669
000010 f6 c7 e3 bc 8e 4f 90 bd 96 98 a1 bd 3b 4c c8 3d
       -0.02780531 -0.07046424 -0.078904316 0.09780165
000020 66 11 09 bd 18 23 06 3d 36 84 5f bd 48 85 67 bf
       -0.033463858 0.03274831 -0.054569446 -0.90437746
000030 ee 8f 32 3d 66 ba 1d 3d 0c 2f f1 3d 86 e6 ad bd
       0.043594293 0.03850784 0.117765516 -0.084912345
000040 e5 91 45 3d f0 82 5b 3c 83 cf fa bd bd b5 85 3c
       0.04823484 0.013397917 -0.12246611 0.016322011
000050 5c 14 42 3d dc 7f ce 3e b7 cc 69 3d 3e e0 07 bd
       0.047382697 0.40331924 0.057079997 -0.03317284
000060 d1 23 9e bb 44 4d 6d 3d 73 37 21 3f a5 95 3e bd
       -0.004826047 0.057935014 0.62975234 -0.04652943
000070 dd 60 9f bd c5 d3 22 be 0d 05 ea 3d d1 0b 9f bd
       -0.07782147 -0.15901096 0.114267446 -0.07765926
000080 0c b5 45 3d 37 52 cf bc 48 51 7b bd a9 ba aa bc
       0.048268363 -0.025307758 -0.061356813 -0.02084096
000090 8b af 22 bd d6 16 68 bd 4e 2f 62 bd 78 17 ff 3c
       -0.039718192 -0.056662403 -0.055220895 0.03113912
0000a0 d2 f5 c4 bd 5d cc 00 ba da c2 58 3c 61 f4 ee bc
       -0.09617199 -0.0004913265 0.01323005 -0.029169263
0000b0 21 0d d2 3c 55 15 c9 3a 32 a5 bc 3c 52 e2 4e 3d
       0.025641026 0.001534144 0.02302799 0.050508805
0000c0 2f 25 44 3d bc 02 ce bd 16 1a 9d be dd fa 2d 3d
       0.047887024 -0.10059115 -0.30683964 0.04247557
0000d0 11 b3 01 3e 41 ae 76 bd be e5 a0 bd 7b 4e 02 be
       0.12665965 -0.060224775 -0.0785632 -0.1272525
0000e0 ad a1 40 bd 8c f9 1b be f8 4f 2c 3d fc bd 49 3d
       -0.047029186 -0.15231913 0.04206845 0.04925345
0000f0 d2 43 f4 bd 5c 19 12 3d 78 a2 6e 3d 01 cf e7 3c
       -0.11926998 0.035668716 0.05826041 0.02829695

linears.2.weight f4 [64, 64]
000000 c3 ec dc bd 47 e9 28 bc b9 68 70 bd 25 84 36 3e
       -0.10787346 -0.010309524 -0.05869362 0.17823847
000010 3a 4e c4 bd 2f 44 66 be 68 bc 91 bd 7d a8 af 3c
       -0.09585233 -0.22486947 -0.07116014 0.021442646
000020 77 82 37 bd cd 35 32 3b 78 9e 53 be 99 48 6f be
       -0.044802155 0.0027192712 -0.2066592 -0.23367538
000030 3b cb 67 3e 6f ba c9 3d 25 28 a6 bc 38 6e c0 bd
       0.2263612 0.098500125 -0.020282814 -0.093960226
000040 be 45 8f bd 6f ab ad 3d 38 6e 14 be e7 19 ab 3c
       -0.06995724 0.08479964 -0.1449517 0.020886375
000050 ea ea f7 bb 1c 3f 6a bd c6 31 52 3e 10 ed 93 3e
       -0.0075658457 -0.057189092 0.205268 0.28891802
000060 93 53 0e 3e 51 58 12 bd 23 df 86 be 0b b1 53 3d
       0.13899069 -0.035728756 -0.26342115 0.051682513
000070 a8 cf 7b be b7 a7 ea bd f5 2f 1b be 08 be eb 3d
       -0.24590933 -0.1145777 -0.15155013 0.11510855
000080 0d 5c 08 3e e3 ef 12 3e 71 d4 4e bd e5 0a 56 be
       0.13316365 0.14349322 -0.05049557 -0.20902593
000090 f7 d2 2b 3c 9b cf f2 bd 13 99 7e be a8 b9 a8 3d
       0.01048731 -0.11856004 -0.2486308 0.08238536
0000a0 a1 73 89 bc 7e 50 c1 bd c5 12 92 3d c4 4f 25 be
       -0.016778769 -0.09439181 0.07132486 -0.1614371
0000b0 15 ed 84 3d ca 0b a6 3d 3f d8 25 3e 8e a9 ec bd
       0.06490532 0.08107717 0.16195773 -0.115557775
0000c0 3d 5e 46 be 63 f3 01 be cb 38 12 be ce 65 15 bd
       -0.19371887 -0.12690501 -0.14279477 -0.03647404
0000d0 50 41 94 bd 0a 5f 40 be a5 47 b0 bc 09 55 65 bd
       -0.0723902 -0.18786255 -0.021518538 -0.0559893
0000e0 25 e9 1e be 6f 27 a7 be 52 09 32 3e 68 7a 44 3e
       -0.15518625 -0.32647273 0.17386368 0.1918732
0000f0 62 ec 2b bd ef 15 06 3e a4 ed a6 3d 97 77 33 3d
       -0.04197348 0.13094305 0.08150795 0.04381522
000100 39 1a 06 3e 96 60 1c bd af 52 a6 3e d4 c0 50 3e
       0.1309594 -0.03817805 0.32484958 0.20386058
000110 eb 91 4a 3d b7 8a 86 3d f2 90 79 bd 8a ea 6b 3c
       0.049455564 0.065694265 -0.060929246 0.01439918
000120 0e 53 02 bd ec 7d 82 bd 27 c8 ec bd cd 87 f1 bd
       -0.03181749 -0.06371674 -0.115616135 -0.1179348
000130 6f 79 90 3d bf b8 90 bd 58 d9 99 3a 6f 7b a6 be
       0.070544116 -0.070664875 0.0011737747 -0.32516047
000140 85 64 8b bd 3f a5 10 3e 51 61 28 be ef 9b f5 3d
       -0.06806282 0.14125536 -0.16443373 0.119926326
000150 41 17 a1 bd 63 06 0b 3e 56 53 d8 3d 3e 92 94 3e
       -0.078657635 0.13576655 0.1056277 0.29017824
000160 f0 c8 e1 bd a9 0a 0a 3e 2e 8f 07 be 50 dd 4a bc
       -0.11024654 0.13480629 -0.13238212 -0.012381867
000170 ff 47 da bd 74 26 ba bd a5 8e 70 3e 8f 1c 01 be
       -0.106582634 -0.090893656 0.23491915 -0.1260855
000180 78 a7 11 bd 9e f3 6c be 01 6d a3 bd bc 11 a2 bd
       -0.0355601 -0.23139808 -0.07979775 -0.07913539
000190 80 c2 67 be 29 4d 86 be e6 26 83 3c de d8 de 3c
       -0.2263279 -0.26230744 0.01600976 0.02720302
0001a0 02 f1 12 3c 64 2f 36 3e aa fc 57 be 52 e1 35 be
       0.008968594 0.17791516 -0.21092477 -0.17761734
0001b0 af 6b f1 3d 3a 8e cb 3c 8d 74 4b be cd d5 c1 bd
       0.11788117 0.024848092 -0.1986868 -0.094646074
0001c0 c6 42 24 be 6d 7c 14 be a7 d3 0c be ff fc 45 3d
       -0.16041097 -0.1450059 -0.13752614 0.04833698
0001d0 73 54 31 3e 7d e2 c4 bb 34 e4 9e 3d 7c 9c 8a 3d
       0.17317371 -0.006008445 0.0775837 0.06768128
0001e0 6b 42 b4 be 31 00 9e 3c da 73 4b 3e 09 78 1a 3e
       -0.35206923 0.0192872 0.19868413 0.15084852
0001f0 08 56 4e bd d2 71 1c bc 76 51 87 3d 77 cf 76 3e
       -0.050375015 -0.009548621 0.06607334 0.24102579
000200 79 72 fa 3c 6c 3c a0 3d ed 9a 34 3e cc f3 0f bf
       0.030572163 0.078240246 0.17637224 -0.5623138
000210 8d 65 10 3e 30 33 dc bd f8 c2 80 be c0 04 ca 3d
       0.14101239 -0.10751951 -0.2514875 0.09864187
000220 6a ad e7 be 13 20 a6 3c 72 e7 b6 be cc 30 70 3e
       -0.45249492 0.020278966 -0.35723454 0.23456115
000230 10 97 14 bd 37 5f a7 3e 9f 24 17 bf 53 f2 80 be
       -0.036276877 0.3268983 -0.59040254 -0.2518488
000240 fd 06 07 3f 10 a5 a4 3d 58 7e fb be 4f 79 05 bf
       0.5274504 0.08039296 -0.4911983 -0.5213823
000250 4f 03 92 3e 62 d8 19 be 13 f5 68 3e d9 7d 73 3f
       0.2851815 -0.1502395 0.22749738 0.95113903
000260 c3 70 1f 3e d8 c3 fd 3d 29 34 da bf e4 3c b1 3d
       0.15570359 0.1239087 -1.7047168 0.08654192
000270 5d b2 6c be 15 e3 96 bf da 19 e0 3e 78 0a 50 be
       -0.23114915 -1.178805 0.43769723 -0.20316494
000280 c9 78 4e 3f b1 59 af be e1 f1 88 3e af 81 67 3e
       0.80653054 -0.34248117 0.2674704 0.22608064
000290 28 4d 82 be 0e bd 93 be c8 74 ee be 5d 83 2a bf
       -0.2544949 -0.28855175 -0.46573472 -0.66606694
0002a0 59 f2 c9 be 9c 7d 71 be 69 66 bb bc 81 91 9c be
       -0.3944271 -0.23583072 -0.022875981 -0.3057976
0002b0 a1 83 0d 3f eb 44 87 3e 0c 7c c8 bb f7 bb 6b 3e
       0.55278975 0.26419768 -0.006118303 0.23020922
0002c0 f3 92 d5 3d db c8 11 be 12 2a 6c bd 01 39 27 3e
       0.10428419 -0.14236777 -0.05765731 0.16330339
0002d0 00 5e 80 3e cc 76 fa bd 5e 11 44 be 78 f7 9b 3d
       0.25071716 -0.1222969 -0.1914725 0.0761556
0002e0 b2 ae ba 3d c0 42 b6 3d 80 3d 21 be a3 99 5c 3d
       0.09115352 0.0889945 -0.15746117 0.053857457
0002f0 67 3f 8f be d9 42 b8 bc fa b2 f8 3d 07 6a 28 3e
       -0.2797806 -0.022492813 0.12143512 0.16446696
000300 c2 89 21 3e c8 c0 33 be 47 06 38 be 9c 51 e9 3c
       0.15775207 -0.17554009 -0.17971145 0.028481297
000310 5a c0 6f 3e 41 dd 49 3e 90 a1 02 3b bc 19 69 be
       0.2341322 0.19713308 0.0019932725 -0.22763723
000320 40 62 19 3e 04 cb 02 3e 88 1e 01 be 7e 05 42 3d
       0.14978886 0.12772757 -0.12609303 0.04736852
000330 6e ef 05 be 3e 34 77 3c d1 2d 37 3e 8c 51 96 3d
       -0.13079616 0.015088139 0.17888571 0.073397726
000340 05 de 36 be 7a 14 76 bc cf bc 83 3e 23 ad c2 bd
       -0.17858131 -0.01501953 0.25729987 -0.095056795
000350 51 bd ff bd fc 37 d0 bc 29 02 ea bd 3e 3e 94 3c
       -0.12487281 -0.02541732 -0.11426193 0.018096086
000360 c4 f5 40 be 75 8a a3 bd 59 b9 20 3d d5 df 4b 3e
       -0.18843752 -0.07985393 0.03923926 0.19909604
000370 f8 a7 59 3e fe 9c 88 3e 3a 01 5b be 6f dc bb 3d
       0.21255481 0.26682276 -0.21387187 0.09172904
000380 e2 f5 9c 3c 0c 3d f3 3d 18 74 64 3d b7 9e 9a 3d
       0.019160215 0.11876878 0.055774778 0.07549804
000390 cd fd a7 3d 87 2e 46 3d b5 e8 2e be 9e db 1e be
       0.082027055 0.048384216 -0.17080958 -0.15513465
0003a0 f2 1e 6d 3e c9 80 03 3e fb 99 0c be 2e 29 33 3c
       0.23156336 0.12842096 -0.13730614 0.010935111
0003b0 71 28 5f 3d bc 74 56 be 9c 08 02 be 43 35 70 be
       0.054481927 -0.20942968 -0.12698597 -0.23457818
0003c0 f6 f9 20 be ea f4 85 bc eb e4 73 be 32 e6 6a bd
       -0.15720353 -0.016352136 -0.23817794 -0.057348438
0003d0 7f 0e aa bd 04 d9 53 3e d4 f9 3f 3d ba 91 6b bd
       -0.08303546 0.20688254 0.046869114 -0.057512023
0003e0 eb ef d5 bd ad 5e d2 3d 31 30 0c be 9b f9 35 be
       -0.10446151 0.10271964 -0.13690259 -0.17770998
0003f0 1d 61 ef 3d fd cb 40 be ba dd 24 bd cb 3a 29 3e
       0.11688445 -0.18827815 -0.040250517 0.16526334

linears.2.bias f4 [64]
000000 29 91 47 3d bd d9 3c 3d c0 f4 cb 3d 80 ff f3 bc
       0.04872242 0.04610609 0.09958792 -0.029784918
000010 c1 ba ca 3d 63 1e 10 be 57 0f fe bc d7 63 fc 3c
       0.09898902 -0.14074092 -0.031013174 0.030809326
000020 7d f9 9a bd c9 d8 eb 3c 9e 26 94 bd 3a 32 39 3d
       -0.07567117 0.028789895 -0.07233928 0.045213915
000030 53 7d 3f 3d 87 82 0a 3d e9 d8 8c 3d 92 7c 75 bd
       0.046750378 0.033815887 0.0687731 -0.059933253
000040 3a 83 2d 3d cc 4e 8c 3d 91 0d d3 3c b8 3a 40 3d
       0.042361476 0.06850967 0.025763305 0.046931
000050 7e 87 12 3d eb 8d f8 3c c7 f4 0f 3d 66 03 54 3d
       0.035773747 0.03034111 0.035145547 0.051761054
000060 c2 af 9e 3d b5 d2 03 3d 94 35 2f bd 8e 56 3d 3d
       0.07748367 0.032183368 -0.042775705 0.046225123
000070 51 ad 24 bd e9 27 92 3d b2 af 1b 3d 84 e9 a3 3c
       -0.04020435 0.071365185 0.038009353 0.02000881
000080 c5 43 ec bc cd 0c 54 3d 02 b2 38 bd 48 65 08 3d
       -0.028840909 0.05177002 -0.045091636 0.033299714
000090 8a cd 3c bd a0 15 07 3e e1 25 1d bd 34 c5 9f bc
       -0.046094455 0.13191843 -0.038366202 -0.019503213
0000a0 06 f7 07 bc a2 aa 01 bd ad 41 40 3d 4e aa ed bc
       -0.008298641 -0.03165687 0.046937633 -0.029011872
0000b0 63 27 d1 3c 53 31 4a bd 8c eb 0c 3e 3f 15 84 3d
       0.025531476 -0.049363445 0.13761729 0.06449365
0000c0 05 78 85 3d a1 40 24 bd d3 b5 78 bd 22 9a 5a bd
       0.065170325 -0.040100697 -0.060720276 -0.05336965
0000d0 8c 3e 1e bd a8 d2 37 bd 17 04 63 3d b1 87 8a 3d
       -0.038633868 -0.04487863 0.055423822 0.06764162
0000e0 c7 68 08 bc cf 30 45 3d 64 32 50 3d f2 0b 29 3d
       -0.008325762 0.04814225 0.050829306 0.041271158
0000f0 8b 4f 0f bd df 3f 45 bd 1e 47 01 be f8 45 5b 3d
       -0.034987967 -0.048156615 -0.12624785 0.053533524

linears.3.weight f4 [1, 64]
000000 e6 38 b9 be 50 aa b3 be cf cd fa be 63 ff d4 3e
       -0.36176223 -0.35090876 -0.48985144 0.41601095
000010 5b 4f f9 be d9 83 7c bf 28 a2 78 3e ed d0 93 be
       -0.48693356 -0.98638684 0.24280608 -0.28870335
000020 20 5b 0e 3f 35 04 b6 be ac 1a 2f 3e bf 06 cd be
       0.55607796 -0.35550085 0.17100018 -0.4004421
000030 77 69 e0 be 97 c9 ac be 04 27 16 be 44 a8 8f 3e
       -0.43830463 -0.3374755 -0.14663321 0.28058064
000040 05 b9 81 be 4b 5b 95 be 15 c7 59 be f3 a5 b0 be
       -0.2533647 -0.29171214 -0.2126735 -0.3450161
000050 72 75 6c be fd 6a ac be 86 75 90 be a9 40 88 be
       -0.23091677 -0.33675376 -0.28214663 -0.26611832
000060 9a 3f c0 be 37 38 03 bf ad 53 84 3d d5 da 32 be
       -0.37548524 -0.5125765 0.064612724 -0.1746629
000070 c2 79 1f 3f 9c b6 a2 be 20 a3 dd be 1a 3f 8b be
       0.6229516 -0.31779945 -0.43288517 -0.2719658
000080 a1 93 3a 3f 5f 92 5a be 58 36 6e 3e 08 02 e5 bd
       0.72881514 -0.21344899 0.23262918 -0.11182028
000090 17 7e 3f 3e 51 08 e9 be 13 5e 5a 3e ce ca 0d 3e
       0.18700443 -0.45514157 0.21324949 0.13846895
0000a0 2f a1 6c 3d 00 95 89 3e f4 09 b5 be ec 38 2b 3e
       0.057770904 0.2687149 -0.35359156 0.16720933
0000b0 8c 87 62 be 77 5c 90 3e 4b 0a 3e bf 69 7d 8a be
       -0.2212202 0.28195545 -0.74234456 -0.27048805
0000c0 24 9d cf be c1 00 89 3e df ab 78 3e 52 88 8d 3e
       -0.40549576 0.26758388 0.24284314 0.27643067
0000d0 36 c1 20 3f a4 b4 67 3e 5d f4 dc be 33 bf 85 be
       0.62794816 0.22627503 -0.43155184 -0.26122436
0000e0 27 06 17 3f ae 6b b1 be 15 55 07 be 67 e5 04 be
       0.5899376 -0.34652466 -0.1321605 -0.12978135
0000f0 da dc bd 3e 76 b9 a3 3e f7 0e 2b 3f bc 16 01 bf
       0.3708256 0.31977433 0.6681971 -0.50425315
