Complete_thesis_stage_1_and_2/(d).Code_and_all_other_details/WAAM/PINN_TEMP_DEPENDENT_PROP/Models/model_epoch_4000.pt (torch, 38252 bytes, 7 tensors)

linears.0.weight f4 [64, 4]
000000 4c f5 02 bc 56 40 85 be 36 58 4e be 03 0c a5 bd
       -0.007993054 -0.26025647 -0.20150837 -0.08058932
000010 af 66 6e bd d5 a8 70 be 08 2b b6 3d 73 2d 99 3d
       -0.058203395 -0.23501904 0.08894926 0.07479372
000020 a2 9d 46 be 69 65 f0 bd 72 3f 6b be 1d d3 30 be
       -0.1939607 -0.117380925 -0.22973421 -0.17268033
000030 04 61 85 be 16 e8 59 bd d7 ca 8c 3e 6a 55 73 3e
       -0.2605058 -0.05319985 0.27498505 0.23763052
000040 9e 00 78 3e 7f cd 2f 3e 88 90 a8 bc 43 6a f1 3d
       0.24218985 0.17168234 -0.02057673 0.11787846
000050 30 f8 87 3d c6 a7 18 be 2f cc 97 bd 79 32 31 3e
       0.06639135 -0.1490775 -0.07411992 0.1730441
000060 a7 e8 88 be b8 25 59 be 80 08 2c be 6e 6c 00 be
       -0.2674 -0.21205795 -0.16800117 -0.12541363
000070 b9 7b bb bd 12 81 44 bd c1 94 af bd 98 9c 4b 3d
       -0.091544576 -0.047974654 -0.085732944 0.049709886
000080 3c d1 53 3e 29 9f 85 3e 1b ba 9e 3e 3f 31 9b 3d
       0.20685285 0.26097992 0.31001362 0.07577752
000090 55 a0 6c be 78 ea 5b be 48 11 3c 3e c7 1c 47 be
       -0.23108037 -0.21476161 0.18365967 -0.19444571
0000a0 f6 31 60 be 94 6c c1 ba 90 07 81 3e 7f 8f 87 be
       -0.21894059 -0.001475709 0.25201082 -0.26476666
0000b0 0c 4c 67 be 9f 32 65 3e f6 23 00 3e fe 35 18 3e
       -0.22587603 0.22382592 0.12513718 0.14864346
0000c0 6e 53 91 3e c8 6c 10 3d da b3 68 be 3e c3 2f be
       0.28383964 0.035259992 -0.22724858 -0.17164323
0000d0 28 c8 13 3e 7b 54 bb 3b 62 5f ef bd 7c 03 e7 bd
       0.14431822 0.005716858 -0.11688115 -0.112799615
0000e0 bf 6b 50 3e d5 85 88 3d 95 88 83 be 14 90 5b bd
       0.20353602 0.066661514 -0.2569014 -0.0536042
0000f0 78 bd 5d be a2 b4 c7 bc c2 13 c7 3c 7a e7 24 3d
       -0.21654308 -0.024378125 0.024301413 0.040259816
000100 55 25 97 be 91 d7 f5 3d 0e 35 84 be f6 b5 82 3e
       -0.2952067 0.12004007 -0.25821728 0.2552945
000110 0d ac 8c 3e 57 80 1d be ea 1e 77 3e 32 ce 12 3d
       0.27475014 -0.15380989 0.24132887 0.035841174
000120 e6 04 31 3e 62 d2 ca 3c 7c bd 6d 3d 65 b6 75 3e
       0.17287025 0.024758521 0.058042035 0.23995359
000130 86 37 69 be 1d 11 59 be 23 bb 15 3e 2c dc 25 3e
       -0.22775087 -0.21197934 0.14622168 0.1619727
000140 58 79 28 bd d9 f4 a7 bd f1 72 87 3c e2 4d 80 be
       -0.041131347 -0.08200998 0.0165343 -0.2505942
000150 49 2a 70 be a3 6e ea 3c 37 54 e0 3d e7 96 1d be
       -0.2345363 0.028617209 0.10953563 -0.15389596
000160 3d 1c 1c be ee e2 5c be b5 32 35 be 57 9c e9 3c
       -0.15245147 -0.21570942 -0.17695124 0.028516931
000170 82 5f 5f 3e c1 67 4c be 7f c2 10 3e ef 83 80 3e
       0.21813777 -0.19961454 0.14136694 0.25100657
000180 6e e9 e5 bd 8e 0c e0 bd 27 d5 58 3e 97 db 9b bd
       -0.11226164 -0.109398946 0.21175061 -0.07610243
000190 5f d9 64 3d 79 dd c9 3b 3b f7 5a 3e 9f 88 86 3a
       0.055871364 0.006160435 0.21383373 0.0010264105
0001a0 a6 69 4a 3e b5 00 09 3e 3c db 27 3e 08 9a 2e be
       0.19766864 0.13379176 0.16392225 -0.17050946
0001b0 22 31 9b 3e 8a 03 14 3d ae 63 28 be 17 46 20 be
       0.30310923 0.036136188 -0.16444275 -0.15651737
0001c0 b5 a6 07 be 2c 4d b8 3d 8c 83 7b be 22 1c 19 3e
       -0.13247187 0.08999094 -0.245619 0.14952138
0001d0 ab 2e 27 3e dc 4b 53 3d b6 50 22 be b8 e3 d3 bc
       0.16326396 0.051586017 -0.15851101 -0.02586542
0001e0 28 39 35 bd 83 b7 52 3e ba 39 92 be d0 89 1a be
       -0.04424396 0.20577817 -0.28559667 -0.15091634
0001f0 56 f5 2f 3e 6f 76 9a bd ae 5a 6b be 9c c5 3d be
       0.17183432 -0.07542121 -0.2298381 -0.18532413
000200 54 3b f8 3d f1 94 85 3e d6 db 64 be 9d 9a d4 bc
       0.12120691 0.26090196 -0.22349486 -0.025952632
000210 ce af 60 3e 2b c0 82 be c7 10 4c be dd 31 05 be
       0.21942064 -0.25537238 -0.19928275 -0.13007303
000220 b9 6a 0f 3e a8 56 54 be fa 51 2c 3e c4 77 9f 3d
       0.14005555 -0.20736182 0.16828147 0.07786515
000230 76 2f 80 3e 4a c6 fd 3d 79 4f 32 be 48 26 e8 3d
       0.2503621 0.12391336 -0.17413129 0.113354266
000240 7c f1 f7 3c 14 fe 39 bc 5b 84 47 3e fb 53 82 be
       0.030266516 -0.011352081 0.19484083 -0.25454697
000250 65 4d 86 3e b7 e1 44 3d d0 5d 7e be 5a d3 87 bd
       0.26230922 0.04806682 -0.24840474 -0.06632109
000260 ec ee 82 be f2 41 36 bc 60 96 3b bc 85 44 20 3d
       -0.25572908 -0.011124121 -0.011449426 0.039127845
000270 c0 40 11 3e e5 a9 69 3e b0 f1 4b 3e 24 11 ca bd
       0.14184856 0.22818716 0.19916415 -0.098665506
000280 b7 6b 95 be 19 08 87 3e 05 f8 1b bd b4 2c 1c bd
       -0.29183742 0.26373366 -0.038078327 -0.03812857
000290 53 0b 8f bd 19 a2 1b be 1c 07 c2 3d a5 03 b3 bd
       -0.06984582 -0.15198554 0.09474012 -0.087409295
0002a0 7d 5e 5f 3e 2d 08 f9 bd 44 a8 87 3e 2c 55 7c be
       0.21813388 -0.121597625 0.26495564 -0.24641865
0002b0 29 17 2f 3d 60 5f 0d 3e 62 c3 86 bd 80 77 5d 3e
       0.042746697 0.13805914 -0.06580235 0.21627617
0002c0 0f 09 00 bd 5a e4 64 bd e3 25 67 bc 51 a0 cc 3c
       -0.03125864 -0.055881836 -0.014108154 0.024978789
0002d0 99 74 0d 3e fc 9e 74 3c d4 f0 78 be c7 b3 d4 bd
       0.1381401 0.014930483 -0.24310619 -0.10385852
0002e0 3f 78 ac bd 5b ae 77 3e cc 6b 3c be b2 3b dd 3d
       -0.084213726 0.24187605 -0.18400496 0.108024016
0002f0 69 88 4b 3e b6 fb a9 3d 03 59 51 bd a3 f2 ed 3d
       0.19876255 0.08299963 -0.05111028 0.11618545
000300 2b ce 1d 3e d5 44 81 bd f2 6a 51 be 21 62 67 bc
       0.15410678 -0.06311957 -0.20450953 -0.014122517
000310 cb 81 17 3e 49 30 b9 bd c4 17 88 3e d9 2b 5d 3e
       0.14795606 -0.09042413 0.26580632 0.21598758
000320 6d 81 03 3e b8 f4 65 be c1 d0 8b 3e dc e6 2f 3e
       0.12842341 -0.22456634 0.27307704 0.1717791
000330 ac dc 49 3e 05 b9 93 bc bf 69 87 3e ce 9d b5 bc
       0.19713086 -0.01803256 0.26447865 -0.022169974
000340 3b 67 ef 3c 1e f3 90 be 6d 84 3a 3e 47 51 5d 3e
       0.029224029 -0.28310484 0.18214579 0.21613036
000350 76 03 dc 3d 68 d1 0b bd 99 89 6f 3e 88 4f 90 be
       0.107428476 -0.034135252 0.23392333 -0.28185678
000360 b3 26 4e be 9b e2 80 3b c5 65 5c 3e f9 7a 8a 3d
       -0.2013195 0.0039332635 0.21523197 0.067617364
000370 a7 85 fe bd c5 06 56 3d 1c 19 c9 bd 71 aa d7 3d
       -0.12427836 0.05225255 -0.09819242 0.10530556
000380 4c 95 20 bd df 99 2f be 90 9b 9b be d6 4d c7 bd
       -0.03920488 -0.17148541 -0.30392122 -0.09731643
000390 55 9e 48 3e 3e 86 7c 3d ec a4 98 bc 59 94 2e be
       0.19591649 0.06165146 -0.018633328 -0.17048778
0003a0 f1 90 eb bd 55 18 2d bd cb ac 82 3e 61 77 d3 bd
       -0.11502255 -0.042259533 0.25522456 -0.10325504
0003b0 0e 6b 3c 3e 8e aa 30 be 45 55 87 be cc 1b 2a 3e
       0.18400213 -0.17252561 -0.26432243 0.16612166
0003c0 c6 32 48 be ef 81 32 3e 6e a2 39 3d d7 69 91 be
       -0.19550619 0.17432378 0.04532092 -0.28401062
0003d0 8f d5 6b 3e 06 1c 04 be 42 bb 44 3e 05 53 76 be
       0.23030685 -0.12901315 0.19212058 -0.24055107
0003e0 89 70 34 3e 29 2f 55 bd 63 04 6c be 16 93 95 3e
       0.17621054 -0.05204693 -0.23048548 0.2921378
0003f0 7b 34 0f 3e 3e fa 3e be 81 5b 66 3e 0f 7b 7d 3e
       0.13984863 -0.18650147 0.22495843 0.24753974

linears.0.bias f4 [64]
000000 5c 5b 10 3d e9 52 7e bd e2 12 11 3d 61 7a a1 bd
       0.035243377 -0.062090788 0.0354184 -0.0788467
000010 85 c0 d0 bd 1e 12 89 bd da 37 40 3c eb eb 49 3c
       -0.1019297 -0.06692909 0.011732066 0.012324314
000020 fd 64 8a bd 69 ab 4c 3d d1 a9 85 3d 9f 2d 8b bd
       -0.06757543 0.049968157 0.065265305 -0.06795811
000030 cd 67 a3 3d 91 2c 7e 3d e7 17 63 bd 1a e9 e2 bd
       0.07978783 0.06205422 -0.055442717 -0.11079617
000040 10 0a f4 bd de af d8 3c cc de c7 bd ce 7d 75 bd
       -0.11915982 0.026451048 -0.09759292 -0.05993443
000050 0b 0a c3 3d b3 81 b2 3d 02 8d b7 bd 3e 47 19 3c
       0.095234 0.087161444 -0.08962442 0.009355364
000060 97 ca 39 3d e3 ec 5a 3d b1 80 03 3e 66 30 8d 3b
       0.04535922 0.05344857 0.1284206 0.004308748
000070 e4 8e 54 bd 75 e6 bd 3c ad fd c9 bc 32 60 8e 3d
       -0.051894084 0.02318118 -0.024657095 0.069519415
000080 15 9d 40 3d 24 b9 5a 3b 7c 43 c3 bc 72 5b 5a bd
       0.047024805 0.0033374513 -0.02383589 -0.053309865
000090 f2 80 93 3d 89 53 40 bd 75 9c 4d 3d ef 3c 49 bc
       0.07202329 -0.046954665 0.050198037 -0.012282594
0000a0 e1 2c 0d 3d dd ee 33 3c 02 1c 46 bb dd 3f c7 3c
       0.034466628 0.010982242 -0.0030229096 0.024322445
0000b0 d9 ed 04 3e 9f 15 b9 bc 9e fc 5d bd 45 b4 f5 3c
       0.12981357 -0.022593318 -0.054195993 0.029993186
0000c0 90 93 39 bd 0c ac 3e bd e5 9f 9d bd 4e 9a 66 3d
       -0.045306742 -0.046550795 -0.07696513 0.0562995
0000d0 af f2 72 bd 1d 54 3d 3b b7 f4 dc 3d 61 70 5d bd
       -0.059313472 0.0028889247 0.10788863 -0.05406225
0000e0 2a 1b ad 3d cd 84 9f bc e0 0d 2f 3d ec 98 36 bd
       0.08452447 -0.019472504 0.04273784 -0.04457943
0000f0 34 38 80 3d 95 db e7 bb c8 3b 6d bd 13 48 58 bd
       0.0626072 -0.0070757368 -0.05791834 -0.05280311

linears.1.weight f4 [64, 64]
000000 5b 00 cd bd f1 13 4f bd 20 d5 99 bc 45 c4 34 bd
       -0.100098334 -0.050556127 -0.018778384 -0.04413249
000010 72 52 3c 3e d8 a7 01 bd 7d 4a ab 3d 63 f6 9b bd
       0.18390825 -0.03165421 0.08363817 -0.07615354
000020 b2 98 6d 3e fd 02 3e 3d 3a 7f fd bd 38 c1 14 bd
       0.2320278 0.04638957 -0.12377782 -0.03631708
000030 54 af 45 be 29 b6 92 3c ee 80 41 be ec 06 14 bd
       -0.19305164 0.017909126 -0.18896839 -0.036139414
000040 f4 ca 85 3d 47 a6 35 be 9a cb 8b bd 07 75 2f bd
       0.06532851 -0.17739211 -0.06825943 -0.042836215
000050 31 27 b5 bc 63 82 a5 3d f3 ea d6 bd 34 bb 38 3d
       -0.022113414 0.0808151 -0.10494032 0.045100406
000060 e4 76 18 bd b8 c4 38 be 23 44 0a 3d 10 73 d3 3d
       -0.037222758 -0.18043792 0.033756386 0.10324681
000070 7a 84 38 3e 9b 5b a0 bd 08 f3 2f 3e 7f 67 0c 3e
       0.18019286 -0.07829972 0.17182553 0.13711356
000080 31 e6 69 3c 58 b1 32 bd f6 be b3 3d f9 97 f2 3d
       0.014276073 -0.04362616 0.08776657 0.11845393
000090 d3 1f 6a bd 9e e0 44 3e 70 a8 3e be 90 7f 52 3e
       -0.057159256 0.1922631 -0.18618941 0.20556474
0000a0 5b 90 c1 bd e8 8b ae 3d 9a 94 e0 37 94 94 b6 bb
       -0.09451362 0.08522779 2.6772079e-05 -0.005571911
0000b0 46 5c a9 bd 33 1e 19 be 94 50 62 3e 77 98 47 be
       -0.08269553 -0.14952926 0.2210105 -0.19491754
0000c0 9a 03 24 3e 08 16 28 be 47 33 38 3e 38 b3 ea bc
       0.16016999 -0.16414654 0.17988311 -0.028649911
0000d0 e0 f4 0f 3e 5d 6a 4f be 89 4f 68 be 1d 00 fc bd
       0.14058256 -0.20255418 -0.2268659 -0.12304709
0000e0 88 15 8a be 6b 4b 3a bd 38 b4 5e be cd c0 1c 3e
       -0.26969552 -0.04548208 -0.21748435 0.15307923
0000f0 51 7b b3 3d f8 c2 60 3d c7 58 15 3e c9 4e f3 3d
       0.08763755 0.054873437 0.14584647 0.118802615
000100 f3 cc 59 bd 72 c9 ff 3d 48 23 5c bd f9 68 51 bd
       -0.05317397 0.124895945 -0.053744584 -0.0511255
000110 7b 24 14 3e 99 25 d6 bd b4 ec 41 3e 02 6b 8e ba
       0.14467041 -0.1045639 0.18937951 -0.0010865631
000120 07 69 7f 3d c4 79 36 be 04 24 2c be 35 51 c1 bc
       0.06235602 -0.17819887 -0.16810614 -0.023598293
000130 43 03 ef bd 57 87 85 bd 62 7c 99 3c d4 20 7a bd
       -0.11670544 -0.06519955 0.018736068 -0.061066464
000140 89 b8 d5 3d b8 dd 28 3b 8b dc 61 be e5 c5 9a bd
       0.10435588 0.002576692 -0.22056787 -0.07557277
000150 f1 09 15 3d 35 70 27 be 6e fd 36 bc 6d 2f 99 bd
       0.036386434 -0.16351397 -0.011168821 -0.07479749
000160 e2 db bc bd 0c 53 85 bc 5b 8e e7 bc 8d 25 28 3e
       -0.09221627 -0.016274951 -0.028266123 0.16420574
000170 a1 59 5d be d0 8b 06 3e ea c4 00 3a 5d 57 03 be
       -0.21616222 0.13139272 0.0004912155 -0.12826295
000180 87 39 9e bd 62 60 dd 3d ac f8 4c be 51 0f d8 3d
       -0.07725816 0.10809399 -0.20016736 0.105497964
000190 8e 21 41 be cb 16 32 bd c1 60 30 3e 3a b0 81 bd
       -0.18860456 -0.04347877 0.17224409 -0.06332441
0001a0 d0 e4 2d 3e 29 8d 4e be 84 bb 36 3d 7a 68 81 bd
       0.16981816 -0.20171036 0.044612423 -0.063187554
0001b0 4a 12 81 3e 94 a0 9a bd e1 bf fe bd df 02 13 be
       0.25209266 -0.07550159 -0.12438942 -0.14356564
0001c0 3e 8f 14 be 04 a3 d7 3d 5f 74 2c 3e 69 89 18 3e
       -0.14507768 0.1052914 0.16841267 0.14896168
0001d0 ac c7 6b 3d 65 a5 26 be 48 8e 93 bd d4 64 4d bd
       0.05756347 -0.1627403 -0.07204872 -0.050144985
0001e0 f1 b9 0a be 8c 64 45 be 11 eb 61 3e 8a a6 49 bd
       -0.13547494 -0.19276637 0.22062327 -0.04923109
0001f0 0d 97 41 be b0 e6 87 bd 8e b2 89 3d df 31 94 bd
       -0.18905278 -0.06635797 0.0672351 -0.07236075
000200 b5 49 e5 3d 79 d7 11 bc 6f 51 97 3d 1e 18 28 3e
       0.11195699 -0.00890147 0.07388579 0.1641545
000210 3e bb 9e 3b f1 60 2d be a6 99 e1 bd 85 d5 59 be
       0.0048440984 -0.16931511 -0.11015634 -0.21272857
000220 ce e5 a1 bd 98 e9 d5 bd 84 9f cd 3d 8e 42 13 be
       -0.0790516 -0.10444945 0.10040191 -0.14380857
000230 62 d7 85 bd 37 5f 01 be 1e 80 c4 bb 54 15 98 bd
       -0.06535222 -0.12633978 -0.005996718 -0.07425943
000240 35 d3 07 be b7 e2 04 bc aa 8a eb bd a6 0b 34 3e
       -0.13264163 -0.008110694 -0.115010574 0.17582569
000250 91 51 49 3d 77 d7 c2 bd 5b 9b c8 bd 28 c2 4e 3e
       0.049150053 -0.09513753 -0.09795257 0.20191252
000260 b0 4a 25 be 03 b6 5b 3d 38 2f 61 3e 63 71 1f 3e
       -0.16141772 0.053640377 0.21990669 0.15570597
000270 4e 87 3b bd 42 d9 0a 3e 5e c7 a8 bd 52 f3 2c 3e
       -0.045783333 0.1355944 -0.08241151 0.16889694
000280 8d 6d ff 3d 37 43 a0 3d b0 6c 3f 3e ba 18 9c bd
       0.12472067 0.0782532 0.18693805 -0.07621904
000290 d7 4e ef 3c c6 6f 5e bd da d1 14 3e 33 9a 1b be
       0.029212398 -0.054305814 0.14533177 -0.15195541
0002a0 79 c2 33 3e 90 18 16 be d7 5b 22 bd c3 f3 17 3e
       0.17554654 -0.14657807 -0.039638367 0.14839081
0002b0 39 33 f2 3e 35 2d cb bd 74 9a a0 bb 32 b9 55 3e
       0.47304705 -0.09920732 -0.0049012247 0.20871428
0002c0 e8 a9 b8 bd 99 3f 1d be 5e e9 2b 3d 91 76 3a 3c
       -0.09016782 -0.15356292 0.041970603 0.0113808075
0002d0 f8 14 61 bc 1d ab 0a 3e fc bc 59 3e 07 06 ab bd
       -0.0137379095 0.13541837 0.21263498 -0.08350759
0002e0 26 f9 2d be ec d7 28 3d d3 2e 96 bd 7e 19 b7 3d
       -0.16989574 0.041221544 -0.0733315 0.08940409
0002f0 df 83 b0 3d 8b 90 40 3e 27 ab 5f be d5 ed 27 3e
       0.086189024 0.18805139 -0.21842633 0.1639932
000300 51 ad f3 3d aa a0 c3 bc e2 4f 4f be 93 4b 3e 3e
       0.11898292 -0.023880322 -0.20245317 0.18583517
000310 9b 3f 25 3d 48 79 3a 3e 26 f3 8d bd 75 c6 49 be
       0.040343862 0.18210328 -0.069311425 -0.19704612
000320 16 91 37 3e 8e f6 09 3e 2d b4 6d bd 04 84 3a be
       0.1792644 0.1347296 -0.058033157 -0.18214422
000330 aa df 36 be 61 68 14 3e c0 87 22 3e f5 41 d7 3d
       -0.17858759 0.14492942 0.15872097 0.10510627
000340 d5 6b 38 3e 28 5c 35 be ac bf 45 3e 9c 96 5e 3c
       0.18009885 -0.17710936 0.19311398 0.013585713
000350 8c fa ae 3c 6a 0c 4e be 97 55 2a 3d 5a 3e 2c bc
       0.021359704 -0.20121923 0.04158553 -0.010512913
000360 ec 0b d1 3d 73 1c 62 be c7 81 09 3e 64 5b 43 be
       0.10207352 -0.22081165 0.13428412 -0.19077832
000370 87 08 5e 3b bd 40 cb 3b 8b 03 75 3d bf a7 92 bd
       0.0033879594 0.0062027858 0.059817832 -0.07160901
000380 30 ed 5e be ac 27 f1 bd af 6c 1c 3e 1e 30 46 be
       -0.21770167 -0.11775145 0.15275835 -0.19354293
000390 bc 4f 33 3e 35 e1 38 3e cd c1 95 bd ec 08 50 be
       0.17510885 0.1805466 -0.07312355 -0.20315903
0003a0 b3 1a e5 bc 4d ba 32 3e 99 f5 c0 bb 96 bc 43 be
       -0.027966833 0.1745388 -0.0058886525 -0.19114909
0003b0 f6 45 8a bd f2 50 11 be 0b 36 0b 3e 6f e4 ce bc
       -0.06751625 -0.14191034 0.13594835 -0.02525541
0003c0 ea 26 5d 3e 62 c4 eb bd c3 2d b6 3c 0f 20 1e be
       0.21596876 -0.115120664 0.022238618 -0.15441917
0003d0 39 f9 1b 3d 78 d6 59 be 26 cd 48 bb 81 2c 40 39
       0.038079474 -0.2127322 -0.0030639856 0.00018327126
0003e0 64 0f ef 3d 06 aa 3a bd 25 09 2c bc e0 bc 35 3e
       0.116728574 -0.045572303 -0.010500227 0.17747831
0003f0 8c 55 1b be 36 8b 99 bd 2d 61 b9 3b ec 45 5a 3e
       -0.15169352 -0.074972555 0.005657336 0.21315736

linears.1.bias f4 [64]
000000 97 cc c2 bd 6b 61 4d 3c 3b 98 18 3d 86 42 7e bd
       -0.09511679 0.012535433 0.037254553 -0.06207516
000010 1f 5b f4 bc 13 85 38 bd 55 31 3f bd 62 fb 61 3d
       -0.029828606 -0.045048784 -0.046677906 0.055171378
000020 2d 97 be bc 59 59 9c 3c 03 0d 1e bd 80 11 9b bd
       -0.023265446 0.019085573 -0.038586628 -0.07571697
000030 66 8c cd 3c 84 89 0e 3d 3a 0d 21 3a d4 1f 4a bd
       0.025091361 0.034799114 0.00061436335 -0.04934676
000040 36 a2 a8 3d 27 52 e5 3c 79 09 b2 bd d4 9d c7 3c
       0.08234064 0.027993275 -0.08693213 0.02436725
000050 cc 0b 06 3d 1d 01 02 bd 6f 68 0f 3d 4d 8a 6b 3d
       0.032726094 -0.031739343 0.035011705 0.05750494
000060 1e 66 8a bc 1f 09 09 3d 08 46 1f bd 51 ff c4 bc
       -0.016894396 0.033455964 -0.038885146 -0.024047526
000070 64 78 20 bd f4 6c a9 bd 48 1c e1 3d 62 44 1a bd
       -0.039177313 -0.08272734 0.10991722 -0.03766287
000080 65 5f 32 3d e4 49 29 bd a2 b9 89 bc ea e1 90 bc
       0.043548007 -0.041330233 -0.01681215 -0.01768585
000090 be ac c0 bc e6 93 38 bd 9a 92 0d bd 1a e2 af bd
       -0.02351987 -0.045062922 -0.03456364 -0.08588047
0000a0 8a 88 65 bd 7f e6 0f 39 7a fb 9f 3c 67 77 9f bc
       -0.056038417 0.00013723409 0.019529093 -0.019466115
0000b0 de 48 26 3d 65 0e 0a 3d 8f 5d fa ba 79 bb 07 3d
       0.040596835 0.033705134 -0.0019101369 0.033137772
0000c0 d1 96 81 3c 8c fa 97 bc 4f e2 b5 bc 87 c6 fe 3c
       0.015818985 -0.018552087 -0.022202639 0.031100525
0000d0 55 ea 87 3d 11 9b 10 bd 5b 8c 57 bd ea 92 0b 3d
       0.06636492 -0.035304133 -0.052624088 0.034075655
0000e0 2b ae 1b bd a4 22 bd bd 54 25 b2 3c 2d 6e eb 3c
       -0.038007896 -0.09235123 0.021746315 0.02873906
0000f0 ec de b6 bd 8d 9a 88 3c 88 d6 09 3d 8d 2c 85 bc
       -0.08929238 0.016675258 0.03365186 -0.016256595

linears.2.weight f4 [64, 64]
000000 7e b3 ab bd 47 0a e5 bc 3c e8 f7 bd d6 ce 27 3e
       -0.08383845 -0.027959002 -0.12104842 0.16387495
000010 6c 64 b9 bd a5 79 4f be 53 24 0a bd 21 9c 1f bd
       -0.09052357 -0.20261247 -0.033726048 -0.038967256
000020 a7 6e 3e bd 9d 75 7c bc 5c cd 37 be 09 b4 1d be
       -0.046492245 -0.015408901 -0.17949432 -0.15400709
000030 bf 67 39 3e 34 4c 81 3d a7 33 26 3d 7f bb e2 bc
       0.18105982 0.06313363 0.040576603 -0.027677296
000040 40 5a 7a bd 2f 6c c4 3d bd 27 a2 bc a1 7d cb bd
       -0.061121225 0.09590947 -0.01979434 -0.09936071
000050 3f a6 49 bd 1d 70 96 bd 6f e7 2a 3e 54 b7 0d 3e
       -0.04923081 -0.07345603 0.16689847 0.13839465
000060 6e 5a 22 3e c3 d4 87 bd 73 a5 5f be c3 52 cc 3d
       0.15854809 -0.06632378 -0.21840458 0.09976723
000070 4b ec 1a be fc 14 11 bc f2 12 29 be 79 ae 12 3e
       -0.15129201 -0.008855101 -0.16511133 0.14324369
000080 e5 97 24 3e 16 31 1a 3e 16 13 39 bd 6e 4f 4f be
       0.16073568 0.15057787 -0.045184217 -0.20245144
000090 80 09 2c 3d 8c 3e 53 bd 8a 52 72 be 0e 12 df 3d
       0.042001247 -0.05157332 -0.23664299 0.108921155
0000a0 9d fe a9 3d f8 26 e0 bd 11 3d b3 3d 5c 09 1a be
       0.08300517 -0.10944933 0.08751882 -0.15042633
0000b0 e9 c3 27 3d 19 b4 b5 3d 17 55 26 3e 5f bb 25 be
       0.04095832 0.088722415 0.16243397 -0.16184758
0000c0 bf 31 4b be 08 e8 06 be 8b 65 0b be 03 17 53 bd
       -0.19843195 -0.1317445 -0.13612954 -0.051535618
0000d0 7f 6f b7 bd b9 72 2a be 93 09 fd 3c bf 79 9f bd
       -0.08956813 -0.16645326 0.030888354 -0.07786893
0000e0 86 5e d0 3d 5b a0 76 be c8 1c 26 3e ff 7a 2a 3e
       0.10174279 -0.24084608 0.16221917 0.16648482
0000f0 a6 90 95 3c 93 21 f6 3d 2a e0 44 3d 8e 76 8f bc
       0.01825745 0.120181225 0.048065342 -0.017512586
000100 62 4d 24 3e 3c a7 51 bd 3c 3d 7f 3e 33 b1 43 3e
       0.16045144 -0.051184878 0.24925703 0.19110565
000110 23 33 6b 3d 39 2c b8 3d bb 83 9d bc 44 08 7b bd
       0.057421815 0.0899281 -0.019227853 -0.06128718
000120 3f 0c 97 bd b4 aa 9b bd 53 80 a6 bd e7 71 2c bd
       -0.07375383 -0.076009184 -0.08129945 -0.042100813
000130 4b 00 d6 3c d2 be 04 be 1d 82 73 3d b9 d0 74 be
       0.026123187 -0.12963417 0.059450258 -0.23907746
000140 30 8a 89 bd 74 b0 16 3e 2e 83 be bc b0 07 87 3c
       -0.0671581 0.14715749 -0.02325591 0.016483158
000150 b9 43 05 be b3 c7 ff 3d c3 bd 80 3d c0 23 f6 3d
       -0.13014115 0.124892615 0.06286194 0.120185375
000160 e4 27 c2 bd f1 73 cc 3d 11 bd a2 bd 86 01 24 3d
       -0.09480265 0.099830516 -0.07946218 0.040040515
000170 13 b1 27 bb 6f 64 3d bc a4 a1 58 3e f6 31 d1 bd
       -0.0025587722 -0.01155959 0.21155411 -0.102146074
000180 da e3 2f bd d4 ba 4e be e2 ca 90 bd 03 87 93 bd
       -0.042941906 -0.20188457 -0.07069947 -0.07203486
000190 be f9 46 be ca d3 32 be 74 f5 f2 3c 46 e8 7b 3d
       -0.19431207 -0.17463604 0.029658057 0.06150081
0001a0 cf 77 09 3e e2 36 30 3e 83 fb 48 be 0a 56 2e be
       0.1342461 0.17208436 -0.19627194 -0.17025009
0001b0 80 e9 ba 3d 81 e2 df 3c ab 64 4b be 4a 0f 12 be
       0.09126568 0.027329685 -0.1986262 -0.14263645
0001c0 27 98 26 be 27 27 19 be de 34 07 be 99 ad d5 3c
       -0.16268979 -0.14956342 -0.13203761 0.026083754
0001d0 8b f4 20 3e 16 48 b7 3c e1 99 0f 3e e8 04 54 3d
       0.15718286 0.02237324 0.14023544 0.05176249
0001e0 c7 50 e6 bd c1 50 01 3e 93 59 48 3e 5c 3f fb 3d
       -0.11245876 0.12628461 0.1956542 0.12267944
0001f0 80 29 6b 3c d1 54 b6 bc 61 cb dc 3c 1f f4 67 3e
       0.014353156 -0.02225724 0.026952447 0.22651719
000200 71 3a 3f be e4 0b a9 3d ba 5e 7b 3c e8 bc f6 3d
       -0.18674637 0.08254221 0.015342409 0.1204775
000210 7f 6d c6 3d 12 15 b7 ba 98 92 06 bd c8 1e 30 3e
       0.096888535 -0.0013968071 -0.032854646 0.17199242
000220 dc 30 dd bd ae cd 26 be 46 b7 e4 bd d5 e6 e0 bc
       -0.10800335 -0.16289398 -0.11167769 -0.02745382
000230 bb b9 08 bd 0f f1 78 bd 3a d3 a4 3d 8e d1 5d be
       -0.03338025 -0.060776766 0.08048101 -0.2166197
000240 4a 60 6d 3e aa 06 93 3d 25 fd 84 be d9 60 08 3e
       0.23181263 0.071790054 -0.25974384 0.13318194
000250 6f d0 54 3d cc 97 91 3d 18 c1 3b 3e 54 a2 48 3e
       0.05195659 0.07109031 0.18335378 0.19593173
000260 df 99 c4 3d c2 26 7d 3b 40 3b 8e be d9 a8 76 3d
       0.09599661 0.0038627838 -0.2777958 0.06021962
000270 7c 42 1d 3c 6f 4c 2d be f2 61 a6 bd 53 56 0d be
       0.009598371 -0.16923688 -0.0812415 -0.13802461
000280 d8 1a 5a 3e 77 ed b3 3d 3f 52 19 be 1e c4 02 3e
       0.21299303 0.08785527 -0.1497278 0.12770125
000290 9b 49 1e be ee 5d 61 bc 1a 47 55 be 8c 22 6c be
       -0.15457766 -0.013755305 -0.20827904 -0.23060054
0002a0 71 54 70 be b7 cd c5 3d a1 c5 e4 3d 85 25 23 be
       -0.23469712 0.096583776 0.11170507 -0.15932281
0002b0 f5 ba 46 3e 9c 40 33 3e dd 34 0a 3e da 43 f5 3d
       0.19407256 0.17505115 0.13496728 0.11975832
0002c0 ab 72 01 bd 4f 72 21 be a5 37 59 be e0 1a b7 bc
       -0.031603497 -0.15766262 -0.21212633 -0.022351682
0002d0 5f 96 36 3e af 99 95 3b 44 32 b6 b9 8f f2 9f 3d
       0.178308 0.0045654397 -0.00034751196 0.07809936
0002e0 ba fd ad 3d 92 3b 0d 3e 0e 3b 8f bd 8f d1 e2 bd
       0.0849566 0.13792256 -0.06993686 -0.110751264
0002f0 c3 12 30 be 2c 78 06 3e da 7f 23 3c f9 ff c0 3d
       -0.17194657 0.1313178 0.009979213 0.09423823
000300 1d 87 2b 3e 76 9d 38 be 72 83 30 be 37 59 a5 3c
       0.1675076 -0.18028817 -0.17237642 0.020184143
000310 09 77 5c 3e 22 41 47 3e 50 76 82 3c 0d ce 70 be
       0.21529783 0.1945844 0.015925556 -0.23516102
000320 20 ed 35 3e e8 f1 d1 3d 9e 6b ed bd a4 f3 59 3d
       0.17766237 0.10251218 -0.11592792 0.05321087
000330 f9 e7 f8 bd 9b 5b c1 bc c3 a4 ba 3d 68 e5 c4 3d
       -0.1215362 -0.023603251 0.09113457 0.09614068
000340 13 bf 39 be 49 35 ab bb 75 05 7c 3e 6f ab aa bd
       -0.18139295 -0.005224858 0.24611457 -0.083334796
000350 42 3d 12 be c3 98 7e bc 50 56 04 be e5 24 31 3e
       -0.1428118 -0.015539351 -0.1292355 0.1729923
000360 58 b7 35 be 9f 4a a0 bd 53 65 a1 bc 06 4b 52 3e
       -0.17745721 -0.07826733 -0.019701635 0.20536432
000370 9c 1f 55 3e 54 9a 07 3e c7 35 4a be 88 4f aa 3d
       0.2081284 0.13242465 -0.19747077 0.08315951
000380 01 91 1c 3c 1d 43 84 3d 08 14 11 3e b4 25 6a 3d
       0.009556056 0.06458113 0.14167798 0.057164863
000390 3e a2 b9 3d c3 93 67 3d 2b 7c 13 be 13 5d 39 be
       0.09064148 0.0565374 -0.14402835 -0.18101911
0003a0 ee b2 77 3e 75 10 f2 3d 76 6b 12 be 48 c3 00 bd
       0.2418935 0.11819545 -0.14298806 -0.031436235
0003b0 5b b3 ee 3d c3 2e 61 be 2a 5d df bd 23 b5 66 be
       0.11655303 -0.21990494 -0.109064415 -0.22530036
0003c0 3c 0c 0c be 03 1d 29 bc 9b 9a 58 be 4e 03 a0 bd
       -0.13676542 -0.010321858 -0.21152727 -0.0781313
0003d0 d2 fa b6 bd 3a 36 55 3e ef af 34 3d ee 4a e2 bb
       -0.08934559 0.20821467 0.044113096 -0.006905905
0003e0 3c b7 14 be 63 8e 95 3d 6d 9f 05 be 1c ef 37 be
       -0.14523023 0.07302549 -0.13049097 -0.17962307
0003f0 ea 71 d8 3d a2 61 50 be 7a 9d 37 bd c9 c9 89 3d
       0.105686024 -0.20349744 -0.044827916 0.067279406

linears.2.bias f4 [64]
000000 a4 6b d0 3c ad 59 d5 3c 29 0e 57 3d 8a 4b b7 bc
       0.025441952 0.026043737 0.05250374 -0.022374887
000010 c5 e6 35 3d 89 ce 79 3d da a4 c4 bc 88 96 e5 3c
       0.044409532 0.060987983 -0.024004389 0.02802588
000020 96 dd 25 bd 94 75 cb 3c f8 ca 03 bd 1b 28 c6 3c
       -0.040494524 0.024836339 -0.032175988 0.024189046
000030 75 1e cf 3c db ab b3 3c 4f c3 ad 3c b2 f7 d7 bc
       0.025283078 0.021932533 0.021211294 -0.026363228
000040 61 88 da 3c e7 5f dd 3c af e2 dd 3c 30 51 d2 3c
       0.026676359 0.027023269 0.02708563 0.025673479
000050 ef 7f dc 3c e0 52 f9 3c 1b 94 d4 3c e4 c0 d9 3c
       0.026916472 0.030435026 0.025949528 0.026581235
000060 ed 1f f5 3c 3c 7e c9 3c 01 2b a8 bc db 61 da 3c
       0.02992245 0.024596326 -0.020528318 0.02665799
000070 b9 2b f0 bc dc 7d ec 3c 16 0c d0 3c 66 bb c3 3c
       -0.029317724 0.028868608 0.025396388 0.02389307
000080 d6 57 de bc 22 ff d4 3c 1b 02 d6 bc 05 af c9 3c
       -0.027141493 0.026000563 -0.02612405 0.024619589
000090 8f 6f ec bc fa b8 c8 3d fb 14 cf bc a6 e6 ea bc
       -0.028861789 0.098009065 -0.025278559 -0.028674435
0000a0 f4 a2 90 bc 1e fe cb bc 82 ca c1 3c 99 f6 da bc
       -0.017655827 -0.024901446 0.023656134 -0.026728915
0000b0 80 36 d8 3c e9 ca ce bc ad f3 8c 3d 4a 2a 0c 3d
       0.026393175 -0.02524324 0.06882415 0.034220017
0000c0 90 2c cc 3c c9 aa d7 bc 84 1b e5 bc 11 79 c7 bc
       0.024923593 -0.026326554 -0.027967222 -0.024349721
0000d0 38 89 35 bd 96 b7 cf bc d8 f7 d2 3c 3c dd cb 3c
       -0.044320315 -0.025356095 0.025752947 0.024885766
0000e0 d0 a3 d0 bc c7 d9 c9 3c a1 6c e2 3c d0 92 c2 3c
       -0.025468737 0.024639977 0.027639689 0.023751646
0000f0 fc 98 cf bc 67 1a cc bc 89 f0 a7 bd 87 2c cf 3c
       -0.025341503 -0.024914933 -0.08200175 0.025289787

linears.3.weight f4 [1, 64]
000000 0a f1 8b be ac b9 96 be de 6c 39 bd 4d 8b 93 3e
       -0.27332336 -0.2943853 -0.04526984 0.28817216
000010 5c 0a d0 bd ea d2 7f bd 2b 88 43 3e 11 20 fb bc
       -0.10158226 -0.062457003 0.19094913 -0.030654939
000020 05 9c a1 3d 74 0c 95 be 13 fa 83 3d 91 54 9c be
       0.078910865 -0.29111063 0.06444182 -0.3053327
000030 0f 12 a0 be b1 03 94 be 74 07 72 bc 80 4f 01 3e
       -0.31263778 -0.28909066 -0.014772285 0.12627983
000040 4b d3 20 be 32 61 be bd d6 70 05 be 00 2f 91 be
       -0.15705602 -0.09295882 -0.13031325 -0.2835617
000050 60 8e a8 bd 22 14 c3 bd df 67 12 be 7e 3e 1c be
       -0.08230281 -0.095253244 -0.14297436 -0.15258214
000060 c9 30 c0 bd 99 05 ac be a9 15 95 3c 7a 81 5e bd
       -0.09384305 -0.3359802 0.018198805 -0.054322697
000070 e2 ab 8d 3e 23 76 ef bd 22 c8 80 be d7 6b 5a be
       0.276702 -0.11692455 -0.2515269 -0.213302
000080 c5 82 b5 3e 21 4c 25 be b5 78 30 3e 25 eb 12 bd
       0.35451332 -0.16142322 0.17233546 -0.035868783
000090 a1 d7 94 3d 21 e9 da bc 34 7d d1 3d 40 c3 6a 3d
       0.072676904 -0.026722493 0.10228959 0.05731511
0000a0 57 4e 0f 3c b3 e0 52 3e 37 e4 88 be 33 28 d6 3d
       0.008746705 0.20593528 -0.26736614 0.10456886
0000b0 cd cd 02 be b5 f7 38 3e 61 80 1c bd 59 61 86 bd
       -0.1277382 0.18063243 -0.03820837 -0.06561536
0000c0 7f f2 83 bd f9 b0 3e 3e 26 ca e6 3d 3c 36 35 3e
       -0.06442737 0.18622197 0.112690255 0.1769647
0000d0 d5 f2 62 3d fe b6 1d 3e f7 83 6e be f9 dc d5 bd
       0.055407364 0.15401837 -0.23292528 -0.10442538
0000e0 f5 fe b1 3e 8e 3b 69 be e2 45 85 bd db 75 c9 bd
       0.3476483 -0.22776625 -0.0650747 -0.09836932
0000f0 24 03 50 3e 55 c3 8c 3e d7 c2 21 3e c4 01 98 be
       0.20313698 0.27492777 0.15796982 -0.29688847
