Complete_thesis_stage_1_and_2/(d).Code_and_all_other_details/LASER_DED/models/model_epoch_10000.pt (torch, 86584 bytes, 7 tensors)

linears.0.weight f4 [100, 4]
000000 19 69 28 be 39 5a 0d be 96 c2 0e 3e d2 16 a9 3d
       -0.16446342 -0.13803948 0.13941416 0.08256306
000010 68 83 36 3e 85 2c a2 bc 05 2c ab 3c 07 69 bb 3d
       0.17823565 -0.01979662 0.020895014 0.09150892
000020 1c d3 11 3e 04 04 39 be 73 f2 9e bd fd a3 1a 3e
       0.14240688 -0.18067938 -0.07761087 0.15101619
000030 70 08 2f be 71 ea 35 be 91 6b ba 3d 99 21 eb 3d
       -0.17093062 -0.17765214 0.09102548 0.114810176
000040 d4 89 c8 3c 3f dc 9b 3d 42 80 64 3e a5 e0 b9 3d
       0.024479784 0.07610368 0.22314551 0.09076051
000050 d4 04 91 bd ca b2 fe 3d d6 5c 44 be 4e fd 4c 3e
       -0.07080999 0.12436445 -0.19176039 0.20018503
000060 56 7b 5f 3d d6 21 d8 3d 2a 54 5b be 1f 29 09 be
       0.05456098 0.10553329 -0.21418825 -0.13394593
000070 11 09 f0 bd 44 0c f4 bd 20 b3 25 3d 46 81 4f 3e
       -0.11720479 -0.11916402 0.04045403 0.20264158
000080 6a 5d 89 bd b4 89 96 bd 12 22 03 3e 0e 1c e2 3b
       -0.067072704 -0.073504835 0.12805966 0.006900317
000090 a0 e8 c8 3d 4e ad bc bd a0 38 ec bd ba 72 6b 3e
       0.09809995 -0.09212743 -0.11534238 0.22992983
0000a0 4b ef 34 be ea d8 79 bd 18 5d 41 be d9 1d ea 3d
       -0.17669408 -0.06099788 -0.18883169 0.11431474
0000b0 b0 7e 39 be c4 ef 06 be c8 3f 87 3d 9f 87 e0 3b
       -0.18114734 -0.13177401 0.06603962 0.006852105
0000c0 95 d8 e4 3b 02 5a 2c be e3 67 ac 3d 21 26 b7 bd
       0.0069838264 -0.1683121 0.08418252 -0.089428194
0000d0 31 a7 7a bd 99 11 51 be 76 0b 42 be c8 cd 6f 3e
       -0.061194602 -0.20416869 -0.18949685 0.23418343
0000e0 94 03 49 3d 57 b4 23 3e e8 3a 07 be ec 00 27 3d
       0.049075678 0.15986763 -0.13206065 0.040772364
0000f0 93 f7 59 bc d3 f1 7b 3e 43 1c e0 3b c1 11 e5 3d
       -0.013303655 0.24603967 0.0068393066 0.11185027
000100 19 17 ba 3b a5 69 f4 3d 7a 25 3f be 65 95 c7 3c
       0.005679023 0.119342126 -0.1866664 0.024363229
000110 69 b4 4f 3c 4e ab 3d be f8 00 49 3e d1 73 37 be
       0.0126772905 -0.18522379 0.19629276 -0.17915274
000120 6d 23 a2 bc 1a 27 4b be 68 57 7d bc 56 fc 0f 3d
       -0.019792283 -0.19839135 -0.015462734 0.035152756
000130 fc 5d 54 3e 94 3d 2d bd 58 ec 2b 3d 3b 09 08 3e
       0.20738977 -0.042295054 0.04197344 0.13284771
000140 25 3c d6 3d 89 8c 48 3e 66 0f 7e bb 1b 44 69 be
       0.104606904 0.1958486 -0.0038766502 -0.22779886
000150 1a f3 5b 3e 70 2c 0f 3e 6a aa 59 3c ba c3 3f 3e
       0.21479455 0.13981795 0.013285259 0.18727008
000160 d0 b9 25 bd af 2b 39 3d 83 b2 68 be 17 ed df bc
       -0.040460408 0.045207676 -0.22724347 -0.027334733
000170 bc 13 57 3c a8 9c de bc 64 a1 e6 3d a1 ca d3 3c
       0.013127264 -0.027174309 0.112612516 0.025853457
000180 98 73 18 3e 54 fb 1e be 95 bd 61 bd 9d 8a eb 3d
       0.14887846 -0.15525562 -0.05511244 0.11501048
000190 29 1d fa 3d dc 9b 22 bd ae 6e 3d be 65 97 2e be
       0.12212593 -0.03969942 -0.18499252 -0.1704994
0001a0 b2 e4 79 bd 9a a7 d4 bd 07 19 4f 3d 2c 01 5a 3e
       -0.061009116 -0.1038353 0.050560977 0.2128951
0001b0 22 77 8c 3d 0c d2 e6 3d 41 90 76 3e d4 7f 65 3e
       0.0685866 0.11270532 0.24078466 0.22412044
0001c0 67 d3 61 3e 68 25 e9 bd e9 ce 46 be 1a 7b ec 3c
       0.220533 -0.11384088 -0.19414867 0.028867293
0001d0 43 9e 62 3e 7b 33 1b bd 4b a0 e5 bd bf 45 04 be
       0.22130685 -0.037890892 -0.11212214 -0.12917231
0001e0 ed 8e 0d 3e 7f e8 29 be af f9 8f 3d 75 cc 6c be
       0.13824053 -0.16592596 0.07030045 -0.23124869
0001f0 4a be 41 3e e5 7c 28 be 32 14 38 3e c2 6d 3b 3e
       0.18920246 -0.16453893 0.17976454 0.18303588
000200 af 0c 55 3d fe 74 c3 bd 25 fa 51 be 44 4e 10 be
       0.05201405 -0.09543799 -0.20505579 -0.14092356
000210 26 47 92 bd 6b 0a 0f 3e e8 1f 5d be 5a 21 17 be
       -0.07142477 0.13968818 -0.21594203 -0.14758816
000220 22 fe df 3d 37 6c 5c 3e 53 cf 01 bd 5b 3f 29 3d
       0.10937144 0.21525656 -0.03169186 0.041320186
000230 96 61 88 bd d0 ba ba bd 66 84 10 3d 2a d3 33 bc
       -0.06659238 -0.09117663 0.035282515 -0.010975638
000240 5f 67 2f 3e 25 a7 4d bd 1b 52 f4 bc 18 8d 03 3e
       0.17129277 -0.05020823 -0.029824307 0.12846792
000250 a9 1b 53 bc ca a9 db 3b 30 63 3f 3e 6a b0 1e be
       -0.012885013 0.00670359 0.18690181 -0.15496984
000260 83 06 3d be 13 24 42 3c eb 8d 26 be 85 c8 06 be
       -0.18459515 0.011849421 -0.16265075 -0.1316243
000270 e2 5a 09 be 77 15 e0 bd 1c c5 e8 3d b1 85 b3 3d
       -0.13413575 -0.10941594 0.11365721 0.08765734
000280 12 3a 1f 3e b1 ba 77 bd 9a 2e 06 3d 84 95 03 be
       0.15549496 -0.060480777 0.032759286 -0.12850004
000290 d9 1b c7 bd 79 f7 15 bb 40 6b bb bb f2 a6 9b bd
       -0.097221084 -0.00228831 -0.0057195723 -0.07600202
0002a0 b0 d4 ec 3d 66 5c de 3d e7 ef 32 bd ad 85 11 3d
       0.115640044 0.10857467 -0.04368582 0.035527874
0002b0 3f 6a 19 be 85 ba 06 bc 4f b7 d6 bd 7d 0f 34 be
       -0.14981936 -0.008223181 -0.10484182 -0.17584033
0002c0 6d 0b ab bd 65 7c 30 be 62 c2 09 be b2 47 f8 bc
       -0.08351789 -0.17234953 -0.13453057 -0.030307624
0002d0 27 f8 32 bd 52 a1 00 be 38 21 ec 3d f5 e1 29 be
       -0.043693688 -0.12561539 0.115297735 -0.16590102
0002e0 d0 56 07 3e 2e e5 19 bd 80 c1 e7 bd 1d bf 7a 3d
       0.1321671 -0.03757208 -0.11316204 0.061217416
0002f0 ea c8 96 bc 55 c9 3b be b3 a9 09 be 60 08 8e bd
       -0.01840635 -0.18338521 -0.13443641 -0.06935191
000300 ea 71 34 3e 20 77 12 3d ba a6 27 3e 9e 0c dd 3d
       0.1762158 0.035758138 0.16372195 0.10793422
000310 c1 2c 4a be 92 41 09 3d 0e f0 39 be f7 df 28 3e
       -0.19743635 0.0335098 -0.1815798 0.16491686
000320 3d 21 ab bd 3f 23 38 be a1 27 ed bb ed 4a d4 3d
       -0.08355949 -0.17982195 -0.00723739 0.103658535
000330 97 4e 26 3e 7b 5e 80 bd 43 69 d9 bd 63 cf 4e 3e
       0.16240917 -0.06268021 -0.1061578 0.20196299
000340 c0 9c d2 3d 2b 02 29 3e 9c 98 dd bd c2 44 d4 3d
       0.10283804 0.16504733 -0.108201236 0.10364677
000350 57 70 92 bd f4 02 c3 bb f2 57 2c 3e 43 c0 4c bc
       -0.071503334 -0.00595128 0.16830423 -0.012497011
000360 59 26 8e bd 41 4f 96 3d d7 31 1c be ad a5 f0 3d
       -0.06940908 0.07339335 -0.15253387 0.1175035
000370 b1 dd 02 be e0 6d 61 3e 17 5d 31 3e 42 32 55 bd
       -0.12779881 0.2201457 0.17320667 -0.052049883
000380 4a 11 e3 3d 8f 0d 1a bd 1d 6f 47 be 08 65 b1 bd
       0.11087282 -0.037610587 -0.1947598 -0.08661848
000390 6b 03 3a 3e 06 38 28 3b 47 9e 35 3d c8 61 00 3e
       0.18165366 0.0025668158 0.0443404 0.125373
0003a0 6c 3b 54 3e 33 9a 22 be b4 04 cd bd 5d 31 84 3c
       0.20725793 -0.15879135 -0.10010663 0.01613682
0003b0 2a bc 92 bd 95 23 fa bc 3e 07 e3 bd ef 23 b4 3d
       -0.07164796 -0.030534545 -0.11085366 0.08795916
0003c0 c2 48 f7 3d 77 73 e0 3c 44 63 be 3c 9a 99 3d be
       0.12074424 0.027398808 0.023240693 -0.18515626
0003d0 42 65 07 bd 31 63 0e 3e df ed 23 3e 42 ce 92 3d
       -0.03305555 0.13905026 0.1600871 0.07168247
0003e0 8e 84 5d bb c3 50 e3 3d fd 3e cd 3c 40 d4 95 3d
       -0.0033800933 0.110993885 0.02505445 0.07315874
0003f0 bf 69 33 3e b1 d8 31 3e 95 dd ac bd f7 73 02 3e
       0.17520808 0.17367817 -0.08440701 0.1273955

linears.0.bias f4 [100]
000000 ed 1d 29 bd 8d 37 a8 bd 46 1a 37 3b ce 87 c9 3c
       -0.041288305 -0.082137205 0.0027939244 0.02460089
000010 b9 6c 87 bd bb 34 a1 bb 3d 2d 83 3d bd e0 83 bb
       -0.06612534 -0.004919616 0.06405113 -0.0040245936
000020 d2 b6 75 bd 8d d3 30 bd e9 0a bc 3d 67 79 9d 3d
       -0.059988804 -0.0431705 0.091817684 0.07689171
000030 d2 e0 cc bd 83 74 5d bd 4a ba 0c bd ca 3b b6 3c
       -0.100038186 -0.054066192 -0.034357347 0.022245307
000040 c6 44 e0 bc e1 b3 39 bd f7 a5 73 bd 6e 99 69 3c
       -0.027376544 -0.04533756 -0.05948445 0.014257772
000050 eb fb 95 bc c1 89 a6 3c 15 72 b9 3d c8 a6 68 bd
       -0.0183086 0.020329358 0.090549625 -0.05679968
000060 84 57 79 bc 22 71 ac 3d 34 42 04 bd 8e 0a 8e bd
       -0.015218619 0.08420016 -0.0322897 -0.06935607
000070 f0 8e 45 bd cb 09 16 bd 7e df 0d 3d e5 95 2e bd
       -0.04823202 -0.036630433 0.034636967 -0.04262342
000080 8b 6d 7e 3d 7d b2 81 3d fc 0a 79 bd 90 bc 59 3d
       0.062116187 0.06332872 -0.06080149 0.053158343
000090 95 66 9a bc d6 67 a9 3c d2 aa 2a bd 2e 3d 68 bd
       -0.018847743 0.020679396 -0.041666813 -0.05669897
0000a0 ef 33 39 3d ab cb 6c bd dc 6f 8f bd b0 ae 68 3d
       0.045215543 -0.05781142 -0.07003757 0.05680722
0000b0 83 09 95 3d e9 0b 74 3d 7a dd e6 3c ad 56 4d bd
       0.07277205 0.05958167 0.02818178 -0.05013149
0000c0 bf 57 c2 3b 7c 4a af bc 61 9a 82 bd 69 1a e8 bc
       0.0059308703 -0.021397822 -0.06377102 -0.028332906
0000d0 b0 88 70 bd e2 aa 11 3d 95 b4 a8 bc ea a4 4b bb
       -0.058724105 0.035563357 -0.02059392 -0.0031073638
0000e0 63 42 ac 3d 7f b5 5d bd 3c 09 f2 3d 29 06 54 bd
       0.084111 -0.054128166 0.118181676 -0.051763687
0000f0 a5 46 2b 3b f7 2d 98 bd 51 f4 68 bd f5 e2 2b bd
       0.0026134637 -0.07430642 -0.056873623 -0.04196449
000100 87 05 b3 bb 1b 30 3f bd 9d 91 06 bd 00 6c bb 3c
       -0.0054633054 -0.046676736 -0.03285371 0.022878647
000110 57 e1 de bd 51 c7 84 3d e0 39 7c 3d a8 0c c3 bc
       -0.10882824 0.06483329 0.06157863 -0.023809746
000120 06 f3 ff bc 8f 35 a4 bd ca df 68 bd 5b f0 1e 3c
       -0.031243812 -0.08018028 -0.056854047 0.00970086
000130 1c fd e9 3c a9 c0 fd 3c c2 46 ba 3d 9a d2 d0 bc
       0.028563075 0.030975657 0.09095527 -0.025491048
000140 37 68 5c 3d e7 43 19 3d bf cb cb 3c f9 9c 07 bd
       0.053810325 0.037418272 0.024877427 -0.033108685
000150 2b fd 4b 3d b8 15 d1 3a 9d 40 0c 3d ad 1b 35 bd
       0.049801987 0.0015951907 0.034241308 -0.044215847
000160 19 f3 23 bd e4 60 a1 bd 7b 53 db bd f7 b2 11 bd
       -0.040026758 -0.078798085 -0.10709282 -0.035571065
000170 fe b9 69 3d 30 c8 6d bd 82 2c 27 bd a4 f5 36 3d
       0.05706214 -0.05805224 -0.04081393 0.044667855
000180 b3 3d 6e 3d f7 b4 1a bd ea 97 79 bd 9f ab 93 bd
       0.05816431 -0.037770238 -0.060935892 -0.072104685

linears.1.weight f4 [100, 100]
000000 18 1f 89 bd 69 50 26 3e 9d f3 aa 3d 0c 9a 57 3d
       -0.06695384 0.16241612 0.08347247 0.052637145
000010 aa 3e 3a 3e 50 d3 19 3e 97 ab 82 3b a3 45 8d bd
       0.18187967 0.15022016 0.0039877403 -0.06898048
000020 37 01 f5 3c 24 09 3e bc da b8 a0 bd 5f 06 3d be
       0.029907806 -0.011598859 -0.07847758 -0.18459462
000030 19 47 cd 3d 02 ff fd bd dd 83 b9 bd b9 28 2f bd
       0.100233264 -0.124021545 -0.09058354 -0.042763446
000040 0f 6b 9b bd 45 18 fd 3d 15 27 14 3d 26 3b d6 bc
       -0.07588779 0.12358145 0.036170084 -0.026151251
000050 09 07 d3 bd 44 89 89 3b 10 06 f0 bd c6 6d c4 3d
       -0.10304076 0.0041972715 -0.11719906 0.0959125
000060 27 ab 17 be 31 8a 0f be 9c 9b 1b 3e fb 36 2b bd
       -0.14811383 -0.1401756 0.15196079 -0.04180048
000070 36 2f 02 be 85 44 94 3a 61 5b db 3d b9 7e 0d 3d
       -0.12713322 0.0011311924 0.107107885 0.03454468
000080 c7 5a 7c bd 25 ab fe bd a8 fd dd bd 3d c4 8c 3c
       -0.06161001 -0.12434987 -0.10839397 0.017183417
000090 4e c6 d6 3d 13 f5 1f be 3b fe 04 3e ca 3f 83 3e
       0.10487042 -0.15620832 0.12987606 0.25634605
0000a0 73 0e b3 bd 6b 2b 16 3e d0 ea 58 3e 26 d7 51 bd
       -0.0874299 0.14665 0.21183324 -0.051230572
0000b0 a3 84 ca 3b 3d ee 44 3d 4b 37 16 be 1e 0e 07 3e
       0.0061803623 0.048078764 -0.1466953 0.13188979
0000c0 2a fd 3f be 7c 8c 5e 3d 98 6f 1c 3e 55 f2 c7 3d
       -0.18748918 0.054333195 0.15276945 0.09763018
0000d0 3e 71 91 bd d9 ab 3d be 39 68 fd bd 28 85 30 3e
       -0.07101677 -0.18522586 -0.123733945 0.17238295
0000e0 74 ec 93 bd 1d e3 04 bd d8 2f 3e bc d9 ec 93 3d
       -0.07222834 -0.032443155 -0.0116080865 0.072229095
0000f0 92 d1 1c 3e 77 0c d9 bc cd 50 16 3e 59 7b 35 3e
       0.1531432 -0.026495202 0.1467926 0.17722835
000100 59 54 90 bd 95 f0 62 3e 41 cc 2e bd c5 b9 20 be
       -0.07047338 0.22162087 -0.04267526 -0.15695865
000110 0e 6f 8a 3e 4e a4 04 be 5d 22 ae bd ed 73 1f 3e
       0.27037853 -0.12953302 -0.08502648 0.15571566
000120 0f ec 2d bd 7d 80 24 3e fd 7f 81 bd a9 c0 e6 3c
       -0.04246145 0.1606464 -0.0632324 0.02816804
000130 24 27 54 bc 89 f7 50 be db 9c 68 be c7 a9 aa bd
       -0.012948785 -0.20406927 -0.22716086 -0.08333164
000140 0d 97 d5 bd f0 96 d5 3d 0d ae b4 bd a8 43 0a 3e
       -0.10429201 0.1042918 -0.0882226 0.13502371
000150 a4 ed 2c 3d ce c2 0f 3d 3f 55 ec bc 6c 8c 82 3d
       0.04221882 0.03509789 -0.028849242 0.063744396
000160 72 ab d3 3d 8c 9d 0b 3e aa 97 5b 3e e0 5d f9 3d
       0.10335435 0.13634318 0.21444574 0.12176108
000170 5e e1 65 be 5f 5f 5f bd 2e b9 b2 3d 58 b7 53 3d
       -0.22449252 -0.054534312 0.087267265 0.051688522
000180 f0 5f 77 3d 46 a3 1c 3e 1d 8e f6 3d 7f bb 00 3e
       0.060394228 0.15296659 0.12038825 0.12571524
000190 a8 b7 58 3d f3 cf 11 be 7f 8e da 3c fa 92 16 3e
       0.052909523 -0.14239483 0.026679276 0.14704505
0001a0 30 92 24 be 3f b4 bc 3d 51 f7 86 bd f6 c9 ba 3d
       -0.16071391 0.09214067 -0.065901406 0.09120552
0001b0 82 4f 77 3d 46 4d 9b bd dc c4 03 be af 68 b0 3d
       0.06037856 -0.07583098 -0.12868065 0.08613717
0001c0 c1 67 21 3e 27 17 d9 bd e2 51 fb 3d 17 dc 41 3d
       0.15762235 -0.10600119 0.12271477 0.047329035
0001d0 8e 6c 37 3b f5 82 29 3e be a3 37 3d 0b 04 dc 3d
       0.0027988288 0.16553862 0.04483389 0.10742959
0001e0 c3 cd 37 3d 5e ad 09 be 06 92 d8 3d 3e 03 58 3e
       0.044873964 -0.1344504 0.10574727 0.21094987
0001f0 6a 27 b1 bd 49 67 9d 3d 7e 98 b6 3d 20 7f fc bc
       -0.08650096 0.07685716 0.08915804 -0.030822337
000200 2e ba 18 3e a1 43 07 be 36 4d 38 bd 5c b9 33 3d
       0.14914772 -0.13209392 -0.04499551 0.043877944
000210 32 2a 22 3d 21 ae 77 3d e3 45 7a 3d 95 a5 f8 3d
       0.03959102 0.060468797 0.061101805 0.12140957
000220 d7 a4 86 bd 66 7f 00 3e 2b 54 cb bd 55 c9 1d 3c
       -0.065744095 0.12548599 -0.09928163 0.009630521
000230 4b 8d 0c be aa 67 47 bd 03 5b 97 3d 91 f2 18 3e
       -0.13725774 -0.048682846 0.07390406 0.14936282
000240 36 86 c1 bd eb f6 a6 3d 09 7b 1f bc 3f 69 06 be
       -0.09449427 0.081525646 -0.009733924 -0.13126086
000250 ba 7b 53 3c a1 ed eb bd c0 c0 08 3d 45 61 20 3d
       0.012907917 -0.115199335 0.033386946 0.039155263
000260 1a 84 fc bd 44 b2 1b 3e dd 1d 14 be 75 93 97 3c
       -0.12329884 0.15204722 -0.14464517 0.01850293
000270 d6 53 57 bc fa c0 8c 3c 30 88 35 bd 26 3a 39 3e
       -0.013142547 0.017181862 -0.04431933 0.18088588
000280 fd f7 a3 3d 87 60 1d bd 0c 03 04 3e 8f 07 18 3e
       0.080062844 -0.038422134 0.12891787 0.14846633
000290 fb ef 91 bd eb 63 0f bd b2 9b ca 3d c8 1f 1b 3e
       -0.07125851 -0.0350074 0.09892978 0.15148842
0002a0 71 31 13 3e c8 d1 a4 bd 0d 5c d0 3d b7 0e c6 3d
       0.14374329 -0.08047825 0.10173807 0.096707754
0002b0 c1 4f 67 3d 73 ea a9 bb 26 1c 07 3e 61 cd e0 bc
       0.056472544 -0.005185419 0.13194332 -0.027441682
0002c0 af 07 01 3d 78 35 b5 bd 80 91 c2 3d b2 8d 5a bd
       0.03150147 -0.08848089 0.09500408 -0.053357787
0002d0 9d 7b 0d 3e aa 68 0a 3d c7 84 85 3c 7c 68 2b be
       0.13816686 0.03379122 0.016298665 -0.16739076
0002e0 be 77 06 3e 7f 28 0f 3e ca f2 2c be e4 94 e2 3c
       0.13131616 0.13980292 -0.16889492 0.027658887
0002f0 12 4d e3 3c a5 df 25 3e 80 04 32 3e 17 6d 26 3e
       0.02774671 0.16198595 0.17384529 0.16252552
000300 97 26 22 bd 65 54 4b 3e 5b 06 fe 3d a9 2e 7a bd
       -0.039587583 0.19856413 0.12403556 -0.061079655
000310 56 80 c5 bd 3b 83 8e bd a7 64 22 3e d4 a0 09 bc
       -0.09643619 -0.06958624 0.15858708 -0.008400161
000320 cd 01 ad bd 3f ae c7 3d 02 f4 32 3e bc e4 3a 3c
       -0.08447609 0.09750032 0.17475894 0.011407074
000330 f7 77 0c 3e 3c 57 2d 3e 41 f8 31 be 43 03 bb 3d
       0.13717638 0.16927809 -0.17379858 0.091314815
000340 d2 c0 f1 3d c0 ee 07 3c 20 f2 0b 3e df 1b 32 be
       0.11804356 0.0082966685 0.13666582 -0.17393444
000350 ba 68 ac 3d 3c f7 02 be 83 20 ba bd 1d 0a 5b bc
       0.084184125 -0.12789625 -0.09088232 -0.01336911
000360 30 8b bd bd ea 14 68 3d 6e d8 08 3e f8 2a 03 be
       -0.092550635 0.05666057 0.13363811 -0.1280936
000370 8d cf 2f be 6c 57 99 bd 61 56 f3 bc d1 4a f8 3d
       -0.17169018 -0.074873775 -0.029704275 0.12123645
000380 88 5f 0c 3e 9b d6 91 3c 92 b8 d2 3d 38 7c 36 bd
       0.13708317 0.017802527 0.1028911 -0.044552058
000390 29 20 e8 3d c0 c8 31 3e 65 6c d0 bc 9d e7 7c 3d
       0.11334259 0.17361736 -0.025442312 0.06174432
0003a0 30 bc 75 bd ef 7b 00 bc 54 82 11 be 99 60 81 bd
       -0.059993923 -0.007842048 -0.14209872 -0.06317253
0003b0 de 1e be bd 91 4f 15 bc 88 89 2e be d1 eb 29 3e
       -0.09283231 -0.009113208 -0.17044652 0.16593863
0003c0 f0 2e 12 3e 45 20 25 be dd ed 12 3e 11 7d e6 3d
       0.14275718 -0.16125591 0.1434855 0.11254323
0003d0 20 1d 8f 3d 0f f8 00 3e 09 fe 99 3d 17 e1 13 3e
       0.06987977 0.12594627 0.075191565 0.14441334
0003e0 5b 26 0c bc e2 a4 a5 bd 5f 6f 1f 3c 3e 4e 85 bd
       -0.0085540665 -0.080880895 0.009731143 -0.06509064
0003f0 50 4b 15 3d e5 e9 03 3e 19 0a 18 bc 62 72 6e 3c
       0.036448777 0.12882192 -0.009279751 0.014553638

linears.1.bias f4 [100]
000000 c5 5e b6 bd ed 1e dd bc 6c b7 01 bd 63 e8 06 bd
       -0.089047946 -0.026992286 -0.031669065 -0.032936465
000010 e9 a7 58 bd 2e 3e b0 3c ca b5 02 3d 04 33 67 bd
       -0.052894507 0.021514025 0.03191165 -0.056445137
000020 c1 69 3f bd 76 60 f6 bc c1 93 6f 3c a9 c9 38 3d
       -0.046731714 -0.030075293 0.01462263 0.045114193
000030 8d 6c 0f 3d c8 93 12 3d ee a9 10 3d fa 1a f9 bc
       0.03501563 0.035785466 0.035318308 -0.030408371
000040 47 61 1f bd 4e 7d b8 bc a1 ea f2 bc 03 3d 0a 3d
       -0.03891113 -0.022520687 -0.029652895 0.03374959
000050 fb 10 df 3b 6f cb 07 bd fc 4a 0e 3d b4 ec 75 bd
       0.006807444 -0.033152994 0.03473948 -0.06004019
000060 52 ed 49 3d 5c cd e6 3c 79 72 2a 3c 55 e0 9b bc
       0.049298592 0.028174095 0.010403269 -0.019027868
000070 78 34 93 3c 3f 4a 01 bd a6 b8 8f 3d a9 b2 a9 bc
       0.017969355 -0.031564947 0.07017641 -0.020715075
000080 fa 4e c9 bc 8a 53 03 bd 7b 12 d1 bc 4d 6a 40 3d
       -0.024573792 -0.03206209 -0.025521507 0.046976376
000090 43 4f dc ba ac ba e8 bc e9 c5 e8 3b 4e 04 f8 3c
       -0.001680829 -0.028409325 0.007103671 0.03027549
0000a0 78 b6 26 3d 32 d2 85 bd 5b 85 9d 3c c5 d4 f3 bc
       0.04070136 -0.06534232 0.019228628 -0.029764542
0000b0 4e 04 ac 3c de 45 d0 3c b0 3b aa 3c 48 c9 85 bc
       0.020998146 0.02542394 0.020780414 -0.01633133
0000c0 c1 01 2a bd c4 bd 1e 3d 66 63 13 bd d1 2e 81 3d
       -0.04150558 0.038755193 -0.035983466 0.06307758
0000d0 a4 69 05 bd 9f 30 9a 3c 9b b0 12 3d 64 43 8b bc
       -0.03257145 0.018822012 0.035812955 -0.016999908
0000e0 3b 0f 91 3d a3 ca 07 3d 25 66 f0 bc 79 ea cb bc
       0.07082983 0.033152234 -0.029345581 -0.024892079
0000f0 d4 cc 66 3d 56 b0 00 bd 29 fc 8f 3c 0c bf 74 bc
       0.056347683 -0.031418167 0.017576294 -0.014938127
000100 e2 c5 b4 3c 09 c2 d0 bc 9d 1c 97 3d ad b8 23 bd
       0.022067014 -0.025483148 0.073785044 -0.039971042
000110 7c 64 0b bd 0a 0d 28 3c 6a e1 15 bd 5a 75 05 3d
       -0.034031376 0.010257015 -0.036591925 0.03258262
000120 b1 2e ec bc 0c d2 c1 bc ae 07 b8 bc 96 92 c6 3d
       -0.028830858 -0.023659728 -0.0224646 0.09695928
000130 3c b0 94 3c f3 5e 08 bd f9 06 22 3d 39 b4 69 bc
       0.018150441 -0.033293676 0.03955743 -0.01426416
000140 bc fb 1f 3d 41 db 73 3d fe bf 2e bd 87 d1 cf 3c
       0.039058432 0.05953527 -0.042663567 0.025368465
000150 4c 83 c2 3d 97 65 ad 3c 9a b4 14 bd 33 6e 68 bd
       0.09497699 0.021166606 -0.036305048 -0.05674572
000160 c5 ed e7 3c 2a 12 cb bb 05 a0 18 bd 93 e6 14 bd
       0.02831162 -0.0061972337 -0.03726198 -0.036352705
000170 e7 c1 04 bd 57 a0 49 bd 66 54 a1 3c bf 9b 05 3d
       -0.032411482 -0.049225178 0.019693565 0.032619234
000180 1d 7a 18 bd d8 db 0c bd 8a 25 e2 bc f0 a9 9f bc
       -0.03722583 -0.034389347 -0.02760579 -0.019490212

linears.2.weight f4 [100, 100]
000000 dd cc 7c 3d 69 15 ef 3b ce a2 a9 ba 90 88 6a 3d
       0.06171881 0.0072962535 -0.0012942196 0.057259142
000010 a9 d9 80 3d 1a ca 6e 3d 3d 90 ab 3c 63 d0 91 bd
       0.062915154 0.058298208 0.020942802 -0.07119825
000020 19 63 de 3d c4 ef 17 be eb c8 47 bc a0 12 9e 3c
       0.10858745 -0.14837557 -0.012193899 0.01929599
000030 de ae a6 3c 34 d8 00 3d f4 1a 04 3e c0 e1 0d be
       0.020347055 0.031456187 0.12900907 -0.13855648
000040 ae 39 57 3d 64 3a f3 3d fe 8e f8 bc 90 64 ae bd
       0.052545242 0.118763715 -0.030341621 -0.085152745
000050 f1 8d 00 be 21 f7 cb bd a1 8a 95 3d a4 20 79 bd
       -0.12554146 -0.099592455 0.07301832 -0.060822144
000060 da 47 84 3d 00 b1 91 3d 3f 49 f9 3d 1f 92 d3 ba
       0.06459017 0.07113838 0.12172174 -0.001614157
000070 29 57 e5 3d 0c 91 31 be d1 cd d8 3d d6 db 0d 3e
       0.11198265 -0.17340487 0.10586131 0.13853392
000080 07 76 81 3d 34 b3 a0 3d 91 dc 25 3e b9 90 e7 3d
       0.0632134 0.0784668 0.1619742 0.113069005
000090 83 5a 90 3c 41 fe a8 bd 53 5e 75 3d 36 0f 1a be
       0.017621284 -0.0825162 0.059904408 -0.15044865
0000a0 f6 13 86 3d 02 83 80 be 52 cf dc 3d 92 51 3a be
       0.06546776 -0.2509995 0.10781731 -0.18195179
0000b0 86 67 ef bd 2c 2b bf 3c 09 c9 a8 3d 45 5f 53 3c
       -0.116896674 0.023336016 0.082414694 0.012901132
0000c0 e9 d0 c4 bd 4d 4f d3 bc f1 d9 33 be 5e 39 b3 3d
       -0.09610159 -0.02579465 -0.17563607 0.08751176
0000d0 bb 86 10 be 78 7f 14 be 38 81 01 3e 0c 1b 0e 3c
       -0.14113896 -0.1450175 0.1264695 0.008673441
0000e0 67 dc 46 3e 27 a1 83 bd d6 19 a1 3c 8c 03 d8 3d
       0.19420014 -0.06427222 0.01966564 0.105475515
0000f0 94 0c 4f 3e 3a 91 fe bd c7 24 0a 3c 55 fc 95 bc
       0.20219642 -0.124300435 0.00843162 -0.018308798
000100 fa 81 96 3d a1 16 ab 3d 61 9f 71 bd 9c 1f 64 3d
       0.0734901 0.083539255 -0.058989886 0.055694208
000110 16 e6 32 3d 3c 31 1e 3d 88 fd 81 bc be ec 7e 3d
       0.04367646 0.038621172 -0.015867963 0.062237494
000120 91 88 1e be 28 55 c5 bd 02 69 29 3e 24 60 17 3e
       -0.15481783 -0.09635383 0.16543964 0.14782768
000130 62 e4 27 3e 02 b7 8b 3d 45 a4 06 3d 59 ca bb 3d
       0.16395715 0.06822015 0.032871503 0.09169454
000140 72 48 1e be 96 b9 39 3e 44 1c 0b 3e ba 38 a7 3d
       -0.15457323 0.18137202 0.13585001 0.081651166
000150 cf cc 02 3e 97 9f fa bd 79 64 c5 3d ab 20 22 be
       0.12773441 -0.122374706 0.09638304 -0.15832774
000160 4a 73 68 bc fd 11 c8 3d ad 69 e4 3d 58 04 7f bc
       -0.014187643 0.09769056 0.111529686 -0.0155650005
000170 91 60 5c bd d3 f8 92 3c 4f 36 d2 3d 6f 25 d6 3c
       -0.05380303 0.017940914 0.10264265 0.026140897
000180 f1 2f 07 3d cb 60 99 3c a7 32 18 3e 78 1e 5a 3d
       0.033004705 0.018722912 0.14863072 0.053251714
000190 ed a1 07 3e 40 fd 48 bd 95 ba 27 be e4 8d 24 be
       0.13245364 -0.049069643 -0.16379769 -0.16069752
0001a0 1d 6d 1d be 84 0a 97 bd 56 07 3d bd be 25 08 3d
       -0.15373655 -0.073750526 -0.046149574 0.03323912
0001b0 d1 71 cd bd c1 e3 07 3e 63 31 96 bc 65 95 0f be
       -0.100314744 0.13270475 -0.018334096 -0.14021833
0001c0 2e 10 88 bc 6f c3 40 3e c3 a3 8e bc 37 f1 48 3d
       -0.016609278 0.18824552 -0.017412072 0.049058165
0001d0 d8 29 17 be b6 9e 5c bd 9e 8e b4 bd e9 d8 8b bd
       -0.14762056 -0.053862296 -0.088162646 -0.06828482
0001e0 02 4e eb bd 1d 4b b2 bc 0b 66 a7 3d 2a f1 87 bd
       -0.11489488 -0.021764332 0.0817376 -0.06637795
0001f0 da 5a e6 3d 0e f5 60 bd 9c 01 09 3e 93 05 1d 3e
       0.11247797 -0.054921202 0.1337952 0.15334158
000200 3b 30 ea 3c 63 f9 b6 bd 5f fd 2c 3e 42 05 e3 bc
       0.028587451 -0.089342855 0.16893528 -0.027712468
000210 97 2b 05 be be e3 c9 3c fc 1b 7a bc f9 33 90 bd
       -0.1300491 0.024644729 -0.015265461 -0.07041163
000220 ed b8 c0 bd 7c 23 4e 3d 43 30 82 3d 77 fb 50 bd
       -0.09410272 0.05032681 0.063568614 -0.051021066
000230 33 dd 02 be 18 8a e4 bd 72 52 12 3d cc 86 14 be
       -0.12779693 -0.11159152 0.035723157 -0.14504546
000240 e2 2f f7 bd 22 81 20 3d c0 80 d0 bc 1a 4e 71 3d
       -0.1206968 0.03918565 -0.025452018 0.058912374
000250 17 91 d4 3d cd 9e a1 3d 4b 0d ca 3c bd f6 dd bc
       0.10379236 0.07891617 0.024664542 -0.027095193
000260 4d 9e e2 bd 15 76 c6 3d 1b 12 0b bd 19 7c 05 3e
       -0.1106535 0.09690491 -0.033952814 0.13035621
000270 d6 ef 97 3d 44 88 07 be c3 e0 15 3e 47 47 22 3e
       0.07418792 -0.13235575 0.14636521 0.15847503
000280 2a 98 b5 3d b9 1f ae 3d 8a 83 4b bd 65 01 14 3e
       0.088669136 0.08502144 -0.049685992 0.14453657
000290 9d 5f 69 3d 1c 37 91 bd b5 d9 d6 3d 40 cb 59 bd
       0.05697595 -0.070905894 0.10490743 -0.05317235
0002a0 8f d9 24 be eb fb ac 3d a6 38 97 3d ea 33 a1 bd
       -0.16098617 0.08446487 0.07383852 -0.0787123
0002b0 d0 8a e7 3d f6 25 10 bd 5f f2 dd bd dd 19 73 3e
       0.11305773 -0.035192452 -0.10837244 0.23740335
0002c0 35 c5 92 3d 61 6c d2 3d 50 20 19 be 25 08 81 3d
       0.071665205 0.10274578 -0.14953732 0.063003816
0002d0 cf d4 a2 bd 44 13 17 be 62 b9 08 be 00 84 2c 3d
       -0.07950746 -0.14753443 -0.13351968 0.042118073
0002e0 7d 26 3c 3e 8b 26 a2 3d 67 c3 2f 3d 13 85 68 bc
       0.18374057 0.07917508 0.04291096 -0.014191884
0002f0 50 8d c2 bd 43 64 88 3d d8 5d 0b be 06 24 65 3d
       -0.094996095 0.066597484 -0.13610017 0.055942558
000300 37 c4 09 3e 57 86 68 bd aa 8b 1c be a8 85 28 be
       0.13453756 -0.05676874 -0.15287653 -0.16457236
000310 39 75 fd bd e7 c9 d0 bd 80 59 97 3d 18 7d 65 bd
       -0.12375874 -0.1019476 0.07390118 -0.0560275
000320 ae 8a 20 bd da ce e5 3d 79 0a a3 3d a1 15 4c be
       -0.039194755 0.112210944 0.07960982 -0.19930126
000330 86 20 01 be da 46 32 3e 24 e8 1e 3d 94 80 f5 bd
       -0.12610063 0.1740984 0.038795605 -0.11987415
000340 2a 8a 19 bc fd 5c 06 3e 70 04 ec 3d 4e b5 36 3b
       -0.00937132 0.1312141 0.11524284 0.0027879062
000350 9a 1e b8 3d 7d 7f ed 3c c7 db 9c 3d f2 cd ac 3d
       0.08990212 0.028991455 0.07659107 0.084377185
000360 d9 1c 23 be e8 1f cb 3d ef d2 25 be d9 cf a4 3c
       -0.15928973 0.09918195 -0.16193746 0.02011864
000370 d5 8e 3a bd ca e4 11 3e 8a 3a 79 bd e9 ae 01 be
       -0.04554637 0.14247432 -0.060846843 -0.12664379
000380 7d 49 0f bc 48 7c d9 3d 86 2f c0 3d 3f 0e 9c bd
       -0.008745548 0.10619408 0.093840644 -0.07619905
000390 69 46 89 3d 2e c5 e6 3c 31 c7 23 3e d3 04 58 3c
       0.06702883 0.028170194 0.15993954 0.013184744
0003a0 fa 85 20 be ac d9 a3 3d c0 e6 0a be 70 4c a4 bb
       -0.15676108 0.08000502 -0.13564587 -0.005013995
0003b0 19 87 20 3e e4 00 1f be f1 32 9d bc d8 bc d5 3d
       0.15676536 -0.15527683 -0.01918933 0.1043641
0003c0 51 ef 84 3d 37 a2 8c be ae c3 f7 3d f3 83 2d be
       0.064909585 -0.2746751 0.1209787 -0.16944866
0003d0 2b bd 0a bb bf 09 eb 3d d2 84 07 3e 82 6e be bd
       -0.0021169882 0.11476468 0.1323426 -0.092984214
0003e0 da b2 e5 bd 47 c9 7e 3c a0 59 fc bc 70 66 38 3e
       -0.11215754 0.015550918 -0.030804455 0.18007827
0003f0 74 7a 14 3d 59 55 2f 3d 4f 97 4e bb 23 e8 0f be
       0.036249593 0.042806003 -0.0031523292 -0.14053397

linears.2.bias f4 [100]
000000 d1 4f cd 3c 34 1b c5 3c c7 1a c3 3c d7 0a c5 3c
       0.025062473 0.024060823 0.02381648 0.02405302
000010 01 7f c6 3c 0f d6 c2 bc 5f 70 c9 bc 95 41 c2 3c
       0.024230482 -0.023783712 -0.024589716 0.023712913
000020 dd c7 c2 3c 48 6f cd bc 12 7d d8 3c 9c 24 cc bc
       0.023776943 -0.025077477 0.026426826 -0.0249198
000030 ce 61 c4 3c 6b 78 e6 3c 5f fc c1 bc 58 c4 c2 bc
       0.023972418 0.028133592 -0.02367991 -0.023775265
000040 39 af c1 3c 44 94 d0 bc d1 1c 31 3d 5c e4 c3 bc
       0.023643123 -0.025461324 0.043240372 -0.023912601
000050 c7 47 c8 bc 62 cf c3 3c 41 62 cc bc a4 9a b1 bc
       -0.024448289 0.023902599 -0.024949195 -0.021680184
000060 4b 85 de bc 54 3f d4 3c 80 98 c7 bc f2 1c be bc
       -0.027163168 0.025909103 -0.02436471 -0.023207162
000070 fa 86 c4 bc 70 9a cc bc 21 5f bf 3c 49 64 c4 bc
       -0.023990143 -0.024975985 0.02336079 -0.023973601
000080 dc d2 c3 bc 72 2c d1 bc 03 84 c6 3c 20 30 e8 bc
       -0.023904257 -0.025533888 0.02423287 -0.02834326
000090 8f 8a c8 bc 5b c7 cf 3c 1a 71 ef bc 30 3f d2 3c
       -0.024480132 0.025363615 -0.029228736 0.025664896
0000a0 8f c1 c6 bc 1e ab ee 3c 19 03 c6 bc 4c 66 bf 3c
       -0.024262218 0.02913433 -0.024171399 0.023364209
0000b0 e6 21 ca 3c df d4 c3 3c bd b3 1e 3d 58 ba b0 bc
       0.024674367 0.023905216 0.03874563 -0.02157323
0000c0 b7 73 c9 bc 9e 84 21 bd 5a 16 c1 3c 67 c6 cd 3c
       -0.02459131 -0.039433114 0.023570228 0.02511902
0000d0 79 3d cc bc 61 59 be 3c 25 00 ba bc 3c 2e e6 3c
       -0.024931656 0.023235979 -0.022705147 0.028098218
0000e0 71 9f d2 3c e7 08 d8 3c e6 64 da bc 24 76 c5 3c
       0.025710793 0.026371432 -0.02665944 0.024104185
0000f0 72 ea c7 3c ba 18 cd bc 1d 64 c7 3c 75 67 f4 3c
       0.024403784 -0.025036205 0.02433973 0.029834488
000100 f1 00 c2 3c 3f 73 f3 bc c9 e3 02 3d c1 51 dc bc
       0.02368209 -0.02971804 0.031955514 -0.026894452
000110 5e f5 bc 3c 7f 84 cd 3c d3 60 f1 3c 64 b7 c7 3c
       0.023066219 0.025087593 0.029465115 0.02437944
000120 84 82 8c 3c ca 2a cd 3c d5 d3 c8 3c 99 2d e3 bc
       0.017152078 0.025044817 0.024515072 -0.027731704
000130 1b 46 c6 3c 8d 38 35 3d 65 10 c3 3c 5c a6 ce bc
       0.02420335 0.044243384 0.023811528 -0.02522581
000140 1c 4c c7 bc d4 e8 cf bc 60 88 c7 bc 75 09 c9 3c
       -0.024328284 -0.025379576 -0.02435702 0.024540642
000150 0f 2c c9 bc 54 36 c0 3c a5 32 c3 3c 85 81 d6 3c
       -0.024557142 0.023463406 0.02382786 0.026184807
000160 a9 ff cd bc b2 f9 b8 bc 2e e9 c4 bc 04 61 c6 bc
       -0.025146322 -0.022580002 -0.02403697 -0.024216183
000170 1e b8 d2 3c 52 df cd 3c d6 f2 c9 3c 26 54 c4 3c
       0.02572256 0.025130901 0.024651926 0.023965906
000180 d0 0d c3 bc 79 a8 cb 3c 6e c1 c5 3c 26 85 0c bd
       -0.023810297 0.024860607 0.024140086 -0.034306668

linears.3.weight f4 [1, 100]
000000 c6 99 08 be 02 96 ef bd f7 22 97 be ec 92 2b be
       -0.1333991 -0.116985336 -0.29518864 -0.16755265
000010 b5 78 89 be bc 5a 35 3e 88 5f 26 3e 01 39 fb bd
       -0.26849905 0.17710394 0.1624738 -0.12266732
000020 b2 28 3d be 2e a0 64 3e 4f 74 28 be d0 b6 86 3e
       -0.18472555 0.22326729 -0.16450618 0.2631135
000030 60 86 86 be 22 b8 b4 bd 51 dc 15 3e 9a 9b 4b 3e
       -0.26274395 -0.08824183 0.14634825 0.19883576
000040 b5 77 64 be 65 8c 27 3e b7 dc 0f bd 61 b8 f0 3d
       -0.2231129 0.1636215 -0.0351226 0.117539175
000050 54 d5 15 3e eb 6b 80 be 1f 19 97 3e 50 e5 d2 3c
       0.1463216 -0.25082335 0.29511353 0.02574411
000060 29 e6 ed 3d 08 40 46 be 7f 8c 8c 3e a1 3d 0f 3d
       0.11616165 -0.19360363 0.2745094 0.034970883
000070 52 f4 4f 3e 4c ef 02 3e e8 32 5e be e9 b7 82 3e
       0.20308045 0.12786597 -0.21699107 0.25530937
000080 df 53 ed 3d 42 ea 57 3e 89 5c fe bd ea 8f 0e 3e
       0.11588263 0.21085456 -0.124199934 0.13922086
000090 84 14 e3 3d 73 89 7a be 59 5d bd 3d fb 73 3c be
       0.110878974 -0.24466495 0.0924632 -0.18403618
0000a0 b3 d0 35 3e cf 86 15 be 1a 1d be 3d d7 58 44 be
       0.17755394 -0.14602207 0.092828944 -0.19174515
0000b0 60 f8 6a be 3b 26 91 be 5d ad 12 be a7 fc b4 3d
       -0.2294631 -0.2834948 -0.14323945 0.08837252
0000c0 6b ff 91 3d 54 2c c1 3c 42 c3 85 be a6 c1 6e be
       0.07128795 0.023580708 -0.26125532 -0.23316059
0000d0 aa f5 42 3e 38 cb f2 bd 17 63 5e 3d 6c 47 df bc
       0.19039026 -0.11855167 0.05429372 -0.027255736
0000e0 3b 78 88 bd b6 63 17 be 7f c8 35 3e ee 03 6e be
       -0.06663557 -0.1478413 0.17752264 -0.23243687
0000f0 87 52 4e be 20 d6 4a 3e a9 5a 4b be eb 41 a6 bd
       -0.20148669 0.19808245 -0.19858803 -0.081180416
000100 e3 93 39 be d8 c2 1e 3e a3 98 23 bd 93 7e 39 3e
       -0.1812282 0.15504014 -0.039940488 0.1811469
000110 f4 92 3c be 50 51 2c be a3 5c 05 be f2 81 d4 bd
       -0.18415433 -0.16827893 -0.1302362 -0.103763476
000120 2c 4f 88 bb c7 4d 0f bd 95 ee 30 be 19 c4 f5 3c
       -0.0041598286 -0.034986284 -0.17278512 0.030000733
000130 b0 ff 64 be 30 c7 d6 bd 09 9b 6e be 07 77 07 3e
       -0.22363162 -0.10487211 -0.23301329 0.13228999
000140 65 be 57 3e 0d cf 8f 3e f7 fc 2a 3e 8f 15 89 be
       0.21068723 0.28087655 0.16698061 -0.2677426
000150 32 52 5a 3e 06 e8 68 be 00 bc 37 be fa 42 95 bd
       0.21320418 -0.2274476 -0.1794281 -0.072881654
000160 8c 7e fd 3d eb e4 6f 3e 9f 58 3a 3e 7a b7 34 3e
       0.123776525 0.23427169 0.18197869 0.17648116
000170 21 7b 40 be d9 92 7b be 86 6e 06 be d8 e0 bc bd
       -0.1879697 -0.24567737 -0.13128099 -0.09222573
000180 4e a6 43 3e 3a 5c 80 be ec 11 a2 bd ad 2f 70 3d
       0.19106409 -0.25070363 -0.079135746 0.058639217
