Complete_thesis_stage_1_and_2/(d).Code_and_all_other_details/LASER_DED/models/model_epoch_6000.pt (torch, 86572 bytes, 7 tensors)

linears.0.weight f4 [100, 4]
000000 8c bf 28 be e1 a7 0e be dd 2a 0e 3e 2a b9 a8 3d
       -0.1647932 -0.13931228 0.13883539 0.08238442
000010 ca ee 37 3e f9 09 98 bc 47 5a ae 3c 2c 32 ba 3d
       0.17962185 -0.018559443 0.021283282 0.09091601
000020 7c c3 11 3e a9 a3 3b be 99 c9 9d bd ff 66 1a 3e
       0.14234728 -0.1832415 -0.07704467 0.15078352
000030 13 c8 2f be ec 31 3b be ce cc be 3d 11 50 ea 3d
       -0.17166166 -0.18280762 0.09316407 0.11441053
000040 e8 9c cb 3c 38 3a 9b 3d ef eb 63 3e dd f3 b9 3d
       0.024855092 0.07579464 0.2225797 0.09079716
000050 41 bf 90 bd c5 84 03 3e 6c bb 44 be 4b 22 4d 3e
       -0.07067729 0.12843616 -0.19212121 0.20032613
000060 90 06 5e 3d 86 e1 cf 3d 1a a6 5a be 04 2e 09 be
       0.054205477 0.10150437 -0.21352425 -0.1339646
000070 77 70 f0 bd bc a1 f5 bd f2 e1 29 3d 40 1d 4f 3e
       -0.11740201 -0.11993739 0.041475244 0.20226002
000080 15 e8 89 bd 05 8a 93 bd aa d1 03 3e 6d 0e d7 3b
       -0.06733719 -0.072040595 0.12872949 0.006562999
000090 49 6d c9 3d 30 f1 bc bd 42 25 ee bd 43 bf 6b 3e
       0.098352976 -0.0922569 -0.116282 0.2302218
0000a0 12 bc 34 be 9c f9 83 bd 6c ca 43 be 59 de ec 3d
       -0.17649868 -0.064440936 -0.19120187 0.11565847
0000b0 04 58 3b be ec 49 0a be ac 5e 8a 3d 46 45 dd 3b
       -0.18295294 -0.13504761 0.067563385 0.006752643
0000c0 3a d7 b9 3b 1f 41 34 be 27 73 aa 3d fe 5c b7 bd
       0.005671409 -0.17602967 0.08322745 -0.08953284
0000d0 f1 6d 7c bd a1 eb 52 be 82 5e 43 be 3e 1d 70 3e
       -0.061628286 -0.20597698 -0.1907902 0.23448655
0000e0 ae 1a 4c 3d 47 59 26 3e 7b b2 08 be 10 c0 28 3d
       0.04983013 0.16244994 -0.13349335 0.04119879
0000f0 8d 4c 5e bc d8 80 7c 3e 45 7e f3 3b 29 90 e4 3d
       -0.013568056 0.24658525 0.007430824 0.11160309
000100 98 14 ba 3b 23 85 f7 3d 94 63 3f be 2b f4 c7 3c
       0.0056787245 0.12085941 -0.1869033 0.02440842
000110 c0 10 4a 3c 6d a6 3f be 9f c6 49 3e 6a d6 37 be
       0.012333095 -0.1871583 0.19704674 -0.17952886
000120 91 8b a1 bc c3 ef 50 be 2b 66 84 bc 8f 35 10 3d
       -0.01971987 -0.20403962 -0.016161999 0.035207327
000130 ef a7 54 3e c5 53 29 bd 8e f2 2b 3d 27 12 08 3e
       0.20767187 -0.041339654 0.041979365 0.13288175
000140 b1 de d5 3d 05 7e 4a 3e 43 4b 58 bb 1d 90 69 be
       0.10442866 0.19774635 -0.0033003844 -0.22808881
000150 68 ed 5b 3e 00 6c 11 3e 7e c4 53 3c c6 e9 3f 3e
       0.21477282 0.14201355 0.012925265 0.18741521
000160 e2 82 24 bd 23 c6 38 3d 30 47 69 be 4a b6 da bc
       -0.040163882 0.045110833 -0.22781062 -0.02669825
000170 fa e3 54 3c f0 06 e1 bc eb 95 e6 3d a5 f5 d2 3c
       0.012993807 -0.027469128 0.11259063 0.025751898
000180 68 c8 18 3e 4b c9 23 be 6c e0 60 bd 9d 63 eb 3d
       0.14920199 -0.15994756 -0.054901525 0.11493609
000190 12 b4 fb 3d 29 6f 24 bd ca 1c 3d be 66 07 2e be
       0.12290205 -0.040145073 -0.18468013 -0.1699501
0001a0 55 ca 7b bd 1f bc d6 bd bb 23 4f 3d a4 dc 59 3e
       -0.061472256 -0.104851 0.050571185 0.21275574
0001b0 ee f9 8c 3d 27 dd e5 3d 89 b0 75 3e 9c 92 65 3e
       0.06883608 0.11223822 0.23993124 0.22419208
0001c0 82 13 62 3e a3 4b ec bd e3 07 47 be 77 19 ec 3c
       0.22077754 -0.11537864 -0.19436602 0.028820736
0001d0 89 c1 62 3e b3 89 1a bd cd 2c e6 bd 71 47 04 be
       0.2214414 -0.037728976 -0.11239014 -0.12917878
0001e0 d4 e5 0d 3e 8a b8 2c be a4 0c 91 3d 66 e7 6c be
       0.13857204 -0.16867271 0.07082489 -0.23135146
0001f0 cb 86 41 3e 1b 18 28 be 32 60 38 3e 79 31 3b 3e
       0.18899076 -0.16415446 0.18005446 0.18280591
000200 b7 1c 56 3d 03 30 bd bd a0 94 51 be 42 1a 10 be
       0.05227348 -0.09237673 -0.20466852 -0.14072517
000210 e1 d3 91 bd 7e af 13 3e a4 a4 5d be 48 f7 15 be
       -0.07120491 0.14422414 -0.21644837 -0.14645112
000220 a5 25 e1 3d bd 41 5e 3e d9 12 04 bd 71 3f 29 3d
       0.10993508 0.21704765 -0.032244537 0.041320268
000230 73 94 88 bd d2 86 bf bd ae 01 11 3d 36 03 33 bc
       -0.066689394 -0.09351887 0.035401992 -0.0109260585
000240 bf 57 2f 3e 12 e0 6a bd 1e 7a f3 bc 11 7c 03 3e
       0.17123316 -0.057342596 -0.029721316 0.12840296
000250 c7 5e 4e bc bc 3a 03 3c 3e e5 3f 3e 4a df 1e be
       -0.012595839 0.008009609 0.18739793 -0.15514866
000260 4e 3b 3d be 45 7e 2e 3c 30 ac 26 be b2 d4 06 be
       -0.18479654 0.010650222 -0.16276622 -0.13167074
000270 06 76 09 be f2 28 e2 bd 72 31 e8 3d 6a 53 b3 3d
       -0.13423929 -0.11042966 0.11337556 0.08756144
000280 ab 80 1f 3e 17 8c 7b bd 28 33 00 3d 7a c6 02 be
       0.15576427 -0.061412897 0.031298786 -0.12771025
000290 d6 19 c7 bd 2e 56 b1 ba c0 8f ba bb 41 d6 9b bd
       -0.09721725 -0.0013529712 -0.005693406 -0.07609225
0002a0 6d f0 ec 3d e4 45 e9 3d be 03 35 bd 2b 83 11 3d
       0.11569295 0.11390284 -0.044193022 0.035525482
0002b0 2f bd 19 be 8b 99 05 bc bf 36 d6 bd 7d 06 34 be
       -0.15013574 -0.008154283 -0.10459661 -0.175806
0002c0 05 ab aa bd 7a e7 33 be 94 6f 08 be fe 6b f6 bc
       -0.08333401 -0.1756877 -0.13323814 -0.030080792
0002d0 a9 ba 31 bd ff 32 05 be cc 3e f0 3d f9 bb 2a be
       -0.043390904 -0.13007735 0.117307276 -0.16673268
0002e0 d0 59 07 3e c2 20 1e bd ad 78 e7 bd 2a ad 7a 3d
       0.13217854 -0.03860546 -0.11302314 0.0612003
0002f0 59 30 96 bc eb bb 4f be 6c 1e 0a be eb 0e 8e bd
       -0.0183336 -0.20286529 -0.13488168 -0.06936439
000300 af c5 34 3e 35 75 05 3d 77 87 27 3e 19 3b dd 3d
       0.17653535 0.03258248 0.1636027 0.108022876
000310 51 77 4a be 61 d8 dc 3c 6f 44 3a be f9 03 29 3e
       -0.19772078 0.026958646 -0.18190168 0.16505422
000320 74 db ab bd 32 68 3b be 47 c1 0f bc 73 a9 d4 3d
       -0.08391467 -0.18301466 -0.008774108 0.103838824
000330 f1 55 26 3e 19 6f 81 bd b2 48 da bd 36 f5 4e 3e
       0.16243722 -0.06320018 -0.10658397 0.20210728
000340 35 75 d4 3d 3b 15 2d 3e 7e e5 e1 bd 59 92 d5 3d
       0.10373918 0.1690263 -0.110301 0.10428304
000350 59 b9 92 bd 1c 21 01 bb be 9e 2c 3e ed 4f 4e bc
       -0.071642585 -0.0019703573 0.1685743 -0.012592298
000360 55 37 8e bd 96 84 97 3d 83 7b 1c be 01 d0 f0 3d
       -0.069441475 0.07398336 -0.15281491 0.117584236
000370 46 11 03 be 77 e3 60 3e 80 c6 31 3e 7d cd 55 bd
       -0.12799558 0.21961771 0.17360878 -0.052197922
000380 0d 92 e3 3d 43 a8 19 bd 1e 8e 47 be b6 9c b0 bd
       0.11111841 -0.037513983 -0.19487807 -0.0862364
000390 fb 1b 3a 3e fb a2 93 3b b8 81 34 3d ff 60 00 3e
       0.18174736 0.004505513 0.044069022 0.12537001
0003a0 63 83 56 3e 5c 44 27 be 66 e2 c9 bd 5f 66 8a 3c
       0.20948558 -0.16334671 -0.09857635 0.016894517
0003b0 d1 6c 92 bd df 71 07 bd af ce e5 bd 4b 06 b5 3d
       -0.07149661 -0.03306758 -0.112210624 0.08839091
0003c0 0f fa f6 3d 1f 43 ef 3c ad 14 c2 3c b2 c0 3d be
       0.12059414 0.02920681 0.0236915 -0.18530539
0003d0 02 29 09 bd dd ce 0f 3e 79 76 23 3e 68 67 92 3d
       -0.033486374 0.14043756 0.15963162 0.071486294
0003e0 dd 42 65 bb 78 5d eb 3d f7 25 cb 3c 76 b5 95 3d
       -0.003498248 0.11492437 0.024798376 0.073100016
0003f0 9d 9d 33 3e f3 b9 33 3e 24 94 ad bd 10 7e 02 3e
       0.17540593 0.17551403 -0.08475521 0.12743402

linears.0.bias f4 [100]
000000 9e 2b 14 bd 3f 48 a0 bd 30 97 3a 3b cc 4d a9 3c
       -0.03617441 -0.0782628 0.0028471462 0.02066698
000010 04 ba 7b bd ec c6 7b bb d3 f5 78 3d ba 45 62 bb
       -0.061456695 -0.0038418127 0.06078131 -0.0034526424
000020 c3 f4 67 bd fd 75 2a bd 86 5c ab 3d 02 fa 93 3d
       -0.056629907 -0.04161643 0.08367257 0.072254196
000030 ae 43 b8 bd 90 da 55 bd f2 59 08 bd 75 94 99 3c
       -0.08997284 -0.05221039 -0.033288904 0.018747548
000040 55 03 d7 bc 5d 79 30 bd 86 21 65 bd c0 d0 55 3c
       -0.026246706 -0.04308449 -0.055940174 0.013050258
000050 85 6d 84 bc 37 91 99 3c aa 5d af 3d 95 02 5d bd
       -0.016165504 0.018746002 0.08562787 -0.05395754
000060 cc 0e 6d bc ab b7 a3 3d ac 87 02 bd 10 f9 88 bd
       -0.01446886 0.07994016 -0.031867668 -0.0668813
000070 a7 71 3d bd 20 0e 0e bd 69 01 0a 3d 49 13 2a bd
       -0.046250965 -0.03468144 0.03369275 -0.041522298
000080 97 90 75 3d d3 d3 76 3d 4a 78 6a bd 7e 90 4b 3d
       0.059952345 0.060260605 -0.057243623 0.049698345
000090 da 19 99 bc 58 54 ab 3c 73 1f 1f bd 8e e6 5c bd
       -0.018689085 0.020914242 -0.03884835 -0.05393081
0000a0 0e e2 22 3d 3b 23 5f bd 73 93 87 bd 60 86 5e 3d
       0.039766364 -0.054476958 -0.066199206 0.05432737
0000b0 e0 8b 8c 3d d4 b3 6a 3d 93 38 de 3c 5e 4a 3a bd
       0.068626165 0.057300404 0.027126586 -0.04548108
0000c0 9f c4 b0 3b 71 e9 a8 bc 02 7e 76 bd 9e dd e3 bc
       0.005394533 -0.020619126 -0.060178764 -0.027815636
0000d0 7c ce 64 bd 61 99 07 3d 3e 25 a5 bc bd 35 5e bb
       -0.05586098 0.033105258 -0.02015936 -0.0033906542
0000e0 a6 4b a1 3d 66 51 55 bd e7 9a de 3d ab 4b 3f bd
       0.07875757 -0.05207958 0.10869389 -0.046703022
0000f0 2b fb 0c 3b 62 1f 91 bd 7c fd 5d bd 26 fc 24 bd
       0.0021512012 -0.07086064 -0.05419682 -0.04027953
000100 e9 00 a9 bb 87 a4 25 bd 53 c8 fa bc bb 70 ae 3c
       -0.005157579 -0.04044011 -0.0306131 0.021293988
000110 88 96 c9 bd 60 9f 7e 3d dc 8e 71 3d 05 b5 b7 bc
       -0.09843165 0.06216371 0.058974132 -0.022425184
000120 d2 63 ea bc 42 c9 9a bd 26 b0 5d bd e2 fc 0a 3c
       -0.028612051 -0.07557918 -0.054123066 0.0084831435
000130 68 f9 dc 3c ad 56 e9 3c 1f 88 af 3d 36 4f c1 bc
       0.026974395 0.028483713 0.08570885 -0.023597341
000140 c3 b3 4a 3d 10 66 15 3d 7a b1 ba 3c f3 95 00 bd
       0.04948784 0.036474288 0.022789706 -0.031393003
000150 3a 97 44 3d 9a df 13 3b c2 53 07 3d 9d cb 2c bd
       0.047995783 0.0022563697 0.033038862 -0.04218637
000160 d0 6b 1f bd e3 a2 96 bd 76 e9 c2 bd bc 74 0a bd
       -0.038921177 -0.07355287 -0.095171854 -0.033802733
000170 4c 36 5f 3d f8 04 61 bd a5 1f 25 bd a8 b9 30 3d
       0.05449514 -0.05493638 -0.04031338 0.043145806
000180 ab e1 60 3d 66 04 0f bd 4a 9a 62 bd de 1f 88 bd
       0.054902714 -0.034916304 -0.055322923 -0.06646703

linears.1.weight f4 [100, 100]
000000 c1 6e b4 bd cf a7 20 3e be ca aa 3d 75 13 80 3d
       -0.08810187 0.15689014 0.08339451 0.06253711
000010 3a 7b 31 3e d2 5e 18 3e ac 0e 3b 3c 62 ae 8e bd
       0.17332163 0.14879921 0.011417072 -0.06966855
000020 b9 b9 a3 3c 96 0c 5e bc 13 f2 84 bd 17 ba 34 be
       0.01998602 -0.013552805 -0.064914845 -0.17649113
000030 1f bf bb 3d 1f 74 01 be d5 f2 c3 bd 1c f8 2f bd
       0.09167313 -0.12641953 -0.09567801 -0.042961225
000040 4e 5e a9 bd 94 e0 fb 3d 91 f5 c1 3c 7f ce d2 bc
       -0.0826994 0.12298694 0.023676665 -0.02573323
000050 b6 53 d4 bd e1 1a 85 3b 0b e3 c7 bd 4d a2 a0 3d
       -0.10367529 0.004062042 -0.09760102 0.078434564
000060 3a ad 18 be 81 c4 06 be 7c 30 19 3e f6 99 3b bd
       -0.1490983 -0.13160898 0.14959902 -0.045801125
000070 7a ea 05 be 4e 15 dc bb 52 85 e1 3d 3d 6a 04 3d
       -0.13077727 -0.006716407 0.11011757 0.03232788
000080 c8 62 5e bd 2a 7a f5 bd 17 39 ee bd f4 4f f3 3c
       -0.054293424 -0.119861916 -0.11631983 0.02970121
000090 c4 c1 d3 3d 57 d5 1d be ab 9a 02 3e ae a5 78 3e
       0.10339692 -0.15413414 0.12754314 0.24281952
0000a0 28 70 a4 bd ef 45 11 3e 2e ff 4f 3e aa 80 44 bd
       -0.080292046 0.14186834 0.20312187 -0.047974266
0000b0 d9 79 84 3c b5 ed 53 3d e7 75 14 be 1f 95 00 3e
       0.016171383 0.051740367 -0.14498101 0.12556885
0000c0 bd d9 3f be ab 74 52 3d dc e8 14 3e 95 aa c4 3d
       -0.18735404 0.051380794 0.14541954 0.096028484
0000d0 49 76 9a bd 30 1a 37 be 9d 03 02 be f3 01 30 3e
       -0.07542092 -0.17881083 -0.12696691 0.17188244
0000e0 02 b6 60 bd 30 1a 13 bd c8 bd 23 ba 93 67 86 3d
       -0.054861076 -0.035913646 -0.0006246236 0.06562724
0000f0 d2 ba 1d 3e ee bf 21 bd 25 20 0d 3e d2 3e 32 3e
       0.15403298 -0.03948968 0.13781793 0.17406777
000100 b8 8b 93 bd 1d 39 57 3e 26 9f 38 bd f1 83 1f be
       -0.072043836 0.2101788 -0.04507365 -0.15577675
000110 d8 93 76 3e 48 ac fb bd a8 56 a7 bd 0c 57 1f 3e
       0.24079835 -0.122887194 -0.08170825 0.1556055
000120 0a 72 43 bd 1b f0 16 3e 4e 73 93 bd ac d1 f1 3c
       -0.047716178 0.1474003 -0.07199727 0.029518925
000130 d0 23 07 bc bc f6 40 be 35 4c 58 be 40 c6 ab bd
       -0.008248284 -0.18844122 -0.2112282 -0.083874226
000140 8f 53 c4 bd 1b 99 dc 3d aa db b1 bd 89 86 09 3e
       -0.0958625 0.1077139 -0.08684476 0.13430227
000150 b5 dc 39 3d 5a 81 12 3d c4 21 cb bc 44 84 7b 3d
       0.0453765 0.03576789 -0.024796374 0.061405435
000160 e5 4d cf 3d 12 33 07 3e 26 85 43 3e c5 9e f5 3d
       0.10122279 0.13203076 0.19093761 0.119931735
000170 f2 b0 50 be 79 0c 8a bd f4 65 af 3d 85 02 62 3d
       -0.2038 -0.0674066 0.08564368 0.055178184
000180 f6 7d 93 3d ba ff 19 3e 3e f0 d5 3d 29 28 dd 3d
       0.072017595 0.15038958 0.10446213 0.107986756
000190 d2 85 50 3d 33 6c 12 be bb 1c d9 3c 97 32 17 3e
       0.05090887 -0.14299087 0.026502958 0.14765392
0001a0 b0 78 25 be df 46 bc 3d 7c 3e 85 bd a5 60 ba 3d
       -0.1615932 0.09193205 -0.065060586 0.09100465
0001b0 24 1a 74 3d 17 e8 9b bd 3e 22 03 be 3d 03 b2 3d
       0.059595242 -0.07612627 -0.12806031 0.08692024
0001c0 0d a0 20 3e e6 d6 d9 bd 36 54 fa 3d f9 16 42 3d
       0.15686055 -0.10636692 0.12223093 0.04738519
0001d0 91 67 0c 3b 3a 8c 29 3e aa 36 31 3d 9c e0 db 3d
       0.0021424035 0.16557398 0.043265022 0.107362
0001e0 1b 32 38 3d bd c0 09 be 02 23 df 3d 54 51 54 3e
       0.04496966 -0.1345243 0.10895349 0.20734149
0001f0 fb ac b1 bd 1e 4b 9f 3d 8a ea b5 3d 6e ae ff bc
       -0.086755715 0.07777999 0.088826254 -0.031211104
000200 e9 34 18 3e c8 a6 08 be 99 fd 36 bd cc 66 32 3d
       0.14863934 -0.13344872 -0.044675443 0.043555066
000210 e5 2e 25 3d 03 d7 79 3d 39 4b 77 3d 31 58 fb 3d
       0.040327925 0.060996067 0.060374472 0.122726806
000220 3e 2a 87 bd 1a ce 00 3e 05 b1 cb bd 7d ec ed 3b
       -0.06599854 0.12578622 -0.09945873 0.0072608576
000230 9c d2 0b be ba e4 48 bd f1 8b 95 3d 1f 57 19 3e
       -0.1365456 -0.049046256 0.07302082 0.1497464
000240 bb 73 bf bd f4 c6 a7 3d 0e a6 1f bc 9b cf 07 be
       -0.09348246 0.08192244 -0.00974418 -0.13262789
000250 38 4a 53 3c 52 ac ec bd 26 3d 05 3d 82 47 1f 3d
       0.012896113 -0.11556305 0.03252902 0.038886555
000260 76 6d fd bd a1 65 1c 3e 3b 80 14 be 7b 44 99 3c
       -0.12374394 0.15273143 -0.14502041 0.018709412
000270 b6 50 14 bc ba 6e 89 3c f6 74 32 bd 54 86 38 3e
       -0.009052446 0.016776431 -0.043568574 0.18019992
000280 34 56 a4 3d 07 7a 25 bd f0 0e 03 3e 3f aa 17 3e
       0.080242544 -0.040399577 0.12798667 0.14811037
000290 44 9b 91 bd 13 72 14 bd e2 13 ca 3d 60 3f 1b 3e
       -0.07109693 -0.036241602 0.098670736 0.15160894
0002a0 73 1e 0d 3e 95 78 a3 bd 5c 37 d1 3d d8 41 c6 3d
       0.13781147 -0.079819836 0.10215637 0.096805274
0002b0 da 11 63 3d 7f 16 df bb 47 36 06 3e 3c 6f df bc
       0.055436946 -0.0068081017 0.13106643 -0.02727472
0002c0 59 7a 02 3d 87 a4 b0 bd be 10 c7 3d 08 6e 5a bd
       0.03185496 -0.08625131 0.0971999 -0.05332759
0002d0 a4 fc 0d 3e 32 ee 0b 3d cd aa 87 3c f5 4e 2b be
       0.13865906 0.034162708 0.016560936 -0.16729338
0002e0 46 e4 06 3e 5f 57 0f 3e 2e 75 2c be 57 a6 df 3c
       0.13173017 0.13998173 -0.16841576 0.027300997
0002f0 4e fa e0 3c 30 60 25 3e 8c 20 2f 3e 9c 24 26 3e
       0.027463105 0.16149974 0.1710226 0.16224903
000300 98 06 19 bd 5b ee 48 3e cb 64 fd 3d 3b 8a 78 bd
       -0.037359804 0.19622175 0.1237274 -0.0606787
000310 c2 62 c2 bd 20 bd 8e bd 0e 2a 1f 3e 8c 94 2b bc
       -0.09491493 -0.069696665 0.15543386 -0.010472428
000320 53 5e af bd 7f d3 c6 3d 1e f4 32 3e 6e ec 4f 3c
       -0.08562913 0.097083084 0.17475936 0.012690647
000330 df 75 0b 3e 3c 57 2d 3e 7b 13 31 be da eb ba 3d
       0.13619183 0.16927809 -0.17292587 0.09127016
000340 a0 2f f0 3d ae 18 06 3c c8 e1 0c 3e a6 93 31 be
       0.11727834 0.008184595 0.13758004 -0.1734148
000350 07 fe aa 3d 7c 16 03 be a9 99 ba bd 59 00 5a bc
       0.08349233 -0.12801546 -0.091113396 -0.013305747
000360 7f 03 be bd 56 97 67 3d 66 9c 07 3e d5 26 03 be
       -0.092780106 0.05654081 0.13243255 -0.12807782
000370 6b df 2f be c7 54 99 bd f5 6b e1 bc 40 57 f3 3d
       -0.17175071 -0.07486873 -0.027517298 0.11881876
000380 b8 4c 0c 3e e5 fa 98 3c c7 5c d2 3d 57 e9 37 bd
       0.13701141 0.018674323 0.10271602 -0.044900265
000390 cb ba e7 3d 1d a1 30 3e 7f 41 cf bc cc f9 7b 3d
       0.11314925 0.1724896 -0.025299786 0.06151752
0003a0 cd 97 72 bd 7c 00 f1 bb ad 04 12 be a1 45 7f bd
       -0.0592268 -0.007354794 -0.14259596 -0.062322263
0003b0 8f 51 be bd 96 21 14 bc d4 ad 2e be f6 94 27 3e
       -0.092929 -0.009041211 -0.17058498 0.16365418
0003c0 6a a4 12 3e 14 83 25 be ff 56 12 3e 94 07 e7 3d
       0.14320531 -0.16163284 0.14290999 0.11280742
0003d0 be 0f 91 3d 08 2e 01 3e 7b 4f 9a 3d 59 3f 13 3e
       0.07083081 0.12615216 0.07534691 0.14379634
0003e0 f7 f4 0c bc 0f cc a5 bd e4 ce 15 3c fb 7d 85 bd
       -0.008603326 -0.08095562 0.009143565 -0.065181695
0003f0 7e 4d 14 3d 8c 31 04 3e d9 cf 19 bc 2f 75 6d 3c
       0.036206715 0.12909526 -0.009387934 0.014493271

linears.1.bias f4 [100]
000000 58 0e a9 bd 8c 1a d6 bc 1f 68 fe bc a3 95 ff bc
       -0.08254689 -0.026135705 -0.031055508 -0.031199282
000010 ca cb 50 bd cf b4 ab 3c 2f a2 f7 3c bb 45 5f bd
       -0.0509756 0.02096024 0.030228702 -0.05450986
000020 ea cc 38 bd a8 0c f0 bc 3c b7 68 3c 3d 48 33 3d
       -0.045117296 -0.02930291 0.014203843 0.043770064
000030 93 89 0b 3d 6d bf 0c 3d 85 95 0d 3d a4 62 f2 bc
       0.034066748 0.034362245 0.03456642 -0.029588051
000040 0a db 16 bd c9 da b4 bc 38 ce ed bc ca 4d 06 3d
       -0.036829986 -0.022076981 -0.029028997 0.03278903
000050 bf 00 d2 3b 6c 12 05 bd e6 e8 0a 3d 30 9f 6c bd
       0.0064087803 -0.03248827 0.033913516 -0.057769
000060 bf 6e 3f 3d e7 00 e0 3c 76 95 2a 3c de 20 99 bc
       0.046736475 0.02734418 0.010411611 -0.01869243
000070 ee f6 8f 3c 2d 33 fc bc 80 8b 89 3d 4e 1d a5 bc
       0.0175738 -0.030786121 0.06716061 -0.020155575
000080 c1 05 c5 bc 29 98 ff bc 6e 1a cc bc 5d 26 3b 3d
       -0.024050595 -0.031200485 -0.024914946 0.045690883
000090 4e 6a 1b bb 17 96 e2 bc 19 37 d7 3b 2d b0 f1 3c
       -0.0023714486 -0.027659459 0.0065678474 0.029502952
0000a0 9f ae 21 3d ad b9 7b bd f6 f5 99 3c 58 0e ef bc
       0.039473172 -0.06145637 0.018794041 -0.029181644
0000b0 cf 3c 97 3c 5d c9 c9 3c cb 32 a5 3c d4 5f 83 bc
       0.018461613 0.02463215 0.020165822 -0.016036905
0000c0 5e 96 25 bd 80 45 1a 3d 46 a3 0f bd 38 8f 78 3d
       -0.040426604 0.037663937 -0.03506782 0.06068346
0000d0 81 10 01 bd 41 9a 91 3c b7 e9 0e 3d 46 19 88 bc
       -0.03150988 0.01777375 0.034890857 -0.016613614
0000e0 82 4e 8b 3d 22 db 04 3d 1d 54 eb bc 9a cf c5 bc
       0.068020836 0.032435544 -0.028726632 -0.024146844
0000f0 b5 70 5b 3d b4 b4 fb bc 31 da 8c 3c db 64 65 bc
       0.053574283 -0.030725814 0.017193886 -0.014001097
000100 f3 f4 b0 3c 14 7e cb bc 88 61 91 3d f6 43 1f bd
       0.021601176 -0.024840392 0.07098681 -0.038883172
000110 52 90 07 bd 70 a1 25 3c b6 71 0f bd 58 50 02 3d
       -0.03309662 0.0101092905 -0.035020553 0.031814903
000120 a5 cf e4 bc e4 58 bd bc 20 65 b4 bc d1 07 bf 3d
       -0.027931044 -0.023113675 -0.022020876 0.09327663
000130 b2 28 8e 3c 8c de 04 bd 8e 02 16 3d 48 b7 69 bc
       0.01735339 -0.0324388 0.03662353 -0.014264889
000140 73 b0 1b 3d 37 84 6c 3d 4f da 29 bd 9b e7 ca 3c
       0.038010072 0.057743277 -0.04146796 0.024768641
000150 8d 64 b8 3d 50 ba a9 3c 5c ab 11 bd d3 3d 61 bd
       0.090035535 0.020718724 -0.03556381 -0.0549906
000160 6e b8 e3 3c 34 3e c3 bb 0e c2 13 bd 03 61 11 bd
       0.027797904 -0.005958343 -0.036073737 -0.03549291
000170 f5 0e 02 bd 16 bd 44 bd 15 24 9c 3c 38 c8 02 3d
       -0.031752545 -0.04803189 0.019060174 0.031929225
000180 8d 5b 15 bd c4 44 09 bd 6b 54 db bc 52 20 9c bc
       -0.036464263 -0.033512846 -0.026773652 -0.01905838

linears.2.weight f4 [100, 100]
000000 00 a5 86 3d c5 34 08 3c 50 d7 87 ba e5 0f 7d 3d
       0.0657444 0.0083133625 -0.0010363851 0.061782736
000010 c5 19 83 3d b4 72 6d 3d 6e 19 9e 3c 10 b5 8e bd
       0.064013995 0.057970718 0.019299235 -0.06968129
000020 cf f8 e3 3d 3a c4 16 be 02 50 48 bc 41 b9 98 3c
       0.11131441 -0.14723292 -0.012226107 0.018643023
000030 db ed 9c 3c 3d d2 f3 3c 74 dc 03 3e 98 1e 0d be
       0.019156387 0.029763335 0.12877065 -0.13781202
000040 29 ea 63 3d 58 9c f3 3d 0e 0a f3 bc 52 b0 af bd
       0.055643234 0.118950546 -0.02966788 -0.08578552
000050 40 a3 00 be 4c 5c cb bd 98 d2 94 3d 03 dd 74 bd
       -0.12562275 -0.099297136 0.0726673 -0.059781086
000060 10 58 7c 3d 73 42 90 3d 62 b6 f9 3d 8b 73 d8 ba
       0.06160742 0.07043924 0.1219299 -0.0016513927
000070 f7 1f e5 3d 2c e8 30 be b8 a2 cd 3d d5 4d 0e 3e
       0.111877374 -0.17276067 0.10040802 0.13896878
000080 0e 6d 82 3d b5 7d a1 3d b9 5b 26 3e 1f a9 e5 3d
       0.06368457 0.07885305 0.16245927 0.11213898
000090 fb f0 8d 3c 06 6b a6 bd 7c 48 75 3d 25 9f 1a be
       0.017326823 -0.08125882 0.05988358 -0.15099771
0000a0 e6 2d 83 3d 88 e3 74 be 3d d8 dc 3d 9c f8 39 be
       0.06405239 -0.23914921 0.10783432 -0.18161243
0000b0 78 ed f1 bd 26 a1 b5 3c 05 77 a7 3d ab de 55 3c
       -0.11812872 0.022171568 0.08176998 0.013053576
0000c0 cf 34 c2 bd 3c 69 e0 bc 9f 91 32 be 7a 71 b1 3d
       -0.09482729 -0.02739393 -0.17438363 0.08664222
0000d0 a0 45 0f be dc 3e 15 be 65 fb 00 3e 0d dd 10 3c
       -0.13991404 -0.1457476 0.125959 0.008841765
0000e0 78 b0 43 3e 01 cc 83 bd ed 33 a4 3c 71 b6 d9 3d
       0.19110286 -0.06435395 0.020044291 0.10630501
0000f0 55 28 4c 3e 6d 36 fe bd 2d fe 06 3c f8 2c 91 bc
       0.1993726 -0.12412725 0.008239311 -0.017721638
000100 c2 67 96 3d 9c 8f ac 3d 76 c2 76 bd d8 fd 67 3d
       0.07344009 0.08425829 -0.060244046 0.05663857
000110 0d 91 3b 3d 34 74 1e 3d ba e9 76 bc b4 27 7d 3d
       0.045792628 0.03868504 -0.015070373 0.061805442
000120 e5 bd 1c be 2d ec c4 bd 88 a0 29 3e 03 c9 0f 3e
       -0.15306814 -0.096153595 0.16565144 0.14041524
000130 9d 5a 27 3e 54 10 8d 3d c8 63 02 3d 62 63 bb 3d
       0.1634316 0.0688788 0.03183344 0.09149815
000140 59 a3 1e be 38 f4 38 3e 99 bf 0b 3e c8 0a a6 3d
       -0.15492 0.18061912 0.13647307 0.08107525
000150 80 f4 fa 3d f6 46 fa bd e8 bd c5 3d ab 4e 21 be
       0.12253666 -0.12220566 0.09655362 -0.15752666
000160 cb 61 6b bc 2f f7 c7 3d 40 0f e8 3d 29 a8 69 bc
       -0.014366577 0.097639434 0.11331034 -0.014261284
000170 c8 8a 5a bd b6 50 99 3c 11 89 d1 3d fa c6 d4 3c
       -0.05335501 0.018715244 0.102312215 0.025973786
000180 72 6d 08 3d bb 14 9c 3c 0a 24 19 3e f8 66 5a 3d
       0.0333075 0.019052854 0.14955154 0.053320855
000190 ba 55 0c 3e 64 c0 44 bd a3 6d 27 be b2 c8 1f be
       0.13704577 -0.04803504 -0.16350417 -0.15603903
0001a0 36 2f 1c be 9f b0 97 bd 6f 23 43 bd 04 05 0f 3d
       -0.15252385 -0.07406735 -0.047641214 0.034916893
0001b0 7a a6 c7 bd 50 d8 08 3e d0 cf 96 bc 30 4c 10 be
       -0.0974855 0.13363767 -0.01840964 -0.14091563
0001c0 5c c2 90 bc d0 de 3e 3e a3 8b 91 bc 41 df 4c 3d
       -0.017670803 0.18639684 -0.01776678 0.0500176
0001d0 57 81 13 be e5 3e 5c bd dd ee b2 bd bc 81 8d bd
       -0.14404808 -0.05377092 -0.08736966 -0.069095105
0001e0 15 a0 eb bd eb 3b af bc a3 8d a6 3d ba 86 85 bd
       -0.115051426 -0.021390876 0.08132484 -0.06519838
0001f0 c7 06 d9 3d 64 d6 63 bd 1c 40 09 3e b0 09 1d 3e
       0.10596996 -0.05562438 0.13403362 0.15335727
000200 19 68 e9 3c 76 74 b5 bd 17 b3 26 3e 98 c0 df bc
       0.02849202 -0.08860104 0.16279255 -0.027313516
000210 73 d2 04 be 43 87 ce 3c ff 0e 73 bc 9a 10 92 bd
       -0.12970905 0.025210982 -0.014835118 -0.07132073
000220 5a 0b c1 bd 38 81 53 3d e3 3f 82 3d e8 70 54 bd
       -0.09425993 0.051636904 0.06359842 -0.05186549
000230 6a 6d 04 be 11 43 cb bd 15 44 12 3d 48 1a 14 be
       -0.12932363 -0.09924901 0.03570946 -0.1446315
000240 4b c9 f9 bd da c3 1a 3d 14 23 d6 bc 52 99 71 3d
       -0.12196597 0.037784435 -0.026139773 0.05898411
000250 77 db d6 3d 17 c5 9e 3d 2f 64 d4 3c 05 a3 e5 bc
       0.10491078 0.07752436 0.025926678 -0.028031835
000260 63 13 e0 bd b2 05 c5 3d 2b 64 0e bd 81 9c 05 3e
       -0.10941198 0.09620227 -0.034763496 0.13047983
000270 57 bd 91 3d fd b4 07 be 08 62 16 3e 2a 39 23 3e
       0.07116192 -0.13252635 0.14685833 0.15939775
000280 09 2f ae 3d 3b 9f ae 3d e6 ca 4b bd d2 b3 14 3e
       0.08505065 0.085264646 -0.049754046 0.14521721
000290 32 6d 69 3d da d9 8f bd cd fa d3 3d 46 d6 55 bd
       0.056988902 -0.07023974 0.10350571 -0.0522063
0002a0 ef 8a 22 be 38 fe ac 3d a9 d4 98 3d 45 2b a2 bd
       -0.15873311 0.08446926 0.07462437 -0.07918409
0002b0 08 cb e8 3d 04 63 0f bd fc a9 dd bd 00 99 6a 3e
       0.1136685 -0.035006538 -0.108234376 0.22909927
0002c0 a2 d7 91 3d 60 fa d3 3d b5 44 1a be 6b 4e 81 3d
       0.07121207 0.103504896 -0.15065272 0.06313785
0002d0 d6 ec a3 bd 72 ec 17 be 3a f8 07 be 4a 14 2a 3d
       -0.08004157 -0.1483629 -0.13278285 0.041523255
0002e0 27 89 36 3e 30 b5 a1 3d 57 8e 30 3d 07 fb 59 bc
       0.17825757 0.07895887 0.043104496 -0.0133044785
0002f0 32 23 c3 bd f4 4e 88 3d 1f 2e 09 be ed d8 67 3d
       -0.09528197 0.06655684 -0.133965 0.05660336
000300 8f 4d 0a 3e 3a a4 65 bd 29 f2 1c be 04 b6 28 be
       0.13506149 -0.05606482 -0.15326752 -0.16475683
000310 80 ba fc bd 6e e7 cf bd f6 2f 99 3d b2 76 65 bd
       -0.123402596 -0.101515636 0.07479851 -0.0560214
000320 46 72 11 bd 98 a4 e7 3d bc 73 a3 3d 34 42 46 be
       -0.03550937 0.11310691 0.07981059 -0.19361192
000330 1f 1d 00 be c5 e9 31 3e bd 48 18 3d c2 a6 f2 bd
       -0.12511109 0.17374332 0.037178744 -0.11848213
000340 45 90 db bb c9 4a 07 3e ee f0 eb 3d 3d 02 11 3b
       -0.006700548 0.13212122 0.11520563 0.0022126578
000350 80 d4 b5 3d 27 16 e0 3c dd 79 9c 3d 4f 45 ae 3d
       0.08878422 0.027354313 0.07640431 0.08509313
000360 73 eb 1f be 58 81 cb 3d 61 38 25 be 07 5a a0 3c
       -0.1561716 0.0993678 -0.16134788 0.019574178
000370 d2 e6 3a bd 4a 23 12 3e 26 70 7a bd 1a b6 00 be
       -0.045630284 0.14271274 -0.06114211 -0.12569466
000380 2c 74 35 bc f9 1c d8 3d 87 7c c0 3d 7e 07 9c bd
       -0.011075061 0.10552401 0.09398752 -0.076186165
000390 2f 01 89 3d b0 99 eb 3c 0c 1f 1e 3e b4 b9 5e 3c
       0.06689679 0.028759807 0.15441531 0.01359408
0003a0 8f 19 20 be 58 79 a4 3d c9 65 0a be ed 3f bf bb
       -0.1563475 0.08030957 -0.1351539 -0.005836478
0003b0 4f 38 20 3e 18 cf 1d be e3 95 9d bc 05 bf d4 3d
       0.1564648 -0.15411031 -0.01923651 0.103879966
0003c0 34 43 82 3d 2a 7b 85 be 67 b0 f7 3d c6 38 2d be
       0.06360474 -0.2607053 0.12094193 -0.16916189
0003d0 26 26 56 bb ec 72 e8 3d 2f ec 06 3e 8f 0c be bd
       -0.0032676547 0.113500446 0.13176034 -0.09279739
0003e0 ac 2f e3 bd 5a d5 66 3c f1 53 f3 bc e5 95 37 3e
       -0.11093077 0.014088953 -0.029703112 0.17928274
0003f0 dd f8 18 3d 95 58 2c 3d b8 91 64 bb 6b c5 0f be
       0.03734671 0.042076666 -0.0034876894 -0.14040153

linears.2.bias f4 [100]
000000 fc ea c9 3c 30 80 c1 3c b3 bc bf 3c 2e ca c1 3c
       0.024648182 0.023620695 0.023405408 0.023655977
000010 f9 a2 c3 3c 8e c4 bf bc 72 06 c6 bc 86 b0 be 3c
       0.023881422 -0.023409154 -0.024172995 0.023277532
000020 a6 22 bf 3c 5d 70 c9 bc e5 66 d4 3c 78 65 c8 bc
       0.023331951 -0.024589712 0.02592797 -0.024462447
000030 d8 b3 c1 3c 20 3e e1 3c 47 76 be bc bd 90 bf bc
       0.023645326 0.027495444 -0.023249758 -0.023384446
000040 c8 22 be 3c b4 0e cc bc 1d 71 2d 3d 1c d1 bf bc
       0.023209944 -0.024909355 0.0423442 -0.02341514
000050 88 a3 c4 bc 39 9a c0 3c e6 e1 c8 bc 9b 13 ae bc
       -0.024003759 0.02351104 -0.02452178 -0.021249583
000060 f3 4d d9 bc 7c 05 d1 3c 0f a1 c3 bc 22 3e ba bc
       -0.026526427 0.02551531 -0.02388051 -0.022734705
000070 e8 f8 c0 bc 5e 0f c9 bc b5 18 bc 3c 77 d2 c0 bc
       -0.023556188 -0.02454346 0.022961 -0.023537857
000080 eb 1e c0 bc 34 d1 cc bc 29 d0 c2 3c cd 45 e3 bc
       -0.023452243 -0.0250021 0.0237809 -0.027743245
000090 9c 23 c5 bc 2b 00 cc 3c 0b 8e e7 bc a1 62 ce 3c
       -0.024064831 0.024902424 -0.028265974 0.025193514
0000a0 d8 5b c3 bc ab 12 e9 3c 26 25 c2 bc 8d 04 bc 3c
       -0.023847505 0.028451284 -0.023699354 0.022951389
0000b0 e6 25 c7 3c 8b 54 c0 3c 5d 82 1a 3d 3a 27 ad bc
       0.024310064 0.023477813 0.03772198 -0.021136869
0000c0 27 8a c5 bc c2 c2 1c bd ec be bd 3c 7d f2 c9 3c
       -0.024113728 -0.038271673 0.023162328 0.02465176
0000d0 78 7c c8 bc 0c d9 ba 3c a0 ea b6 bc 63 25 e1 3c
       -0.024473414 0.022808574 -0.022328675 0.027483648
0000e0 18 62 ce 3c 57 91 d3 3c 99 4d d6 bc ae ee c1 3c
       0.02519326 0.02582614 -0.026160048 0.023673382
0000f0 10 94 c4 3c b6 9b c8 bc 3a 13 c4 3c 43 47 ee 3c
       0.023996383 -0.024488311 0.02393495 0.029086715
000100 53 5c be 3c bf e6 ed bc 5f 32 ff 3c 19 eb d7 bc
       0.023237383 -0.029040692 0.031151948 -0.02635722
000110 97 87 b9 3c 1f 11 ca 3c 9c f0 ec 3c de d8 c3 3c
       0.022647662 0.024666367 0.028923325 0.023907121
000120 ea ac 8b 3c b5 51 c8 3c 35 12 c5 3c 82 73 da bc
       0.017050225 0.024453023 0.024056533 -0.026666407
000130 90 fb c2 3c 52 e0 2f 3d 97 6a bf 3c ed 2e cb bc
       0.023801595 0.042938538 0.023366256 -0.02480265
000140 c4 4d c3 bc dc b5 cb bc 46 00 c5 bc 0d ea c5 3c
       -0.023840792 -0.02486699 -0.024047982 0.024159456
000150 67 56 c5 bc 98 b8 bc 3c 50 75 bf 3c 9d c5 d2 3c
       -0.024089051 0.02303724 0.023371369 0.025728995
000160 0a 27 ca bc 06 6c b5 bc 2b 66 c1 bc cf fc c2 bc
       -0.024676818 -0.022146236 -0.023608288 -0.02380219
000170 c4 1a ce 3c b2 13 ca 3c 2e 08 c6 3c 44 86 c0 3c
       0.025159247 0.024667595 0.024173822 0.023501523
000180 2e 6e c0 bc 01 38 c8 3c 13 1a c2 3c 3c 14 08 bd
       -0.023490038 0.024440767 0.023694074 -0.033222422

linears.3.weight f4 [1, 100]
000000 66 af 06 be da 2c ee bd 6b d0 93 be 56 7a 2a be
       -0.13152847 -0.116296485 -0.28869948 -0.1664823
000010 87 c2 87 be fe ef 33 3e 85 be 22 3e f8 66 f9 bd
       -0.265156 0.17572019 0.1589299 -0.12177843
000020 a5 76 3b be c9 85 5f 3e fd e4 22 be 18 17 83 3e
       -0.18306978 0.21828379 -0.15907665 0.25603557
000030 11 4b 84 be a9 7a ab bd 84 6a 14 3e 0d 93 4a 3e
       -0.2583852 -0.08373005 0.14493757 0.19782658
000040 ee 9e 62 be 4e ea 21 3e 17 dd 04 bd 95 58 ea 3d
       -0.2213094 0.15812036 -0.03243741 0.11442677
000050 00 4c 14 3e 32 25 7e be 79 3b 94 3e 0f 43 d0 3c
       0.14482117 -0.24818876 0.28951624 0.025422601
000060 a1 1d e2 3d c8 a1 40 be e5 53 8a 3e 26 ca 0c 3d
       0.110408075 -0.18811715 0.2701713 0.03437247
000070 c8 1d 4e 3e 3d a9 00 3e 33 11 5d be 98 cb 81 3e
       0.20128548 0.1256456 -0.21588592 0.25350642
000080 27 46 ec 3d 9b cf 4e 3e 2c c4 fb bd 51 c9 07 3e
       0.11536818 0.20196383 -0.12293276 0.1326039
000090 4d 61 df 3d 6e c8 74 be c2 a8 a7 3d 5e 2d 37 be
       0.109072305 -0.23904583 0.08186485 -0.178884
0000a0 60 0c 33 3e 26 25 0d be ae ad ba 3d ad 1e 43 be
       0.1748519 -0.13783702 0.09115158 -0.1905467
0000b0 d5 7d 69 be 48 56 8e be a5 95 06 be 8b 73 b3 3d
       -0.22801907 -0.27800202 -0.13143022 0.087622724
0000c0 b5 37 8f 3d 39 87 ae 3c ad d4 84 be ea 98 69 be
       0.06993047 0.021304714 -0.2594351 -0.22812238
0000d0 28 de 3e 3e 47 aa f1 bd 02 d2 5a 3d 07 d4 d2 bc
       0.18639433 -0.11800056 0.053422935 -0.025735868
0000e0 cd 4d 84 bd ec e8 10 be 5a 5a 2e 3e 5b 3b 6a be
       -0.06460152 -0.14151353 0.17026654 -0.22874205
0000f0 d3 19 4c be 41 52 42 3e 83 47 48 be 51 29 9b bd
       -0.19931726 0.1897669 -0.1955853 -0.0757624
000100 85 d0 38 be 6b a2 16 3e ed 4c 17 bd a1 c8 31 3e
       -0.18048294 0.14710395 -0.036938597 0.1736169
000110 47 b6 3c be 88 be 28 be c1 96 fd bd 97 01 d0 bd
       -0.18428908 -0.16478932 -0.1238227 -0.10156553
000120 74 f9 a5 bb b0 88 08 bd 1f fa 2c be 7a 6f d7 3c
       -0.0050651375 -0.03333348 -0.16892289 0.026298273
000130 c5 dc 63 be 01 ec c2 bd 2b da 6b be f9 81 06 3e
       -0.22252186 -0.095176704 -0.23032443 0.13135518
000140 d6 a9 57 3e 2d e3 8b 3e fe aa 28 3e b4 b7 86 be
       0.21060881 0.2732176 0.16471478 -0.2631203
000150 0f fb 59 3e b0 b3 66 be 98 41 36 be 0b 19 93 bd
       0.21287178 -0.22529483 -0.1779846 -0.07182511
000160 bb 59 f9 3d 70 26 6f 3e 07 5e 38 3e 81 b0 33 3e
       0.12175318 0.23354506 0.18004619 0.175478
000170 75 32 38 be 04 2f 73 be 4a 73 02 be f4 af b8 bd
       -0.17987998 -0.23748404 -0.12739292 -0.090179354
000180 11 f2 41 3e 00 2f 7d be 67 c8 a0 bd 9d 6c 57 3d
       0.18939997 -0.2472496 -0.07850724 0.052593816
