Complete_thesis_stage_1_and_2/(d).Code_and_all_other_details/LASER_DED/models/model_epoch_29000.pt (torch, 86584 bytes, 7 tensors)

linears.0.weight f4 [100, 4]
0	0xbf33fd01	-0.7030793
1	0xbf084f63	-0.53246135
2	0x3dba2020	0.090881586
3	0x3f11a30a	0.568894
4	0x3e8cc290	0.2749219
5	0xbeb5b7df	-0.35491845
6	0x3ed7d3d1	0.4215379
7	0x3e0213b3	0.12702827
8	0x3d50244e	0.050815873
9	0xbec97c48	-0.39352632
10	0xbdca7404	-0.098854095
11	0x3e32702a	0.174256
12	0xbf392474	-0.7232125
13	0x3df278dd	0.11839459
14	0x3d3a70d5	0.04551776
15	0x3ef8f258	0.48622394
16	0x3e3e1b19	0.18565024
17	0x3f27a86f	0.65491384
18	0x3ed51c44	0.41623127
19	0x3ece8ac3	0.40340242
20	0xbe10fdf0	-0.1415937
21	0x3eaffbb9	0.34371737
22	0xbe7deaa4	-0.2479654
23	0x3e4cf44e	0.2001507
24	0x3ee78aec	0.45223176
25	0x3f78b6ed	0.9715412
26	0xbecdb755	-0.40178934
27	0xbe6e2488	-0.23256123
28	0xbf1a1ae6	-0.60197294
29	0xbeafe0e1	-0.34351256
30	0xbe00870b	-0.12551515
31	0x3f1d6634	0.61484075
32	0xbe5e7e07	-0.21727763
33	0xbdf24c5e	-0.11830972
34	0x3e0000c5	0.12500294
35	0x3cc35d83	0.0238483
36	0x3e94ee13	0.29087886
37	0x3da3e27b	0.08002182
38	0x3d0e45c6	0.03473451
39	0x3e806821	0.25079444
40	0xbf5b89d1	-0.85757166
41	0xbf36484b	-0.7120406
42	0xbe62f37e	-0.22163197
43	0x3f09e10b	0.53859013
44	0x3da22a2d	0.07918201
45	0x3e4f7a57	0.20261513
46	0x3e30868e	0.17238829
47	0x3df34167	0.11877709
48	0x3db98f37	0.09060519
49	0xbeb3b8f6	-0.35102051
50	0xbd547fca	-0.05187968
51	0xbe9c987b	-0.30585083
52	0xbe29b897	-0.16574322
53	0x3eb31182	0.34974295
54	0xbe27a9b7	-0.16373335
55	0x3e8b8afc	0.27254474
56	0xbe2d9f3c	-0.16955274
57	0x3e8e635f	0.2781019
58	0xbe613f4c	-0.21996802
59	0xbd1ab0d8	-0.037766308
60	0xbec45778	-0.38347983
61	0x3eb2fb52	0.34957367
62	0x3d1c97b6	0.03823062
63	0x3ec67034	0.3875748
64	0xbcf89da2	-0.030348603
65	0xbc093983	-0.008375528
66	0xbe50b565	-0.20381697
67	0x3c7047a2	0.014665516
68	0x3dfde284	0.1239672
69	0xbd2926fc	-0.041296944
70	0x3edf472e	0.43608993
71	0xbe146a61	-0.14493705
72	0xbdb9dbf2	-0.09075154
73	0xbd064eb6	-0.03278991
74	0xbdbc0407	-0.09180456
75	0x3d9938c3	0.074815296
76	0x3e92e543	0.28690538
77	0xbe82c06e	-0.25537437
78	0x3dea8319	0.11450786
79	0x3e5b5dca	0.21422496
80	0x3e77e4f8	0.24208438
81	0x3eb84730	0.35991812
82	0xbd08018c	-0.0332046
83	0xbec3f86e	-0.38275474
84	0x3e57a53c	0.21059126
85	0x3f45ce7e	0.7726821
86	0x3df05918	0.11735743
87	0x3e985b7a	0.2975729
88	0xbe88d1ba	-0.2672251
89	0x3e44ef76	0.19231972
90	0xbe9aab5d	-0.30208865
91	0xbe414eb7	-0.18877684
92	0x3cc91844	0.024547704
93	0xbd54184d	-0.051780988
94	0x3df015a1	0.117228754
95	0x3dfb305b	0.122650824
96	0x3e8b636b	0.27224287
97	0xbf002397	-0.50054306
98	0x3c0dfb40	0.00866586
99	0x3dc38384	0.09546569
100	0x3ed8ee42	0.42369276
101	0xbf6236d1	-0.88364893
102	0xbeb8be80	-0.3608284
103	0xbf09d7c8	-0.5384488
104	0xbea52a2f	-0.32258746
105	0xbf018833	-0.5059845
106	0x3d64327c	0.05571221
107	0x3eb313e5	0.34976116
108	0x3ee0f412	0.4393621
109	0x3df39ab6	0.11894743
110	0x3f1ae1e9	0.6050096
111	0x3ed67e59	0.4189327
112	0x3ea2b6f3	0.31780204
113	0x3da8484e	0.08216916
114	0xbe39ae9e	-0.18133017
115	0x3d71c37e	0.059024327
116	0x3e8d6726	0.2761776
117	0xbd19dd4d	-0.037564564
118	0xbded4c43	-0.115868114
119	0xbe2d6f7a	-0.16937056
120	0x3ec84f16	0.39122838
121	0xbef79cd5	-0.4836184
122	0x3dac1996	0.08403318
123	0xbea1e45d	-0.3161954
124	0x3eb0e6ea	0.34551173
125	0xbe61a032	-0.22033766
126	0x3eb01ee4	0.34398568
127	0x3ebd1384	0.36928952
128	0x3d97d978	0.07414526
129	0xbf06ab7d	-0.5260542
130	0xbe9dca31	-0.30818322
131	0xbed46e66	-0.41490477
132	0x3d9a26b0	0.0752691
133	0x3ec442fd	0.38332358
134	0xbebaeb4c	-0.36507642
135	0xbf3f75e9	-0.7478929
136	0x3e390465	0.18068083
137	0x3dbd7b1c	0.09251997
138	0xbc99a230	-0.018754095
139	0xbaf20625	-0.0018464966
140	0xbd9f552b	-0.077799164
141	0x3dabddc7	0.0839191
142	0x3d97fe06	0.07421498
143	0xbc715bed	-0.0147313895
144	0x3e6dfcd1	0.23240973
145	0x3f755abb	0.9584157
146	0x3e1cae57	0.1530088
147	0x3e829923	0.2550746
148	0xbce6d286	-0.028176557
149	0x3e5f791e	0.21823546
150	0x3e81d125	0.25354877
151	0xbe209c6f	-0.15684675
152	0xbeb03ca2	-0.3442126
153	0xbde1b6be	-0.110211834
154	0xbe7006e4	-0.23440129
155	0xbe86ba08	-0.26313806
156	0xbe9dce4c	-0.30821455
157	0xbe9c5e92	-0.305409
158	0x3dcd6d2a	0.10030587
159	0x3e2d552b	0.1692702
160	0x3efb720a	0.49110442
161	0xbfaed27b	-1.3657984
162	0x3e272d67	0.16325913
163	0xbec67850	-0.38763666
164	0xbde11651	-0.10990585
165	0xbbb2419c	-0.00543995
166	0xbd45c93d	-0.04828762
167	0xbdbe268f	-0.09284698
168	0x3ee4f61c	0.44719017
169	0xbe2ae193	-0.16687612
170	0x3d2edbb0	0.04268998
171	0xbdc46622	-0.09589793
172	0xbe418972	-0.18900087
173	0x3d9e1e85	0.07720665
174	0xbe19148a	-0.14949241
175	0xbe05f534	-0.13081819
176	0xbefff217	-0.49989387
177	0xbfa76c4b	-1.3079923
178	0xbedabdfc	-0.42723072
179	0x3d599571	0.053121034
180	0xbd6d4bb9	-0.057933543
181	0x3ec0066c	0.375049
182	0x3da2fdc2	0.07958557
183	0xbe456897	-0.19278179
184	0x3e6c221b	0.23059885
185	0xbebf0909	-0.3731158
186	0xbd84e231	-0.06488455
187	0x3d913874	0.07090846
188	0x3c5b5f23	0.013389382
189	0xbe03c6ba	-0.12868777
190	0xbe3c3fd4	-0.18383723
191	0xbdd3d085	-0.10342506
192	0x3ed28548	0.4111731
193	0x3e95e42e	0.2927565
194	0x3e8b6773	0.27227363
195	0x3ea132ac	0.31483972
196	0xbeacbcb9	-0.33737734
197	0x3ed10c51	0.4082971
198	0xbe677479	-0.22603025
199	0x3e63f71c	0.22262233
200	0xbe7b78eb	-0.24557845
201	0x3eb1a3d6	0.3469531
202	0x3bbbf345	0.005735787
203	0x3e4c3f41	0.19946004
204	0x3e2630c5	0.16229542
205	0xbefd2822	-0.4944468
206	0xbd848820	-0.06471276
207	0x3e85745d	0.2606534
208	0x3d9650c2	0.07339622
209	0x3e10729f	0.14106224
210	0xbe10d5b6	-0.14144024
211	0x3d4c43a5	0.0498692
212	0xbdbdfff1	-0.092773326
213	0x3e4a5bf4	0.1976164
214	0x3e5ad892	0.21371678
215	0x3d1a5450	0.037678063
216	0xbde3b474	-0.11118403
217	0x3eabfd1a	0.3359154
218	0xbe480b6e	-0.1953561
219	0x3db02c38	0.08602184
220	0xbdf8635d	-0.12128327
221	0x3f049fb5	0.51806194
222	0x3e7f2991	0.249182
223	0xbbd52364	-0.006504463
224	0x3eb9ebf2	0.36312824
225	0xbf6e92b8	-0.93192625
226	0xbec4899c	-0.38386238
227	0xbe419bd7	-0.18907104
228	0x3e564473	0.20924549
229	0xbe38176f	-0.17977689
230	0x3dcfe15e	0.10150407
231	0x3de4ddf3	0.11175146
232	0x3dd19e9e	0.10235332
233	0xbe9e297a	-0.3089102
234	0x3e605f05	0.21911247
235	0x3e0249ed	0.12723513
236	0xbc462521	-0.012093813
237	0xbd99e14a	-0.075136736
238	0xbe3945df	-0.1809306
239	0x3c51cced	0.012805206
240	0x3e90c2ba	0.28273565
241	0x3e5c97f2	0.21542338
242	0x3d28d3cb	0.041217607
243	0xbe8c0c89	-0.27353314
244	0xbca96cb8	-0.020681724
245	0x3f331d58	0.6996665
246	0x3e91c3b3	0.2846962
247	0x3e9503f0	0.29104567
248	0x3d6dd032	0.05805988
249	0x3e4649f1	0.19364144
250	0x3d90cc37	0.07070201
251	0x3e0d0130	0.13769984
252	0x3e3395b4	0.17537576
253	0x3eb2a7b2	0.34893566
254	0xbe327161	-0.17426063
255	0x3e324cd6	0.17412123

linears.0.bias f4 [100]
0	0xbc985eda	-0.018599916
1	0x3e02eaba	0.12784854
2	0x3d641d32	0.055691905
3	0xbd2b89eb	-0.041879576
4	0x3d074dbd	0.03303312
5	0xbcac6744	-0.021045335
6	0xbc089b3c	-0.008337792
7	0x3e55d6d7	0.20882736
8	0xbe6cb763	-0.23116831
9	0xbbb822c7	-0.00561938
10	0x3dbdc79a	0.092665866
11	0x3e0bc632	0.13649824
12	0xbe49d3dc	-0.19709724
13	0x3bc13ea2	0.005897359
14	0xbdf36b03	-0.11885645
15	0x3dba765f	0.09104609
16	0xbd3913c5	-0.04518487
17	0xbe874085	-0.26416412
18	0xbdd0b14f	-0.10190069
19	0x3d3c4fab	0.045974415
20	0xbd575644	-0.052572504
21	0x3dee1602	0.116252914
22	0x3da10aa6	0.07863359
23	0xbd9e6da3	-0.07735755
24	0x3d4f392c	0.050591633
25	0x3d81cdac	0.06338057
26	0x3da30fcc	0.079619974
27	0x3d3a296b	0.045449656
28	0xbdcf29ae	-0.10115372
29	0xbd57f277	-0.052721467
30	0xbc595321	-0.013264448
31	0x3d45b220	0.048265576
32	0x3d2c9049	0.04212979
33	0x3b8d44e4	0.004311191
34	0xbda5dd7d	-0.08098886
35	0x3da3269d	0.07966349
36	0x3e0aacba	0.13542452
37	0xbe1a23b6	-0.15052685
38	0xbde1a70f	-0.11018192
39	0xbda754ed	-0.08170495
40	0xbe5d6eab	-0.21624248
41	0xbdc41e0a	-0.09576042
42	0xbda13116	-0.078706905
43	0x3d8d7022	0.06906153
44	0xbd909913	-0.070604466
45	0x3ceffb0a	0.02929451
46	0x3dc88dd3	0.09792676
47	0xbdb6eb15	-0.08931557
48	0x3e306adf	0.17228268
49	0xbbd201eb	-0.00640892
50	0xbdae318f	-0.08505546
51	0x3d84b295	0.06479374
52	0xbdb8b725	-0.09019307
53	0x3d3f9ff1	0.04678339
54	0xbc9d6b84	-0.019216307
55	0xbbcad0cd	-0.006189442
56	0x3d5384c4	0.051640287
57	0xbd72718f	-0.05919033
58	0x3e638a87	0.22220813
59	0xbde16471	-0.11005486
60	0xbc4adf54	-0.012382347
61	0xbd54183c	-0.051780924
62	0xbd805675	-0.0626649
63	0xbdd7b3a4	-0.105323106
64	0x3d0daf51	0.034591023
65	0xbe191e89	-0.14953054
66	0xbdb8fe53	-0.090328835
67	0x3d84a349	0.06476457
68	0xbe00efaf	-0.12591432
69	0x3d51be33	0.05120678
70	0x3d1ce4eb	0.03830425
71	0xbd850369	-0.06494791
72	0xbd161233	-0.03663845
73	0x3e09192d	0.1338851
74	0xbda2224c	-0.07916698
75	0xbe762a89	-0.24039663
76	0x3da25737	0.07926791
77	0x3d1fb071	0.038986627
78	0x3e84e242	0.2595387
79	0xbdaa9e49	-0.08330972
80	0x3dfa86b4	0.12232724
81	0x3caae593	0.020861423
82	0xbdfaeead	-0.12252555
83	0xbda7f27d	-0.08200548
84	0x3d2dff45	0.042479772
85	0xbdaa0dba	-0.083033994
86	0x3cf14b43	0.029454833
87	0xbd4e2c61	-0.05033529
88	0xbc80e5e4	-0.01573462
89	0xbdf22a37	-0.11824458
90	0xbe234b5c	-0.15946716
91	0xbc9a050c	-0.018801235
92	0xbcc84bcf	-0.02445021
93	0xbd769703	-0.06020261
94	0xba478b8a	-0.00076120405
95	0x3d9614fe	0.07328223
96	0x3d9ce513	0.0766088
97	0xbdae1e5d	-0.08501885
98	0xbde846bf	-0.11341619
99	0xbe0eb2f2	-0.1393545

linears.1.weight f4 [100, 100]
0	0x3cf79e21	0.030226769
1	0x3e1c6044	0.15271097
2	0x3dc5d3bf	0.09659528
3	0xbe9cb8ec	-0.30609834
4	0x3e7861c4	0.24256045
5	0x3e44b977	0.19211374
6	0xbe782493	-0.24232702
7	0xbccddc4b	-0.025129458
8	0x3b0f088e	0.0021825167
9	0xbd134fa8	-0.035964638
10	0xbe62bf83	-0.22143368
11	0xbe7dc41e	-0.24781844
12	0x3e1993d1	0.14997794
13	0xbdb91c24	-0.090385705
14	0xbb6fc8c9	-0.0036588183
15	0xbd378113	-0.04480083
16	0x3d8ddf60	0.06927371
17	0x3db42954	0.08796945
18	0x3e16d416	0.14729342
19	0xbd5d2607	-0.053991344
20	0xbdda895d	-0.10670731
21	0xbc99c796	-0.018771928
22	0xbc11d2ec	-0.008900385
23	0x3d89f2ba	0.067357495
24	0xbe156d33	-0.14592437
25	0xbe838be8	-0.25692677
26	0x3e154b5e	0.14579532
27	0xbca38f68	-0.019965842
28	0xbde604ef	-0.1123141
29	0x3c93cb52	0.018041287
30	0x3dab1d66	0.08355217
31	0x3cbf4715	0.023349324
32	0xbdd64da1	-0.10464025
33	0xbe073e60	-0.13207388
34	0xbcf57270	-0.029961795
35	0xbddfdcd0	-0.109307885
36	0x3dbc1dd2	0.09185375
37	0xbe4d619f	-0.2005677
38	0x3e33f5d5	0.17574246
39	0x3e59cf3f	0.21270464
40	0xbd93ce08	-0.07217032
41	0x3e5454b8	0.20735443
42	0x3ea38d46	0.3194372
43	0xbd452236	-0.04812833
44	0xbe963786	-0.29339236
45	0xbb3153c6	-0.002705799
46	0xbe092c31	-0.13395764
47	0x3e907400	0.282135
48	0xbe639fac	-0.22228879
49	0x3da3e2cf	0.08002245
50	0x3e65b9cc	0.22434157
51	0x3da10a1a	0.07863255
52	0xbc666678	-0.014062516
53	0xbe9fbf99	-0.31200865
54	0xbd55d144	-0.052201524
55	0x3e1f6a23	0.15567832
56	0xbe8e9aed	-0.27852574
57	0xbcfa3e82	-0.030547384
58	0xbdf8204d	-0.12115536
59	0x3e3d0ca1	0.18461849
60	0x3de3d15c	0.111239165
61	0x3d3315e5	0.043722052
62	0x3e644337	0.22291265
63	0x3e4eef64	0.20208508
64	0xbea58d33	-0.3233429
65	0x3ed9537c	0.42446506
66	0x3cb80b47	0.022466315
67	0xbe49eab1	-0.19718434
68	0x3eb4c762	0.35308367
69	0xbe1298de	-0.14316127
70	0xbdd08c45	-0.10183004
71	0x3def3553	0.11680093
72	0x3d44d73d	0.04805683
73	0x3e5d0d3b	0.21587078
74	0x3d054ed0	0.032545865
75	0x3cf9cbbe	0.03049266
76	0x3dcbab3b	0.09944769
77	0xbe872319	-0.26393965
78	0xbe567186	-0.20941743
79	0xbd3f944d	-0.04677229
80	0xbe03ee8a	-0.12883964
81	0xbd29bbe2	-0.041438945
82	0xbda8cf9c	-0.08242723
83	0x3e25c5d1	0.16188742
84	0x3cd8fd7e	0.026488062
85	0x3c20f6d2	0.009824472
86	0xbdbcc01c	-0.092163295
87	0x3dbf2bf2	0.09334554
88	0x3dbf6cd2	0.09346928
89	0x3e51e4d2	0.20497444
90	0x3eb1cce8	0.34726644
91	0x3e055d7b	0.13023941
92	0xbf524af7	-0.8214564
93	0xbce5cb3d	-0.028051013
94	0x3d3dd07a	0.046341397
95	0x3b1d2773	0.0023979812
96	0x3dc83082	0.09774877
97	0x3e4ab184	0.1979428
98	0x3de13703	0.10996821
99	0x3ea0db53	0.3141733
100	0xbd694594	-0.05695112
101	0xbdf6f465	-0.12058333
102	0x3d467a65	0.04845657
103	0x3dede6cf	0.11616289
104	0xbe24c051	-0.16088988
105	0x3dc578b3	0.09642162
106	0xbd9e12ff	-0.07718467
107	0x3e024a42	0.1272364
108	0x3bf81381	0.0075706844
109	0xbd9441d6	-0.0723912
110	0xbe04ae92	-0.12957218
111	0x3da97d1d	0.082758166
112	0x3e1d3f4f	0.15356182
113	0xbdcad297	-0.09903448
114	0x3e026a5b	0.12735884
115	0x3d57c670	0.05267948
116	0x3cac5f1e	0.02104145
117	0x3e208a1b	0.15677683
118	0x3d735a52	0.059412308
119	0x3dfab732	0.12241973
120	0x3cee3c86	0.029081594
121	0xbdfbf529	-0.1230262
122	0x3e1524fc	0.1456489
123	0x3e337d9e	0.17528388
124	0xbd7d8e42	-0.061903246
125	0x3da4d960	0.080492735
126	0x3dc617b1	0.096724875
127	0xbc0ccac3	-0.008593264
128	0x3e22292e	0.15836021
129	0xbd9bb89f	-0.07603573
130	0xbd43d8a0	-0.04781401
131	0x3d7fc3d8	0.06244263
132	0x3d3cdcf4	0.046109155
133	0x3d38c32b	0.045108
134	0x3d9776da	0.07395716
135	0x3dc4c4b0	0.09607828
136	0xbd56ccfe	-0.05244159
137	0x3deb3207	0.11484151
138	0xbde1415a	-0.10998793
139	0xbd8d47ff	-0.06898498
140	0xbe3e3acf	-0.18577121
141	0xbd74ae04	-0.059736267
142	0x3d886906	0.06660657
143	0x3e0e1e2a	0.13878694
144	0xbe000fe8	-0.12506068
145	0x3d89078b	0.06690892
146	0x3cf52f38	0.029929742
147	0xbdc85836	-0.0978245
148	0x3cddb947	0.027065886
149	0xbdef403d	-0.11682174
150	0x3cf1e86d	0.029529775
151	0x3d4220e3	0.047394644
152	0xbdeb7c53	-0.11498322
153	0x3e06e354	0.13172656
154	0xbe0c0924	-0.13675362
155	0x3bcd0c67	0.006257582
156	0x3d51598a	0.05111078
157	0x3cff7e89	0.031188266
158	0xbd4cc45b	-0.049991947
159	0x3e467d27	0.1938368
160	0x3d7a8285	0.06115963
161	0xbd90ec34	-0.07076302
162	0x3e122f28	0.14275801
163	0x3e19de98	0.15026319
164	0xbe43932f	-0.19099115
165	0xbcc21010	-0.0236893
166	0x3dca529e	0.09879039
167	0x3e23ddb1	0.16002537
168	0x3e58b1ad	0.21161528
169	0xbd8aaf42	-0.06771709
170	0x3db01c1c	0.085991114
171	0x3d9752a5	0.0738881
172	0x3dcfa471	0.101387866
173	0x3c7d0889	0.0154439295
174	0x3e0618ea	0.13095441
175	0xbd2fc83f	-0.04291558
176	0x3d8e61fb	0.06952282
177	0xbe40f470	-0.18843246
178	0x3e2a68fd	0.16641612
179	0xbd8eeade	-0.06978391
180	0x3e3b4c1e	0.18290755
181	0x3cf125c7	0.029436959
182	0x374a4368	1.20558325e-05
183	0xbe3121e2	-0.17298082
184	0x3de79fb8	0.11309761
185	0x3ddaa2cd	0.10675583
186	0xbe357591	-0.1772063
187	0x3d0034d1	0.03130037
188	0x3d1d9bc1	0.038478617
189	0x3e211a5a	0.15732709
190	0x3e564e03	0.20928197
191	0x3e2fbcd7	0.1716188
192	0xbdca2261	-0.098698385
193	0x3de697ab	0.11259397
194	0x3e06ceaf	0.13164781
195	0xbd8bc0bf	-0.06823873
196	0xbd48643e	-0.048923723
197	0xbd9c64f2	-0.07636441
198	0x3d9ec8ed	0.07753167
199	0x3cd4ca4e	0.025975373
200	0x3ca0c811	0.01962665
201	0x3e302677	0.17202173
202	0x3e2b9680	0.1675663
203	0x3e22a907	0.15884791
204	0x3e755138	0.23956764
205	0x3e122db2	0.14275244
206	0xbe7dba5a	-0.24778119
207	0x3dcc3617	0.09971254
208	0x3de69a0c	0.11259851
209	0x3c40468b	0.011735569
210	0x3e0c0200	0.13672638
211	0xbdfbb8f6	-0.12291138
212	0x3cf62624	0.030047484
213	0xbe12ee83	-0.14348798
214	0xbe1112d3	-0.14167337
215	0x3ca90906	0.020634186
216	0xbe0789d2	-0.13236168
217	0x3da9e9cc	0.08296546
218	0x3dcf6008	0.101257384
219	0xbd9e4116	-0.07727258
220	0xbe504693	-0.20339422
221	0xbc9853fe	-0.018594738
222	0xbe1f0567	-0.15529405
223	0x3e8f1625	0.27946582
224	0x3e196582	0.14980128
225	0xbd59b188	-0.053147823
226	0x3e0eefb1	0.13958623
227	0x3d0e61c0	0.03476119
228	0x3da0a7bd	0.078444935
229	0x3d880699	0.066418834
230	0xbc8781a4	-0.01654131
231	0x3e1064af	0.14100908
232	0xbe109deb	-0.14122741
233	0xbdf50178	-0.11963171
234	0xbe1d9c46	-0.15391645
235	0xbd0c8c6d	-0.034313608
236	0xbcf2960c	-0.029612564
237	0x3c85e8ae	0.016346302
238	0xbe7c6a3a	-0.24649897
239	0x3e538313	0.2065547
240	0x3d26d095	0.040726263
241	0xbe546e76	-0.20745263
242	0x3e18861d	0.1489491
243	0x3d83f555	0.06443278
244	0xbc94fafb	-0.018186083
245	0x3e0f3d8a	0.13988319
246	0x3d9d53bd	0.076819874
247	0x3d913cda	0.07091685
248	0x3d92f30f	0.07175266
249	0xbde50997	-0.1118347
250	0x3a371574	0.0006984093
251	0xbd993af5	-0.07481948
252	0x3c453c22	0.012038263
253	0x3e2cc4b4	0.16871911
254	0xbd1d97c3	-0.03847481
255	0x3d35c9a7	0.044381764

linears.1.bias f4 [100]
0	0xbe29e740	-0.16592121
1	0xbce8bfeb	-0.028411826
2	0xbc911379	-0.01770948
3	0xbd3bb132	-0.045823283
4	0xbd632df3	-0.055463742
5	0x3cd3ef4c	0.025870942
6	0x3d20f8f1	0.03929991
7	0xbd7a59cc	-0.061120793
8	0xbd89a1fb	-0.067203484
9	0xbd547925	-0.051873345
10	0xbb8c28cb	-0.004277324
11	0x3e0c3258	0.1369108
12	0x3d2d31d2	0.04228384
13	0x3d1fa117	0.038971987
14	0x3a12d350	0.0005600946
15	0xbd4cc43b	-0.049991827
16	0xbd81313b	-0.06308218
17	0xbcf0513b	-0.029335609
18	0xbd7bda6c	-0.0614876
19	0x3d1c4602	0.038152702
20	0x3cbfb6b7	0.023402555
21	0xbd317d28	-0.04333225
22	0xbe031846	-0.12802228
23	0xbdddede4	-0.1083639
24	0x3da89b0f	0.082327
25	0x3d55f9db	0.052240234
26	0x3ca680cd	0.020325089
27	0xbd271c73	-0.040798616
28	0xbb1e6a3c	-0.0024172207
29	0xbd078530	-0.033086002
30	0x3de0477a	0.10951133
31	0xbda6d3b0	-0.08145845
32	0xbd54ed8f	-0.051984366
33	0xbd0b9940	-0.034081697
34	0xbd572d95	-0.052533705
35	0x3b1612a6	0.00228993
36	0x3bbfdd97	0.005855273
37	0xbd32ceca	-0.04365424
38	0xbcf95767	-0.030437184
39	0x3d12381d	0.035698045
40	0x3d8f7370	0.0700444
41	0xbdd40408	-0.103523314
42	0x3cc854cd	0.024454499
43	0xbd341929	-0.043969307
44	0x3cdbbb2d	0.02682265
45	0x3d005558	0.03133139
46	0x3ca0d5e2	0.019633237
47	0xbdd8e9a5	-0.10591439
48	0xbd6617e8	-0.056175143
49	0x3cc6f060	0.024284542
50	0xbd29f5a3	-0.041494023
51	0x3d95a160	0.073061705
52	0xbd35b4b9	-0.044361804
53	0xbb187083	-0.0023260422
54	0x3dbd86be	0.09254216
55	0xbb73d430	-0.003720533
56	0xbdf7b42a	-0.120949104
57	0xbda087cc	-0.07838401
58	0xbd296c68	-0.04136315
59	0xbd08d9e0	-0.033410907
60	0x3d877bcc	0.06615409
61	0xbc07119f	-0.008243947
62	0x3dfbb3f9	0.122901864
63	0xbc4e0e26	-0.012576615
64	0x3d4ed0ac	0.050491974
65	0xbd1bdc9c	-0.038052186
66	0x3deb1647	0.114788584
67	0xbd14b0c7	-0.0363014
68	0xbd48ff2f	-0.049071487
69	0x3d780afa	0.060557343
70	0xbe5a6e04	-0.2133103
71	0x3d3f253e	0.046666376
72	0x3f1b89b6	0.60757005
73	0xbce84a8b	-0.028355857
74	0xbd35c7da	-0.044380046
75	0x3e06f77d	0.13180347
76	0xbc231e9f	-0.009956031
77	0xbd09abe7	-0.033611204
78	0xbc5288ee	-0.012850029
79	0x3c146d80	0.00905931
80	0x3d257fc4	0.04040505
81	0x3e102716	0.1407741
82	0xbd4b3423	-0.04961027
83	0x3cec1fbc	0.028823726
84	0x3e1b9f5c	0.1519751
85	0xbb1e00dc	-0.00241094
86	0xbdadfbef	-0.08495318
87	0xbd766fd8	-0.060165256
88	0x3d09326c	0.03349535
89	0xbd23b6f6	-0.039969407
90	0xbd6acecf	-0.057326134
91	0xbd8512ef	-0.06497752
92	0xbd72e3db	-0.05929933
93	0x3d5ee540	0.05441785
94	0x3d2860f5	0.04110809
95	0x3cfe57e2	0.031047765
96	0xbd78ac88	-0.060711414
97	0xbd41849d	-0.04724561
98	0xbd1d4908	-0.038399726
99	0xbd287be3	-0.041133773

linears.2.weight f4 [100, 100]
0	0xbd04a2b5	-0.032381732
1	0x3c949476	0.018137198
2	0xbd540779	-0.05176494
3	0x3d19dcd1	0.037564103
4	0x3d820932	0.0634941
5	0x3e0cafa4	0.13738877
6	0x3d17d490	0.03706795
7	0xbd95aed3	-0.07308736
8	0x3d32e148	0.043671876
9	0xbe8b1077	-0.27161
10	0xbcbd3f0c	-0.023101352
11	0xba310234	-0.00067523425
12	0x3d8ec69a	0.06971474
13	0x3d057419	0.032581422
14	0x3d8c3e84	0.068478614
15	0xbe1528ba	-0.14566317
16	0xbc0912f1	-0.008366332
17	0x3dea563f	0.114422314
18	0xbd93e22a	-0.07220872
19	0xbd89b795	-0.067244686
20	0xbe0f7c4d	-0.1401226
21	0xbe18a9ff	-0.14908598
22	0x3e11b5d6	0.14229521
23	0xbe051870	-0.12997603
24	0x3db4b968	0.08824426
25	0x3dc8a057	0.097962074
26	0x3dd90e19	0.10598392
27	0x3b1f940c	0.0024349717
28	0x3d8d7d85	0.069087066
29	0xbe3e3498	-0.1857475
30	0x3e6846c7	0.2268325
31	0x3e03f055	0.12884648
32	0x3c9214de	0.017832216
33	0x3dd0f446	0.102028415
34	0x3e084727	0.13308392
35	0x3e84f9ad	0.25971738
36	0xbd0647b8	-0.03278324
37	0xbe13dfda	-0.14440861
38	0x3db08558	0.08619183
39	0xbe1bc0a1	-0.15210201
40	0x3e375f09	0.17907347
41	0xbed2ccef	-0.41171977
42	0x3d9ccd0d	0.07656298
43	0xbe3e6e66	-0.18596801
44	0x3d781670	0.060568273
45	0x3be49b74	0.0069765393
46	0x3dae157c	0.085001916
47	0x3d63f2dc	0.05565153
48	0xbe659f9e	-0.2242417
49	0x3dcc661b	0.099804126
50	0xbe3bd639	-0.18343438
51	0x3cfb2738	0.03065835
52	0xbe05176c	-0.12997216
53	0xbe251434	-0.16120988
54	0x3dce7dba	0.10082574
55	0xbd90a332	-0.07062377
56	0x3ecc38bf	0.39887044
57	0xbdc632cd	-0.09677658
58	0x3c0acf5b	0.008472289
59	0x3dcb272a	0.09919579
60	0x3e83fe04	0.25779736
61	0xbde15ebc	-0.11004397
62	0x3c85c8b1	0.016331049
63	0x3b9cb920	0.004782811
64	0x3dc5dbb6	0.09661047
65	0x3d8ca0b4	0.06866589
66	0x39af7dc1	0.00033472295
67	0x3bcc9af3	0.0062440573
68	0xbb3d69e9	-0.0028902239
69	0x3d1ce8d3	0.038307976
70	0x3daccaea	0.0843714
71	0x3e047db4	0.12938577
72	0xbf47526c	-0.7786014
73	0xbdc90a1e	-0.09816383
74	0x3e1209c1	0.14261533
75	0x3e5162ef	0.20447896
76	0x3e01034d	0.12598915
77	0x3d8a4cca	0.067529276
78	0x3c975e8a	0.018477697
79	0x3e1ccd69	0.15312733
80	0xbe191548	-0.14949524
81	0x3db4df8e	0.08831702
82	0x3de1b201	0.1102028
83	0x3d655974	0.055993512
84	0x3e5c6a52	0.21524933
85	0xbe37fa1f	-0.17966507
86	0x3d33828a	0.043825664
87	0xbe144ae4	-0.14481694
88	0xbc9b37a9	-0.01894744
89	0x3df1be64	0.11803892
90	0x3dc9ae3d	0.098476864
91	0xbd9e57a7	-0.07731562
92	0xbdd056d0	-0.10172808
93	0xbe511841	-0.20419408
94	0x3dcdb389	0.10044009
95	0x3d83e5c9	0.064403124
96	0x3b8644f2	0.0040975744
97	0x3c0fe360	0.008782238
98	0x3e10699b	0.14102785
99	0x3d32a5e0	0.043615222
100	0x3db61d2b	0.08892282
101	0xbcc7d5fc	-0.024394028
102	0xbe38d585	-0.18050201
103	0xbe3db4d5	-0.18526013
104	0xbe109761	-0.14120246
105	0xbd0d6ab9	-0.034525607
106	0xbc475339	-0.012165838
107	0x3b40556f	0.0029347797
108	0xbded36a8	-0.115826905
109	0x3d972eaa	0.07381947
110	0xbd087b20	-0.033320546
111	0xbdf0a2b3	-0.117497824
112	0x3c6e7cfc	0.014556166
113	0x3e2ba6bb	0.16762821
114	0xbca9dd38	-0.020735368
115	0x3d77782c	0.06041734
116	0xbe247474	-0.16060048
117	0xbd42c621	-0.04755223
118	0xbdc494da	-0.09598704
119	0xbd9d2443	-0.07672932
120	0xbde10248	-0.10986763
121	0xbd352532	-0.044224925
122	0x3d8e15de	0.069377646
123	0xbda64f14	-0.08120552
124	0x3e14b52d	0.14522238
125	0xbd40a0a7	-0.04702821
126	0x3def256a	0.11677058
127	0x3e208f51	0.15679671
128	0xbafedc4e	-0.0019444318
129	0xbda874f6	-0.082254335
130	0x3e5dc345	0.2165652
131	0xbd6041bf	-0.0547502
132	0xbe227a9b	-0.15867083
133	0x3cfe9e67	0.031081391
134	0xbc3f5f07	-0.011680371
135	0xbc884c26	-0.016637873
136	0xbd680646	-0.056646608
137	0x3c7799e1	0.015112371
138	0x3dac0de9	0.08401091
139	0xbd9bf80f	-0.07615673
140	0xbd87882c	-0.066177696
141	0xbe62e839	-0.22158898
142	0x3c660d40	0.014041245
143	0xbe096f21	-0.13421299
144	0xbdec6d9b	-0.11544343
145	0x3c8009ef	0.015629737
146	0xbc9d62f1	-0.019212218
147	0x3d4204fc	0.047368035
148	0x3d16cf9b	0.03681908
149	0x3dae8f84	0.08523467
150	0x3c9df018	0.019279525
151	0xbc985ca9	-0.018598871
152	0xbdcadf76	-0.09905903
153	0x3e168e1c	0.14702648
154	0xbc410fee	-0.011783583
155	0x3da2ffc3	0.07958939
156	0x3e430e5f	0.19048451
157	0xbe238229	-0.15967621
158	0x3e1bb7c6	0.15206823
159	0x3e0732e8	0.13203013
160	0x3e0046dd	0.12527032
161	0x3dcb54cf	0.09928285
162	0xbc98a796	-0.018634599
163	0x3df61593	0.12015834
164	0x3d85b823	0.06529262
165	0xbd995bdd	-0.07488225
166	0x3dfbedc6	0.12301211
167	0xbd9b20c4	-0.07574609
168	0xbe30455e	-0.17213961
169	0x3d8d9697	0.06913488
170	0x3d99dc54	0.075127274
171	0xbd3f7bfa	-0.046749093
172	0xbd844dd0	-0.06460154
173	0xbcc97d02	-0.024595741
174	0xbe0a754b	-0.13521306
175	0x3e8a9bd7	0.2707202
176	0x3dee60ff	0.11639594
177	0x3deb2a27	0.11482649
178	0xbe475b31	-0.1946838
179	0x3c0bc9eb	0.008532028
180	0xbdad4a59	-0.08461446
181	0xbe0eb26d	-0.13935252
182	0xbe04fa86	-0.12986192
183	0x3c9bd11b	0.019020608
184	0x3e6ee5d6	0.23329863
185	0x3d1e7fc1	0.038696054
186	0x3b8bfe8b	0.0042722872
187	0xbcdde807	-0.027088178
188	0xbdd80688	-0.10548121
189	0x3d9e3069	0.07724077
190	0xbe09f5c7	-0.13472663
191	0xbdb40232	-0.08789481
192	0x3df500ab	0.11963018
193	0xbe1891de	-0.14899394
194	0xbe1e8dc3	-0.15483765
195	0xbe17e968	-0.14835131
196	0xbdf6fba9	-0.12059719
197	0xbdc8945b	-0.097939216
198	0x3daf4c0b	0.08559426
199	0xbd6a674c	-0.057227418
200	0xbdd10ecf	-0.10207903
201	0x3deeb6be	0.11655949
202	0x3d92a6d4	0.07160726
203	0xbe434042	-0.19067481
204	0xbe11552c	-0.14192647
205	0x3e53da21	0.20688678
206	0x3ce23329	0.027612286
207	0xbe300734	-0.17190248
208	0xbd40219a	-0.046907045
209	0x3dbc437a	0.09192558
210	0x3db56acf	0.08858263
211	0x3d957321	0.0729735
212	0x3e351172	0.17682436
213	0x3d422fe6	0.04740896
214	0x3dc6ee3f	0.097134106
215	0x3d8d8ac5	0.06911234
216	0xbe42c2a9	-0.1901957
217	0x3dc532ab	0.09628805
218	0xbe41741d	-0.1889195
219	0x3d23c631	0.039983932
220	0xbd60480b	-0.054756206
221	0x3e087745	0.13326748
222	0xbd96d6a7	-0.073651604
223	0xbe267ee6	-0.16259345
224	0xbc4369d3	-0.011927086
225	0x3df1a540	0.11799097
226	0x3da698cd	0.08134613
227	0xbdb3c925	-0.087786
228	0x3d9d71d9	0.0768773
229	0x3b6005fa	0.003418325
230	0x3e58985a	0.21151868
231	0xbd0faaec	-0.035075113
232	0xbe1fded2	-0.15612343
233	0x3d8c7035	0.06857339
234	0xbe1e2ba5	-0.15446337
235	0x3d0c9cf9	0.03432939
236	0x3e390d25	0.1807142
237	0xbe33ce76	-0.17559227
238	0xbc8caffc	-0.01717376
239	0x3ded6eb1	0.11593378
240	0x3e3c5a55	0.18393834
241	0xbeadd390	-0.33950472
242	0x3e002cd5	0.12517102
243	0xbe4901fa	-0.1962966
244	0xbace85d7	-0.001575644
245	0x3e06f236	0.13178334
246	0x3e0a28ea	0.1349217
247	0xbdd9b393	-0.10629954
248	0xbe4deb24	-0.2010923
249	0x3d5921a7	0.05301061
250	0xbd81a3eb	-0.06330093
251	0x3e5edd97	0.21764217
252	0x3b163952	0.002292235
253	0x3d8f75ae	0.070048675
254	0xbc0eb947	-0.008711166
255	0xbe20824f	-0.15674709

linears.2.bias f4 [100]
0	0x3d3e7f3e	0.046508066
1	0x3d087f01	0.033324245
2	0x3d3a9cf3	0.045559835
3	0x3cf42e42	0.029807214
4	0x3d23552b	0.039876144
5	0xbd2073a6	-0.03917279
6	0xbd01271e	-0.031531446
7	0x3d32e928	0.043679386
8	0x3d271a5f	0.040796634
9	0xbcf3a988	-0.029743925
10	0x3d5a309e	0.05326902
11	0xbd43d960	-0.047814727
12	0x3d1e4de1	0.03864849
13	0x3cf5ebf9	0.030019747
14	0xbc699893	-0.014257568
15	0xbc76ab93	-0.015055555
16	0x3c5f5b18	0.013632558
17	0xbd58eb64	-0.05295886
18	0x3ddcdbc7	0.10784107
19	0xbd3342e3	-0.04376496
20	0xbd15ec0f	-0.036602076
21	0x3d230d22	0.039807446
22	0xbcff260f	-0.031146077
23	0xbd2f1c0a	-0.04275135
24	0xbd80d5c4	-0.062907726
25	0x3d4c2433	0.04983921
26	0xbd4730cc	-0.04863052
27	0xbd0a4a6d	-0.033762384
28	0xbd11863b	-0.035528403
29	0xbcfdc839	-0.030979263
30	0x3cb362bc	0.021897666
31	0xbd0e01c2	-0.034669645
32	0xbcf7d11f	-0.030251084
33	0xbd2c14a6	-0.04201188
34	0x3d17d07d	0.037064064
35	0xbd7e3122	-0.062058575
36	0xbd336534	-0.043797687
37	0x3cd90d4f	0.026495604
38	0xbd87f787	-0.06639009
39	0x3c4134f2	0.011792408
40	0xbd3455a7	-0.044026997
41	0x3d2b0000	0.041748047
42	0xbce9010e	-0.028442886
43	0x3d129e41	0.035795454
44	0x3cd067f7	0.0254402
45	0x3d12afdc	0.035812244
46	0x3da77944	0.081774265
47	0xbcd1f9c4	-0.025631793
48	0xbd070b45	-0.03296973
49	0xbc2d93ea	-0.0105943475
50	0x3d0f2ce2	0.034954913
51	0x3d35b03a	0.044357516
52	0xbce92a1e	-0.028462466
53	0x3b90df13	0.004421124
54	0xbcc66e3b	-0.024222484
55	0x3c9111f4	0.017708756
56	0x3d169114	0.03675945
57	0x3d5e903e	0.05433678
58	0xbd3f1f2b	-0.046660583
59	0x3cf2076d	0.029544557
60	0x3d03ce27	0.032179024
61	0xbc29caa6	-0.010363257
62	0x3d2e85eb	0.042608183
63	0x3d7553dd	0.05989443
64	0x3d033609	0.032033954
65	0xbd55d941	-0.052209143
66	0x3d957be7	0.07299023
67	0xbd205993	-0.039147925
68	0x3d0b7712	0.0340491
69	0x3d39bae0	0.045344234
70	0x3d72fb90	0.05932194
71	0x3d628542	0.055302866
72	0x3c3b2e8a	0.01142467
73	0x3d2610b5	0.040543277
74	0x3d22ab50	0.039714158
75	0x3b341c64	0.0027482742
76	0x3d1ece84	0.038771167
77	0x3dd62bae	0.1045755
78	0x3d048d2b	0.03236119
79	0xbce2043f	-0.027589915
80	0xbd1bdcbb	-0.0380523
81	0xbc93adc1	-0.018027188
82	0xbd01dd15	-0.03170498
83	0x3d1c487b	0.03815506
84	0xbd11c835	-0.035591323
85	0x3d2c8d34	0.04212685
86	0x3d054059	0.03253207
87	0x3bdd2d36	0.0067497743
88	0xbd380ac8	-0.044932157
89	0xbd188630	-0.037237346
90	0xbd0b70b8	-0.034043044
91	0xbd26e5ff	-0.040746685
92	0x3c3110fe	0.010807274
93	0x3d2e2e9a	0.04252491
94	0x3d56f181	0.05247641
95	0x3d24fe90	0.040281832
96	0xbd098315	-0.033572275
97	0x3cf6199d	0.03004151
98	0x3d135cbf	0.03597712
99	0xbbd4ab38	-0.0064901374

linears.3.weight f4 [1, 100]
0	0xbe64a47d	-0.22328372
1	0xbe145621	-0.1448598
2	0xbee4ff74	-0.44726145
3	0xbe57414c	-0.21021003
4	0xbed5249c	-0.41629493
5	0x3e57a78e	0.21060011
6	0x3eab77a0	0.33489704
7	0xbe16dbaa	-0.14732233
8	0xbe71776a	-0.23580709
9	0x3efaa742	0.48955733
10	0xbec42b0a	-0.38314086
11	0x3f0cd259	0.55008465
12	0xbecb9b0e	-0.39766735
13	0xbead2e49	-0.33824375
14	0x3e95d4f7	0.29264042
15	0x3ec8f448	0.39248872
16	0xbebd42d0	-0.36965036
17	0x3eb3736e	0.35049003
18	0xbf0026b1	-0.5005904
19	0x3e863bc7	0.26217481
20	0x3e614282	0.21998027
21	0xbeb40c5f	-0.35165688
22	0x3efe7d58	0.49705005
23	0x3d81c425	0.0633624
24	0x3ec051ff	0.37562558
25	0xbecac57d	-0.39603797
26	0x3efd4b1b	0.49471363
27	0x3dbfcf97	0.093657665
28	0x3e8f79f1	0.2802272
29	0x3e7e1da3	0.24815993
30	0xbe870c70	-0.26376677
31	0x3eb6282c	0.35577524
32	0x3e2b5a7b	0.16733734
33	0x3f00d830	0.50329876
34	0xbe571883	-0.21005444
35	0x3ec154ca	0.3776
36	0x3e2e61cb	0.17029493
37	0xbf1b2b2d	-0.60612756
38	0x3f2a9d11	0.66645914
39	0xbf02b935	-0.51063854
40	0x3e8f607f	0.28003308
41	0xbef8b4b9	-0.4857538
42	0x3e32c55c	0.17458099
43	0xbe771a3d	-0.24131103
44	0xbe96a2ef	-0.29421183
45	0xbee9cf98	-0.45666194
46	0xbf2d8340	-0.67778397
47	0x3e04a4e6	0.12953529
48	0x3e14cb93	0.14530782
49	0x3ead01bb	0.33790383
50	0xbeb9354b	-0.36173472
51	0xbedcccb4	-0.43124926
52	0x3ebb1a84	0.36543667
53	0xbe661608	-0.22469342
54	0x3e00a24d	0.12561913
55	0xbe6d099d	-0.23148198
56	0xbe6c8367	-0.23097001
57	0xbec398ee	-0.38202614
58	0x3f01b002	0.5065919
59	0xbee1e56a	-0.44120342
60	0xbe9cead4	-0.3064791
61	0x3f3b79ab	0.73232526
62	0xbe9532d8	-0.29140353
63	0xbe968473	-0.29397926
64	0xbe9340e7	-0.28760454
65	0x3ede9d4e	0.4347939
66	0xbe3cefaf	-0.18450807
67	0x3efd7ef8	0.49510932
68	0xbe68bb2b	-0.22727649
69	0xbe84f28f	-0.25966308
70	0xbec4d1b3	-0.38441238
71	0xbe4c595f	-0.19955967
72	0x3d31ae46	0.04337909
73	0xbe1cb8a5	-0.15304811
74	0xbe96f517	-0.29483864
75	0x3f1610c4	0.5861933
76	0xbe9829a9	-0.29719284
77	0xbf4d9b91	-0.803155
78	0xbed1165b	-0.40837368
79	0x3e3aecf8	0.18254459
80	0x3e77b145	0.24188717
81	0x3f6266ec	0.88438296
82	0x3e77fcbb	0.24217503
83	0xbf03fdae	-0.5155896
84	0x3e66ac24	0.22526604
85	0xbe9812c2	-0.2970181
86	0xbeee099d	-0.4649171
87	0xbe47e64f	-0.1952145
88	0x3e543d34	0.20726472
89	0x3e8b37f2	0.2719112
90	0x3e94e1f2	0.29078633
91	0x3e612d24	0.21989876
92	0xbf43c777	-0.76476234
93	0xbf0b58e2	-0.544325
94	0xbe8e1ceb	-0.27756438
95	0xbe08de12	-0.13365963
96	0x3eab8309	0.3349841
97	0xbeb6c4f8	-0.3569715
98	0xbe061b5d	-0.13096376
99	0x3f22b468	0.6355653
