Complete_thesis_stage_1_and_2/(d).Code_and_all_other_details/LASER_DED/models/model_epoch_1000.pt (torch, 86572 bytes, 7 tensors)

linears.0.weight f4 [100, 4]
00000000: 1939 27be 1eea 16be 4666 103e 956f ac3d
00000010: 081c 423e a113 61bc 5349 fa3c af7d c53d
00000020: eeab 113e 3edc 43be cae8 99bd 9edc 193e
00000030: 208b 33be 22c7 45be dc1c c13d da0c e53d
00000040: 7428 f03c 0662 a73d 5b67 673e 2d78 c13d
00000050: edb9 8ebd 3567 0a3e 4822 44be 68f5 4d3e
00000060: a471 4f3d 3755 d13d c750 5dbe ca15 0cbe
00000070: 1923 f1bd 440b ebbd cff5 343d 9e42 4e3e
00000080: f9a5 85bd 982a 88bd 4c6a 0b3e 6219 013c
00000090: 4803 cf3d d58b b8bd 39d4 eabd 2304 6e3e
000000a0: 2333 41be 3be8 98bd df3b 69be 1c8b de3d
000000b0: c997 48be 89e0 12be 1b87 743d 5e81 3dba
000000c0: 7b25 3e3c cc09 45be 83d9 bf3d e28e aabd
000000d0: fdc3 73bd d75d 4dbe a91d 41be 50e7 723e
000000e0: 7b56 5c3d b4df 2b3e e7a0 0abe a8e6 313d
000000f0: f051 85bc 923f 7a3e b297 e33b a060 e03d
00000100: a212 d13b c579 fa3d abbf 3ebe e4e8 cd3c
00000110: f072 5e3c 836f 45be f37e 503e f55f 37be
00000120: f8a6 85bc 67a6 55be 0012 4abc 650b 1b3d
00000130: 099f 543e 68fa 20bd 0401 273d 4bae 073e
00000140: 3af8 d63d 0104 4f3e 627a 7cb9 7556 69be
00000150: e609 5b3e a4c1 133e 35aa 2e3c d18c 3f3e
00000160: 0e3e 3ebd 8486 373d a805 74be 6bc1 03bd
00000170: 820d 7a3c 4535 d9bc 1050 ef3d 4e17 e23c
00000180: e41d 1a3e 5cd6 2ebe 2385 5abd 79b1 eb3d
00000190: adb4 f33d d254 3cbd 5314 46be 6a1c 32be
000001a0: 207a 7dbd 0087 dabd 8b1d 563d 98fb 593e
000001b0: 80af 983d 4b89 ef3d 799d 773e a6bc 693e
000001c0: a97f 643e 6882 e8bd fdcf 43be 519e f73c
000001d0: bd3a 643e 94e3 11bd f145 e3bd 4026 03be
000001e0: 02bb 0d3e 0fac 31be 80dc 903d ddf0 6dbe
000001f0: 19f0 413e 0ccc 29be eea9 3a3e d47d 3b3e
00000200: 83c8 4b3d 617e b9bd ed33 55be 945a 12be
00000210: b13b 9abd 3285 233e 5b8f 64be 3a7d 17be
00000220: e502 ea3d ceeb 623e 12be ecbc 273e 343d
00000230: ece6 8dbd b5e2 cbbd 8757 023d 24e1 52bc
00000240: 2741 2f3e 20f2 94bd d4d2 eebc ce66 033e
00000250: 8b6f 40bc 9cd0 353c cda7 413e 7c3d 1fbe
00000260: c2cd 3bbe c825 2f3c 3b32 24be d27f 05be
00000270: 8606 07be 3a6a e7bd cbff ef3d f84d b73d
00000280: ba3a 1d3e 54a6 89bd 312b b03c 0e2d 03be
00000290: 81b7 c1bd a483 9a3b 7484 86ba aacb 97bd
000002a0: dcc7 f63d 3587 033e 79ac 18bd 62cb 1f3d
000002b0: cb57 1dbe de68 25bc 3acc ddbd 6ff6 35be
000002c0: c573 b9bd ae30 43be e743 0ebe 54a6 12bd
000002d0: 9469 48bd 8ba8 0dbe 56f5 ee3d 81cd 2fbe
000002e0: d685 063e 7b96 2cbd 3733 eabd f410 783d
000002f0: be22 81bc ea38 60be 2556 07be 164c 89bd
00000300: a221 353e bb9f cf3c bd6f 263e b14b dd3d
00000310: 7472 4abe 37f3 493c 4b4f 3abe 06cd 293e
00000320: 66ba a5bd 5475 3cbe 871f a7bb 1782 db3d
00000330: d8eb 263e 43ed 82bd 5ee2 dabd 03c1 4f3e
00000340: f6fb e03d 9126 353e fffd e1bd b4c7 de3d
00000350: 69f9 95bd c4cc 9f3b fc52 2b3e 1b38 67bc
00000360: 9bbb 8dbd ce65 963d 8cd0 1cbe b7cc f13d
00000370: bdc1 03be d184 5d3e 7f7c 323e e4e8 57bd
00000380: c183 da3d 5baf 3dbd 9d6a 51be 2871 b8bd
00000390: c4e0 3c3e 3a30 203c d9dc 3f3d 3244 023e
000003a0: c2a6 443e df8d 31be 069b 2abe b896 dc3b
000003b0: 8519 8bbd 5932 16bd b1e1 e2bd 2a6b bc3d
000003c0: 3c82 f53d a27e 0f3d 1776 c83c 4075 3ebe
000003d0: 929a edbc a483 1a3e 7efd 2a3e 4421 9a3d
000003e0: 234e 8aba 922d 003e b471 ee3c 71a5 993d
000003f0: 71f8 353e 98ba 383e a19a a8bd 38cf 033e
-0.16330375 -0.14737746 0.14101514 0.0841972 0.18956006 -0.01373759 0.030552542 0.09643113
0.14225742 -0.19126984 -0.07515104 0.15025565 -0.1753354 -0.19314244 0.094293326 0.11184092
0.029316165 0.08172993 0.2259802 0.0944675 -0.06969056 0.13515933 -0.19153702 0.20113146
0.050645486 0.102213316 -0.21612845 -0.13680187 -0.117742725 -0.11476758 0.044179734 0.201426
-0.065257974 -0.06648749 0.13614768 0.007879587 0.10108048 -0.09011046 -0.114662595 0.23243766
-0.18867163 -0.074661694 -0.22776745 0.10866377 -0.19589151 -0.14343466 0.05969916 -0.0007229055
0.011605616 -0.19242018 0.09367659 -0.08328034 -0.05951308 -0.20055328 -0.1885897 0.23721051
0.05379341 0.16784555 -0.13537942 0.04343286 -0.016274422 0.24438313 0.0069455737 0.1095593
0.006380395 0.12230257 -0.18627803 0.025135465 0.013577208 -0.1928082 0.20360927 -0.17907698
-0.016314968 -0.20864259 -0.012333393 0.037852664 0.20763792 -0.039301306 0.040772453 0.13250081
0.10496564 0.20216371 -0.00024078184 -0.22786887 0.21390495 0.14429337 0.010660698 0.18706061
-0.0464459 0.04480602 -0.23830283 -0.03216688 0.01526201 -0.026514659 0.116851926 0.027599003
0.15050465 -0.17073959 -0.053349625 0.115084596 0.118996955 -0.04597933 -0.1934369 -0.17393652
-0.061884046 -0.106702805 0.052274268 0.21287382 0.07455349 0.116961084 0.24181165 0.2282587
0.22314323 -0.11352998 -0.1912231 0.030226858 0.22288032 -0.035617426 -0.11097325 -0.1280756
0.13840869 -0.17350791 0.07073307 -0.23236413 0.18939246 -0.16581744 0.18228886 0.18309718
0.04975177 -0.09057308 -0.2082059 -0.14292365 -0.075309165 0.15968779 -0.22320311 -0.14793864
0.11426333 0.22160265 -0.028899226 0.044004586 -0.069288105 -0.0995535 0.031821754 -0.0128710605
0.17114697 -0.07272744 -0.029153265 0.12832186 -0.011745344 0.0110971 0.18911667 -0.15550798
-0.18340209 0.01069016 -0.16034786 -0.13037041 -0.13186082 -0.11299558 0.117187105 0.08950418
0.15354434 -0.06721178 0.02150497 -0.12810156 -0.09458829 0.0047154 -0.0010262863 -0.07411893
0.12049839 0.12844546 -0.037273858 0.03901232 -0.15365522 -0.010095803 -0.10829969 -0.17769788
-0.090552844 -0.19061539 -0.1389309 -0.035803154 -0.048928812 -0.13833825 0.11667888 -0.17168237
0.13136992 -0.042135697 -0.1143555 0.060563043 -0.015763637 -0.21896711 -0.13216455 -0.06703965
0.17688611 0.02534472 0.16253562 0.108054526 -0.19770223 0.012326053 -0.1819431 0.16582116
-0.08092193 -0.18404132 -0.005100194 0.10718172 0.16300905 -0.0639291 -0.10687707 0.20288472
0.10985558 0.17690493 -0.11034774 0.10877934 -0.07322962 0.004876705 0.16730875 -0.014112498
-0.069205485 0.073436365 -0.1531393 0.118066244 -0.12866874 0.21632697 0.17430304 -0.052712336
0.10669661 -0.04630981 -0.20450826 -0.09005958 0.18445116 0.009777123 0.046841476 0.12721327
0.19204238 -0.17339276 -0.16660699 0.0067318343 -0.06791977 -0.03666911 -0.110782035 0.092001274
0.11987731 0.035032876 0.024470372 -0.18599415 -0.029004369 0.1508928 0.16698262 0.07525876
-0.0010551851 0.12517384 0.029106952 0.075022586 0.17770554 0.1803993 -0.08232618 0.12872016

linears.0.bias f4 [100]
00000000: f9d3 bebc ec7a 87bd db73 473b e578 453c
00000010: 3fcc 41bd 2f9c 04ba 0a94 4e3d 82ab c9ba
00000020: d5f1 3bbd bc8d 12bd a929 793d 7589 6e3d
00000030: 93c6 7cbd 6962 3bbd 5ed3 f5bc 108b 203c
00000040: aa95 babc 837e 12bd 877f 38bd 8a86 1a3c
00000050: 8307 28bc ffc9 683c 2612 903d 3b25 39bd
00000060: 24a2 45bc 1024 873d f3c3 f3bc 9e6d 6fbd
00000070: b9f7 22bd ce3e ecbc 71eb f73c 9587 1abd
00000080: 6a64 573d a45c 4f3d ba5f 3ebd c541 223d
00000090: bbd5 93bc 18c6 ae3c eb10 f7bc 2585 38bd
000000a0: 61ba c83c 8521 34bd 21b7 5ebd e8a3 3c3d
000000b0: 3a01 673d 6e4a 4a3d cbd8 bf3c 3c22 05bd
000000c0: ac21 813b 4c9e 93bc 3e0a 47bd 711b d3bc
000000d0: 96ba 3fbd e282 d63c a92c 99bc e64f 8cbb
000000e0: 1a59 7f3d 1ee5 38bd 113b a63d ec9b 05bd
000000f0: a446 ec39 f6d2 74bd 63b2 3abd cdb4 0dbd
00000100: d709 4fbb d40f c8bc e063 c2bc 03f2 883c
00000110: 11ed 8fbd c5c8 593d acb4 4f3d f5d8 95bc
00000120: a6b5 b0bc a56a 7cbd 7559 39bd 4a49 a13b
00000130: 0d3b b33c 4587 b53c d515 8f3d 3d26 92bc
00000140: 934f 173d 5ff1 073d 2bd9 863c 9e74 d1bc
00000150: f9b4 2b3d 6fd9 683b cc15 ef3c 92a0 10bd
00000160: f385 0cbd 93d3 6bbd 8871 83bd 84a6 e3bc
00000170: d2fe 3c3d ad88 38bd f2cf 1bbd 350f 1b3d
00000180: a1f9 363d 7b9f d6bc 18ba 22bd 2714 4fbd
-0.023294436 -0.06615242 0.0030434045 0.012052749 -0.047313925 -0.00050586736 0.05043415 -0.0015386196
-0.045884926 -0.0357797 0.060830746 0.058236558 -0.061712813 -0.045748148 -0.030008014 0.00979878
-0.022776444 -0.035765182 -0.045043495 0.009431491 -0.010255697 0.014208316 0.070347115 -0.04520152
-0.012062583 0.06598675 -0.029756522 -0.05845415 -0.039787028 -0.028838541 0.030263634 -0.037726957
0.052585997 0.05062546 -0.04647801 0.039613504 -0.01804625 0.021334693 -0.030159434 -0.04504885
0.024502935 -0.04397728 -0.054373864 0.04605475 0.056397654 0.049387388 0.023418805 -0.03250335
0.0039407816 -0.018019818 -0.048593752 -0.025769921 -0.0468088 0.026185457 -0.018698053 -0.0042819856
0.062340833 -0.04514038 0.08116735 -0.0326194 0.0004506606 -0.0597715 -0.04558028 -0.034596253
-0.0031591558 -0.02442161 -0.023729265 0.016716963 -0.07027639 0.053169984 0.05070941 -0.01829193
-0.021570992 -0.06162514 -0.04525133 0.004922067 0.021878744 0.022159228 0.06986586 -0.017840499
0.036941122 0.033189174 0.016460976 -0.025568303 0.041920636 0.003552999 0.029185198 -0.03530938
-0.03430743 -0.05757482 -0.06418139 -0.027789362 0.046141453 -0.04505222 -0.03804011 0.0378563
0.04467166 -0.026199093 -0.039728254 -0.05055633

linears.1.weight f4 [100, 100]
00000000: 91cd d9bd 18a7 163e fb2c b23d e08f d33d
00000010: 5850 2a3e 214f 153e b089 8d3c 90aa 85bd
00000020: 0aac 04bb 6d21 83bc 741c 28bd 3d88 1fbe
00000030: a122 8c3d 5f10 08be b6bc e4bd 7273 1bbd
00000040: e53b e1bd 8446 f63d 48ef 3ebc 7bc0 94bc
00000050: 1eec e0bd dd9b 203c c17c 88bd d74f 3c3d
00000060: ad71 17be ff87 f3bd 7f6a 183e b170 42bd
00000070: 65cc 11be 0d58 3bbd 1e11 ed3d 975c 113d
00000080: 7a11 3fbd b7df f3bd f954 09be d493 7d3d
00000090: ab54 d53d 2613 18be e77e e43d 1d18 5e3e
000000a0: 3d6e 85bd f0ae fb3d a07f 3a3e b754 3ebd
000000b0: 29b0 073d 9ce4 743d 5c9c 0dbe 6850 be3d
000000c0: 96d4 34be 53a0 253d e97e 023e 4d91 c23d
000000d0: 8349 afbd f1ad 1fbe a17e 0cbe 0eea 2f3e
000000e0: 4f52 cdbc 82ca 20bd 9da1 ea3c 8c4d 413d
000000f0: 124d 1c3e a814 7fbd c006 f33d 7d21 2d3e
00000100: 602f b9bc cfb6 1f3e 1010 7abd 0777 10be
00000110: 1387 313e 8363 e5bd 3bc3 a0bd 200e 1c3e
00000120: 8d9f a4bd e797 023e b703 b9bd 1401 ce3c
00000130: 53dc 43bb b05c dbbd d247 37be feca b0bd
00000140: 4dd3 9fbd 430a e83d d90d b3bd a941 063e
00000150: 5f88 483d fc70 113d c435 53bc 5050 633d
00000160: bc49 d33d 511c f63d 7a3e 0a3e ee9e f13d
00000170: 01bb 41be f2f1 b6bd 8a44 ae3d 08ad 823d
00000180: f348 b83d 8aeb 083e 36f9 693d f760 4a3d
00000190: 8bfc 473d c6a5 13be 6f3b d83c c463 1a3e
000001a0: 0f0b 26be 0a49 bb3d 2986 83bd 347f ba3d
000001b0: 43c7 6c3d 5d03 9dbd c725 02be 1b3a b63d
000001c0: 876e 1e3e 85c9 dbbd 6236 f73d 26b8 443d
000001d0: e8a8 acb9 fd80 293e 3a54 1f3d b5c4 dc3d
000001e0: 5d8d 373d 2f60 09be 4aa6 e93d 0f28 4d3e
000001f0: 2159 b2bd a23a a23d 561d b53d 5cb8 00bd
00000200: 49b4 163e 59c8 0ebe fb4d 34bd f744 323d
00000210: 2a2a 283d 8059 7b3d 6f5d 703d 773b 013e
00000220: f6bd 87bd 78a4 013e 82b1 cebd 73c8 1c3b
00000230: 5538 0abe 4880 4fbd 9112 913d cab4 193e
00000240: 3a0a bcbd 0da8 a93d fd48 1cbc 4be0 0dbe
00000250: fb85 633c 8921 efbd 6fd4 f83c 558d 1d3d
00000260: c09d ffbd 57b4 1e3e 4da6 15be f2f9 9d3c
00000270: 9052 09bb b0dc 843c 53e7 29bd 1894 363e
00000280: ac9f a43d 8e63 33bd 87f6 003e aa06 173e
00000290: 3124 89bd 279d 28bd f5b2 c63d 75cf 1c3e
000002a0: e34e fe3d c02d a1bd 6f80 d23d b736 c63d
000002b0: 580d 4d3d 8d10 1bbc 9d4a 043e 82ef e1bc
000002c0: f23b 043d 2c58 9abd bead d03d 478c 5abd
000002d0: 500f 0f3e d7c4 0e3d 9344 8a3c fe32 2bbe
000002e0: 3996 073e 8da7 0f3e e510 2bbe 3045 d83c
000002f0: b684 e03c 0f06 243e de24 283e 72ae 253e
00000300: 96ea 0fbd 2b23 453e 2e70 fc3d d166 74bd
00000310: fc04 bdbd c54b 91bd 3a44 153e 0192 8dbc
00000320: 804c b2bd d419 c53d 0c5e 333e 2a8a a33c
00000330: f42c 0a3e 7660 2d3e 0905 30be 0001 bc3d
00000340: f602 ec3d 75fb 043c cd21 0f3e 0df6 2fbe
00000350: 9d8e a63d 2b67 03be 3080 bcbd fbc6 4fbc
00000360: ccd0 c0bd 20a7 653d 77d3 033e e777 02be
00000370: d98e 30be fa30 98bd 2f7a bcbc 7b14 e83d
00000380: 757a 0c3e 7a97 a53c f664 d23d dad7 38bd
00000390: 6051 e63d 88f4 293e e45b cdbc 24b3 7c3d
000003a0: 093f 6ebd 2374 e6bb 8861 13be 029f 74bd
000003b0: 220d bebd 4afc 10bc 0321 30be 6565 223e
000003c0: 7cae 133e 5f5a 27be 12ac 103e e655 e73d
000003d0: ee36 953d feaa 013e 2cc0 9b3d f269 0f3e
000003e0: e544 fdbb 38af a6bd d11e f93b 3068 85bd
000003f0: 82b6 113d 7974 053e f91c 21bc c058 6a3c
-0.10634912 0.14712179 0.086999856 0.10330176 0.16632211 0.14580967 0.017277569 -0.06526673
-0.0020244145 -0.01600715 -0.04104276 -0.15579315 0.068425424 -0.13287495 -0.11168806 -0.037951894
-0.10997752 0.120251685 -0.011653729 -0.018158188 -0.10982536 0.009802786 -0.0666442 0.04597458
-0.14789458 -0.118911736 0.14884375 -0.047470752 -0.14238127 -0.04573827 0.115755305 0.03548869
-0.046647526 -0.119079046 -0.13411321 0.061908558 0.1041654 -0.14851055 0.11157017 0.21688886
-0.06515167 0.12289226 0.18212748 -0.04646751 0.033126984 0.05978833 -0.13829178 0.0929268
-0.1765922 0.0404361 0.12743725 0.0950037 -0.08558943 -0.15593697 -0.1372018 0.17179129
-0.025063662 -0.039255626 0.028641516 0.047193095 0.15263775 -0.06227556 0.11866522 0.16907306
-0.022605598 0.1559708 -0.061050475 -0.14107905 0.17336683 -0.11200621 -0.07849737 0.15239763
-0.080382444 0.12753259 -0.09033912 0.025146998 -0.0029885962 -0.10711038 -0.17898491 -0.08632468
-0.07803974 0.11330082 -0.087428756 0.13110985 0.04895818 0.03550814 -0.012891237 0.055496514
0.10316798 0.1201712 0.13500395 0.117978916 -0.18918993 -0.08932866 0.085091665 0.06380659
0.08998289 0.13371101 0.05712243 0.04940888 0.048824828 -0.14418706 0.026395528 0.1507712
-0.16215156 0.091447905 -0.064220734 0.09106293 0.05780722 -0.07666657 -0.12709723 0.088978015
0.1547185 -0.10731796 0.120709196 0.04802718 -0.0003293224 0.16553111 0.038898684 0.107797064
0.04481255 -0.13415597 0.1140867 0.20034812 -0.08708406 0.079213396 0.08843486 -0.03142582
0.14717211 -0.13943614 -0.04401968 0.0435228 0.041055836 0.06136465 0.058682855 0.1262034
-0.06628029 0.12660396 -0.10092451 0.0023923188 -0.13498051 -0.050659448 0.070836194 0.15010372
-0.09181638 0.08284006 -0.009538886 -0.13855092 0.013886924 -0.11676318 0.030374734 0.038464863
-0.1248126 0.15498482 -0.1461422 0.019284222 -0.0020953752 0.016218513 -0.041480374 0.17829931
0.080382675 -0.043796115 0.12594043 0.14748636 -0.06696356 -0.041165497 0.09702102 0.15313514
0.1241739 -0.07870054 0.10278403 0.09678405 0.050061554 -0.009464395 0.12919088 -0.027580027
0.03228373 -0.07536349 0.10189389 -0.053356435 0.13970685 0.03485569 0.016878402 -0.1671867
0.13240899 0.1402876 -0.16705664 0.026400179 0.027407032 0.16017936 0.16420314 0.16179827
-0.035135828 0.19251697 0.12326084 -0.059668366 -0.09229466 -0.0709453 0.14576808 -0.017281534
-0.087059975 0.09624067 0.17516345 0.019963343 0.13493711 0.16931328 -0.17189421 0.09179878
0.11524002 0.008116593 0.13977738 -0.17183705 0.0813267 -0.12832324 -0.09204137 -0.012681718
-0.09414825 0.056067586 0.12873636 -0.12741052 -0.17241992 -0.074312165 -0.02300748 0.11332031
0.13718589 0.020213831 0.10273163 -0.045127727 0.1124599 0.16597188 -0.02506823 0.06169428
-0.058165584 -0.0070328875 -0.14392674 -0.059721954 -0.09279849 -0.008849213 -0.17200093 0.15858991
0.1442203 -0.16343068 0.1412814 0.11295681 0.07285868 0.12662885 0.07605013 0.14005259
-0.00772916 -0.08138889 0.0076025506 -0.06514013 0.035574444 0.13032712 -0.009833568 0.014303386

linears.1.bias f4 [100]
00000000: b2bc 7cbd 47ed bebc 3469 ebbc 9d7f d3bc
00000010: 69a1 35bd 39e3 9a3c 3e70 cb3c da13 44bd
00000020: 6819 22bd 2e57 dabc 3317 533c 9faa 1f3d
00000030: b5d1 fa3c a4fb f13c ee9a 013d 1c7d dabc
00000040: f25e f6bc 1bd7 a7bc af55 dabc f17e f13c
00000050: 05e1 b53b 8c23 f5bc fa71 fd3c 436b 4dbd
00000060: 0791 1f3d 5779 c73c 50bd 293c 2a38 8fbc
00000070: d4e4 843c 6571 e5bc 3f5d 6a3d 1ef2 93bc
00000080: 29a8 b5bc 972c e7bc 4fad b9bc 4774 283d
00000090: aa1f 88bb ac9b ccbc 87d2 b13b edc8 db3c
000000a0: b64c 103d 9048 4abd baa3 8d3c 6c91 dcbc
000000b0: f42a 3b3c c399 b33c 55da 943c 8bb1 6fbc
000000c0: b2fa 14bd 0e97 0a3d 7048 02bd 26ec 573d
000000d0: a56b e3bc 80e4 673c ce76 013d 6b03 7cbc
000000e0: 5290 6f3d 779b f33c 1001 d8bc 2515 b1bc
000000f0: de00 383d 90f5 e7bc dff1 813c 04a8 2ebc
00000100: 1174 a23c d275 b8bc 9f20 783d 2788 0ebd
00000110: 50c9 f3bc ed98 1b3c 857f f2bc e95e ee3c
00000120: 9182 cdbc 586d adbc 04d7 a6bc 839c a33d
00000130: 76c7 6e3c 753c f0bc 06eb e13c 586c 6fbc
00000140: 52f6 0b3d 767e 513d 08bd 18bd db00 b93c
00000150: 9f93 963d 175e 9e3c 5ac6 05bd 6bf1 46bd
00000160: 626b d33c a835 acbb 28d6 02bd 236b 04bd
00000170: a8cf eebc 7f33 32bd 0b2b 8a3c 28da f03c
00000180: 7554 09bd 767a f7bc 6f70 c3bc 1bc2 90bc
-0.06170339 -0.023306502 -0.028736688 -0.025817687 -0.044343386 0.018907176 0.024833795 -0.047870494
-0.03957501 -0.026652899 0.012883949 0.038981076 0.030617574 0.029538937 0.031641893 -0.026670985
-0.03007457 -0.020488312 -0.026652185 0.029479476 0.005550506 -0.029924177 0.030938137 -0.05015112
0.03895667 0.024349852 0.010360077 -0.017482836 0.016222395 -0.028008172 0.057217833 -0.018059786
-0.022174912 -0.028219504 -0.022665648 0.041126516 -0.0041541653 -0.024976574 0.005426708 0.026829207
0.035229407 -0.049385607 0.017289985 -0.026924811 0.011423815 0.021923905 0.018170515 -0.014629732
-0.036371894 0.033835463 -0.031807363 0.052715443 -0.02776129 0.0141536 0.03160744 -0.015381674
0.058487244 0.029737217 -0.026367694 -0.021616528 0.044922702 -0.028315336 0.015862403 -0.010660175
0.019830735 -0.022517119 0.060577985 -0.034797814 -0.02975908 0.00949691 -0.029601822 0.029097991
-0.025086673 -0.021170303 -0.0203662 0.079888366 0.014573922 -0.029325703 0.027577888 -0.0146132335
0.034170456 0.051145993 -0.03728965 0.022583416 0.07352375 0.019331975 -0.032659866 -0.048570078
0.02580804 -0.0052554198 -0.031942517 -0.032328736 -0.029151753 -0.04350614 0.016866228 0.0294009
-0.03352781 -0.030209761 -0.023857323 -0.017670682

linears.2.weight f4 [100, 100]
00000000: 9e07 9c3d 2164 303c 779c 30ba 784d 9c3d
00000010: fc03 893d 1dd8 683d 21ce 793c e190 86bd
00000020: 8c36 f33d a5c7 14be 5df7 4ebc f3f5 8b3c
00000030: 3a95 853c eaac cc3c da42 033e b981 0abe
00000040: 15fe 833d 55ae f43d 1f2e e3bc 4f8d b3bd
00000050: a620 01be 7301 cabd 3048 933d a397 69bd
00000060: bd87 5c3d 5fb1 8b3d ea5d fa3d bbb9 a1ba
00000070: ed76 e43d 8f03 2fbe 9cd2 b13d 77b7 0f3e
00000080: 6563 843d 26c8 a33d 8fdb 273e 4c63 e13d
00000090: 10af 883c 03f7 9ebd a0f2 743d 071b 1cbe
000000a0: 3c8c 763d b4f5 53be 9622 dc3d a228 39be
000000b0: 183f f8bd 9ce6 933c 88eb a13d 920a 613c
000000c0: 1895 bbbd 8b60 fbbc 859a 2fbe 60c1 ac3d
000000d0: 690e 0cbe 5b66 17be bd4b ff3d 3682 193c
000000e0: 9fb8 3b3e 84e9 83bd 593c ac3c daa4 de3d
000000f0: 93e8 443e 44c4 fdbd fe61 003c 90d8 85bc
00000100: a3af 953d d414 b13d 79ee 82bd bc8d 713d
00000110: 5bb4 543d 75b6 1c3d f784 59bc f728 793d
00000120: 749a 1bbe a427 c3bd 5e5c 2a3e 7daf f63d
00000130: 47fe 253e a4f9 903d b09a ef3c c321 bb3d
00000140: 9ba1 1fbe 38ed 363e 0e62 0d3e d78c a23d
00000150: 0084 dd3d 0538 fabd fec8 c53d 450c 1fbe
00000160: 8e21 70bc 9a9a c83d 6c39 f23d 4082 59bc
00000170: f610 56bd 69f7 a63c 6a78 ce3d 0df3 d33c
00000180: 2901 0b3d dda1 a33c 450e 1c3e 3aed 5b3d
00000190: 8b91 173e 1149 3bbd 7ffc 26be 511e 12be
000001a0: f623 19be 4ad7 99bd 5d8a 51bd 32ee 1f3d
000001b0: a8cb b8bd 5a4b 0a3e fd5c 9abc 13ef 11be
000001c0: 3ba3 a4bc ebde 393e 53d4 97bc 3764 583d
000001d0: 7bca 09be 1804 5bbd 5aa4 aebd 50f5 91bd
000001e0: a7c3 ecbd 7ac9 a8bc d6c7 a43d 5f46 7fbd
000001f0: 8d20 b93d ac3d 6cbd bda1 093e 617f 1d3e
00000200: b31e e73c 5175 b1bd 9d15 183e 6a15 d6bc
00000210: 082e 04be 2550 da3c ed3c 5ebc f70b 96bd
00000220: 01b6 c1bd d745 623d d35a 823d 98ad 5cbd
00000230: 2f70 08be 3bc9 8bbd 9cc6 103d a125 13be
00000240: e9f0 ffbd 78ab 083d c264 e9bc 1a80 733d
00000250: 4062 dc3d 902c 993d 9b0c eb3c ccb8 f8bc
00000260: 59de d9bd 4813 c13d 661a 16bd 3105 063e
00000270: b629 833d 9cee 07be 5197 173e 5dc1 253e
00000280: afe2 9c3d 0661 af3d 914f 4cbd dd30 163e
00000290: b9a1 683d 1add 8bbd bf2e cc3d 5776 4cbd
000002a0: 8a4a 1cbe 7609 ac3d b03f 9c3d ad49 a4bd
000002b0: e77a e73d df33 0cbd e2a2 dcbd 5460 553e
000002c0: bb9b 8f3d 341e d83d c5f3 1cbe 2fb1 823d
000002d0: 66a0 a6bd 4d00 1abe ef2a 06be c620 233d
000002e0: c945 283e 670d a03d 7b1a 313d ecdb 34bc
000002f0: 7c2c c4bd add6 883d 7e8e 03be def5 673d
00000300: 0a8c 0b3e 71a9 5fbd 3478 1ebe 2ee7 28be
00000310: e334 fbbd 95ab cdbd 849d 9e3d ed96 64bd
00000320: 9568 d0bc dd71 ec3d 22e0 a33d 866e 34be
00000330: 90d3 fabd eda5 303e 0179 063d b6c2 eabd
00000340: 4b7f 803a 9962 093e e13c eb3d 6a8e 543a
00000350: 7012 b03d 0cd6 b83c c2c7 9b3d 22bd b23d
00000360: 86c3 16be 42e3 cc3d ca74 23be d36e 933c
00000370: c885 3cbd 8e9a 123e 27b0 7cbd 4e56 fcbd
00000380: 68e4 8cbc 6987 d33d e1e8 c03d 4f20 9bbd
00000390: e22b 883d 9815 f93c 38ef 0e3e 4529 763c
000003a0: 8bf3 1ebe f911 a63d dcbe 08be 27bb 00bc
000003b0: 0254 1f3e dc15 1abe 695c 9fbc 3ad9 d23d
000003c0: 1b31 753d ebfe 62be 55df f63d 379f 2cbe
000003d0: fa6e cebb 2edb df3d d064 043e d345 bcbd
000003e0: 245f dcbd 51fe 303c a3b6 dcbc 115d 353e
000003f0: d0d4 253d 671d 233d f1d5 8cbb a13b 0fbe
0.0761864 0.01076606 -0.0006737182 0.076319635 0.06690213 0.056846727 0.015246899 -0.06570602
0.11875638 -0.14529283 -0.012632218 0.017085051 0.016306508 0.024984796 0.1281847 -0.13526048
0.06444947 0.11947314 -0.027731953 -0.08767187 -0.1261011 -0.09863558 0.07191503 -0.057029378
0.053840388 0.0682094 0.12224944 -0.0012338677 0.11155496 -0.17091201 0.08682749 0.1403483
0.064642705 0.0799716 0.16392349 0.110052675 0.016685039 -0.077619575 0.059801698 -0.15244685
0.06019233 -0.20699197 0.10748784 -0.18081906 -0.12121409 0.018054299 0.07906252 0.01373543
-0.09159297 -0.030685684 -0.17148788 0.08435321 -0.13677372 -0.1478514 0.12465618 0.009369424
0.18332146 -0.06441024 0.02102487 0.10871287 0.19229345 -0.1239095 0.007835863 -0.016338617
0.07308891 0.08646551 -0.06393141 0.05897306 0.051929813 0.038259942 -0.01327633 0.060830083
-0.15195638 -0.09529045 0.16636798 0.120451905 0.1621028 0.07078865 0.029248565 0.09137299
-0.15588991 0.1786393 0.13806936 0.07937019 0.108161926 -0.12217716 0.09657477 -0.15532024
-0.014656438 0.09795113 0.118273586 -0.013275683 -0.05226227 0.020381646 0.10081561 0.025872732
0.033936653 0.019974643 0.15239818 0.053693034 0.14801614 -0.04572398 -0.16307257 -0.14269377
-0.14955124 -0.07511766 -0.051157344 0.03904552 -0.09023219 0.13505307 -0.018843168 -0.14251356
-0.020097366 0.18151443 -0.018533861 0.052829947 -0.13456146 -0.0534707 -0.08527441 -0.07126868
-0.11560755 -0.020603884 0.08045928 -0.06232297 0.09039412 -0.057676002 0.13440605 0.15380622
0.02821288 -0.086649545 0.14851995 -0.026133258 -0.12908185 0.026649544 -0.0135643305 -0.07326501
-0.094585426 0.055242386 0.063649796 -0.05387649 -0.13324045 -0.06825491 0.03534566 -0.14369823
-0.12497122 0.03336665 -0.028490428 0.05944834 0.10760927 0.07479203 0.028692534 -0.030361556
-0.106381126 0.09427506 -0.03664627 0.13087918 0.0640444 -0.13274616 0.14803816 0.16187043
0.07660424 0.085634276 -0.049880568 0.14667077 0.056794856 -0.06829281 0.099698536 -0.049917545
-0.1526281 0.08400242 0.07629335 -0.08021865 0.11302739 -0.034229156 -0.10773255 0.20837528
0.07012125 0.10552636 -0.15327366 0.06381451 -0.08136062 -0.15039177 -0.13102315 0.039826177
0.16432871 0.07815056 0.043238144 -0.011038762 -0.09578797 0.06681571 -0.12847325 0.05663096
0.1362764 -0.05460495 -0.15475541 -0.16494438 -0.12265947 -0.10042492 0.077448875 -0.055807997
-0.025440494 0.11545155 0.08001734 -0.17620286 -0.122473836 0.17250796 0.032830242 -0.114629194
0.0009803561 0.13416518 0.11486221 0.00081083796 0.08597267 0.022563003 0.0760646 0.087274805
-0.14723024 0.100042835 -0.1596252 0.017997181 -0.04602602 0.1431677 -0.06169143 -0.12321149
-0.017198756 0.10328562 0.09419418 -0.07574522 0.06648995 0.030405805 0.13958442 0.015024488
-0.15522592 0.08108897 -0.13354057 -0.007857121 0.1555939 -0.15047401 -0.019453244 0.10295339
0.059861284 -0.22167556 0.12054316 -0.1685761 -0.0062998505 0.10930477 0.12929082 -0.091930054
-0.10760334 0.010802821 -0.026942557 0.17711283 0.040486157 0.039822962 -0.0042979647 -0.1398759

linears.2.bias f4 [100]
00000000: 62df bc3c bcc0 b43c 2e72 b23c f83f b53c
00000010: 70d7 b73c ec7f b3bc 6a6d b8bc 3195 b13c
00000020: aa53 b23c 280f bbbc 0bb4 c43c fa5f babc
00000030: d953 b63c 8625 ce3c 3e84 b1bc f411 b3bc
00000040: 2bc3 b13c f696 bcbc be82 1c3d 36fc b1bc
00000050: ba68 b7bc 9a7d b43c d97d bbbc dd34 a2bc
00000060: 6c38 c7bc 7080 c33c 5594 b5bc aa21 adbc
00000070: d137 b4bc 0f96 bbbc 3191 af3c 7924 b4bc
00000080: fb0e b3bc 631c bdbc 5db7 b53c 3cc1 d0bc
00000090: ac0b b8bc 8704 be3c 1bee cfbc e69f bf3c
000000a0: 719b b6bc a939 d43c b673 b4bc e7bf af3c
000000b0: 423f bb3c 75f0 b23c 5f07 093d 32d5 9fbc
000000c0: 2ca0 b7bc 21ec 0bbd 4e42 b13c 3305 bc3c
000000d0: e199 babc 8bee ae3c 9179 acbc 77d0 cf3c
000000e0: 4d02 c03c 0c04 c33c df48 c6bc 8100 b53c
000000f0: f5eb b73c 110b b9bc 6250 b73c 671d d63c
00000100: 9bd6 b13c 8a48 d9bc ecce e63c 2c74 c7bc
00000110: 2fcb ad3c a698 bc3c 1efe d93c 5a8f b63c
00000120: 13ad 873c 58f9 b73c 1e5e b73c 4376 bdbc
00000130: 248b b63c 5cf3 193d d1b1 b23c eafa bdbc
00000140: 8faf b5bc 2060 bdbc 19ba b9bc a371 b93c
00000150: 851c b8bc 8ef2 af3c 92a6 b23c f4e2 c43c
00000160: d173 bcbc 360a a9bc 996e b4bc 7289 b6bc
00000170: 2593 be3c 4c9f bb3c 12d9 b73c a754 b33c
00000180: 1214 b5bc 6a2a bb3c 9133 b53c 4d04 f2bc
0.023055736 0.02206456 0.02178296 0.02212523 0.022441596 -0.021911584 -0.02251311 0.021677585
0.02176841 -0.022834376 0.024011632 -0.022750843 0.022256779 0.025164377 -0.021669503 -0.021859147
0.021699509 -0.023021203 0.038210623 -0.021726709 -0.022388805 0.022032548 -0.022887157 -0.019800598
-0.024318896 0.023864955 -0.022165457 -0.021134216 -0.021999272 -0.022898702 0.021431537 -0.021990048
-0.02185773 -0.023084825 0.022182161 -0.025482766 -0.022466503 0.023195518 -0.025382092 0.023391675
-0.022290917 0.0259064 -0.022027832 0.02145381 0.022857312 0.021843174 0.033454295 -0.01951084
-0.022415243 -0.034160737 0.021638062 0.022951698 -0.022778453 0.02135398 -0.021054061 0.025367958
0.023438597 0.02380564 -0.02420467 0.022094967 0.02245138 -0.022588285 0.022377197 0.026137067
0.021708777 -0.026523847 0.02817484 -0.024347387 0.02121505 0.023022007 0.02661043 0.022285152
0.01656202 0.022457764 0.022383746 -0.02312768 0.022283144 0.0375856 0.021813305 -0.023190934
-0.02217844 -0.023117125 -0.022671746 0.022637194 -0.022474537 0.021477964 0.021807943 0.024034001
-0.023004444 -0.020634752 -0.022025393 -0.022282336 0.023263523 0.022903107 0.022442374 0.021890951
-0.022104297 0.022847373 0.022119315 -0.029543066

linears.3.weight f4 [1, 100]
00000000: 809e 02be 3cc3 eabd d027 8bbe 570b 28be
00000010: 8bbb 83be 648c 303e 6da9 193e ec83 f5bd
00000020: a2b8 37be 7961 543e ecc3 15be 965a 753e
00000030: 171b 7dbe 74fa 96bd 3c55 113e e265 483e
00000040: 7216 5fbe 5015 163e 56ef d3bc b9c5 db3d
00000050: cc2e 113e 2896 77be e17f 8d3e c30d cb3c
00000060: 4c64 c73d da20 33be 862d 853e 4393 063d
00000070: e490 493e eab3 f63d 48a1 5abe 98bd 7f3e
00000080: 3cf2 e93d 043e 3a3e 8cd2 f5bd 2657 f03d
00000090: a77a d63d 6b31 68be 0271 7c3d 26b1 2abe
000000a0: a13f 2c3e 92a3 f3bd fb2e b33d 945f 40be
000000b0: ce38 66be 3d4d 87be edd1 d2bd f10c b03d
000000c0: ba41 893d d678 863c e7ba 82be 59d0 5dbe
000000d0: a2e4 353e d6f2 f1bd 2732 573d 5c43 b9bc
000000e0: 65c4 7abd 7dc5 01be 8572 1d3e 576f 61be
000000f0: 4326 47be f020 303e 8cdb 40be 6b46 7ebd
00000100: 9a9f 37be 0887 033e 997e f6bc 6bfd 1f3e
00000110: f72f 3ebe 7871 20be 2c15 dcbd 13d5 c5bd
00000120: b252 f3bb 2bd2 f5bc 2fc4 23be d50d 993c
00000130: 0f3e 61be 46e2 94bd b198 66be 0496 043e
00000140: 5e70 573e cb4f 853e 2df4 223e 3ee1 80be
00000150: ea07 593e 1e69 61be 3149 33be c2b8 8ebd
00000160: 61cb f03d f28c 6d3e 91e9 333e 023d 313e
00000170: 0150 29be b079 5fbe c5ba f2bd beee adbd
00000180: a3c0 3d3e 935a 75be d487 9dbd a0b4 243d
-0.12755775 -0.11463019 -0.27178812 -0.16410576 -0.2572902 0.17241055 0.15006037 -0.11988053
-0.17941526 0.20740308 -0.1462552 0.23960337 -0.24717365 -0.07371989 0.1419267 0.19570115
-0.21785906 0.14656568 -0.02587096 0.10731072 0.14178008 -0.24178374 0.27636626 0.024786836
0.09735927 -0.17493 0.26011294 0.032855283 0.19684178 0.12046035 -0.21350586 0.24974668
0.11423156 0.1818772 -0.12003049 0.11735372 0.10472613 -0.22675101 0.06163121 -0.1666914
0.16821148 -0.11896433 0.08749195 -0.1878646 -0.22482607 -0.26426116 -0.102939464 0.085962184
0.067019895 0.016415041 -0.2553322 -0.2166151 0.17762998 -0.118138954 0.052538063 -0.022615127
-0.061222453 -0.12672992 0.15375717 -0.22015129 -0.1944819 0.17200065 -0.1883375 -0.062078875
-0.17931977 0.12844479 -0.030089663 0.15624015 -0.18572985 -0.15668285 -0.10746226 -0.09659781
-0.0074256295 -0.030007442 -0.15992807 0.018683353 -0.2199633 -0.07269721 -0.22519185 0.12947851
0.21038958 0.2603744 0.15913458 -0.25171846 0.21194425 -0.22012755 -0.17508389 -0.069688335
0.117575414 0.23198298 0.17569567 0.17308429 -0.16534425 -0.21823764 -0.1185203 -0.08492802
0.18530516 -0.23960333 -0.07691923 0.04021132
