Complete_thesis_stage_1_and_2/(d).Code_and_all_other_details/LASER_DED/models/model_epoch_32000.pt (torch, 86584 bytes, 7 tensors)

linears.0.weight f4 [100, 4]
-0.6979966 -0.5570702 0.08002922 0.6503851 0.25778183 -0.7142043 0.19858013 0.23177193
0.03283179 -0.17599653 -0.10423985 0.17571378 -0.72503334 0.1412569 0.046409164 0.48687562
0.17734174 0.6247605 0.41305208 0.4522139 -0.14126621 0.38328853 -0.24890631 0.2001884
0.45656738 1.0031888 -0.40191168 -0.23219788 -0.6105514 -0.40026233 -0.13506413 0.63746125
-0.22480719 -0.100650795 0.25679177 -0.042449273 0.2887673 0.08802864 0.0348506 0.25506553
-0.85904914 -0.72787964 -0.22294804 0.5355297 0.08888605 0.23514204 0.16873275 0.14551768
0.075049356 -0.21305579 -0.046759266 -0.33950865 -0.17178714 0.32133412 -0.16553058 0.2723096
-0.19002987 0.2468856 -0.21173318 -0.07644771 -0.37924775 0.4426124 0.031335216 0.403247
-0.029233195 -0.021635244 -0.20335111 0.012421223 0.14838208 -0.05226373 0.54435927 -0.1338351
-0.09079747 -0.04349686 -0.0908323 0.07023576 0.28736544 -0.18342821 0.11204654 0.23417915
0.23722585 0.35633448 -0.028936442 -0.39473757 0.16921125 0.7110616 0.11335085 0.33025655
-0.26787803 0.09574556 -0.30232534 -0.19929057 0.031005051 -0.033456087 0.11901538 0.13071479
0.2575955 -0.4711252 0.0077171046 0.098379746 0.42915007 -0.8956444 -0.3605231 -0.5356999
-0.293278 -0.7061751 0.03573308 0.39308572 0.45433095 0.11102887 0.60323614 0.4438132
0.47271553 0.028128041 -0.19130361 0.15271515 0.2815734 -0.04909767 -0.11468365 -0.16916293
0.39334568 -0.59851503 0.08969865 -0.32203883 0.3473904 -0.04809978 0.34215888 0.40276513
0.07068492 -0.5032125 -0.30729774 -0.42563146 0.072131716 0.31067267 -0.36476055 -0.7660611
0.18623467 0.09064561 -0.016560707 -0.00024091662 -0.078362085 0.12042963 0.073124856 -0.011086662
0.22479123 0.69748384 0.124877624 0.31332555 0.0062150764 0.20046377 0.26594135 -0.16342422
-0.34418532 -0.13310641 -0.23283908 -0.29155025 -0.3110851 -0.2921405 0.10407347 0.16406286
0.52123463 -1.4084476 0.16696961 -0.36642334 -0.11287805 0.010802818 -0.046816748 -0.10131649
0.451686 -0.32660142 0.045188453 -0.091202654 -0.18779416 0.08548283 -0.15118444 -0.13063392
-0.4662301 -1.3133008 -0.42733452 0.05795292 -0.05783467 0.2651539 0.081157416 -0.20533927
0.22230525 -0.27470088 -0.07283201 0.08839182 0.015471216 -0.13528255 -0.1828814 -0.10787654
0.4198815 0.28231284 0.2648022 0.3964857 -0.3345068 0.37164047 -0.22765821 0.22363186
-0.248764 0.39350972 0.010176766 0.18784612 0.11043373 -0.40350097 -0.06565773 0.24776782
0.077916145 0.1601043 -0.13975684 0.046712622 -0.09616671 0.22222582 0.21312544 0.039308533
-0.10452437 0.43465018 -0.19615304 0.08989635 -0.118146166 0.54087716 0.2529503 -0.00298424
0.36529857 -0.9481136 -0.38454098 -0.18816938 0.2155293 -0.080808945 0.10589205 0.1205038
0.12223418 -0.445601 0.21538763 0.18279357 -0.0096232025 -0.13193288 -0.1788776 0.0070034973
0.28001633 0.18928392 0.044757128 -0.28274405 -0.022559525 0.688129 0.28463352 0.29368407
0.060252324 0.23493393 0.071839094 0.14145724 0.21175368 0.36735013 -0.17467788 0.20018573
00000000: e8af 32bf 279c 0ebf 5ce6 a33d a37f 263f
00000010: fbfb 833e 18d6 36bf 9758 4b3e 9f55 6d3e
00000020: a17a 063d 6f38 34be b47b d5bd 50ee 333e
00000030: c99b 39bf a6a5 103e 8917 3e3d c347 f93e
00000040: 1399 353e 4ef0 1f3f 907b d33e 9588 e73e
00000050: 17a8 10be 653e c43e 4ce1 7ebe 30fe 4c3e
00000060: 33c3 e93e 7e68 803f 5ec7 cdbe 48c5 6dbe
00000070: 194d 1cbf 2fef ccbe 404e 0abe a930 233f
00000080: db33 66be 0122 cebd 367a 833e 4adf 2dbd
00000090: 4fd9 933e 5c48 b43d 81bf 0e3d f397 823e
000000a0: a5ea 5bbf 5256 3abf 7e4c 64be 7918 093f
000000b0: e409 b63d 13c9 703e 47c8 2c3e 9602 153e
000000c0: 7ab3 993d 4c2b 5abe a586 3fbd 14d4 adbe
000000d0: f8e8 2fbe e885 a43e d980 29be 2a6c 8b3e
000000e0: 3197 42be 94cf 7c3e 95d0 58be 9e90 9cbd
000000f0: c32c c2be 189e e23e 5b59 003d 6476 ce3e
00000100: 747a efbc 653c b1bc 463b 50be 6382 4b3c
00000110: 79f1 173e 7e12 56bd 215b 0b3f 120c 09be
00000120: 06f4 b9bd c329 32bd 4906 babd c4d7 8f3d
00000130: 9021 933e 9bd4 3bbe a878 e53d a9cc 6f3e
00000140: 55eb 723e 7971 b63e 1e0c edbc 0b1b cabe
00000150: b745 2d3e 2208 363f 7e24 e83d 6317 a93e
00000160: 4f27 89be 4016 c43d 63ca 9abe d412 4cbe
00000170: 4efe fd3c 4009 09bd 56be f33d 19da 053e
00000180: 8fe3 833e 5237 f1be c4df fc3b 527b c93d
00000190: 8fb9 db3e f448 65bf 7c96 b8be a123 09bf
000001a0: 8928 96be e4c7 34bf da5c 123d 8842 c93e
000001b0: 119e e83e 1b63 e33d af6d 1a3f 7c3b e33e
000001c0: c507 f23e c76c e63c 18e5 43be 5c61 1c3e
000001d0: 642a 903e a31a 49bd 43df eabd 0c39 2dbe
000001e0: 9b64 c93e 4838 19bf edb3 b73d 46e2 a4be
000001f0: 28dd b13e 4604 45bd 732f af3e 3b37 ce3e
00000200: 41c3 903d 89d2 00bf 2156 9dbe 5eec d9be
00000210: cbb9 933d 7d10 9f3e e5c1 babe 951c 44bf
00000220: 4db4 3e3e 68a4 b93d 52aa 87bc 909e 7cb9
00000230: 4d7c a0bd cfa3 f63d 7cc2 953d d5a4 35bc
00000240: ac2f 663e 4d8e 323f d7bf ff3d 356c a03e
00000250: d7a7 cb3b 6046 4d3e 7729 883e ae58 27be
00000260: 0f39 b0be 0c4d 08be 5e6d 6ebe 1346 95be
00000270: 8c46 9fbe 7193 95be 7924 d53d 1800 283e
00000280: a26f 053f 0348 b4bf 15fa 2a3e d79b bbbe
00000290: 9b2c e7bd 4efe 303c ebc2 3fbd 057f cfbd
000002a0: 6343 e73e 4d38 a7be 8717 393d 75c8 babd
000002b0: 1d4d 40be 9f11 af3d 18d0 1abe e6c4 05be
000002c0: b6b5 eebe 3e1a a8bf 97cb dabe 0b60 6d3d
000002d0: 0ce4 6cbd 41c2 873e dc35 a63d 7544 52be
000002e0: fda3 633e 98a5 8cbe f328 95bd c506 b53d
000002f0: fc7a 7d3c 8287 0abe 4345 3bbe 60ee dcbd
00000300: b5fa d63e 4f8b 903e 2794 873e 2c00 cb3e
00000310: 7a44 abbe a947 be3e 3c1f 69be c0ff 643e
00000320: fdbb 7ebe 1b7a c93e 73bc 263c bc5a 403e
00000330: 142b e23d ae97 cebe 8f77 86bd d9b6 7d3e
00000340: 8092 9f3d 62f2 233e 6b1c 0fbe bc55 3f3d
00000350: 0df3 c4bd 2a8f 633e 8e3d 5a3e fc01 213d
00000360: df10 d6bd 788a de3e 58dc 48be 941b b83d
00000370: 9ef6 f1bd ed76 0a3f b482 813e 3d93 43bb
00000380: 6a08 bb3e 93b7 72bf 8ee2 c4be 79af 40be
00000390: b6b3 5c3e 297f a5bd eedd d83d b2ca f63d
000003a0: ea55 fa3d d025 e4be 938e 5c3e 3d2e 3b3e
000003b0: a3aa 1dbc 6a19 07be b12b 37be 987d e53b
000003c0: 4d5e 8f3e a5d3 413e 4053 373d d4c3 90be
000003d0: c1ce b8bc 3929 303f 7cbb 913e c25d 963e
000003e0: 24cb 763d 8592 703e 6020 933d 2bda 103e
000003f0: f5d5 583e 5115 bc3e c2de 32be 7dfd 4c3e

linears.0.bias f4 [100]
0.024496024 0.6179615 0.06890222 -0.04236967 0.055924755 -0.021974582 -0.0118100075 0.22849739
-0.438584 -0.0024002346 0.0933179 0.14710681 -0.21488048 0.01114375 -0.14226931 0.10724651
-0.048872054 -0.53824306 -0.10568426 0.059793897 -0.064627185 0.15045474 0.0747348 -0.07671793
0.07542109 0.060856935 0.13284987 0.059783768 -0.22869487 -0.05769679 -0.02719714 0.0790917
0.035671353 -0.012170227 -0.085933276 0.08398985 0.3173779 -0.20869258 -0.12089224 -0.08609566
-0.23847589 -0.101172075 -0.08120422 0.06978127 -0.080428705 0.021231186 0.13504902 -0.09461381
0.26163995 -0.0069265706 -0.09560944 0.08812916 -0.10038718 0.051228918 -0.020531181 -0.0074769934
0.050133925 -0.063201554 0.24040893 -0.11815487 -0.01752507 -0.04831268 -0.06178239 -0.13208261
0.0566891 -0.15934086 -0.10158642 0.073963664 -0.13126148 0.04659939 0.03322678 -0.081642315
-0.044299316 0.16399631 -0.08169669 -0.4040547 0.09598469 0.05048915 0.28405353 -0.09075244
0.13745369 0.01427293 -0.1578563 -0.08888008 0.03977673 -0.14806437 0.028279891 -0.050589114
0.0096579315 -0.12580487 -0.16661201 -0.0045344154 -0.02667691 -0.06076938 0.0016513106 0.08092996
0.079306744 -0.106235035 -0.14843781 -0.145595
00000000: e3ab c83c ba32 1e3f 9b1c 8d3d d28b 2dbd
00000010: 5b11 653d 0a04 b4bc c37e 41bc 38fb 693e
00000020: 158e e0be 414d 1dbb 751d bf3d 2ba3 163e
00000030: a109 5cbe 4694 363c 0caf 11be 0fa4 db3d
00000040: 102e 48bd 4cca 09bf fd70 d8bd 72ea 743d
00000050: 425b 84bd cf10 1a3e 8f0e 993d 4a1e 9dbd
00000060: 5f76 9a3d 1f45 793d cc09 083e d3df 743d
00000070: fd2e 6abe 7853 6cbd 89cc debc d4fa a13d
00000080: 201c 123d a265 47bc c9fd afbd df02 ac3d
00000090: 5b7f a23e 82b3 55be 5a96 f7bd ec52 b0bd
000000a0: 0633 74be 4e33 cfbd 664e a6bd 7ce9 8e3d
000000b0: ceb7 a4bd 06ed ad3c 4a4a 0a3e e3c4 c1bd
000000c0: acf5 853e 49f8 e2bb e2ce c3bd 107d b43d
000000d0: cb97 cdbd 6ad5 513d 0231 a8bc 9101 f5bb
000000e0: 3b59 4d3d d16f 81bd c22d 763e 2efb f1bd
000000f0: bc90 8fbc 84e3 45bd 880f 7dbd aa40 07be
00000100: d432 683d 402a 23be 8a0c d0bd 437a 973d
00000110: 6969 06be 01df 3e3d ce18 083d 1634 a7bd
00000120: 3373 35bd a6ee 273e 9850 a7bd 42e0 cebe
00000130: 9f93 c43d b6cd 4e3d 776f 913e 6adc b9bd
00000140: a9c0 0c3e 02d9 693c 15a5 21be c206 b6bd
00000150: edec 223d 309e 17be 3bab e73c 8836 4fbd
00000160: 4d3c 1e3c fed2 00be 579c 2abe 6f95 94bb
00000170: 8989 dabc 50e9 78bd ca70 d83a 9bbe a53d
00000180: 936b a23d c191 d9bd 1500 18be db16 15be

linears.1.weight f4 [100, 100]
0.02918394 0.15207271 0.097382955 -0.33828261 0.24249399 0.19279312 -0.24160007 -0.02716741
0.0036969455 -0.035249457 -0.22206157 -0.24827169 0.15060255 -0.089554705 -0.0032016023 -0.045620117
0.06978957 0.08860671 0.14810066 -0.0539734 -0.10614266 -0.018937023 -0.009365678 0.06872314
-0.14566481 -0.25660995 0.14492895 -0.01962413 -0.11110335 0.01909183 0.083734415 0.023370083
-0.10463313 -0.13194 -0.027473316 -0.11046944 0.09155881 -0.20027727 0.17582726 0.21046074
-0.060443908 0.20771863 0.33741435 -0.049150627 -0.29301706 -0.004088772 -0.13390753 0.28265944
-0.222413 0.08029978 0.22533001 0.078842185 -0.013005981 -0.3126016 -0.0516635 0.15517949
-0.2781344 -0.028971853 -0.12180891 0.18533182 0.11254473 0.04372595 0.22610743 0.20334074
-0.32393527 0.42474988 0.022703357 -0.1972824 0.3539025 -0.14294507 -0.10223007 0.11465985
0.0487256 0.2159478 0.034035392 0.030979594 0.099042185 -0.26470494 -0.21069422 -0.049278084
-0.129773 -0.051619884 -0.08191815 0.16076498 0.025220253 0.020729592 -0.09276407 0.09395228
0.093197376 0.20522878 0.34826368 0.13060927 -0.8212087 -0.028646685 0.04603291 0.001361112
0.098586164 0.1981812 0.109901674 0.31461993 -0.05515074 -0.11955385 0.052143387 0.11172843
-0.16044953 0.096438654 -0.077838175 0.13162158 0.005273813 -0.07253822 -0.12843251 0.08303939
0.15290819 -0.09862945 0.1267933 0.053292397 0.02102251 0.15459502 0.059370026 0.12320797
0.027432948 -0.12248721 0.14496195 0.17564441 -0.060033496 0.08059164 0.09847752 -0.0072370786
0.15776713 -0.07605188 -0.047616716 0.063499965 0.04596379 0.04393231 0.07393561 0.09595812
-0.051771242 0.11304166 -0.11069924 -0.0703974 -0.19444059 -0.060338978 0.06954023 0.13823773
-0.12534775 0.066044815 0.033088345 -0.09796593 0.027969133 -0.11698129 0.028296283 0.050792597
-0.11506178 0.13165902 -0.13696806 0.0059819324 0.051101364 0.031960674 -0.04924307 0.1937871
0.058062244 -0.0708351 0.14286235 0.14987528 -0.18997791 -0.024477916 0.09835874 0.16047592
0.21118395 -0.0675021 0.08495789 0.06634524 0.101334006 0.017017273 0.1313128 -0.043614548
0.070326254 -0.18821447 0.16834478 -0.07181092 0.18634766 0.031776525 -0.0010903891 -0.17420094
0.111734696 0.08094881 -0.17750137 0.031510126 0.0396519 0.1569194 0.20896909 0.17195135
-0.10016193 0.11211443 0.13247052 -0.06820437 -0.04844589 -0.07702356 0.07634939 0.025679884
-0.027238708 0.18232508 0.16281241 0.09225323 0.27457896 0.1364808 -0.24995326 0.049288258
0.15157671 0.021754464 0.096258484 -0.1128389 0.02097807 -0.148733 -0.1523096 0.015089632
-0.14006206 0.09737911 0.09683681 -0.030106569 -0.19040044 0.09130757 -0.22478521 0.4164167
0.16133063 -0.06976627 0.12317053 0.06932744 0.07477414 0.06853775 -0.0030112956 0.19615583
-0.17499031 -0.1849252 -0.1451582 -0.034695957 0.027558286 0.02793013 -0.29681212 0.19759654
-0.035391554 -0.22723162 0.16975063 -0.006867598 -0.042502064 0.14174885 0.07834311 0.063951485
0.11954439 -0.12369278 -0.0033415628 -0.07691061 0.010263678 0.17443705 -0.045751974 0.052503
00000000: 2813 ef3c f3b8 1b3e b770 c73d 6133 adbe
00000010: 5850 783e 8f6b 453e 0266 77be 308e debc
00000020: 7448 723b bc61 10bd 1c64 63be ef3a 7ebe
00000030: 8e37 1a3e 7568 b7bd f9d1 51bb 29dc 3abd
00000040: d6ed 8e3d 6f77 b53d b3a7 173e 3613 5dbd
00000050: 5361 d9bd d121 9bbc 8072 19bc b8be 8c3d
00000060: 2829 15be 6162 83be 4168 143e c9c2 a0bc
00000070: 278a e3bd 7866 9c3c f37c ab3d 9e72 bf3c
00000080: e549 d6bd 481b 07be b80f e1bc cd3d e2bd
00000090: 2f83 bb3d 7c15 4dbe 100c 343e 0583 573e
000000a0: 0894 77bd 31b4 543e 93c1 ac3e 2b52 49bd
000000b0: 5506 96be 1bfb 85bb 0e1f 09be bdb8 903e
000000c0: 3cc0 63be 3674 a43d e9bc 663e 0378 a13d
000000d0: 0a17 55bc 510d a0be 1b9d 53bd 5fe7 1e3e
000000e0: a267 8ebe 6156 edbc f376 f9bd a0c7 3d3e
000000f0: da7d e63d fb19 333d b588 673e 8e38 503e
00000100: d8da a5be d178 d93e 64fc b93c 6604 4abe
00000110: b532 b53e 3160 12be 005e d1bd c9d2 ea3d
00000120: 7f94 473d 6c21 5d3e b268 0b3d ebc8 fd3c
00000130: a1d6 ca3d 6887 87be 3ac0 57be d1d7 49bd
00000140: 37e3 04be 5f6f 53bd b4c4 a7bd 939f 243e
00000150: b49a ce3c 1bd1 a93c 17fb bdbd 0e6a c03d
00000160: 44de be3d 7e27 523e 9e4f b23e 70be 053e
00000170: bc3a 52bf 74ac eabc 018d 3c3d 5767 b23a
00000180: 8be7 c93d 03f0 4a3e 2114 e13d dd15 a13e
00000190: bee5 61bd a6d8 f4bd 4e94 553d e0d1 e43d
000001a0: e24c 24be a181 c53d 9f69 9fbd cfc7 063e
000001b0: f3cf ac3b eb8e 94bd d083 03be 8e10 aa3d
000001c0: f793 1c3e 3dfe c9bd 1ad6 013e 2149 5a3d
000001d0: 6637 ac3c 284e 1e3e fc2d 733d 7654 fc3d
000001e0: 10bb e03c 93da fabd e870 143e 21dc 333e
000001f0: afe5 75bd 3b0d a53d 95ae c93d 0425 edbb
00000200: b58d 213e 17c1 9bbd bf09 43bd 450c 823d
00000210: 8744 3c3d 5ef2 333d 8e6b 973d b185 c43d
00000220: 150e 54bd 6382 e73d 48b6 e2bd 832c 90bd
00000230: 6f1b 47be 0126 77bd 1c6b 8e3d 318e 0d3e
00000240: 295b 00be 8142 873d a587 073d 5da2 c8bd
00000250: 861f e53c e393 efbd 9bcd e73c e60b 503d
00000260: 83a5 ebbd 9fd1 063e 5b41 0cbe 1604 c43b
00000270: aa4f 513d 32e9 023d 1ab3 49bd 2070 463e
00000280: add2 6d3d fe11 91bd 824a 123e e878 193e
00000290: 9289 42be e985 c8bc 4f70 c93d cd53 243e
000002a0: 9b40 583e 8a3e 8abd 67fe ad3d 03e0 873d
000002b0: 3488 cf3d cf67 8b3c dd76 063e 2ba5 32bd
000002c0: 3607 903d 4bbb 40be 9362 2c3e 9b11 93bd
000002d0: ecd1 3e3e 1a28 023d 63eb 8eba bb61 32be
000002e0: 29d5 e43d 7dc8 a53d ebc2 35be c310 013d
000002f0: 086a 223d 7baf 203e fefb 553e 0414 303e
00000300: b321 cdbd 409c e53d 5aa6 073e bcae 8bbd
00000310: 336f 46bd 87be 9dbd 125d 9c3d 9f5e d23c
00000320: b623 dfbc 6db3 3a3e 4cb8 263e 43ef bc3d
00000330: 9d95 8c3e 9fc1 0b3e bff3 7fbe 7ce2 493d
00000340: ed36 1b3e 6b36 b23c 2b23 c53d 1518 e7bd
00000350: 34da ab3c 774d 18be 0cf7 1bbe 813a 773c
00000360: 6e6c 0fbe b36e c73d 6152 c63d 0da2 f6bc
00000370: 55f8 42be 77ff ba3d 182e 66be 9234 d53e
00000380: db33 253e 9ee1 8ebd d540 fc3d 8bfb 8d3d
00000390: 2f23 993d 855d 8c3d 2859 45bb 13dd 483e
000003a0: a930 33be 085d 3dbe 5aa4 14be 591d 0ebd
000003b0: eac1 e13c bacd e43c c2f7 97be bf56 4a3e
000003c0: bcf6 10bd 68af 68be 1cd3 2d3e 9609 e1bb
000003d0: a516 2ebd 9c26 113e 5a72 a03d fff8 823d
000003e0: b0d3 f43d a452 fdbd 1ffe 5abb 4f83 9dbd
000003f0: fc28 283c a09f 323e 6c66 3bbd 630d 573d

linears.1.bias f4 [100]
-0.16737916 -0.028174598 -0.023120616 -0.046933148 -0.057596315 0.026557505 0.033445317 -0.06089716
-0.06830679 -0.058425672 -0.004677963 0.14284499 0.04061304 0.04042915 -0.0015464366 -0.050592437
-0.06399415 -0.029630162 -0.06308447 0.041359868 0.021774236 -0.042973533 -0.1262118 -0.10959354
0.083780594 0.052380424 0.021472273 -0.046332266 0.00018954098 -0.035927705 0.11070235 -0.08275927
-0.051375233 -0.03411783 -0.054228857 -0.115067795 0.0042093857 -0.045202702 -0.030772442 0.038084947
0.070728175 -0.105182655 0.024035458 -0.044315547 0.034045514 0.03300687 0.019431604 -0.10862677
-0.051934816 0.027293406 -0.042487152 0.07413189 -0.044527024 -0.0031529388 0.08755582 -0.0029303576
-0.09809376 -0.105271265 -0.04338645 -0.03335481 0.06545073 -0.009978622 0.14548586 -0.011155916
0.056205023 -0.03762967 0.11579967 -0.035489134 -0.050821245 0.06549618 -0.21872634 0.04522147
1.1040395 -0.029333642 -0.04326769 0.13210794 -0.011811215 -0.03615797 -0.01135142 0.012327462
0.040017202 0.1362944 -0.050368443 0.02833993 0.15338415 -0.002464748 -0.080835484 -0.060315304
0.03134258 -0.034053627 -0.058392737 -0.065000564 -0.06018859 0.076893345 0.042047255 0.046148315
-0.062336136 -0.0482545 -0.04126595 -0.041013688
00000000: 7165 2bbe 6ace e6bc 7267 bdbc f93c 40bd
00000010: 1dea 6bbd 208f d93c f5fd 083d 4d6f 79bd
00000020: 6ee4 8bbd c24f 6fbd 9949 99bb f545 123e
00000030: dc59 263d 0999 253d cdb1 caba 043a 4fbd
00000040: 5d0f 83bd f4ba f2bc 6e32 81bd f768 293d
00000050: e25f b23c 0405 30bd ab3d 01be 9472 e0bd
00000060: 2995 ab3d db8c 563d 9fe6 af3c e7c6 3dbd
00000070: 85bf 4639 ee28 13bd eab7 e23d b17d a9bd
00000080: d66e 52bd 23bf 0bbd 141f 5ebd aaa8 ebbd
00000090: e3ee 893b 7826 39bd 7d16 fcbc f6fe 1b3d
000000a0: efd9 903d 016a d7bd 02e6 c43c 3884 35bd
000000b0: 4f73 0b3d 3632 073d 072f 9f3c b677 debd
000000c0: 9ab9 54bd 6c96 df3c 0207 2ebd 76d2 973d
000000d0: f861 36bd 89a1 4ebb 7750 b33d 3e0b 40bb
000000e0: 62e5 c8bd 7698 d7bd fdb5 31bd 0e9f 08bd
000000f0: 080b 863d 607d 23bc 3ffa 143e 4ec7 36bc
00000100: 3d37 663d 9221 1abd 6128 ed3d 0e5d 11bd
00000110: f029 50bd dc22 863d ccf9 5fbe 263a 393d
00000120: 2b51 8d3f 1b4d f0bc 7639 31bd 4e47 073e
00000130: d483 41bc 611a 14bd 4efb 39bc 20f9 493c
00000140: 14e9 233d c290 0b3e 244f 4ebd 2429 e83c
00000150: bc10 1d3e 9c87 21bb 138d a5bd 2e0d 77bd
00000160: 1461 003d d17b 0bbd 392d 6fbd 041f 85bd
00000170: 5088 76bd 427a 9d3d be39 2c3d 0406 3d3d
00000180: 2d54 7fbd 83a6 45bd 7c06 29bd f8fd 27bd

linears.2.weight f4 [100, 100]
-0.052873507 0.019612467 -0.051962234 0.036692426 0.06839868 0.17733432 0.059005186 -0.089880355
0.023729198 -0.27427807 -0.00722479 -0.05536765 0.075981356 0.030245652 0.05864462 -0.15686072
-0.025925638 0.1100059 -0.09189786 -0.05641074 -0.13450235 -0.1554312 0.22505467 -0.15913874
0.10039173 0.111107565 0.052920867 -0.01600144 0.052207723 -0.19284478 0.24640259 0.13505433
0.011666911 0.11959702 0.11123385 0.27092004 -0.047888372 -0.15166618 0.16351126 -0.15595429
0.27955973 -0.43466803 0.06864514 -0.19013973 0.104486115 0.01212617 0.09217832 0.088375874
-0.24053742 0.14387329 -0.16659124 0.008663357 -0.11134229 -0.14029223 0.030325707 -0.12164012
0.38238585 -0.09391995 -0.001452261 0.11079153 0.28594536 -0.07774355 -0.0090712225 -0.03236485
0.13082065 0.059422646 0.022180008 -0.09068172 -0.017095126 0.04711597 0.117674015 0.12803124
-0.888686 -0.11092962 0.10702281 0.2338262 0.18306127 0.06502641 0.035665475 0.16187076
-0.14016993 0.07408304 0.09511141 0.042533867 0.23314732 -0.1934367 0.041188486 -0.13748276
-0.027381768 0.113525026 0.08985567 -0.07032228 -0.14785047 -0.25292358 0.12247859 0.06316972
0.00045858053 0.0037651018 0.12973295 0.026491309 0.08940842 -0.023344196 -0.18101433 -0.18514983
-0.1397115 -0.023394873 -0.080505654 0.02464297 -0.115980476 0.0734393 -0.031342667 -0.13150351
0.017928889 0.16754363 -0.015062405 0.061040808 -0.16010666 -0.047441788 -0.09638707 -0.07694712
-0.10989598 -0.04395604 0.107642874 -0.07971569 0.14521226 -0.04780424 0.12432519 0.1563564
-0.00022930319 -0.08190106 0.21712443 -0.04711718 -0.1585092 0.03171718 -0.011199741 -0.017468212
-0.06596746 0.014832501 0.07796735 -0.07623023 -0.06327968 -0.22205195 0.013599728 -0.13016321
-0.1165344 0.01613351 -0.020268802 0.057202797 0.034133974 0.086666085 0.019708958 -0.029311297
-0.09732746 0.13206291 -0.021448787 0.08451408 0.18936948 -0.15775067 0.1519295 0.13590072
0.1173956 0.1006841 -0.020666065 0.14482611 0.064939626 -0.072504774 0.123432346 -0.020299584
-0.17256667 0.05806383 0.08270566 -0.046375107 -0.065453455 -0.024519991 -0.13292731 0.2692545
0.09891607 0.11566954 -0.18819913 0.021499785 -0.08747294 -0.1362146 -0.13068491 0.019159473
0.23361225 0.040939603 0.011739733 0.00074962 -0.13396105 0.077366464 -0.13462372 -0.08931892
0.123798944 -0.15496857 -0.1557155 -0.14744604 -0.1166103 -0.09728465 0.08528528 -0.05775271
-0.10364843 0.11714702 0.07112431 -0.19083433 -0.1407481 0.20431544 0.032643855 -0.1910104
-0.048494793 0.09008632 0.06620336 0.10598345 0.17681254 0.04722711 0.09713139 0.06839842
-0.19096026 0.09618971 -0.19149308 0.04125046 -0.057729572 0.1311935 -0.095593885 -0.16653064
-0.011368049 0.117350034 0.07949987 -0.08719985 0.07259909 0.0028067983 0.21235126 -0.05624713
-0.15855835 0.06934419 -0.1558106 0.03346527 0.17891386 -0.17796122 -0.02292715 0.11535539
0.22511859 -0.3402035 0.122875735 -0.20659842 -0.0043082684 0.13158372 0.13346261 -0.11803521
-0.2018942 0.054362375 -0.062151276 0.23786418 0.0030823355 0.067912325 -0.0018109962 -0.15401967
00000000: e491 58bd 53aa a03c 5ad6 54bd cc4a 163d
00000010: 9b14 8c3d 2197 353e 6caf 713d 3113 b8bd
00000020: bc63 c23c 2d6e 8cbe eebd ecbb 30c9 62bd
00000030: 1d9c 9b3d bbc5 f73c 5735 703d 19a0 20be
00000040: 0162 d4bc c64a e13d f234 bcbd f30e 67bd
00000050: fcba 09be 5b29 1fbe bb74 663e 44f5 22be
00000060: 2e9a cd3d 5d8c e33d 8dc3 583d 7415 83bc
00000070: c4d7 553d 1a79 45be f650 7c3e af4b 0a3e
00000080: 9226 3f3c 48ef f43d 93ce e33d 08b6 8a3e
00000090: 9926 44bd 614e 1bbe 7f6f 273e 7bb2 1fbe
000000a0: 7422 8f3e cf8c debe d395 8c3d fdb3 42be
000000b0: d1fc d53d d8ac 463c fdc7 bc3d 69fe b43d
000000c0: 714f 76be 8553 133e e596 2abe c1f0 0d3c
000000d0: 6d07 e4bd c4a8 0fbe 9e6d f83c 751e f9bd
000000e0: 14c8 c33e 1a59 c0bd cb59 beba abe6 e23d
000000f0: 6e67 923e 0338 9fbd 779f 14bc 0191 04bd
00000100: d9f5 053e 2965 733d d9b2 b53c 56b7 b9bd
00000110: 140b 8cbc adfc 403d 13ff f03d 9f1a 033e
00000120: ed80 63bf 122f e3bd c62e db3d 2370 6f3e
00000130: 6a74 3b3e 912c 853d f615 123d 73c1 253e
00000140: b588 0fbe d9b8 973d c5c9 c23d fe37 2e3d
00000150: 2cbe 6e3e 4514 46be 42b5 283d 48c8 0cbe
00000160: bb4f e0bc cf7f e83d 4006 b83d 2105 90bd
00000170: 1d66 17be 337f 81be 0ed6 fa3d 205f 813d
00000180: a36d f039 edbf 763b b7d8 043e 4d04 d93c
00000190: c31b b73d 543c bfbc d25b 39be eb97 3dbe
000001a0: 8810 0fbe 9ba6 bfbc 26e0 a4bd 0ee0 c93c
000001b0: 2c87 edbd 5867 963d 2b61 00bd dba8 06be
000001c0: 9bdf 923c 8f90 2b3e 4ec8 76bc ed05 7a3d
000001d0: 00f3 23be 5252 42bd 9666 c5bd 7496 9dbd
000001e0: 2511 e1bd 400b 34bd de73 dc3d fb41 a3bd
000001f0: 86b2 143e 61ce 43bd 359e fe3d e41b 203e
00000200: 1b71 70b9 bebb a7bd de55 5e3e f2fd 40bd
00000210: 3c50 22be e0e9 013d 1e7f 37bc 7f19 8fbc
00000220: f319 87bd 0504 733c 59ad 9f3d 981e 9cbd
00000230: c798 81bd 9661 63be 65d1 5e3c 8149 05be
00000240: 96a9 eebd 6c2a 843c c20a a6bc 7b4d 6a3d
00000250: 11d0 0b3d fd7d b13d ae74 a13c 3f1e f0bc
00000260: 9f53 c7bd 803b 073e 5eb5 afbc b815 ad3d
00000270: 13ea 413e 6489 21be 6893 1b3e 8f29 0b3e
00000280: 1b6d f03d 7733 ce3d e14b a9bc 4c4d 143e
00000290: 11ff 843d 627d 94bd 19ca fc3d 504b a6bc
000002a0: 51b5 30be 57d4 6d3d 9661 a93d d3f3 3dbd
000002b0: 760c 86bd 26de c8bc 191e 08be badb 893e
000002c0: 8294 ca3d 27e4 ec3d 46b7 40be 5120 b03c
000002d0: 0325 b3bd d77b 0bbe 44d2 05be 54f4 9c3c
000002e0: 0d38 6f3e 49b0 273d 0258 403c 2682 443a
000002f0: 162d 09be 4f72 9e3d cdda 09be d7ec b6bd
00000300: 4d8a fd3d 15b0 1ebe e273 1fbe 18fc 16be
00000310: 62d1 eebd 2d3d c7bd 0daa ae3d 1b8e 6cbd
00000320: a145 d4bd c7ea ef3d 9fa9 913d 136a 43be
00000330: 4520 10be 1138 513e 90b5 053d 3b98 43be
00000340: 7aa2 46bd 2d7f b83d a195 873d da0d d93d
00000350: 590e 353e 3771 413d d2ec c63d 7914 8c3d
00000360: 168b 43be 1cff c43d c316 44be 3ef6 283d
00000370: d875 6cbd 9757 063e bac6 c3bd 0287 2abe
00000380: 0e41 3abc 3755 f03d d4d0 a23d d695 b2bd
00000390: d5ae 943d 43f2 373b 9c72 593e 6463 66bd
000003a0: 1f5d 22be 5404 8e3d d08c 1fbe e112 093d
000003b0: 3235 373e 773b 36be b8d1 bbbc 723f ec3d
000003c0: 7d85 663e 272f aebe 46a6 fb3d 898e 53be
000003d0: 602c 8dbb e2bd 063e 6caa 083e 72bc f1bd
000003e0: 5abd 4ebe 15ab 5e3d 5692 7ebd ab92 733e
000003f0: 0201 4a3b 9e15 8b3d f35e edba 55b7 1dbe

linears.2.bias f4 [100]
0.061309792 0.034824435 0.04705336 0.035894945 0.04073881 -0.042077135 -0.030895175 0.046329465
0.04248593 -0.029347422 0.057117276 -0.048044533 0.041985687 0.029229531 -0.012095516 -0.016319053
0.010742313 -0.056163806 0.10749603 -0.044591926 -0.040878132 0.041196294 -0.03251112 -0.057024427
-0.06627105 0.052222874 -0.050641872 -0.032291666 -0.036102343 -0.030383214 0.033898976 -0.036089394
-0.03186812 -0.04144674 0.036803722 -0.06314935 -0.046322025 0.02669524 -0.07237947 0.007756921
-0.04524672 0.04361765 -0.02710144 0.036535144 0.03699649 0.036611445 0.08351123 -0.028083907
-0.03195217 -0.018598577 0.035671514 0.04637401 -0.031080863 -0.018515315 -0.023414895 0.019036558
0.035995048 0.056936596 -0.045586642 0.028485887 0.03289239 -0.0109336665 0.04410355 0.059259262
0.03152866 -0.05415901 0.07385658 -0.040900882 0.034320533 0.047296733 0.060060948 0.05827806
0.008791075 0.03878543 0.041437797 0.0045251707 0.038739704 0.10217377 0.035546243 -0.03378224
-0.039790343 -0.027649857 -0.039634697 0.041335665 -0.037328966 0.043713745 0.033038605 -0.010438386
-0.04785591 -0.03884255 -0.033800602 -0.043075837 0.010959255 0.043686017 0.05575602 0.04241885
-0.0340133 0.034774933 0.03653808 -0.012764149
00000000: fa1f 7b3d 11a4 0e3d 06bb 403d 9406 133d
00000010: bddd 263d 1359 2cbd e117 fdbc f7c3 3d3d
00000020: ba05 2e3d 016a f0bc cef3 693d 58ca 44bd
00000030: 2ff9 2b3d c572 ef3c 452c 46bc 89af 85bc
00000040: 8700 303c 050c 66bd e126 dc3d 06a6 36bd
00000050: d46f 27bd 72bd 283d 612a 05bd 7292 69bd
00000060: 1eb9 87bd a7e7 553d da6d 4fbd 4444 04bd
00000070: 0de0 13bd 38e6 f8bc a7d9 0a3d 79d2 13bd
00000080: 2588 02bd 0fc4 29bd 80bf 163d 7254 81bd
00000090: 2abc 3dbd faaf da3c b03b 94bd c52d fe3b
000000a0: a054 39bd 6ca8 323d d703 debc e0a5 153d
000000b0: a289 173d e2f5 153d f007 ab3d 3910 e6bc
000000c0: 47e0 02bd 0b5c 98bc 4b1c 123d adf2 3d3d
000000d0: 4b9d febc 6ead 97bc 98d0 bfbc 8ef2 9b3c
000000e0: 8b6f 133d 5936 693d 0fb9 3abd 3c5b e93c
000000f0: 2cba 063d 1f23 33bc eda5 343d d7b9 723d
00000100: 3224 013d d7d5 5dbd 1e42 973d af87 27bd
00000110: b093 0c3d 38ba 413d 7802 763d fab4 6e3d
00000120: 7108 103c 79dd 1e3d aeba 293d e247 943b
00000130: 86ad 1e3d 7b40 d13d f098 113d 3f5f 0abd
00000140: 33fb 22bd f481 e2bc fe57 22bd 964f 293d
00000150: 42e6 18bd 2f0d 333d 7d53 073d c405 2bbc
00000160: 8f04 44bd 5e19 1fbd 8072 0abd 4a70 30bd
00000170: 728e 333c 1cf0 323d 6d60 643d 63bf 2d3d
00000180: 8851 0bbd 2970 0e3d f4a8 153d b920 51bc

linears.3.weight f4 [1, 100]
-0.23503579 -0.14824358 -0.4532441 -0.21690783 -0.42108172 0.21303926 0.34154794 -0.15201844
-0.24055631 0.49827936 -0.38504988 0.5514393 -0.39950734 -0.35143858 0.3048547 0.43944776
-0.37425435 0.3530137 -0.6088401 0.27086675 0.24055205 -0.35935834 0.5238047 0.075944
0.3782395 -0.4004407 0.50102574 0.10741095 0.28717348 0.2650769 -0.26863876 0.36524072
0.18544479 0.50763386 -0.2129013 0.38253537 0.17306188 -0.6065945 0.66792494 -0.52069145
0.28647792 -0.57527906 0.18210307 -0.2457514 -0.30142245 -0.4600422 -0.69227636 0.13599072
0.15083687 0.3490393 -0.43679786 -0.43484747 0.37074992 -0.2575393 0.13317637 -0.25241837
-0.24224825 -0.3848689 0.5174331 -0.45373493 -0.33711758 0.7415238 -0.29761532 -0.3015214
-0.31084466 0.4372715 -0.19171993 0.52484226 -0.22958094 -0.26632744 -0.39103028 -0.20188002
0.054613072 -0.15873504 -0.30946484 0.5883843 -0.30665433 -0.8254537 -0.41883287 0.18945149
0.26186875 0.8819577 0.25068018 -0.52883065 0.22584215 -0.30236462 -0.5975379 -0.24644984
0.20607725 0.28382295 0.32244986 0.2232802 -0.7713977 -0.59698874 -0.2807955 -0.13600035
0.37464705 -0.36338732 -0.14687786 0.6583669
00000000: 39ad 70be 2acd 17be 9c0f e8be 161d 5ebe
00000010: 0698 d7be f726 5a3e 5fdf ae3e b9aa 1bbe
00000020: 6554 76be 791e ff3e 4225 c5be 202b 0d3f
00000030: 3a8c ccbe c2ef b3be ea15 9c3e 4cff e03e
00000040: 449e bfbe 36be b43e f2dc 1bbf 0caf 8a3e
00000050: 4753 763e d1fd b7be 1118 063f 8788 9b3d
00000060: 9ca8 c13e 9006 cdbe 3943 003f 46fa db3d
00000070: 6708 933e 29b8 873e 058b 89be d500 bb3e
00000080: 3de5 3d3e 4bf4 013f cc02 5abe addb c33e
00000090: 2237 313e c749 1bbf 21fd 2a3f 094c 05bf
000000a0: 3cad 923e 7d45 13bf 3a79 3a3e 41a6 7bbe
000000b0: 0b54 9abe a78a ebbe 0639 31bf 2741 0b3e
000000c0: fb74 1a3e 47b5 b23e f8a3 dfbe 54a4 debe
000000d0: efd2 bd3e 31dc 83be 635f 083e fb3c 81be
000000e0: ed0f 78be 890d c5be 7f76 043f f24f e8be
000000f0: ad9a acbe 81d4 3d3f 0961 98be 0361 9abe
00000100: 0827 9fbe 0de2 df3e 3b52 44be 105c 063f
00000110: 4417 6bbe 125c 88be 1f35 c8be a3b9 4ebe
00000120: f5b1 5f3d 708b 22be 2d72 9ebe 5aa0 163f
00000130: cc01 9dbe ef50 53bf 4371 d6be 92ff 413e
00000140: a913 863e fbc7 613f 2759 803e 7261 07bf
00000150: 2a43 673e 89cf 9abe 3ef8 18bf 595d 7cbe
00000160: ea05 533e 3e51 913e 2618 a53e 91a3 643e
00000170: 527a 45bf 41d4 18bf 6ec4 8fbe ad43 0bbe
00000180: bdd1 bf3e e70d babe 2667 16be bc8a 283f
