Complete_thesis_stage_1_and_2/(d).Code_and_all_other_details/LASER_DED/models/model_epoch_41000.pt (torch, 86584 bytes, 7 tensors)

linears.0.weight f4 [100, 4]
000000 79 02 42 bf ff c0 07 bf 89 c5 92 3d 58 2b 39 3f
       -0.7578502 -0.53028864 0.07166583 0.7233176
000010 81 3c bd 3e 11 13 02 bf 68 d1 3f 3d 30 9f 31 3f
       0.36960223 -0.50810343 0.046830565 0.69383526
000020 f8 86 51 3b 48 f7 97 bd f0 38 d9 bd 34 91 43 3e
       0.0031971317 -0.07420212 -0.10606563 0.1909836
000030 72 f3 3b bf aa f6 1e 3e ff 2d 3f 3d bf 02 fc 3e
       -0.73418343 0.15523782 0.046674725 0.49220845
000040 76 6a 1a 3e a3 68 32 3f 06 6d d3 3e a7 5f f4 3e
       0.15079674 0.6969091 0.41294116 0.47729227
000050 f5 18 1a be db 85 f1 3e 36 86 7f be 84 50 4e 3e
       -0.15048583 0.47172436 -0.24953541 0.20147902
000060 c0 25 eb 3e 4a 9f 82 3f 00 c2 cd be 0a cf 70 be
       0.45927238 1.0204861 -0.40187073 -0.23516479
000070 42 7c 2b bf da c0 ec be 8f ff 10 be a8 69 22 3f
       -0.6698648 -0.46240884 -0.14159988 0.6344247
000080 10 c8 8c be 5b eb af bd a9 0c c1 3e 30 dd c7 bd
       -0.27496386 -0.08589812 0.3770497 -0.09758985
000090 07 5f 89 3e f5 04 c6 3d b1 41 10 3d 03 48 80 3e
       0.26830313 0.09668914 0.0352189 0.2505494
0000a0 b8 55 5b bf aa 39 36 bf 87 a4 65 be 3d 5a 0a 3f
       -0.8567767 -0.7118174 -0.22426043 0.5404394
0000b0 bc 7f bf 3d f2 9c 54 3e 57 1e 2c 3e 41 57 37 3e
       0.09350535 0.20762995 0.16808449 0.17904378
0000c0 37 e1 91 3d 83 60 cf bd c9 16 44 bd 40 e1 c1 be
       0.071230344 -0.1012583 -0.047873292 -0.37867165
0000d0 16 81 36 be c4 86 eb 3e 21 12 2b be 52 e6 8f 3e
       -0.1782268 0.46001256 -0.16706134 0.28105408
0000e0 bc 6f 61 be f0 cf 41 3e 9b a3 55 be 0a f2 12 be
       -0.2201528 0.18926978 -0.20863192 -0.14350143
0000f0 eb a9 c1 be 87 f1 f5 3e 7f 63 e1 3c 61 86 dc 3e
       -0.3782495 0.48035833 0.027513264 0.43071273
000100 2f a2 e9 bc 19 98 ef bc 9f 82 50 be 60 ec 26 3c
       -0.028519718 -0.02924733 -0.20362328 0.010188192
000110 62 63 f2 3d 8f 2f 74 be dd ad 27 3f eb 3f 83 be
       0.11835362 -0.23846267 0.6549967 -0.25634703
000120 fa 03 be bd f0 c6 22 bd 4b 0b ba bd ed 30 7c 3d
       -0.09278102 -0.039740503 -0.09084185 0.061570097
000130 e9 ee 89 3e a4 70 f3 bd 03 f5 e7 3d 6c 57 7f 3e
       0.26940086 -0.11886719 0.11326029 0.24935693
000140 56 27 7c 3e 65 95 b0 3e 68 c1 e1 bc 08 4f d1 be
       0.2462438 0.3448898 -0.027558044 -0.4088061
000150 40 e3 0d 3e d7 c8 26 3f e4 2a ec 3d 56 b8 c5 3e
       0.1385622 0.6515021 0.11531618 0.386172
000160 10 1e 8a be 47 67 28 3c e4 f8 9a be f7 fd 57 be
       -0.2697606 0.0102785295 -0.30268013 -0.21092974
000170 ee a1 fb 3c b6 d8 07 bd d6 8e f6 3d ae 4a 07 3e
       0.030716863 -0.033165656 0.120389625 0.13212082
000180 30 44 7c 3e 32 5c ff be 57 d9 35 3c cd 2f fa 3d
       0.24635386 -0.49875027 0.011099181 0.122161485
000190 f2 e0 db 3e d8 67 68 bf cb 95 b8 be f5 1d 0b bf
       0.42945057 -0.90783453 -0.36051783 -0.54342586
0001a0 58 a0 a1 be 54 cb 9f bf 80 b1 1d 3d 3f 5b f0 3e
       -0.31567645 -1.2483926 0.038499355 0.46944615
0001b0 8b 59 e7 3e de d8 3f 3d e0 fd 1a 3f 92 27 e7 3e
       0.45185503 0.04683768 0.6054363 0.45147377
0001c0 52 f0 37 3f f1 ba 21 bd 83 4a 83 be 68 f4 9d 3e
       0.71851075 -0.03948492 -0.25642785 0.3085053
0001d0 58 5e 96 3e 79 c3 ca bc 8e 76 ea bd 5b f1 2c be
       0.29368854 -0.024751412 -0.11448394 -0.16888945
0001e0 c8 42 ce 3e 36 bf 59 bf 27 c0 cb 3d 1c 72 be be
       0.40285325 -0.8505739 0.099487595 -0.37196434
0001f0 db a5 ab 3e ad 03 04 be d3 f2 b1 3e ae de d7 3e
       0.33524975 -0.12892027 0.34755573 0.4216208
000200 f9 74 75 3d 60 71 01 bf 8d 9f 9d be b2 47 e5 be
       0.059926007 -0.5056362 -0.3078579 -0.44781262
000210 0f 3f 7d 3d 44 f9 74 3e fe d1 bc be 54 0c 4a bf
       0.061827715 0.23923212 -0.3687896 -0.7892506
000220 b6 1a 4b 3e 79 26 dd 3d 50 a3 81 bc 88 e3 32 3b
       0.19834408 0.10798354 -0.015824944 0.0027296264
000230 e5 a8 a3 bd 6b 8d 2e 3e 7a 98 95 3d e8 86 aa bb
       -0.079911985 0.17046134 0.07304473 -0.0052040704
000240 08 38 91 3e 0f 34 09 3f d2 fa 10 3e 05 c7 19 3f
       0.2836306 0.5359506 0.1415818 0.60069305
000250 6e 8b 34 3d db 40 82 3e 6d 26 8a 3e b6 4e 61 be
       0.044078283 0.25440106 0.26982442 -0.22002682
000260 75 45 a8 be 1f d8 39 be 1c ce 70 be a9 3c 9c be
       -0.32865492 -0.1814885 -0.23516124 -0.3051503
000270 8d 7c a3 be 2f be c6 be 8b 79 d8 3d 24 ea 20 3e
       -0.31930962 -0.38816974 0.105700575 0.15714318
000280 f1 2f 05 3f b1 d7 ad bf be 89 32 3e 19 8f c9 be
       0.5202628 -1.3581449 0.17435357 -0.39366987
000290 91 90 e4 bd 9b 6e c3 3a 33 90 3f bd 3d 22 e2 bd
       -0.11160386 0.0014910282 -0.04676838 -0.11041687
0002a0 b5 33 eb 3e 9e 5a a3 be 12 99 3f 3d a1 d7 ab bd
       0.45937887 -0.31905073 0.04677684 -0.08390737
0002b0 2b 6f 49 be 42 c8 1a 3d 29 80 1a be 61 c6 0a be
       -0.19671313 0.037788637 -0.15087952 -0.13552238
0002c0 12 06 db be e6 df a7 bf 07 5a db be 73 3c 86 3d
       -0.4277807 -1.3115203 -0.42842123 0.065544985
0002d0 4d 80 74 bd bc 5b 01 3f d7 f2 a4 3d 5d 03 6e be
       -0.05969267 0.505306 0.080541305 -0.2324347
0002e0 9e 2e 61 3e fe 44 9c be 0c 62 93 bd f1 26 0e 3e
       0.2199044 -0.30521387 -0.07196435 0.13882042
0002f0 fd 25 a6 3c a2 de df bd cf 7f 3b be f7 1b ea bd
       0.020281786 -0.10931136 -0.18310474 -0.11431115
000300 e1 73 d1 3e f6 34 82 3e d9 79 9d 3e cf e6 08 3f
       0.4090872 0.2543103 0.30757025 0.53477186
000310 4b a1 ad be aa cf e2 3e dd cf 6a be 48 d5 65 3e
       -0.3391212 0.4429906 -0.22930856 0.22444642
000320 67 c7 82 be fa 07 c1 3e 04 f8 3c 3c eb d0 31 3e
       -0.25542757 0.37701398 0.011533741 0.17364852
000330 4a e4 02 3d 2e 73 bf be 03 0c 82 bd 8c c7 87 3e
       0.031955995 -0.37392563 -0.06349947 0.2651943
000340 5d 5b a1 3d 63 4c 13 3e bb 39 0f be ae a9 f1 3c
       0.07878754 0.14384608 -0.13986866 0.029499855
000350 37 2b cc bd 58 75 4f 3e 7f 7b 5a 3e fe 5f 2f 3d
       -0.0996918 0.20259607 0.21336173 0.042816155
000360 44 f2 c7 bd a0 7f dd 3e c9 b0 4a be 68 93 ce 3d
       -0.097630054 0.43261433 -0.19794 0.10086709
000370 17 1d 01 be 33 3e 09 3f f0 9d 84 3e 82 c0 9a bc
       -0.12608753 0.53610533 0.25901747 -0.018890623
000380 32 0a bc 3e 1c f9 75 bf 17 31 c5 be ab 87 40 be
       0.36726528 -0.96083236 -0.38514015 -0.18801753
000390 fa 06 72 3e 26 96 06 bc b4 54 d8 3d f5 4b 0f 3e
       0.23635474 -0.008214509 0.10563031 0.13993819
0003a0 72 24 25 3e 90 ef f4 be 95 7e 5c 3e d0 80 89 3e
       0.16127184 -0.47839022 0.21532662 0.2685609
0003b0 d0 f5 29 bc 54 2b 42 be 57 41 36 be ba 88 48 bc
       -0.010373548 -0.18961841 -0.17798363 -0.012239629
0003c0 e8 ed 94 3e b9 65 d1 3d 77 66 40 3d 41 f0 93 be
       0.29087758 0.1022448 0.046972718 -0.28894237
0003d0 b2 45 b6 bc a5 89 34 3f 33 25 92 3e 69 bc 99 3e
       -0.02225003 0.7052253 0.28544006 0.30026558
0003e0 ad 4c 78 3d a8 94 55 3e d3 65 96 3d 95 85 13 3e
       0.06062 0.20857489 0.0734364 0.14406426
0003f0 05 88 75 3e 1a 20 6b 3e 36 5c 34 be c8 5d 5e 3e
       0.23977669 0.22961465 -0.176133 0.21715462

linears.0.bias f4 [100]
000000 4c 0f 9b 3d f3 c2 94 3f d1 bd a3 3d da b3 29 bd
       0.07571277 1.1621994 0.07995189 -0.041431285
000010 d4 c8 99 3d f8 9e 9d bc b3 bf 58 bc 1a 01 75 3e
       0.07509008 -0.019240841 -0.013229298 0.23926201
000020 51 b0 29 bf b4 a7 07 3b 72 07 c1 3d 88 88 1f 3e
       -0.6628466 0.0020699324 0.09425248 0.15579426
000030 5c fb 6b be 43 5d 81 3c cb 05 27 be 58 50 f4 3d
       -0.23045105 0.015791541 -0.16310804 0.11929387
000040 4a 46 50 bd c1 a8 44 bf 2d 21 df bd 05 19 96 3d
       -0.050848283 -0.7682 -0.10895 0.07328991
000050 60 a6 9b bd 33 d4 35 3e 16 35 96 3d cb d9 9b bd
       -0.07600093 0.17756729 0.07334344 -0.076099
000060 94 ca c4 3d 69 51 74 3d f9 83 4e 3e e9 99 8d 3d
       0.09608951 0.05964795 0.20167531 0.06914122
000070 bd 8f f1 be 64 4a 7d bd 76 02 24 bd 6f 78 d3 3d
       -0.47179976 -0.061838523 -0.04004141 0.10325705
000080 c5 09 04 3d dc a5 d9 bc 32 04 b9 bd b9 b7 b3 3d
       0.03223588 -0.026568346 -0.09034003 0.08775277
000090 c3 06 33 3f 99 25 80 be ec fa 06 be a6 e9 b3 bd
       0.6993219 -0.25028685 -0.13181657 -0.08784799
0000a0 29 ee 77 be e7 95 d8 bd f3 91 a8 bd 2e 64 95 3d
       -0.24211945 -0.105754666 -0.082309626 0.072944984
0000b0 b0 3a b1 bd 88 80 3c 3c 19 d9 35 3e 7a aa ca bd
       -0.08653772 0.011505254 0.17758597 -0.09895797
0000c0 c0 aa cf 3e bc d0 c9 bb 8f d2 d1 bd cf 7f e6 3d
       0.4055996 -0.0061589163 -0.10245239 0.11254846
0000d0 3e 96 e0 bd 82 9f 5e 3d bb e0 9f bc 79 13 80 bc
       -0.109661564 0.054351337 -0.01951634 -0.015634285
0000e0 17 a3 4a 3d 5d 3e 91 bd a0 95 82 3e 9d b0 ff bd
       0.04947194 -0.07091973 0.2550478 -0.12484858
0000f0 16 fe b0 bc b7 01 3d bd 78 1b 79 bd 0b 87 1c be
       -0.021605533 -0.046144214 -0.060817212 -0.1528589
000100 de 99 97 3d 57 f4 2a be af 85 e4 bd 4e 05 a7 3d
       0.07402395 -0.16694771 -0.111583106 0.08155309
000110 09 76 0a be 7c 76 32 3d c0 e1 eb 3c 8c 00 cc bd
       -0.1352159 0.043570027 0.02879417 -0.09961042
000120 05 c3 4f bd f0 4c 3e 3e a7 57 ab bd 50 d5 0b bf
       -0.050723094 0.18584037 -0.08366328 -0.54622364
000130 b3 b5 e1 3d 85 37 73 3d c7 9e 95 3e 94 46 c7 bd
       0.110209845 0.05937912 0.292227 -0.097302586
000140 a6 c0 17 3e 0c 86 d4 3b 6b e5 43 be cf 05 c2 bd
       0.14819583 0.006485706 -0.19130485 -0.09473764
000150 2c 69 1e 3d 72 40 39 be 18 46 d4 3c 6d b5 4d bd
       0.03867452 -0.1809099 0.02591233 -0.05022185
000160 05 28 2c 3d 6e 1d 07 be 84 84 30 be 9b ec 5f 3c
       0.042030353 -0.1319482 -0.1723805 0.013667251
000170 d3 17 df bc fe 40 7b bd ce 99 42 3b f9 24 b0 3d
       -0.02723304 -0.06134128 0.0029693726 0.08600802
000180 e6 09 a8 3d fe f6 02 be a7 8e 30 be c7 2e 1a be
       0.08205013 -0.12789533 -0.17241918 -0.15056907

linears.1.weight f4 [100, 100]
000000 8a 56 f2 3c e0 f1 1a 3e c1 c5 c7 3d 0a 25 aa be
       0.02958228 0.1513133 0.097545154 -0.33231384
000010 86 19 78 3e 87 c7 45 3e 16 62 77 be af 6c e0 bc
       0.24228486 0.19314395 -0.2415851 -0.027395574
000020 e9 5d 9c 3b 7e 70 03 bd f6 0e 63 be 67 46 7e be
       0.004771937 -0.032089703 -0.22173676 -0.24831544
000030 59 57 1a 3e 1e 57 b6 bd 08 1d 4a bb 6a ec 39 bd
       0.15072383 -0.08903335 -0.0030840058 -0.045391478
000040 7c 5a 8f 3d fb 91 c0 3d 74 06 18 3e ca 8b 5a bd
       0.069996804 0.094028436 0.14846212 -0.05335597
000050 d2 c6 d9 bd 4a 0a 9a bc 8d 6a 24 bc e3 a7 8e 3d
       -0.10633625 -0.018803734 -0.010035169 0.069656156
000060 b5 2c 15 be 21 7d 83 be 85 9d 14 3e 98 9b a1 bc
       -0.14567836 -0.25681403 0.14513214 -0.019727513
000070 51 9a e0 bd 26 b5 9f 3c e2 61 ab 3d b3 42 c0 3c
       -0.109669335 0.019495558 0.08368279 0.023469305
000080 d8 fb d6 bd 3f 5a 07 be ca 67 d6 bc 86 32 e3 bd
       -0.10497254 -0.1321802 -0.026172537 -0.11093621
000090 34 53 ba 3d 0d ee 4b be 65 d3 33 3e 73 1b 56 3e
       0.09097901 -0.19915028 0.1756111 0.20908909
0000a0 1f d2 54 bd df af 54 3e 04 75 b0 3e a2 8a 4d bd
       -0.0519582 0.20770214 0.34464276 -0.05018104
0000b0 ea d5 95 be 75 71 a1 bb 4b 20 09 be d8 cd 90 3e
       -0.29264766 -0.004926855 -0.13391225 0.28282046
0000c0 1e 24 64 be e6 b2 a4 3d 83 76 67 3e cf 01 a3 3d
       -0.22279403 0.08041935 0.22603802 0.07959329
0000d0 67 a0 4b bc 3f 28 a0 be 7b 89 52 bd 6c bf 1e 3e
       -0.01242838 -0.31280705 -0.051400643 0.15502709
0000e0 5d 6c 8e be 0a 60 de bc a7 01 fa bd 11 13 3e 3e
       -0.2781705 -0.027145404 -0.122073464 0.18561961
0000f0 df 7f e7 3d 92 61 34 3d c7 73 6a 3e dd 50 51 3e
       0.11303686 0.044038363 0.22895728 0.20441003
000100 73 d5 a5 be 14 7e d9 3e 24 bf b8 3c 69 cb 49 be
       -0.3238941 0.42479002 0.02255208 -0.19706501
000110 17 4a b5 3e 4f a3 12 be 8d 44 d3 bd dc 77 e2 3d
       0.3540809 -0.1432011 -0.103158094 0.110580176
000120 b8 89 48 3d d7 e6 5c 3e 6b f9 0d 3d c2 64 02 3d
       0.048959464 0.21572433 0.03466169 0.03183437
000130 40 f0 c9 3d 23 b1 87 be ef 20 59 be cc e6 59 bd
       0.09860277 -0.26502332 -0.2120397 -0.05319862
000140 14 4f 05 be f6 bc 6e bd dc a6 a7 bd 20 07 23 3e
       -0.13018447 -0.058285676 -0.08186123 0.15920687
000150 ca 43 c4 3c 71 4d a3 3c 23 9f be bd ce 12 c1 3d
       0.023958106 0.019934388 -0.09307697 0.09427415
000160 68 76 bf 3d ca 20 52 3e 7a 83 b2 3e 0d cc 05 3e
       0.09348756 0.2052032 0.34865934 0.1306612
000170 f4 42 52 bf e4 89 ec bc 72 8a 41 3d 72 44 44 3a
       -0.8213341 -0.028874345 0.047251172 0.0007487006
000180 08 b4 ca 3d 72 be 4a 3e 3e e8 e0 3d d0 23 a1 3e
       0.098976195 0.19799212 0.10981797 0.31472635
000190 6e 8e 58 bd e9 81 f4 bd a5 fe 6d 3d e1 7b fa 3d
       -0.052870207 -0.11938841 0.058104176 0.12230659
0001a0 e2 0b 24 be 5d 9a c7 3d 59 02 a0 bd 17 13 0b 3e
       -0.16020158 0.09746239 -0.07812948 0.13581501
0001b0 41 1c a9 3b af d9 8b bd 75 b0 00 be eb 31 a9 3d
       0.005160839 -0.06828629 -0.12567313 0.08261474
0001c0 e7 77 1c 3e 97 ca c6 bd 87 e5 01 3e 5c 06 5a 3d
       0.15280114 -0.0970661 0.12685214 0.05322872
0001d0 41 d7 b4 3c c5 a3 1a 3e 81 5d 78 3d a1 61 ff 3d
       0.022075297 0.15101536 0.060636047 0.12469793
0001e0 9a f4 cf 3c 48 fe f9 bd c6 59 13 3e 68 c8 34 3e
       0.02538519 -0.122067034 0.14389715 0.17654574
0001f0 ee b7 6e bd fe c3 a5 3d 4b 03 ce 3d b8 23 c7 bb
       -0.058280878 0.08094023 0.10059222 -0.006077256
000200 53 c7 22 3e 83 a5 99 bd e6 fc 43 bd 98 b0 84 3d
       0.15896349 -0.07502272 -0.047848605 0.06478995
000210 b7 cd 3a 3d 22 58 2b 3d 31 41 9b 3d 6b 4d c1 3d
       0.04560634 0.041832097 0.07580794 0.094385944
000220 5d 7f 54 bd d5 8f e0 3d e0 69 e4 bd 4c 95 8e bd
       -0.051879276 0.10964934 -0.111530066 -0.0696207
000230 4e 9d 42 be e2 e6 76 bd f2 fd a8 3d e8 54 0c 3e
       -0.1900532 -0.06027878 0.08251561 0.13704264
000240 23 4c ff bd bb 1f 7e 3d 42 18 10 3d 44 fc c6 bd
       -0.12465694 0.06204198 0.035179384 -0.097160846
000250 37 64 ea 3c 6f 11 ee bd 9c b1 eb 3c 26 c4 66 3d
       0.02861224 -0.11624419 0.028771214 0.056339405
000260 ca 0f e9 bd 00 92 05 3e a8 91 0b be a7 82 8f 3b
       -0.11379965 0.13043976 -0.13629782 0.0043795886
000270 1d ce 55 3d 70 1c 0c 3d 29 9b 48 bd e3 a5 47 3e
       0.052198518 0.034206808 -0.048976097 0.19496875
000280 21 35 54 3d 62 8c 91 bd f2 34 14 3e 97 1c 1b 3e
       0.05180848 -0.07106854 0.14473322 0.15147625
000290 bd 83 41 be 9c a0 ca bc d4 2a c9 3d 75 90 24 3e
       -0.1889791 -0.024734788 0.09822622 0.16070731
0002a0 69 8d 58 3e f1 26 89 bd da 7a a8 3d 2c 17 68 3d
       0.21147694 -0.066968806 0.08226557 0.056662723
0002b0 26 50 d1 3d e5 7b 94 3c cb 67 09 3e 20 cd 30 bd
       0.10220365 0.018125484 0.134185 -0.043164372
0002c0 af e1 93 3d 0f 60 41 be 82 db 29 3e 88 40 9b bd
       0.0722078 -0.188843 0.16587642 -0.07580668
0002d0 7b 75 41 3e 94 29 e5 3c fb d9 15 bb 13 7f 38 be
       0.18892471 0.027973928 -0.0022865522 -0.18017225
0002e0 09 85 de 3d e2 8c 6f 3d c1 7b 37 be 30 ba 07 3d
       0.10865218 0.058483966 -0.17918302 0.033136547
0002f0 38 77 2a 3d 24 fe 20 3e be b4 56 3e 45 c5 31 3e
       0.041617602 0.15721947 0.20967385 0.17360409
000300 50 e8 ce bd f1 42 e3 3d 17 5d 0b 3e 19 90 8e bd
       -0.10102904 0.110967524 0.1360973 -0.06961078
000310 15 4a 45 bd f2 76 9f bd a1 ac 9b 3d b3 9d d6 3c
       -0.048166353 -0.07786359 0.07601286 0.026198244
000320 94 52 49 3e 08 61 7e 3e 8d d1 1f 3e 8b 55 d2 3d
       0.19660407 0.24841702 0.15607281 0.10270222
000330 8b 60 a5 3e 3a a1 f3 3d c3 37 8c be 14 5c 00 3e
       0.3230022 0.11895986 -0.27386293 0.12535125
000340 6d 10 0c be 47 e1 31 3c 24 17 d5 3d dc 0c 99 bd
       -0.13678141 0.010856933 0.10404804 -0.07473156
000350 15 56 0e be 26 bf 26 be bb 91 43 be 0b 18 b7 3d
       -0.13900025 -0.16283855 -0.1909856 0.08940133
000360 59 81 24 be b7 6c 5c 3d ec 9f 94 3d 16 48 b3 bc
       -0.16064967 0.053814616 0.07257065 -0.02188496
000370 b0 63 5a be 8a cc 4a 3e a1 89 8b be 75 03 cc 3e
       -0.2132709 0.19804588 -0.2725344 0.39846388
000380 a0 aa 28 3e 12 10 bf bd fc 97 86 3e f9 94 fb 3d
       0.16471338 -0.09329237 0.2628783 0.12284274
000390 bc 9c 3d 3d 86 d3 44 3d 8f 1c 2b 3c 02 0e bd 3e
       0.04629205 0.048053287 0.010443821 0.3692475
0003a0 ad 25 71 be f9 0c 5c be dd b9 28 be 68 77 61 bc
       -0.23549528 -0.21489324 -0.16477151 -0.013761379
0003b0 38 99 e5 3d 0b d8 d0 3c c3 72 ed be 3c a0 4e 3e
       0.11210865 0.025493642 -0.4637662 0.20178312
0003c0 7b 74 2e be 69 28 d7 be 5d 19 1a 3e 57 f6 80 3b
       -0.17036621 -0.42023018 0.15048738 0.003935616
0003d0 3b 24 95 bd 79 4f 20 3e 18 24 b5 3d 11 39 1b 3d
       -0.07282301 0.15655316 0.08844775 0.03789622
0003e0 26 ff 7d 3e 94 1b 12 be bf 9f 26 bd 46 54 a2 bd
       0.24804363 -0.14268333 -0.04067969 -0.0792623
0003f0 a1 e4 29 bc b0 78 47 3e 6c 7c 85 bd 1c c5 92 3d
       -0.010369451 0.19479632 -0.06517872 0.07166502

linears.1.bias f4 [100]
000000 e7 3e 2c be 70 39 f2 bc d6 52 e5 3b a2 ca 42 bd
       -0.1682087 -0.029568404 0.0069984 -0.047556527
000010 95 3b 71 bd 89 83 da 3c 3d ae 4e bc a9 a1 75 bd
       -0.058894712 0.026674049 -0.012614784 -0.059968624
000020 53 2b 8e bd b6 f5 88 bd 6b a0 a5 bb c3 b5 11 3e
       -0.06941857 -0.06687491 -0.0050545237 0.14229493
000030 d2 c0 22 3d 49 99 2b 3d 60 a2 a0 bb 33 16 54 bd
       0.03973467 0.04189423 -0.004902169 -0.051778983
000040 a4 8b 85 bd 36 54 e6 bc fe 66 81 bd 71 ae 2e 3d
       -0.06520775 -0.028116327 -0.06318472 0.04264683
000050 5d ae a5 3c 12 a2 37 bd d9 c9 ef bd ce 8c e0 bd
       0.020224744 -0.044832297 -0.11708421 -0.10964356
000060 63 83 ae 3d 9b 0a 57 3d bc bf ba 3c 77 99 44 bd
       0.08521154 0.05250035 0.022796504 -0.047997918
000070 dd 17 2c 3b 7b dc 21 bd 23 85 e4 3d a5 66 a9 bd
       0.002625934 -0.039516907 0.11158206 -0.08271531
000080 b6 a9 45 bd 87 6c 11 bd 87 c5 58 bd 7d 39 33 be
       -0.048257552 -0.03550389 -0.05292275 -0.17502399
000090 a0 8f 71 3b 22 47 41 bd bf 8a f2 bc 57 31 24 3d
       0.0036859289 -0.04718698 -0.029607175 0.040086117
0000a0 b2 32 90 3d 58 98 da bd ea 40 b0 3c be cc 36 bd
       0.07040919 -0.106735885 0.021515328 -0.04462885
0000b0 a9 33 28 3d 30 68 09 3d 5d da a1 3c df 5d c0 bd
       0.041064892 0.033546627 0.019757444 -0.093929045
0000c0 46 18 40 bd da af 02 3d d0 52 31 bd 07 a6 8e 3d
       -0.04689815 0.031905986 -0.043291867 0.06965261
0000d0 35 83 38 bd a0 11 44 bb 19 37 10 3d 2a 2f 35 bb
       -0.045047004 -0.0029917732 0.035208795 -0.002764652
0000e0 64 ea 0b 3e 29 33 eb bd 40 2b 3a bd 77 99 08 bd
       0.13663632 -0.114843674 -0.045451403 -0.03334948
0000f0 09 9b 83 3d a2 ba ea bb a8 33 2d 3e 3e 3e 1a bc
       0.06426055 -0.0071633616 0.16914237 -0.009414254
000100 66 71 8d 3d ef 05 14 bd b9 44 ee 3d 04 c8 12 bd
       0.06906395 -0.03613847 0.116342016 -0.03583528
000110 d1 ec 56 bd ee a3 74 3d 5f 76 5c be 99 58 2c 3c
       -0.05247194 0.059726648 -0.2152953 0.01051917
000120 83 53 de 3f 48 cb f9 bc c9 a6 29 bd 7f 13 07 3e
       1.7369236 -0.03049244 -0.041418824 0.13191031
000130 7f e9 29 bc 99 03 1c bd 71 68 e1 bb fa 47 63 3c
       -0.010370611 -0.03808937 -0.0068789055 0.013872141
000140 04 56 1e 3d 0a 22 08 3e ee 54 5a bd bb f5 02 3d
       0.03865625 0.13294235 -0.05330365 0.031972628
000150 e5 26 1e 3e 0d 63 19 bb df 86 99 bd a2 52 76 bd
       0.15444525 -0.0023404986 -0.07496428 -0.0601374
000160 29 8c bc 3c 4d eb ff bc 31 4a 73 bd 71 75 85 bd
       0.023016052 -0.03124013 -0.059396926 -0.06516541
000170 6d ed 75 bd 8f 5c 18 3e d4 50 2e 3d 29 ca 75 3d
       -0.06004088 0.14879058 0.042557552 0.060007248
000180 52 85 88 bd 46 c9 50 bd e7 86 38 bd 5c 4d 09 bd
       -0.06666054 -0.0509732 -0.045050528 -0.03352104

linears.2.weight f4 [100, 100]
000000 14 20 48 bd 1c 27 b1 3c 2e 63 0c be 2b 48 01 3d
       -0.048858717 0.021625094 -0.13709709 0.031562965
000010 cc 35 9b 3d cc 63 2a 3e 57 47 ac 3c 0e c8 1d be
       0.0757862 0.16639632 0.021030111 -0.15408346
000020 0e 16 d7 3c 2e 26 8e be ec 77 b5 3d 16 1d a7 bd
       0.026255634 -0.27763504 0.08860764 -0.081598446
000030 f3 5c a1 3d 3c 5f e3 3c 91 4f 91 3d 23 f5 18 be
       0.07879057 0.027755372 0.07095254 -0.14937262
000040 f8 09 ae bc e6 03 dd 3d 5a cd b5 bd 23 db 8b bd
       -0.021244988 0.10791759 -0.08877058 -0.068289064
000050 c5 2d 0b be af 94 4e be b1 a5 b3 3e a8 ae 22 be
       -0.13591678 -0.20173906 0.3508735 -0.15886939
000060 61 92 c3 3d e4 f8 ee 3d b1 2f ac bd 14 c2 8d 3c
       0.09549404 0.11668566 -0.08407534 0.017304458
000070 48 4c 99 3d 98 80 43 be d7 c3 78 3e 62 02 61 3e
       0.074852526 -0.19092023 0.24293457 0.21973565
000080 69 83 c3 bc 1a b7 ff 3d 99 e1 15 3e c5 24 a9 3e
       -0.023866372 0.12486096 0.1463684 0.33035865
000090 f6 e7 38 bd d2 c7 21 be 90 52 15 3f 1a a8 25 be
       -0.04514309 -0.15798882 0.58329105 -0.16177407
0000a0 87 a5 c7 3e fb 7a dd be c9 3c 4f 3d 12 08 4d be
       0.38993475 -0.4325789 0.05059508 -0.2002261
0000b0 bb 21 64 bc b8 34 27 3c e5 35 f4 3d 08 1f 09 3e
       -0.013924058 0.01020544 0.11924342 0.13390744
0000c0 62 bf 6c be 25 86 3c 3e 65 9a 45 be e7 a6 2b bb
       -0.23119882 0.18410547 -0.19297178 -0.002619201
0000d0 29 6c d4 bd 34 d6 e6 3d a3 a7 a9 3c 13 b6 66 be
       -0.103721924 0.11271325 0.020709818 -0.22530393
0000e0 15 62 c5 3e 7b c4 a6 3d cf 4b 3f 3c e1 3e da bd
       0.38551393 0.081429444 0.011675789 -0.106565244
0000f0 0a 24 a5 3e 10 66 49 be bc af 83 bd b1 1a 4f be
       0.32254058 -0.1966784 -0.06430003 -0.20225026
000100 bd cf 01 3d c0 c3 dc 3c f6 75 a2 3c e9 f6 1f be
       0.031692255 0.02694881 0.019831639 -0.15621532
000110 6b 3e 1c bc a3 41 88 3d 9c d8 f1 3d 68 dc 2e 3e
       -0.009536366 0.06653144 0.11808893 0.17076266
000120 83 fa 88 bf 7f f6 f0 bd 34 a1 4d 3e 3c 31 71 3e
       -1.070145 -0.117657654 0.20081025 0.23553938
000130 86 0b 37 3e 95 3f 9d 3d ee dc 9d 3d 16 d0 0e 3e
       0.1787549 0.07678143 0.077081546 0.13946566
000140 9c be 05 be 59 84 c7 3d 07 69 b1 3d 2a 2e 2a 3d
       -0.13060993 0.0974204 0.086626105 0.04154793
000150 ed 0e 69 3e 0e 08 2d be f5 6c 5d 3d e3 d1 46 be
       0.227596 -0.16897604 0.054058988 -0.19416003
000160 bb 52 a9 3e fc 59 17 3e e6 f4 c7 3d 1e 73 35 bd
       0.3307093 0.1478042 0.097635075 -0.044299237
000170 62 51 43 be 67 dc 8c be 6e 7f e9 3d d2 c5 50 3d
       -0.19074014 -0.27511904 0.114012584 0.050969906
000180 c3 e9 01 3d 96 a1 b1 3c 29 19 18 3e 86 00 6d 3d
       0.031717073 0.021683495 0.14853348 0.057861827
000190 3c 58 b1 3d 76 54 c9 bc 51 37 3c be fa 3b 3f be
       0.086594075 -0.024576407 -0.18380477 -0.18675223
0001a0 da 89 0f be 7f b1 25 bc c1 35 f9 bd 22 0d 02 3d
       -0.1401743 -0.010113119 -0.12168456 0.031750806
0001b0 1d c5 f3 bd 17 65 96 3d ef f8 36 bd 60 ec f1 bd
       -0.11902831 0.073435 -0.044670995 -0.11812663
0001c0 e7 ac 9d 3c 04 fd 2c 3e bf a5 77 bc d7 e1 75 3d
       0.019247485 0.16893393 -0.015115201 0.06002983
0001d0 e7 49 26 be aa 81 49 bd 26 8d cc bd 0f ec 9a bd
       -0.16239129 -0.049195923 -0.099878594 -0.07564556
0001e0 5f 95 e5 bd 79 94 2a bd 7a 10 aa 3d 2f 3d a7 bd
       -0.11210131 -0.0416455 0.08303924 -0.08165967
0001f0 b8 ac 16 3e 4d 11 3b bd 62 63 0c 3e e4 ae 1f 3e
       0.14714324 -0.045670796 0.13709787 0.15594059
000200 f3 a9 8c ba 61 ab ab bd e7 8e 61 3e 75 ca 89 bd
       -0.0010731801 -0.08382297 0.22027169 -0.06728069
000210 1d 6f 24 be 27 b4 f4 3c 0d 5b 53 bc e2 ff 72 bc
       -0.16058011 0.02987106 -0.012900126 -0.014831515
000220 28 8a a6 bd 9e ea 70 3c 62 9f 3c 3d 78 94 9d bd
       -0.0813182 0.014704375 0.046050437 -0.07694334
000230 f2 a9 55 bd 72 a8 65 be 40 aa 3b 3c dc e9 0b be
       -0.052164026 -0.22427538 0.011454165 -0.13663429
000240 42 1d ee bd 24 15 97 3c dc 85 9a bc 8f cb 4f 3d
       -0.11626674 0.018442698 -0.018862657 0.050731238
000250 70 3a 0f 3d 11 c0 b8 3d 88 a3 9b 3c 99 2e be bc
       0.03496784 0.09021009 0.018998876 -0.023215579
000260 c6 37 ca bd 89 d9 d7 3d 54 2f b3 bc a3 d3 c6 3d
       -0.09873919 0.105395384 -0.021873154 0.09708335
000270 cf 38 3e 3e 1e b2 19 be 52 6c 19 3e dc 5f ca 3d
       0.18576358 -0.15009353 0.14982727 0.09881565
000280 fb 41 e5 3d 93 64 cf 3d 42 c1 3d bc f8 09 2f 3e
       0.111942254 0.10126605 -0.011581721 0.17093647
000290 bb ea 87 3d 41 a3 97 bd 64 a6 01 3e b7 d1 ca 3c
       0.06636568 -0.07404185 0.12661129 0.024758203
0002a0 e0 b3 33 be 42 ea 88 3d e9 d8 86 3d 5c e9 3c bd
       -0.17549086 0.06685306 0.06584341 -0.046120986
0002b0 80 31 86 bd d9 03 c7 bc f8 08 0c be 29 23 8c 3e
       -0.0655241 -0.024293827 -0.13675296 0.27370575
0002c0 78 0b 1a 3d 0c 10 ec 3d 69 cb 3c be 7d 2b 29 3d
       0.037608594 0.11526498 -0.1843697 0.04130124
0002d0 1a 7a b8 bd 2e 46 f4 bd be 23 09 be 03 4c a8 3c
       -0.09007664 -0.11927448 -0.13392541 0.020544058
0002e0 40 9c 72 3e 68 c0 28 3d bc 9b 50 3c 27 79 2d 3c
       0.23692417 0.041199118 0.0127324425 0.010587967
0002f0 0a a3 3e be 17 e6 a1 3d 45 a3 0b be 94 36 b4 bd
       -0.18616882 0.07905214 -0.13636501 -0.087994725
000300 1c 5d dc 3d 72 69 1d be c4 7e 1f be d3 5c 17 be
       0.10759947 -0.15372255 -0.15575701 -0.14781503
000310 e8 74 f9 bd c3 1a c8 bd 67 9c a9 3d b8 64 71 bd
       -0.12180501 -0.097707294 0.082817845 -0.058933944
000320 44 a6 d2 bd 10 97 f2 3d b7 72 94 3d eb ca 41 be
       -0.10285619 0.11845219 0.072484426 -0.18925063
000330 05 a2 0e be 31 df 55 3e 1c 4f 8c 3b e0 6b 15 be
       -0.13928993 0.20885922 0.0042818915 -0.14591932
000340 fe 10 44 bd 15 82 b7 3d d7 47 23 3d d9 1b d9 3d
       -0.047867768 0.08960358 0.039863434 0.10601015
000350 c5 3e 36 3e c8 d6 3b 3d ee 25 c3 3d db 16 8d 3d
       0.17797382 0.04585913 0.09528719 0.06889125
000360 1e e7 42 be 51 f9 c9 3d 6c 24 43 be ea 87 25 3d
       -0.19033477 0.098620065 -0.19056863 0.04041282
000370 d5 19 7a bd 74 7a 08 3e e7 2e b8 bd b7 66 2a be
       -0.06105979 0.13327962 -0.08993321 -0.16640745
000380 f6 9f 45 bc d1 85 eb 3d 77 b6 b4 3d 59 fa b2 bd
       -0.012062063 0.11500133 0.08823865 -0.08739156
000390 94 60 8e 3d cc da 65 3b 95 67 58 3e 96 ee 47 bd
       0.069520146 0.003507304 0.21133263 -0.048811518
0003a0 d7 cb 21 be 1a 52 93 3d 1f 45 1f be a7 77 0c 3d
       -0.15800415 0.07193394 -0.15553711 0.034293797
0003b0 c8 2e 33 3e 08 b6 36 be 79 f5 fa bc 6f ce eb 3d
       0.17498314 -0.17842877 -0.030634629 0.115139835
0003c0 c1 55 62 3e 97 9e ad be 5e ba f9 3d e3 1e 52 be
       0.22103025 -0.33910057 0.1219375 -0.20519595
0003d0 6f 4d 4e bb 94 02 06 3e c3 a2 04 3e e8 1a ec bd
       -0.003147926 0.13086921 0.12952714 -0.115285695
0003e0 1e 40 4f be 10 a4 6a 3d 70 6f 61 bd cf 0e 82 3e
       -0.20239303 0.05728537 -0.055037916 0.25401923
0003f0 c2 2b d1 3b 79 f4 68 3d 14 c4 b2 bb ab e9 18 be
       0.00638339 0.056873772 -0.0054555032 -0.14932887

linears.2.bias f4 [100]
000000 db e8 74 3d 2c d7 1d 3d 1a 9a 3f 3d 42 db 2e 3d
       0.05979238 0.038535282 0.046777822 0.04268957
000010 ea a0 33 3d ec 0a 33 bd 1b 28 fa bc 25 42 43 3d
       0.04385463 -0.043711588 -0.030536702 0.047670502
000020 e6 17 33 3d 45 d7 05 bd f7 d0 61 3d 69 dd 4c bd
       0.043723963 -0.032676 0.055130925 -0.05001584
000030 da 99 3f 3d 4c f4 08 3d 21 ab 87 bc 21 36 ac bc
       0.046777584 0.033436105 -0.016561093 -0.021021904
000040 04 ef 3f 3c ad fa 77 bd 8a 0f d6 3d 94 85 39 bd
       0.011714701 -0.060541797 0.104521826 -0.045293406
000050 8e e9 29 bd 83 6a 24 3d 71 18 04 bd e5 8a 91 bd
       -0.0414825 0.04014064 -0.03224987 -0.0710657
000060 ea f0 8a bd c0 0b 67 3d 2c ca 54 bd 46 24 0d bd
       -0.06784232 0.05640769 -0.05195062 -0.03445842
000070 d4 5e 15 bd 85 7c f3 bc c6 20 61 3d e8 d6 0f bd
       -0.03646739 -0.029722461 0.054962896 -0.03511706
000080 d4 13 07 bd 98 45 29 bd 18 a9 16 3d 7f 2b 8a bd
       -0.032977894 -0.041326135 0.036782354 -0.067465775
000090 c2 f6 4d bd f7 53 f3 3c 7b 75 9e bd ec 81 3e 3c
       -0.050284155 0.029703123 -0.07737251 0.0116276555
0000a0 65 f4 3e bd 4e 69 43 3d 18 47 fb bc 65 c5 0b 3d
       -0.04661979 0.04770785 -0.030673549 0.034123797
0000b0 45 86 2e 3d 5e c3 15 3d c2 55 b0 3d 31 e7 eb bc
       0.04260852 0.03656327 0.08610107 -0.028796764
0000c0 bf e9 02 bd 83 38 93 bc 45 06 12 3d 68 a0 41 3d
       -0.0319612 -0.017971283 0.03565051 0.047272116
0000d0 68 c8 04 bd 2b 09 f1 3b aa dd ba bc d0 8f ae 3c
       -0.032417685 0.0073558292 -0.022810776 0.02130881
0000e0 3b 9e 27 3d 95 f1 6e 3d a5 94 40 bd 44 40 d5 3c
       0.040922385 0.05833586 -0.04701676 0.02603162
0000f0 ae 28 0a 3d 92 09 ad bb ca 21 2e 3d 98 0e 83 3d
       0.0337302 -0.005280682 0.042512693 0.06399268
000100 a0 df fd 3c f8 b5 68 bd 8c 62 a6 3d 9d ae 23 bd
       0.030990422 -0.056814164 0.08124265 -0.039961446
000110 de e2 0d 3d a9 8a 42 3d e4 18 83 3d c1 db 78 3d
       0.034640186 0.047495518 0.06401232 0.06075645
000120 66 70 a0 3b c6 7f 1c 3d 9b 0a 27 3d f5 0d 26 3b
       0.0048962114 0.03820779 0.0407816 0.002533791
000130 d3 a6 24 3d ea 09 c8 3d cd 45 1c 3d 3c 03 21 bd
       0.04019816 0.09767516 0.038152505 -0.039309725
000140 5b 31 27 bd 8a 39 02 bd 16 4f 40 bd 63 6a 3d 3d
       -0.040818553 -0.031793155 -0.046950422 0.046244036
000150 5e 10 1e bd 9d 47 2f 3d 7a bf 01 3d 04 ec 47 bc
       -0.038589828 0.042792905 0.031676747 -0.012202267
000160 fe fc 4d bd 23 9e 1e bd 45 1f 0c bd 4b ed 37 bd
       -0.0502901 -0.03872503 -0.03420951 -0.044904035
000170 d2 dc 3b 3c b3 06 34 3d e9 bb 6f 3d fc 0d 39 3d
       0.011466222 0.0439517 0.058528814 0.045179352
000180 52 39 1f bd 04 81 1d 3d 50 a1 19 3d 19 2b 85 bc
       -0.038873024 0.038453117 0.037507355 -0.016255902

linears.3.weight f4 [1, 100]
000000 53 5c 81 be 75 05 18 be 22 4e ea be f0 d2 65 be
       -0.2526575 -0.14845832 -0.45762736 -0.22443748
000010 2b 38 d9 be 64 fd 5c 3e 84 fa af 3e 20 78 1e be
       -0.42425665 0.21581036 0.34370816 -0.15475512
000020 a1 70 7e be 4a 49 01 3f bb 83 c8 be 89 99 0d 3f
       -0.24847652 0.50502455 -0.39163002 0.553124
000030 0e e3 cc be eb df ba be 9c 33 9f 3e 07 40 09 3f
       -0.4001698 -0.3649896 0.31094062 0.5361332
000040 66 d8 c1 be 71 a7 b5 3e fa 0f 28 bf 9d c2 89 3e
       -0.3786041 0.3547931 -0.6564938 0.2690629
000050 b4 ec 82 3e e0 f7 ba be 0d 60 0a 3f 9c da cf 3d
       0.25571215 -0.3651724 0.5405281 0.10149118
000060 64 2c c3 3e fd 75 cd be 80 6b 01 3f 2f 6f ed 3d
       0.38119805 -0.4012908 0.50554657 0.11593472
000070 dd 7f 93 3e c6 33 8b 3e 59 cc 8c be 36 d3 be 3e
       0.2880849 0.27187937 -0.27499655 0.37270516
000080 ec c7 44 3e 31 ab 03 3f 57 1a 5a be b2 54 c5 3e
       0.19216889 0.5143309 -0.2129911 0.3854118
000090 db f3 32 3e 01 ad 15 bf 98 2b 2b 3f 02 ab 06 bf
       0.17475836 -0.5846711 0.66863394 -0.5260469
0000a0 00 da 96 3e 10 b5 19 bf 69 56 41 3e 1d 99 81 be
       0.29463196 -0.60041904 0.18880619 -0.2531213
0000b0 df c7 9e be a9 b0 eb be 6a ed 30 bf 50 e3 0a 3e
       -0.31011865 -0.46033219 -0.69112265 0.13563275
0000c0 30 12 1f 3e 22 6a cf 3e 9b c7 e3 be e2 38 df be
       0.15534282 0.4051066 -0.44488224 -0.43598086
0000d0 ac 86 be 3e 49 61 9b be 6b f4 0c 3e b8 83 86 be
       0.3721212 -0.3034766 0.13765113 -0.26272368
0000e0 ec 84 82 be 64 14 c6 be 00 83 04 3f bc 2b eb be
       -0.25492036 -0.38687432 0.5176239 -0.45931804
0000f0 25 04 b7 be 53 96 3e 3f a5 ca 9b be f3 98 9b be
       -0.3574535 0.74448127 -0.30428043 -0.30390128
000100 91 7d c2 be f0 92 e0 3e a1 ad 4a be 4a 2a 0e 3f
       -0.37986425 0.43862104 -0.19792797 0.5553328
000110 00 94 72 be ce 54 90 be 64 77 c9 be 70 a6 50 be
       -0.2368927 -0.281897 -0.393489 -0.20375991
000120 39 d9 87 3d c0 85 24 be ea bb 9c be 00 de 17 3f
       0.06633229 -0.16066647 -0.30612117 0.5932312
000130 59 8c a0 be 63 46 4f bf e3 cc da be 24 06 4a 3e
       -0.31357077 -0.80966777 -0.4273444 0.19728905
000140 93 c0 2c 3e 03 33 5f 3f 2a e3 83 3e b9 da 0a bf
       0.16870336 0.8718721 0.2575925 -0.54239994
000150 b2 a0 68 3e c6 7f 9c be 86 ee 2b bf f0 ba 97 be
       0.2271755 -0.30566233 -0.6716083 -0.2963481
000160 fd dc 54 3e ce 0b 90 3e c5 63 aa 3e dd f7 66 3e
       0.20787425 0.28134006 0.33279243 0.2255549
000170 74 37 46 bf 97 7f 1a bf b4 dd 90 be d6 57 0d be
       -0.77428365 -0.60350937 -0.28294146 -0.13803038
000180 de c6 c9 3e 55 d7 bc be e5 f9 17 be e6 c9 2a 3f
       0.39409536 -0.36883035 -0.14841421 0.6671432
