Complete_thesis_stage_1_and_2/(d).Code_and_all_other_details/LASER_DED/models/model_epoch_34000.pt (torch, 86584 bytes, 7 tensors)

linears.0.weight f4 [100, 4]
0	0xbf3567ba	-0.708614
1	0xbf075ead	-0.5287884
2	0x3d9341a4	0.07190254
3	0x3f339a3b	0.7015721
4	0x3eb36f59	0.3504589
5	0xbf2a63f9	-0.66558796
6	0x3cfee56a	0.031115253
7	0x3ec90f3b	0.39269432
8	0x3c8adbc3	0.016950494
9	0xbdde2a11	-0.10847867
10	0xbdd9eed0	-0.10641253
11	0x3e38d3d4	0.18049556
12	0xbf3a3334	-0.7273438
13	0x3e164b5f	0.1467719
14	0x3d3e1a95	0.04641207
15	0x3ef9ec65	0.48813167
16	0x3e2ad0d7	0.16681229
17	0x3f24e88e	0.6441735
18	0x3ed2e7c3	0.41192445
19	0x3eee96f4	0.46599543
20	0xbe16c02a	-0.14721742
21	0x3ecff11e	0.40613645
22	0xbe7f3fe2	-0.24926713
23	0x3e4bc3ef	0.19898961
24	0x3eea9915	0.45819917
25	0x3f818a06	1.0120246
26	0xbecdc918	-0.40192485
27	0xbe6e44a9	-0.2326838
28	0xbf22e6cc	-0.6363342
29	0xbeddff31	-0.43358758
30	0xbe0f2d60	-0.13982153
31	0x3f23956a	0.6389986
32	0xbe8010a2	-0.2501269
33	0xbdd41366	-0.103552625
34	0x3eadeeac	0.33971155
35	0xbd8e5785	-0.06950287
36	0x3e8e7ffa	0.27832013
37	0x3dbe836e	0.09302412
38	0x3d10889c	0.03528653
39	0x3e8000e1	0.2500067
40	0xbf5c1e4e	-0.8598374
41	0xbf39da71	-0.7259894
42	0xbe65811d	-0.22412534
43	0x3f092e6b	0.53586453
44	0x3dc14da2	0.094386354
45	0x3e6fe310	0.23426461
46	0x3e2b4ab4	0.16727716
47	0x3e27411d	0.16333432
48	0x3d8ab404	0.067726165
49	0xbdf41a6f	-0.11919104
50	0xbd38b703	-0.04509641
51	0xbeb97258	-0.3622005
52	0xbe36d8cf	-0.17856143
53	0x3eafe483	0.34354028
54	0xbe2a732c	-0.16645497
55	0x3e8b87c4	0.27252018
56	0xbe51f528	-0.20503676
57	0x3e5ade52	0.21373871
58	0xbe547f82	-0.20751765
59	0xbdd86687	-0.105664305
60	0xbec293dd	-0.38003436
61	0x3ee936c7	0.45549604
62	0x3ce27f8c	0.02764871
63	0x3ed40d1c	0.41416252
64	0xbced2282	-0.028947119
65	0xbca56668	-0.020190433
66	0xbe502af2	-0.20328882
67	0x3c3b468c	0.011430394
68	0x3e0c8edc	0.13726372
69	0xbdd37dab	-0.10326704
70	0x3f1ed6ac	0.62046313
71	0xbe47ca97	-0.19510876
72	0xbdbc83cc	-0.09204826
73	0xbd36e53b	-0.044652205
74	0xbdb940cd	-0.09045563
75	0x3d87a7d8	0.066238105
76	0x3e8f1796	0.27947682
77	0xbe2339a7	-0.15939961
78	0x3de5008e	0.111817464
79	0x3e756752	0.23965195
80	0x3e7496e1	0.2388568
81	0x3eb30220	0.3496256
82	0xbcdbeab9	-0.026845323
83	0xbecdeefd	-0.40221396
84	0x3e1736b7	0.14766966
85	0x3f32c0a9	0.69825226
86	0x3de4f093	0.111786984
87	0x3eb30ed6	0.34972256
88	0xbe8b1e95	-0.2717177
89	0x3d89ab4e	0.06722127
90	0xbe9af5e4	-0.30265725
91	0xbe535a3c	-0.2063989
92	0x3d033a0d	0.032037783
93	0xbd0bb92e	-0.034112148
94	0x3df5345a	0.11972876
95	0x3e076cb0	0.13225055
96	0x3e8012f7	0.2501447
97	0xbef23d85	-0.4731256
98	0x3c064f72	0.008197652
99	0x3dd92519	0.10602779
100	0x3edc3900	0.43012238
101	0xbf670808	-0.9024663
102	0xbeb8825f	-0.36036965
103	0xbf096e2b	-0.5368373
104	0xbe90cefd	-0.2828292
105	0xbf5f418a	-0.8720938
106	0x3cd3928d	0.025826717
107	0x3eda7743	0.42669114
108	0x3ee949bd	0.4556407
109	0x3dc37583	0.09543898
110	0x3f1a53af	0.6028394
111	0x3ee5ad06	0.4485857
112	0x3f1d7020	0.61499214
113	0xbbd21934	-0.006411696
114	0xbe696020	-0.22790575
115	0x3e82521c	0.2545327
116	0x3e924b6a	0.2857316
117	0xbd3d3c87	-0.0462003
118	0xbde9a9f3	-0.11409368
119	0xbe2db0d6	-0.16961989
120	0x3eccafca	0.39977866
121	0xbf36dd41	-0.71431357
122	0x3dc3cc09	0.09560401
123	0xbeaad860	-0.33368206
124	0x3eb088cd	0.3447937
125	0xbcb6b1d0	-0.022301584
126	0x3eaf41db	0.3422993
127	0x3ed49b75	0.41524854
128	0x3d879185	0.066195525
129	0xbf00c1e8	-0.5029588
130	0xbe9d3b6c	-0.30709398
131	0xbede700c	-0.4344486
132	0x3d830023	0.063965105
133	0x3e9286ee	0.28618568
134	0xbebad2a0	-0.3648882
135	0xbf47b972	-0.7801734
136	0x3e43661c	0.1908192
137	0x3db9eeb2	0.09078731
138	0xbc7f0f9f	-0.015567689
139	0x3a1e3764	0.00060354755
140	0xbda0c7c8	-0.07850605
141	0x3e09a2c1	0.13440992
142	0x3d94acaf	0.07259499
143	0xbc069f21	-0.00821665
144	0x3e74d814	0.23910552
145	0x3f1f32c1	0.6218682
146	0x3dd0b2ed	0.101903774
147	0x3ec68ca8	0.38779187
148	0x3cc85bfc	0.024457924
149	0x3e4fda83	0.202982
150	0x3e8a7f90	0.27050447
151	0xbe3932d4	-0.18085796
152	0xbead226f	-0.33815333
153	0xbe1a45c5	-0.15065677
154	0xbe6e9197	-0.23297726
155	0xbe9931e8	-0.29920888
156	0xbea14592	-0.3149839
157	0xbe9d7cae	-0.30759186
158	0x3dd8331f	0.105566256
159	0x3e232287	0.1593114
160	0x3f066a63	0.52506083
161	0xbfb0ceb9	-1.3813087
162	0x3e2edfbb	0.17077534
163	0xbec0c952	-0.37653595
164	0xbde886e4	-0.11353853
165	0x3bf3ac1a	0.0074362876
166	0xbd3d546e	-0.046223097
167	0xbdd99603	-0.106243156
168	0x3ee9437b	0.45559296
169	0xbeba63cb	-0.3640426
170	0x3d3e8dc4	0.046521917
171	0xbdb4011d	-0.08789275
172	0xbe42a885	-0.19009598
173	0x3d9d9b89	0.076956816
174	0xbe1b93af	-0.15193056
175	0xbe05fcc2	-0.130847
176	0xbee60af3	-0.4493023
177	0xbfa82070	-1.3134899
178	0xbedb1068	-0.42785954
179	0x3d7f2e59	0.06230006
180	0xbd676b73	-0.056498956
181	0x3e78c654	0.24294406
182	0x3da63f96	0.08117597
183	0xbe5be52b	-0.2147414
184	0x3e62e0d0	0.22156072
185	0xbe854b92	-0.26034218
186	0xbd9a5336	-0.075354025
187	0x3de06786	0.109572455
188	0x3c854b55	0.016271273
189	0xbe032a51	-0.12809111
190	0xbe3ae1da	-0.18250218
191	0xbde52ccf	-0.11190187
192	0x3ed442fa	0.4145735
193	0x3e8f142c	0.27945077
194	0x3e88e853	0.2673975
195	0x3ee6ec75	0.45102277
196	0xbeac3ace	-0.33638614
197	0x3eca4932	0.3950897
198	0xbe6a4dd0	-0.22881246
199	0x3e6682e1	0.22510864
200	0xbe80ede9	-0.2518151
201	0x3ec0b73a	0.3763979
202	0x3c3e6c47	0.011622495
203	0x3e38e53d	0.18056197
204	0x3d8c4410	0.068489194
205	0xbec55f72	-0.38549381
206	0xbd87485b	-0.066055976
207	0x3e7cc7dc	0.24685615
208	0x3da38747	0.079847865
209	0x3e233cb6	0.15941128
210	0xbe0e7845	-0.13913067
211	0x3d289a3a	0.041162707
212	0xbdc7db6f	-0.097586505
213	0x3e65040c	0.22364825
214	0x3e59fd63	0.21288066
215	0x3d269879	0.040672753
216	0xbdd4438a	-0.103644446
217	0x3ee394f1	0.4444957
218	0xbe49cd6a	-0.19707265
219	0x3dc02f36	0.09384005
220	0xbdeec89e	-0.116593584
221	0x3f08c5b6	0.5342668
222	0x3e82ac5a	0.2552212
223	0xbba4d2ba	-0.0050300034
224	0x3ebb1a06	0.36543292
225	0xbf741a8c	-0.9535301
226	0xbec50867	-0.38482973
227	0xbe40f8ef	-0.1884496
228	0x3e651644	0.22371775
229	0xbd69de39	-0.057096694
230	0x3ddd21d6	0.10797469
231	0x3dfd1c3f	0.12358903
232	0x3e1796bb	0.14803593
233	0xbee37a4f	-0.44429252
234	0x3e5ab883	0.21359448
235	0x3e6e25d2	0.23256615
236	0xbc16e5d6	-0.009210071
237	0xbe247f73	-0.16064243
238	0xbe362ebe	-0.17791268
239	0x3a22d9d9	0.00062122714
240	0x3e910d35	0.2833039
241	0x3e23c80c	0.1599428
242	0x3d3ee6d8	0.04660687
243	0xbe92d94c	-0.2868141
244	0xbcba2773	-0.022723889
245	0x3f30d473	0.6907417
246	0x3e91dbe6	0.28488082
247	0x3e97473b	0.29546532
248	0x3d7a747a	0.061146237
249	0x3e6c71c9	0.2309028
250	0x3d94bf8b	0.072630964
251	0x3e123d35	0.14281161
252	0x3e6f5ece	0.23376009
253	0x3ea835db	0.32853588
254	0xbe3400a2	-0.17578366
255	0x3e5ef3be	0.21772668

linears.0.bias f4 [100]
0	0x3d66e507	0.05637076
1	0x3f6161d0	0.88039875
2	0x3d9b0546	0.07569365
3	0xbd2b44ab	-0.041813534
4	0x3d8b7a79	0.06810469
5	0xbca55668	-0.020182803
6	0xbc51b5b3	-0.012799668
7	0x3e71c48e	0.23610136
8	0xbf1509b3	-0.58217925
9	0x3a55c000	0.00081539154
10	0x3dc0208c	0.09381208
11	0x3e1c0caf	0.15239213
12	0xbe654a03	-0.22391514
13	0x3c70fefd	0.014709231
14	0xbe1ebfa2	-0.1550279
15	0x3debb6db	0.11509486
16	0xbd4c8897	-0.04993495
17	0xbf2b6f71	-0.6696692
18	0xbddc56f3	-0.10758772
19	0x3d8be215	0.06830231
20	0xbd92a6f8	-0.07160753
21	0x3e2b055c	0.16701263
22	0x3d9695b0	0.073527694
23	0xbd9c615a	-0.07635756
24	0x3db605b9	0.0888781
25	0x3d776336	0.06039735
26	0x3e2b8695	0.16750558
27	0x3d853931	0.06505049
28	0xbeb1df9b	-0.3474091
29	0xbd763f62	-0.06011904
30	0xbd113530	-0.035451114
31	0x3dbebf92	0.09313883
32	0x3d0a57c2	0.0337751
33	0xbca24182	-0.019806627
34	0xbdb54018	-0.088501155
35	0x3db07628	0.086162865
36	0x3efd0aec	0.49422395
37	0xbe725b19	-0.23667563
38	0xbe023010	-0.12713647
39	0xbdb27a9c	-0.08714792
40	0xbe7892c9	-0.24274744
41	0xbdd4ca8a	-0.10390194
42	0xbda766f6	-0.08173935
43	0x3d91aaea	0.071126774
44	0xbdacdbca	-0.08440359
45	0x3c6bb066	0.014385318
46	0x3e252329	0.16126694
47	0xbdc6da48	-0.097096026
48	0x3ea8b7dd	0.32952777
49	0xbbd81172	-0.0065938765
50	0xbdcd2957	-0.100176506
51	0x3dd3d615	0.10343567
52	0xbdd9057e	-0.10596751
53	0x3d585a2d	0.052820373
54	0xbca0a461	-0.019609632
55	0xbc87e82c	-0.0165902
56	0x3d4c7977	0.049920525
57	0xbd87911c	-0.06619474
58	0x3e7f30d7	0.24920975
59	0xbdfa87ad	-0.12232909
60	0xbca4e6a7	-0.020129515
61	0xbd415448	-0.047199517
62	0xbd7bc0fe	-0.06146335
63	0xbe159e43	-0.14611153
64	0x3d89e007	0.06732183
65	0xbe280a36	-0.16410145
66	0xbddc51d3	-0.10757794
67	0x3da0b2d2	0.07846607
68	0xbe08b99d	-0.13352056
69	0x3d3b3c27	0.045711663
70	0x3cf7e0c6	0.030258548
71	0xbdbcf3ec	-0.09226212
72	0xbd43e3b0	-0.04782456
73	0x3e35950b	0.17732637
74	0xbda9bf72	-0.082884684
75	0xbefc6f15	-0.493035
76	0x3dd8110c	0.105501264
77	0x3d644de7	0.055738356
78	0x3e9485d3	0.2900835
79	0xbdc2eacb	-0.095174395
80	0x3e142ed0	0.14470983
81	0x3c19862b	0.009370367
82	0xbe35feaa	-0.17772928
83	0xbdbd5f81	-0.092467315
84	0x3d1f73e0	0.038928866
85	0xbe32d285	-0.1746312
86	0x3cd8b932	0.026455496
87	0xbd4e0e2e	-0.05030649
88	0x3ce0084e	0.02734771
89	0xbe04891d	-0.1294293
90	0xbe2df4a5	-0.16987856
91	0x3c065f16	0.008201381
92	0xbcde37eb	-0.027126273
93	0xbd7a7f11	-0.061156336
94	0x3b2d48f7	0.0026441196
95	0x3dac3024	0.084076196
96	0x3da5466c	0.080700725
97	0xbdf255a1	-0.11832739
98	0xbe27faed	-0.16404314
99	0xbe1833a9	-0.14863457

linears.1.weight f4 [100, 100]
0	0x3ceff91e	0.029293593
1	0x3e1b713d	0.15179916
2	0x3dc77fa3	0.09741142
3	0xbeaccce0	-0.33750057
4	0x3e784c62	0.24247888
5	0x3e45851a	0.19289055
6	0xbe776502	-0.24159625
7	0xbcded8ef	-0.027203051
8	0x3b87acd3	0.0041404753
9	0xbd0c8508	-0.034306556
10	0xbe633f4d	-0.22192116
11	0xbe7e3fd1	-0.24829032
12	0x3e1a4ad1	0.15067603
13	0xbdb711c1	-0.08938933
14	0xbb4ebb92	-0.0031544906
15	0xbd3aac76	-0.045574628
16	0x3d8f06e0	0.06983733
17	0x3db607fa	0.0888824
18	0x3e17c674	0.14821798
19	0xbd5c5541	-0.053792242
20	0xbdd96e16	-0.106167
21	0xbc9aa696	-0.018878262
22	0xbc1db273	-0.009625065
23	0x3d8da4fb	0.06916233
24	0xbe152355	-0.1456426
25	0xbe836ca7	-0.25668833
26	0x3e146f7a	0.1449565
27	0xbca0c5b5	-0.019625524
28	0xbde281ed	-0.110599376
29	0x3c9dab4f	0.019246725
30	0x3dab6e6c	0.08370671
31	0x3cc01b93	0.023450648
32	0xbdd68d32	-0.104761496
33	0xbe0730e4	-0.13202244
34	0xbcdcd840	-0.026958585
35	0xbde29df1	-0.11065281
36	0x3dbb44a1	0.09143949
37	0xbe4cbf63	-0.19994883
38	0x3e33f62d	0.17574377
39	0x3e572e5e	0.21013781
40	0xbd6d3c52	-0.057918854
41	0x3e54b5b6	0.20772442
42	0x3eaeaaea	0.34114772
43	0xbd4afa9d	-0.04955541
44	0xbe95f927	-0.2929165
45	0xbb91243d	-0.004429369
46	0xbe0933d5	-0.13398679
47	0x3e90beac	0.2827047
48	0xbe63d26d	-0.2224824
49	0x3da47b2e	0.08031307
50	0x3e66febf	0.22558115
51	0x3da1ecf5	0.07906524
52	0xbc51e5b2	-0.012811111
53	0xbea01492	-0.31265694
54	0xbd535e74	-0.05160375
55	0x3e1ee388	0.15516484
56	0xbe8e6e37	-0.27818462
57	0xbce81c38	-0.028333768
58	0xbdf9b23c	-0.12192199
59	0x3e3ddf8a	0.18542305
60	0x3de6ea60	0.11275172
61	0x3d33a152	0.04385502
62	0x3e68a6e2	0.2271991
63	0x3e509a2a	0.20371309
64	0xbea5da8a	-0.32393295
65	0x3ed97bd1	0.42477277
66	0x3cb9a826	0.022663187
67	0xbe49f1b4	-0.19721109
68	0x3eb53ec4	0.3539945
69	0xbe127a31	-0.14304425
70	0xbdd205d0	-0.10255015
71	0x3de84749	0.113417216
72	0x3d47e6fe	0.048804276
73	0x3e5d10d3	0.21588449
74	0x3d0c9334	0.03432007
75	0x3cffd9fa	0.031231869
76	0x3dca6bca	0.098838404
77	0xbe87962b	-0.26481757
78	0xbe582eec	-0.2111165
79	0xbd4e6fe7	-0.050399687
80	0xbe050929	-0.12991776
81	0xbd5ea045	-0.054352064
82	0xbda7a21e	-0.08185218
83	0x3e241925	0.16025217
84	0x3cca940c	0.024728797
85	0x3ca5b7d2	0.020229254
86	0xbdbe278a	-0.09284885
87	0x3dc098f6	0.09404175
88	0x3dbef66f	0.09324347
89	0x3e5221f9	0.20520772
90	0x3eb263db	0.3484181
91	0x3e05bbaf	0.13059877
92	0xbf524126	-0.8213066
93	0xbceb1317	-0.028695626
94	0x3d3dd18f	0.04634243
95	0x3a979ad9	0.0011566534
96	0x3dca14d6	0.098672554
97	0x3e4ae626	0.19814357
98	0x3de1056f	0.109873645
99	0x3ea119f4	0.31465113
100	0xbd5f04e7	-0.054448035
101	0xbdf44e8b	-0.119290434
102	0x3d5d8ba9	0.05408827
103	0x3ddc08d6	0.10743873
104	0xbe2434ce	-0.16035768
105	0x3dc5bef6	0.096555635
106	0xbd9fd49b	-0.07804223
107	0x3e082f29	0.1329924
108	0x3b95b22c	0.004568359
109	0xbd9243af	-0.07141816
110	0xbe02e4f8	-0.12782657
111	0x3daa1b54	0.08305994
112	0x3e1c6d73	0.15276127
113	0xbdc96a9a	-0.09834786
114	0x3e01aed1	0.12664343
115	0x3d5a6deb	0.053327482
116	0x3cad31f5	0.021141985
117	0x3e1c5e58	0.15270364
118	0x3d73b909	0.059502635
119	0x3dfd5c8b	0.12371167
120	0x3cdb36c0	0.026759505
121	0xbdfa6d7e	-0.12227915
122	0x3e14128a	0.14460197
123	0x3e342fba	0.17596331
124	0xbd7250f0	-0.05915922
125	0x3da54a78	0.080708444
126	0x3dcb54c9	0.09928281
127	0xbbe0eca7	-0.0068641487
128	0x3e21bc50	0.15794492
129	0xbd9b51be	-0.075839505
130	0xbd420b29	-0.047373924
131	0x3d82e388	0.063910544
132	0x3d3bf6ce	0.04588967
133	0x3d31c04f	0.04339629
134	0x3d983bbd	0.07433269
135	0x3dc3f081	0.09567357
136	0xbd537c79	-0.05163238
137	0x3de55dc8	0.11199528
138	0xbde35561	-0.11100269
139	0xbd912f6e	-0.070891246
140	0xbe46af80	-0.19402885
141	0xbd77ef34	-0.060530856
142	0x3d995f43	0.07488873
143	0x3e0d1a29	0.1377951
144	0xbe004819	-0.12527503
145	0x3d854790	0.0650779
146	0x3d0c1719	0.034201715
147	0xbdc87cf9	-0.09789462
148	0x3ce76571	0.028246613
149	0xbdef9399	-0.11698074
150	0x3ce45507	0.027872575
151	0x3d58c894	0.05292566
152	0xbdeb4fa8	-0.114898026
153	0x3e069cb3	0.13145714
154	0xbe0c45a1	-0.13698436
155	0x3bb8e6c7	0.005642745
156	0x3d523ddf	0.051328536
157	0x3d05d9f6	0.032678567
158	0xbd48c343	-0.04901434
159	0x3e46969e	0.19393393
160	0x3d685651	0.056722943
161	0xbd912e11	-0.070888646
162	0x3e12be99	0.1433052
163	0x3e19bf97	0.15014492
164	0xbe42162a	-0.18953767
165	0xbcca39f2	-0.024685834
166	0x3dc92543	0.0982156
167	0x3e247c6d	0.1606309
168	0x3e5840da	0.21118489
169	0xbd89d792	-0.0673057
170	0x3dac78d3	0.08421483
171	0x3d812904	0.06306651
172	0x3dcfd449	0.10147912
173	0x3c8ee902	0.017445091
174	0x3e06e01e	0.13171431
175	0xbd32abdb	-0.043620925
176	0x3d910b58	0.07082242
177	0xbe40cd27	-0.1882826
178	0x3e2c8f8c	0.16851634
179	0xbd964cf7	-0.07338899
180	0x3e402aa9	0.18766274
181	0x3d01c424	0.031681195
182	0xbac06b22	-0.0014680366
183	0xbe345f4f	-0.17614482
184	0x3de29cc6	0.110650584
185	0x3d8ec639	0.06971402
186	0xbe36066d	-0.17775889
187	0x3d020ee8	0.031752497
188	0x3d24b95e	0.040215842
189	0x3e209981	0.15683557
190	0x3e560cf9	0.20903386
191	0x3e306029	0.17224182
192	0xbdce1fb2	-0.10064639
193	0x3de4e1f7	0.11175912
194	0x3e08af12	0.13348034
195	0xbd8c1d17	-0.06841486
196	0xbd451d7c	-0.04812382
197	0xbd9e58f0	-0.07731807
198	0x3d9b9748	0.07597214
199	0x3cd242de	0.02566665
200	0xbd29a21e	-0.041414373
201	0x3e3fc92d	0.18729086
202	0x3e26a818	0.1627506
203	0x3da75909	0.08171279
204	0x3e8f8f3c	0.28038967
205	0x3e0c853e	0.13722703
206	0xbe7eb554	-0.24873859
207	0x3d67662d	0.056493927
208	0x3d75ff7a	0.060058095
209	0x3cb6092b	0.022221169
210	0x3dc38f1d	0.09548781
211	0xbde016c7	-0.109418444
212	0x3c43ec54	0.0119582005
213	0xbe173507	-0.14766322
214	0xbe1d6b7a	-0.1537303
215	0x3cc3a116	0.023880523
216	0xbe10274b	-0.14077489
217	0x3da7c999	0.081927486
218	0x3dc28ebe	0.09499882
219	0xbce79b44	-0.028272279
220	0xbe3bcfc9	-0.18340982
221	0x3e149dd1	0.14513327
222	0xbe655510	-0.2239573
223	0x3ed312e4	0.4122535
224	0x3e23942c	0.15974492
225	0xbd949e82	-0.072567955
226	0x3df6830f	0.12036716
227	0x3d966b38	0.07344669
228	0x3d92a4ee	0.07160364
229	0x3d8d8669	0.06910402
230	0xbc03e075	-0.00804912
231	0x3e503eb2	0.20336416
232	0xbe3689aa	-0.17825952
233	0xbe34ec8a	-0.17668357
234	0xbe1425d3	-0.14467554
235	0xbd097495	-0.033558447
236	0x3d364074	0.04449506
237	0x3cd643a6	0.026155304
238	0xbe9ed300	-0.31020355
239	0x3e40247b	0.18763916
240	0xbdaf3368	-0.08554727
241	0xbe71e525	-0.23622568
242	0x3e2c9e28	0.16857207
243	0xbbdfb608	-0.0068271197
244	0xbd44f153	-0.048081707
245	0x3e12bded	0.14330263
246	0x3da3fdae	0.0800737
247	0x3d801d00	0.06255531
248	0x3e09c5df	0.13454388
249	0xbdfbf7fa	-0.12303157
250	0xbb9c8c98	-0.0047775023
251	0xbda00b0a	-0.078146055
252	0x3c259a5a	0.010107601
253	0x3e33c4ed	0.1755559
254	0xbd36acd7	-0.044598427
255	0x3d5ff7b1	0.054679576

linears.1.bias f4 [100]
0	0xbe2bb2fb	-0.16767494
1	0xbce7e5a1	-0.028307738
2	0xbcacfe42	-0.021117333
3	0xbd40f2be	-0.047106497
4	0xbd6e7320	-0.05821526
5	0x3cdc5d6f	0.026900021
6	0x3cd8b684	0.026454218
7	0xbd783fa6	-0.060607575
8	0xbd8c4095	-0.068482555
9	0xbd7572b3	-0.05992384
10	0xbb8f6d61	-0.0043770527
11	0x3e101f1b	0.14074366
12	0x3d24ca63	0.040232074
13	0x3d272c3b	0.040813666
14	0xbb0bf7c7	-0.0021357404
15	0xbd5080b4	-0.05090399
16	0xbd83e5fc	-0.064403504
17	0xbceccc94	-0.028906144
18	0xbd812694	-0.06306186
19	0x3d2bdf1c	0.04196082
20	0x3caebec4	0.021331199
21	0xbd38daa7	-0.045130398
22	0xbdfc8ad7	-0.12331169
23	0xbde090b5	-0.10965101
24	0x3dac92b5	0.0842642
25	0x3d564af8	0.05231759
26	0x3cb38e33	0.021918392
27	0xbd470dc9	-0.04859713
28	0x3ac0829d	0.0014687363
29	0xbd1a3557	-0.037648525
30	0x3de33f3e	0.11096047
31	0xbda928c6	-0.0825973
32	0xbd50c573	-0.050969552
33	0xbd0e1fcc	-0.034698293
34	0xbd5c318f	-0.0537582
35	0xbe054228	-0.13013518
36	0x3b91a131	0.0044442643
37	0xbd3bd4c6	-0.045857213
38	0xbcf6e4d8	-0.030138418
39	0x3d1f07fd	0.038825978
40	0x3d904814	0.07044998
41	0xbdd86367	-0.105658345
42	0x3cb872e9	0.022515731
43	0xbd34f71e	-0.04418098
44	0x3d1eae73	0.038740586
45	0x3d0831cf	0.033250626
46	0x3c9eec19	0.01939969
47	0xbdd306a8	-0.10304004
48	0xbd487c29	-0.048946533
49	0x3ced976f	0.029002873
50	0xbd2f388f	-0.042778548
51	0x3d949ab7	0.07256072
52	0xbd363575	-0.044484574
53	0xbb41e901	-0.0029588344
54	0x3d8343bf	0.06409406
55	0xbb42729b	-0.002967036
56	0xbd84515c	-0.064608306
57	0xbdf878c7	-0.121324115
58	0xbd35bdeb	-0.044370573
59	0xbd0844f8	-0.0332689
60	0x3d854837	0.065079145
61	0xbc22f3df	-0.009945839
62	0x3e168633	0.1469963
63	0xbc2b648a	-0.010460982
64	0x3d74fffe	0.059814446
65	0xbd17cbce	-0.037059598
66	0x3ded2de6	0.1158102
67	0xbd11d17a	-0.035600163
68	0xbd5275f6	-0.051382028
69	0x3d858676	0.06519787
70	0xbe5c874e	-0.2153599
71	0x3d2abf12	0.041686125
72	0x3fb1a34d	1.387796
73	0xbcf5d333	-0.030007934
74	0xbd2e7b12	-0.042597838
75	0x3e07000c	0.13183612
76	0xbc374998	-0.01118698
77	0xbd168b8a	-0.03675417
78	0xbc203fc7	-0.009780831
79	0x3c58ddb9	0.013236457
80	0x3d22276a	0.03958837
81	0x3e08d55f	0.13362645
82	0xbd518b71	-0.051158372
83	0x3cefbad9	0.0292639
84	0x3e1d5bb0	0.15367007
85	0xbb3bfd15	-0.0028684784
86	0xbd98e264	-0.074650556
87	0xbd76eb0c	-0.060282752
88	0x3cf54f90	0.029945165
89	0xbd08e79f	-0.033424016
90	0xbd7027ce	-0.05863171
91	0xbd8623bf	-0.06549787
92	0xbd7588dd	-0.059944976
93	0x3da05298	0.078282535
94	0x3d2bfe84	0.041990772
95	0x3d4f1b5a	0.050563194
96	0xbd8214d5	-0.0635163
97	0xbd492fff	-0.04911804
98	0xbd2e404c	-0.042541787
99	0xbd1f61a4	-0.038911477

linears.2.weight f4 [100, 100]
0	0xbd5fda37	-0.054651465
1	0x3c96c837	0.018406017
2	0xbd68fd86	-0.056882404
3	0x3d1755b4	0.036946967
4	0x3d8fdefc	0.07024953
5	0x3e362f6a	0.17791525
6	0x3daa45fe	0.08314131
7	0xbe103dfd	-0.14086147
8	0x3ca9fb0f	0.020749597
9	0xbe8be9d6	-0.2732684
10	0x3ca7dcd1	0.020491036
11	0xbda94ba8	-0.082663834
12	0x3d9655d6	0.07340591
13	0x3cf8d107	0.03037311
14	0x3d834619	0.064098544
15	0xbe21974d	-0.15780373
16	0xbce5c606	-0.028048526
17	0x3dd91f79	0.10601706
18	0xbdc1702d	-0.09445224
19	0xbd6fefd3	-0.058578324
20	0xbe02b97c	-0.12766069
21	0xbe22bfc0	-0.1589346
22	0x3e8c971a	0.2745903
23	0xbe27f5f0	-0.16402411
24	0x3dd10c71	0.10207451
25	0x3deb08a6	0.11476259
26	0x3c0c08d0	0.008547023
27	0xbc50fc74	-0.012755502
28	0x3d679bce	0.05654507
29	0xbe46799d	-0.1938233
30	0x3e7ec82f	0.24881051
31	0x3e1adf06	0.15124139
32	0x3b9cf568	0.004789997
33	0x3df64f59	0.12026853
34	0x3de92d3f	0.11385583
35	0x3e8da52a	0.27665073
36	0xbd4d407e	-0.050110333
37	0xbe1a9b67	-0.15098344
38	0x3e7fc082	0.2497578
39	0xbe2369a6	-0.1595827
40	0x3ea0ae08	0.31382775
41	0xbee025af	-0.4377875
42	0x3d83234f	0.06403219
43	0xbe48b054	-0.19598514
44	0x3dc672e0	0.096898794
45	0x3c6a82ec	0.014313441
46	0x3dd16c70	0.10225761
47	0x3dd742cf	0.105107896
48	0xbe74b759	-0.23898067
49	0x3e203773	0.15646152
50	0xbe2c040e	-0.16798422
51	0x3c3ba25c	0.011452284
52	0xbde42127	-0.11139136
53	0xbdc24bff	-0.09487151
54	0x3cce7e86	0.025206815
55	0xbe1cd3dd	-0.15315194
56	0x3ec2b13b	0.3802584
57	0xbd938785	-0.07203583
58	0xbacb4c1d	-0.0015510354
59	0x3d639747	0.05556419
60	0x3e9bee60	0.30455303
61	0xbda913a1	-0.08255697
62	0xbcade55f	-0.021227537
63	0xbdd7585e	-0.105149016
64	0x3e0272cc	0.12739104
65	0x3d4cf5b6	0.050039016
66	0x3ccb7719	0.024837064
67	0xbe0e593c	-0.13901228
68	0xbc901847	-0.017589701
69	0x3d4af959	0.049554203
70	0x3dfb5aa3	0.12273147
71	0x3e077352	0.13227585
72	0xbf79f305	-0.97636443
73	0xbde51982	-0.11186506
74	0x3e036771	0.12832429
75	0x3e7258ee	0.23666736
76	0x3e51b673	0.20479755
77	0x3d8b6dc0	0.068080425
78	0x3d409395	0.047015745
79	0x3e14e1e4	0.14539295
80	0xbe0a7b0e	-0.13523504
81	0x3d976e11	0.073940404
82	0x3db52228	0.088444054
83	0x3d347f8d	0.044066954
84	0x3e70258d	0.23451824
85	0xbe4327bd	-0.19058128
86	0x3d43f94d	0.047845174
87	0xbe385ce3	-0.18004183
88	0x3d21f966	0.039544486
89	0x3ded8063	0.115967534
90	0x3db68638	0.08912319
91	0xbd6b9a80	-0.05752039
92	0xbe2c5c72	-0.1683214
93	0xbe86b1be	-0.26307482
94	0x3e003055	0.12518437
95	0x3d6adf83	0.057342064
96	0x3c0c14c0	0.008549869
97	0x3bdc00ac	0.0067139473
98	0x3e06cd71	0.13164307
99	0x3ccb2214	0.024796523
100	0x3db64714	0.08900276
101	0xbcb9940a	-0.022653598
102	0xbe39c790	-0.18142533
103	0xbe3d34c9	-0.18477167
104	0xbe0e154b	-0.1387531
105	0xbc443027	-0.011974371
106	0xbde5c27e	-0.11218737
107	0x3d04063f	0.03223252
108	0xbdeeadea	-0.11654265
109	0x3d95486e	0.072892055
110	0xbd2a2c92	-0.04154641
111	0xbe01de7b	-0.12682526
112	0x3c9bbdcb	0.019011399
113	0x3e2b2c91	0.1671622
114	0xbc80f667	-0.015742494
115	0x3d7b305b	0.061325412
116	0xbe240f77	-0.16021524
117	0xbd415714	-0.047202185
118	0xbdc68fa3	-0.09695365
119	0xbd9d51e6	-0.076816365
120	0xbde49c3a	-0.1116261
121	0xbd31f27c	-0.04344414
122	0x3ddb277d	0.10700891
123	0xbda49060	-0.0803535
124	0x3e14b595	0.14522393
125	0xbd45673b	-0.04819415
126	0x3e044139	0.12915505
127	0x3e200d92	0.15630177
128	0xbb39ca2b	-0.0028349261
129	0xbda7bfef	-0.08190905
130	0x3e5ed7a5	0.2176195
131	0xbd53b69c	-0.05168782
132	0xbe23c00b	-0.15991227
133	0x3d05adac	0.03263633
134	0xbc3f4cef	-0.011676057
135	0xbc9bfbc9	-0.019040959
136	0xbd94295a	-0.0723445
137	0x3c61f020	0.01379016
138	0x3d88fde1	0.066890486
139	0xbd9e1891	-0.077195294
140	0xbd66f009	-0.05638126
141	0xbe63a948	-0.22232544
142	0x3c489997	0.01224365
143	0xbe067518	-0.13130605
144	0xbdee9dfa	-0.116512254
145	0x3c86aabd	0.016438836
146	0xbcafedc2	-0.021475676
147	0x3d6278f6	0.05529114
148	0x3d077f69	0.033080492
149	0x3db6a8a3	0.08918884
150	0x3caeae70	0.021323413
151	0xbcdd7fb8	-0.02703844
152	0xbdc5ae4d	-0.09652386
153	0x3df7b536	0.1209511
154	0xbcb55c9a	-0.022138882
155	0x3db749f1	0.0894965
156	0x3e41451f	0.18874024
157	0xbe1f971c	-0.15584987
158	0x3e1b5a22	0.15171102
159	0x3e1478de	0.14499232
160	0x3de89b97	0.113578014
161	0x3dcd5150	0.10025275
162	0xbc8ba525	-0.01704652
163	0x3e22a204	0.15882117
164	0x3d846631	0.06464804
165	0xbd95c004	-0.07312015
166	0x3dfde840	0.12397814
167	0x3c1e57b3	0.009664464
168	0xbe314c70	-0.17314315
169	0x3d76af0d	0.060225535
170	0x3d9ba42d	0.075996734
171	0xbd3d98c6	-0.046288274
172	0xbd88822e	-0.06665455
173	0xbcc5f22d	-0.02416333
174	0xbe0cf793	-0.13766317
175	0x3e8a42bc	0.2700404
176	0x3da92bd6	0.08260314
177	0x3dedc442	0.11609699
178	0xbe3efe73	-0.18651752
179	0x3cef5d38	0.029219255
180	0xbdb87443	-0.0900655
181	0xbe06de10	-0.13170648
182	0xbe064c9e	-0.13115165
183	0x3c95e51f	0.01829773
184	0x3e6fc1d2	0.2341378
185	0x3d267fb1	0.04064912
186	0x3c2dff4c	0.01061995
187	0x3c56d4f6	0.013112297
188	0xbe3c0b9e	-0.18363807
189	0x3da1d39a	0.07901688
190	0xbe09d07f	-0.13458441
191	0xbdb87515	-0.090067066
192	0x3df15733	0.1178421
193	0xbe1fbe7c	-0.15600008
194	0xbe1ff30d	-0.1562006
195	0xbe1631aa	-0.14667383
196	0xbdf8419f	-0.12121891
197	0xbdc614c2	-0.09671928
198	0x3dade83b	0.0849156
199	0xbd6ca0f9	-0.057770703
200	0xbdd47798	-0.10374373
201	0x3df05d4c	0.11736545
202	0x3d92af71	0.07162369
203	0xbe4372a3	-0.19086699
204	0xbe1019e6	-0.1407238
205	0x3e50f9fd	0.20407863
206	0x3cbc21b1	0.022965284
207	0xbe3bf0ec	-0.18353623
208	0xbd474eb8	-0.048659056
209	0x3db80523	0.08985355
210	0x3d7249d3	0.059152436
211	0x3dda9227	0.106724076
212	0x3e350a8c	0.17679805
213	0x3d411f85	0.0471492
214	0x3dc6bb1b	0.09703656
215	0x3d8c607f	0.06854343
216	0xbe439539	-0.19099893
217	0x3dc5fb31	0.096670516
218	0xbe441c80	-0.19151497
219	0x3d28c080	0.041199207
220	0xbd6fb689	-0.05852369
221	0x3e069d93	0.13146047
222	0xbdc1c796	-0.09461896
223	0xbe2af190	-0.16693711
224	0xbc3aa2b0	-0.011391327
225	0x3def2229	0.116764374
226	0x3da8d52e	0.08243786
227	0xbdb1b1ce	-0.08676492
228	0x3d93a07c	0.07208344
229	0x3b37b41f	0.0028030945
230	0x3e596fd8	0.21234071
231	0xbd6303cf	-0.055423554
232	0xbe228d77	-0.15874277
233	0x3d8e8b1a	0.06960125
234	0xbe1f9990	-0.15585923
235	0x3cfe301d	0.031028802
236	0x3e362dca	0.17790905
237	0xbe366f51	-0.17815901
238	0xbcc3dd98	-0.023909375
239	0x3dec4c0b	0.115379415
240	0x3e69a34e	0.22816202
241	0xbeae2b26	-0.34017295
242	0x3dfb5955	0.12272898
243	0xbe541fee	-0.20715305
244	0xbbb07846	-0.0053854315
245	0x3e06dc20	0.13169909
246	0x3e07f07e	0.13275334
247	0xbdeff4a6	-0.11716585
248	0xbe4e3e56	-0.20140967
249	0x3d6106a6	0.05493798
250	0xbd7cf661	-0.061758403
251	0x3e760a9d	0.24027486
252	0x3b56e512	0.0032790345
253	0x3d876005	0.06610111
254	0xbacfcb40	-0.001585342
255	0xbe1c4bfa	-0.15263358

linears.2.bias f4 [100]
0	0x3d8307c2	0.06397964
1	0x3d1167e2	0.03549946
2	0x3d416357	0.04721388
3	0x3d1c6fbc	0.038192496
4	0x3d26e75a	0.040747978
5	0xbd2d80ec	-0.042359278
6	0xbcf09b85	-0.029371032
7	0x3d3e4f14	0.046462134
8	0x3d3074e3	0.04308022
9	0xbcf6ae1c	-0.030112319
10	0x3d6cff24	0.05786051
11	0xbd4679f2	-0.04845614
12	0x3d31b551	0.043385807
13	0x3cff7621	0.031184258
14	0xbc4d0d7b	-0.012515421
15	0xbc99995c	-0.018749885
16	0x3c1503fc	0.009095188
17	0xbd6aba24	-0.057306424
18	0x3dda007b	0.10644623
19	0xbd347eee	-0.044066362
20	0xbd27f161	-0.04100168
21	0x3d29e7ed	0.041480947
22	0xbd04f2a6	-0.03245797
23	0xbd96bbf7	-0.0736007
24	0xbd887789	-0.066634245
25	0x3d5a69f4	0.0533237
26	0xbd4fed4f	-0.050763424
27	0xbd03350d	-0.032033015
28	0xbd13dd0b	-0.036099475
29	0xbcf85033	-0.03031168
30	0x3d22d892	0.03975732
31	0xbd1174fd	-0.03551196
32	0xbd036d39	-0.032086585
33	0xbd2b4599	-0.04181442
34	0x3d143499	0.036182974
35	0xbd80b12b	-0.06283792
36	0xbd434d09	-0.04768089
37	0x3ce01ecb	0.027358433
38	0xbd98ee66	-0.07467346
39	0x3bf5b4ee	0.007498375
40	0xbd3a4426	-0.045475148
41	0x3d3ae4aa	0.045628227
42	0xbce0dc00	-0.027448654
43	0x3d110ac9	0.035410676
44	0x3d2a2a7e	0.04154443
45	0x3d151189	0.036393676
46	0x3dac39d6	0.08409469
47	0xbce910f7	-0.028450472
48	0xbd01cb70	-0.031688154
49	0xbca3fee1	-0.020018997
50	0x3d134a26	0.035959385
51	0x3d3e84b7	0.046513285
52	0xbd0220e7	-0.03176966
53	0xbcb78c29	-0.0224057
54	0xbcb9779d	-0.022640044
55	0x3ca8e058	0.020614788
56	0x3d177da1	0.036985043
57	0x3d6ab0da	0.057297565
58	0xbd3cf144	-0.046128526
59	0x3ce2a349	0.027665751
60	0x3d06467c	0.032782063
61	0xbc2a5c41	-0.010397972
62	0x3d345b75	0.044032533
63	0x3d7448b2	0.05963964
64	0x3d009658	0.03139338
65	0xbd5e46bd	-0.05426668
66	0x3d9801b3	0.07422199
67	0xbd20aaf2	-0.039225526
68	0x3d09805f	0.03356969
69	0x3d4279c8	0.04747942
70	0x3d76197d	0.0600829
71	0x3d71b008	0.059005767
72	0x3be687aa	0.0070352154
73	0x3d1b6609	0.037939105
74	0x3d276c0b	0.040874522
75	0x3b597d41	0.003318623
76	0x3d1e3ff4	0.03863521
77	0x3dcdd2d4	0.10049978
78	0x3d154fb6	0.03645297
79	0xbd16d6a6	-0.0368258
80	0xbd24528b	-0.04011778
81	0xbcf44f84	-0.029823072
82	0xbd2cf8ac	-0.04222934
83	0x3d3566ea	0.0442876
84	0xbd1938ef	-0.03740781
85	0x3d319e5f	0.043363925
86	0x3d04a2de	0.032381885
87	0x3a44de9a	0.0007509977
88	0xbd4825e6	-0.048864268
89	0xbd1f31de	-0.038865916
90	0xbd0b8dfe	-0.03407096
91	0xbd314411	-0.043277804
92	0x3c399b8d	0.01132859
93	0x3d337703	0.04381467
94	0x3d6739b7	0.056451526
95	0x3d2d8ca6	0.04237046
96	0xbd13e109	-0.036103282
97	0x3d158389	0.036502395
98	0x3d162ba5	0.036662716
99	0xbc6c98b6	-0.014440706

linears.3.weight f4 [1, 100]
0	0xbe78abc4	-0.24284273
1	0xbe189e91	-0.14904238
2	0xbee8d817	-0.45477363
3	0xbe614a43	-0.22000985
4	0xbed92e86	-0.42418307
5	0x3e5b7872	0.21432665
6	0x3eaef868	0.34173894
7	0xbe1d424b	-0.1535732
8	0xbe79af96	-0.24383387
9	0x3f0080a7	0.5019631
10	0xbec597bc	-0.38592327
11	0x3f0d3764	0.55162644
12	0xbeccc0d0	-0.39990854
13	0xbeb59bb7	-0.35470363
14	0x3e9dd988	0.30830026
15	0x3ef0dc02	0.47042853
16	0xbec04762	-0.3755446
17	0x3eb52d38	0.35386062
18	0xbf23ac3b	-0.6393468
19	0x3e8c76ba	0.2743433
20	0x3e810d22	0.25205332
21	0xbeb92303	-0.36159524
22	0x3f094799	0.53624874
23	0x3db479a8	0.088122666
24	0x3ec22cbf	0.37924764
25	0xbecd4e97	-0.40099022
26	0x3f01049b	0.5039765
27	0x3de21b78	0.110403955
28	0x3e94a0f3	0.29029045
29	0x3e89c2c6	0.26906413
30	0xbe8ad9d1	-0.27119306
31	0x3ebd262f	0.36943194
32	0x3e423679	0.18966092
33	0x3f0295df	0.51009935
34	0xbe58efd5	-0.21185239
35	0x3ec50e54	0.38487494
36	0x3e31df10	0.17370248
37	0xbf1ccace	-0.61246955
38	0x3f2b7130	0.66969585
39	0xbf05f9c5	-0.52334243
40	0x3e9425c9	0.28935078
41	0xbf178afc	-0.5919645
42	0x3e3dae4e	0.18523523
43	0xbe80f545	-0.25187126
44	0xbe9c829f	-0.30568406
45	0xbeebb718	-0.46038127
46	0xbf316af9	-0.6930385
47	0x3e0b1f13	0.13586073
48	0x3e1c1594	0.15242606
49	0x3ebd4d37	0.36972973
50	0xbee2f8af	-0.44330356
51	0xbedf0522	-0.43558604
52	0x3ebdee02	0.37095648
53	0xbe8e4cef	-0.2779307
54	0x3e0b04d3	0.13576059
55	0xbe83c7c8	-0.25738358
56	0xbe7f5809	-0.24935926
57	0xbec5a69a	-0.3860367
58	0x3f05864c	0.52158046
59	0xbeea5285	-0.45766082
60	0xbeb4378f	-0.35198638
61	0x3f3ec971	0.74526125
62	0xbe996659	-0.29960898
63	0xbe9b52b7	-0.30336544
64	0xbea87602	-0.32902533
65	0x3ee0db78	0.4391744
66	0xbe499746	-0.19686612
67	0x3f02892c	0.5099056
68	0xbe675a7b	-0.2259311
69	0xbe8a36fe	-0.2699508
70	0xbec950b5	-0.39319387
71	0xbe4f9823	-0.2027288
72	0x3d6fddd3	0.058561157
73	0xbe238099	-0.15967025
74	0xbea37c46	-0.3193075
75	0x3f179f0a	0.5922705
76	0xbe9f249f	-0.31082627
77	0xbf532290	-0.82474613
78	0xbed8abc7	-0.42318556
79	0x3e4635ec	0.19356507
80	0x3e8dcc75	0.2769505
81	0x3f6130b8	0.87964964
82	0x3e828c3c	0.25497615
83	0xbf09caf1	-0.5382529
84	0x3e683ab7	0.22678648
85	0xbe9bd1ce	-0.30433506
86	0xbf285309	-0.657517
87	0xbe8aab7e	-0.27083963
88	0x3e5304bf	0.20607279
89	0x3e92b2be	0.28651994
90	0x3ea83321	0.32851508
91	0x3e662f64	0.22479016
92	0xbf460482	-0.7735063
93	0xbf2008c0	-0.6251335
94	0xbe905c44	-0.28195393
95	0xbe0cbdc1	-0.1374426
96	0x3ec4fc7b	0.38473877
97	0xbebb4919	-0.36579207
98	0xbe1ebc77	-0.15501581
99	0x3f2aabcf	0.6666841
