Complete_thesis_stage_1_and_2/(d).Code_and_all_other_details/LASER_DED/models/model_epoch_9000.pt (torch, 86572 bytes, 7 tensors)

linears.0.weight f4 [100, 4]
00000000: 518e 28be 7a27 0dbe 277c 0e3e e6d8 a83d
00000010: 00b5 363e e858 a0bc 6334 ab3c 84ea ba3d
00000020: 34cf 113e f97c 39be 86b3 9ebd df95 1a3e
00000030: 982b 2fbe bb80 37be c9a8 bb3d 4002 eb3d
00000040: 4699 c83c 48a6 9a3d 9249 643e d5be b93d
00000050: 1cf9 90bd 39a7 003e ca73 44be 2f05 4d3e
00000060: bb4e 5f3d bcca d23d bb15 5bbe 7f19 09be
00000070: 2c22 f0bd 1e3a f5bd bec0 263d 4968 4f3e
00000080: bb9b 89bd b518 95bd 3d3b 033e 2b65 de3b
00000090: e9ec c83d 42ea bcbd 57c2 ecbd 1f83 6b3e
000000a0: 8e74 34be 34a1 7cbd 2073 41be bb11 eb3d
000000b0: 31ca 39be 0e20 08be 9f5f 883d 951f e43b
000000c0: 7612 d23b 736d 2ebe 6b89 ab3d ff64 b7bd
000000d0: 6b73 7bbd 173c 52be ae73 42be 6bda 6f3e
000000e0: 7991 493d a36e 243e 119a 07be 2258 273d
000000f0: cc08 5abc 9363 7c3e 1337 e53b 2afe e43d
00000100: 918f b93b ff99 f53d 0239 3fbe 0693 c73c
00000110: 4773 4d3c 5e15 3ebe 5318 493e 4691 37be
00000120: 5c9d a2bc fc26 4dbe ddb5 80bc 5cdc 0f3d
00000130: 1176 543e cc11 2cbd b204 2c3d 230d 083e
00000140: eb19 d63d b616 493e 57b1 76bb 0e5b 69be
00000150: 02f7 5b3e d401 103e 0692 583c d5d0 3f3e
00000160: c1c9 24bd c7bd 373d a3ba 68be a9a0 ddbc
00000170: 51a0 553c 736f dfbc ff84 e63d 8444 d33c
00000180: 0a83 183e 7a2c 20be 8596 61bd e57e eb3d
00000190: 77b6 fa3d a7e7 21bd 9124 3dbe bc59 2ebe
000001a0: e96f 7abd 5230 d5bd c2db 4e3d 74f5 593e
000001b0: 354f 8c3d 7a79 e53d ac40 763e e36c 653e
000001c0: 37db 613e b7bc eabd 41ea 46be 7127 ec3c
000001d0: 2ba2 623e 6a57 1bbd a6d4 e5bd b44c 04be
000001e0: 92aa 0d3e 58ba 2abe e350 903d 5dd0 6cbe
000001f0: aca9 413e f4ff 27be 2619 383e 5f59 3b3e
00000200: f094 553d 7d01 c1bd 6bc4 51be 3d32 10be
00000210: 66dd 91bd cb7b 0f3e 0f0e 5dbe 16b9 16be
00000220: 2a23 e03d 01dc 5c3e 20af 02bd fb06 293d
00000230: 7d54 88bd 5e23 bcbd 65cb 103d 9c03 33bc
00000240: 7763 2f3e 9009 56bd 9f3e f4bc c987 033e
00000250: 0a01 52bc 418d e63b 8e82 3f3e 22bc 1ebe
00000260: 8122 3dbe 0110 3b3c 73a1 26be 8bd2 06be
00000270: 6a6e 09be 60f5 dfbd 767a e83d 2e64 b33d
00000280: e35d 1f3e e581 77bd ca2e 053d bb58 03be
00000290: 5138 c7bd b0f7 0fbb 4295 bcbb 28c3 9bbd
000002a0: 4da3 ec3d 49f1 e03d 3cd0 33bd 7e4d 113d
000002b0: c76c 19be 276d 04bc cf78 d6bd 0204 34be
000002c0: 8f7f aabd cab2 30be 1c32 09be e4a2 f6bc
000002d0: e326 32bd 8917 02be be1a ed3d a312 2abe
000002e0: b85a 073e fba0 1abd 9aa8 e7bd acc0 7a3d
000002f0: 5b1b 97bc 3567 43be abd4 09be 4126 8ebd
00000300: 9289 343e fb48 0f3d d2a2 273e 5618 dd3d
00000310: 3144 4abe 67f8 013d d701 3abe c7e7 283e
00000320: d282 abbd 1862 39be 894e febb d94a d43d
00000330: 974e 263e dea2 80bd dba3 d9bd 33d7 4e3e
00000340: a3e8 d23d a93d 2a3e 30b4 debd 877d d43d
00000350: 2778 92bd cea0 9dbb 1266 2c3e d1ba 4cbc
00000360: 292e 8ebd a7de 963d 5f45 1cbe 7dad f03d
00000370: 69e9 02be 0a62 613e 7874 313e 5657 55bd
00000380: 505f e33d ec9e 17bd 1556 47be d303 b1bd
00000390: 1efb 393e 3bf6 483b 402d 353d f859 003e
000003a0: 2e62 553e acea 23be cf4c cabd 1672 873c
000003b0: 74cb 92bd 0266 00bd 65b2 e3bd b345 b43d
000003c0: 2239 f73d 1212 e33c 993e bf3c 6aa1 3dbe
000003d0: 9f52 08bd 1529 0e3e 01ad 233e f28a 923d
000003e0: c68d 63bb c835 e53d 242a cc3c afbc 953d
000003f0: 6b6b 333e 823a 323e 8f1e adbd 0572 023e
-0.1646054 -0.1378459 0.13914548 0.08244495 0.17842484 -0.019573644 0.020899003 0.091267616
0.14239198 -0.1811408 -0.07749085 0.15096234 -0.17106473 -0.179202 0.091630526 0.114750385
0.024487149 0.07551247 0.2229369 0.090696014 -0.07078764 0.1256379 -0.19184795 0.20021509
0.054518443 0.10292575 -0.21395008 -0.13388632 -0.11725268 -0.119739756 0.040711157 0.20254625
-0.06719156 -0.07280103 0.12815566 0.0067869625 0.09810812 -0.09224369 -0.11560505 0.22999237
-0.17622587 -0.061677173 -0.18891573 0.11477991 -0.18143536 -0.13293478 0.06658863 0.0069617727
0.006410892 -0.17033939 0.0837582 -0.0895481 -0.061389368 -0.20530735 -0.18989441 0.23423164
0.049211 0.1605783 -0.13242365 0.040855534 -0.013307761 0.2464736 0.0069950907 0.111812904
0.0056628664 0.11992263 -0.1867409 0.024362098 0.012539691 -0.18562838 0.19638185 -0.17926511
-0.019850425 -0.20034403 -0.01571172 0.03512226 0.20748164 -0.04200916 0.041996665 0.13286261
0.10454162 0.1963757 -0.0037642324 -0.22788641 0.21480945 0.14063197 0.013218408 0.18732007
-0.04023147 0.04485872 -0.22727446 -0.027054148 0.013038711 -0.027274823 0.11255836 0.025789507
0.14893737 -0.15641966 -0.055075187 0.114988126 0.12241834 -0.03952756 -0.1847098 -0.17026418
-0.061141882 -0.10409607 0.050502546 0.21285039 0.06851045 0.112048104 0.24048108 0.22404818
0.2205628 -0.11461776 -0.19425298 0.0288274 0.22132175 -0.03792516 -0.112222 -0.12919885
0.13834599 -0.16672647 0.07046678 -0.2312636 0.18912381 -0.16406232 0.17978343 0.18295811
0.05214399 -0.09424112 -0.20485084 -0.14081664 -0.071223065 0.14012067 -0.21587394 -0.14719042
0.10944207 0.215683 -0.031905293 0.041266423 -0.0665674 -0.09186433 0.035350222 -0.0109261535
0.17127787 -0.052255213 -0.029815016 0.12844767 -0.012817631 0.0070358817 0.18702146 -0.15501454
-0.18470193 0.01141739 -0.16272525 -0.13166253 -0.13421026 -0.109354734 0.113514826 0.08759342
0.15563159 -0.06042661 0.032515325 -0.12826817 -0.097275384 -0.0021967702 -0.0057550976 -0.076055825
0.11554585 0.109835215 -0.04389976 0.035474293 -0.14982902 -0.008082665 -0.10472261 -0.17579654
-0.08325111 -0.17255703 -0.13398021 -0.03010697 -0.043494117 -0.1270429 0.11577366 -0.16608672
0.132182 -0.03775118 -0.11311455 0.061218902 -0.018445661 -0.19082339 -0.13460033 -0.0694089
0.17630604 0.03498171 0.16370705 0.10795657 -0.19752575 0.031731036 -0.18164764 0.16494666
-0.08374561 -0.18103826 -0.007760827 0.103658386 0.16240917 -0.062810645 -0.10626956 0.2019928
0.10298278 0.16625084 -0.10874212 0.10375505 -0.071518235 -0.004810429 0.16835812 -0.012495712
-0.06942398 0.07366686 -0.15260838 0.1175184 -0.12784351 0.22010055 0.17329586 -0.052085243
0.11102164 -0.037016794 -0.19466431 -0.086433075 0.181622 0.0030664343 0.044232607 0.1253432
0.20838234 -0.16007489 -0.09877931 0.016533893 -0.07167712 -0.031347282 -0.111180104 0.088023566
0.12071444 0.027718578 0.023345279 -0.18518606 -0.03328192 0.13882859 0.15983965 0.07155408
-0.0034721955 0.111918986 0.024922438 0.07311379 0.17521445 0.17405131 -0.08453094 0.12738807

linears.0.bias f4 [100]
00000000: a035 24bd 1674 a6bd a123 383b a769 c23c
00000010: 8447 85bd f55f 99bb deb1 813d 6612 7dbb
00000020: 7cb2 72bd 977b 2fbd 934c b83d ca61 9b3d
00000030: 7b4e c8bd add5 5bbd 5ec7 0bbd 03e4 af3c
00000040: c43f debc 32b8 37bd 3374 70bd b16d 653c
00000050: 6e16 92bc 5bac a33c 9c35 b73d 950d 66bd
00000060: fd7c 76bc c68b aa3d baed 03bd b7ee 8cbd
00000070: 57cd 43bd 424b 14bd ee0d 0d3d f896 2dbd
00000080: 8681 7c3d 914a 803d ecd1 75bd ce90 563d
00000090: 661a 9abc 06dd a93c 202b 28bd f0c0 65bd
000000a0: 612e 343d accc 69bd 74b3 8dbd 7476 663d
000000b0: 2824 933d 9d05 723d 2508 e53c db1c 49bd
000000c0: 2bfe be3b 86e7 adbc a105 81bd 1135 e7bc
000000d0: 61f4 6dbd 5f64 0f3d 79f0 a7bc 40b4 4fbb
000000e0: 67d2 a93d 0ce2 5bbd f0bd ed3d da5a 4fbd
000000f0: f16c 243b 7da1 96bd 368d 66bd d463 2abd
00000100: 91c2 b0bb 717b 39bd 9b93 04bd 3d8e b83c
00000110: 7211 dabd 5e99 833d dadd 793d 5587 c0bc
00000120: 5331 fbbc 181b a2bd e86d 66bd 224a 1a3c
00000130: 5a23 e73c f94d f93c 30e3 b73d d462 cdbc
00000140: 826d 583d c66c 183d e9f9 c73c f31b 06bd
00000150: 315f 4a3d 8da6 e53a 0d29 0b3d 5e51 33bd
00000160: fd01 23bd b601 9fbd 8ac5 d5bd fd23 10bd
00000170: b06b 673d acfa 6abd 9ac3 26bd 939e 353d
00000180: 914a 6b3d 9d2c 18bd a177 74bd d619 91bd
-0.040090203 -0.081276104 0.0028097408 0.02373202 -0.06507781 -0.0046806284 0.063327536 -0.0038615703
-0.059252247 -0.042842474 0.089989804 0.07587011 -0.09780594 -0.053670574 -0.03412568 0.02147103
-0.027130015 -0.044853397 -0.058704566 0.014003203 -0.017832961 0.019979646 0.08945772 -0.056165297
-0.015044448 0.08327441 -0.032209136 -0.06881469 -0.04780325 -0.036204584 0.034437113 -0.042380303
0.06164696 0.062642224 -0.06001465 0.05238419 -0.018811416 0.020735275 -0.041056752 -0.056092203
0.043989543 -0.057079956 -0.069189936 0.05626531 0.07184631 0.059087384 0.027957985 -0.049099784
0.005828639 -0.021228563 -0.06299902 -0.028223546 -0.058094386 0.03500783 -0.020500408 -0.003169313
0.08292084 -0.053682372 0.11608493 -0.050623752 0.0025089348 -0.0735502 -0.056287013 -0.04159911
-0.005394288 -0.04528374 -0.03236733 0.022528762 -0.10647859 0.06425737 0.06100259 -0.023502031
-0.030663168 -0.07915324 -0.05625716 0.009417089 0.0282151 0.030432688 0.089788795 -0.025071539
0.05283881 0.03721311 0.024411159 -0.0327415 0.049407188 0.001752095 0.033974696 -0.04377877
-0.039796818 -0.07763998 -0.10438068 -0.03519057 0.056499183 -0.057367966 -0.040713884 0.04434068
0.05744416 -0.03715192 -0.0596844 -0.07085006

linears.1.weight f4 [100, 100]
00000000: 5436 93bd d6f6 243e 55cc aa3d ff89 603d
00000010: b011 383e c176 193e 93f7 bd3b bab9 8dbd
00000020: 9131 e33c 96ec 45bc 392d 9abd 5019 3bbe
00000030: 6682 c93d 3f0a ffbd 6dec bbbd 5e03 30bd
00000040: f285 9ebd 23ee fc3d c354 093d af50 d6bc
00000050: 0638 d3bd ab4e 843b d7bb e6bd a739 bc3d
00000060: cff3 17be 8e71 0dbe 2000 1b3e 078e 2fbd
00000070: b703 03be 0dd5 d5b9 69d3 dc3d c3d7 0a3d
00000080: 68ee 74bd ba4d fcbd 98e0 e1bd 899e a43c
00000090: ddee d53d 6572 1fbe af9b 043e 10b2 813e
000000a0: a6a9 afbd 5b2b 153e dfd3 563e 2165 4ebd
000000b0: ae1d 0d3c 3e81 483d 72e2 15be 4fea 053e
000000c0: 621f 40be 05fd 5b3d 9bcb 1a3e 0d17 c73d
000000d0: 4198 93bd 602e 3cbe daef febd d75e 303e
000000e0: 16a4 8bbd e277 08bd 4f94 16bc e7dc 903d
000000f0: 0411 1d3e e466 f2bc d026 143e 37a9 343e
00000100: f568 91bd 91c5 603e bc67 30bd 2da4 20be
00000110: c6ec 863e 0303 03be a876 acbd 5b7c 1f3e
00000120: 83df 31bd 114b 213e bebc 85bd 815c ea3c
00000130: 9acf 43bc 8ccf 4dbe 78ea 64be dcbf aabd
00000140: e1b4 d1bd aa4c d73d d0f4 b3bd 6824 0a3e
00000150: 0a20 303d 6674 103d b2f2 e4bc d782 813d
00000160: 9276 d23d 7298 0a3e 5bff 553e 1b64 f83d
00000170: 6cc0 60be 860f 6cbd 26da b13d cb23 573d
00000180: 032c 813d 0034 1c3e 4e62 ef3d cd62 f93d
00000190: b5a9 563d 03f7 11be be26 da3c 52ae 163e
000001a0: 73ce 24be e798 bc3d 0085 86bd 3eab ba3d
000001b0: 0996 763d 5674 9bbd cc9d 03be 84c7 b03d
000001c0: c93c 213e 5b43 d9bd 6618 fb3d b7da 413d
000001d0: 2920 2e3b dd86 293e 5033 363d 6bf4 db3d
000001e0: 72ee 373d 2eb5 09be f727 da3d aa22 573e
000001f0: 924a b1bd 8adf 9d3d 536b b63d 3860 fdbc
00000200: ee9a 183e 8289 07be dcfb 37bd b457 333d
00000210: 5cf3 223d 9142 783d 7090 793d 7145 f93d
00000220: ffc7 86bd ee92 003e 6e5e cbbd f8a5 143c
00000230: 1261 0cbe b2af 47bd 91ee 963d e90d 193e
00000240: 9f02 c1bd 0e29 a73d 61a5 1fbc 8cad 06be
00000250: f117 533c 4517 ecbd 43f2 073d d718 203d
00000260: 3ebb fcbd a8d9 1b3e 4d35 14be c2f8 973c
00000270: 0937 47bc 60e6 8b3c 31e0 34bd c910 393e
00000280: b910 a43d 625a 1fbd ffc8 033e 1ff0 173e
00000290: c4f5 91bd 6664 10bd fd86 ca3d c81f 1b3e
000002a0: 76c8 113e e57c a4bd d392 d03d 571e c63d
000002b0: 0289 663d b8f5 b6bb ade5 063e 195c e0bc
000002c0: 245f 013d 1b5e b4bd a69e c33d 4180 5abd
000002d0: 9498 0d3e c7c8 0a3d 1113 863c ac60 2bbe
000002e0: 1693 063e 3734 0f3e 4fd6 2cbe e8e6 e13c
000002f0: 1aa5 e23c c5c1 253e bc58 313e 8f59 263e
00000300: 81c7 1fbd 94bc 4a3e fadb fd3d 68ca 79bd
00000310: f5be c4bd d684 8ebd 40b1 213e 750d 11bc
00000320: 6caa adbd 8f77 c73d 1af0 323e aa1c 3d3c
00000330: aa34 0c3e 3c57 2d3e 44b9 31be 9af4 ba3d
00000340: 8262 f13d da6c 073c 1e29 0c3e 3aff 31be
00000350: fb16 ac3d 0cff 02be 0d35 babd 4ae2 5abc
00000360: 4999 bdbd 17f7 673d 368e 083e e02e 03be
00000370: 8dcf 2fbe c55c 99bd 31e3 eebc 8f16 f73d
00000380: b857 0c3e 18a3 933c 3a9d d23d 2ce3 36bd
00000390: e30a e83d 349b 313e c72a d0bc f497 7c3d
000003a0: 40e9 74bd 4451 fcbb 389e 11be 8802 81bd
000003b0: e42e bebd 110f 15bc e28a 2ebe bc56 293e
000003c0: a048 123e 4832 25be 00cd 123e 21a4 e63d
000003d0: 6d93 8f3d c703 013e a90d 9a3d 15c8 133e
000003e0: 39bf 0cbc 79a8 a5bd b321 1d3c de5d 85bd
000003f0: 2315 153d 7ef6 033e 8552 18bc bb43 6e3c
-0.07188097 0.16109785 0.083397545 0.054819103 0.17975497 0.14986707 0.0057973354 -0.0692019
0.027733596 -0.012080332 -0.07528157 -0.18271375 0.09839325 -0.12453126 -0.09175954 -0.04297196
-0.07740392 0.123501085 0.0335281 -0.02616152 -0.1031342 0.0040376983 -0.11266296 0.09190684
-0.148391 -0.13812849 0.15136766 -0.042860057 -0.12794386 -0.0004078526 0.10782511 0.033897173
-0.059797674 -0.12319513 -0.11029166 0.020095127 0.1044595 -0.15570982 0.12950014 0.25331163
-0.0857728 0.1456732 0.2097926 -0.050389413 0.008613033 0.04895138 -0.14637163 0.13077663
-0.18761972 0.053708095 0.15116732 0.097211935 -0.072067745 -0.18377066 -0.12448092 0.17223679
-0.06818406 -0.033317454 -0.009190633 0.07073384 0.15338522 -0.029590078 0.14467931 0.17642675
-0.07100097 0.21950366 -0.04306768 -0.15687628 0.2635252 -0.12794118 -0.084210694 0.15574782
-0.043426048 0.15751292 -0.0653014 0.028608562 -0.011951352 -0.20098704 -0.22355068 -0.083373755
-0.10239578 0.105126694 -0.08786929 0.1349045 0.042999305 0.035267256 -0.027947757 0.06323784
0.10276522 0.13534716 0.20898192 0.121284686 -0.21948403 -0.05763199 0.08684187 0.05252437
0.06307223 0.15254211 0.11688672 0.12177048 0.05240794 -0.14254384 0.026629802 0.14714935
-0.16094379 0.09208851 -0.065683365 0.09114693 0.06020168 -0.07590549 -0.12853163 0.086318046
0.15745844 -0.1060855 0.12260513 0.047327723 0.0026569462 0.16555353 0.04448253 0.107399784
0.044905134 -0.13448021 0.10652154 0.21009317 -0.08656801 0.07708652 0.08907189 -0.03092967
0.14902851 -0.13236049 -0.044917926 0.043784812 0.039782867 0.060610358 0.060928762 0.12171448
-0.06581115 0.12556049 -0.099301204 0.009072773 -0.13708904 -0.04875154 0.07369722 0.14946713
-0.09424328 0.081621274 -0.009744019 -0.1315214 0.012884126 -0.11527876 0.033190023 0.03908619
-0.12340401 0.15219748 -0.14473458 0.018551234 -0.0121591175 0.017077625 -0.044159118 0.1807281
0.08011002 -0.038904555 0.12869643 0.14837693 -0.07126954 -0.035251997 0.09889028 0.15148842
0.14236626 -0.08031634 0.101842545 0.096737556 0.056283005 -0.005583491 0.13173552 -0.027387666
0.031584874 -0.08807012 0.09551744 -0.05334497 0.13827735 0.033882882 0.016366513 -0.16736096
0.13142046 0.13984762 -0.16878627 0.027575925 0.027666617 0.16187198 0.17319006 0.16245101
-0.03900862 0.197985 0.12395473 -0.060984045 -0.09606735 -0.0695893 0.15790272 -0.008853306
-0.08479771 0.09739601 0.17474404 0.011542479 0.13691965 0.16927809 -0.1735583 0.09128685
0.11786367 0.008265698 0.1368756 -0.17382517 0.08402821 -0.12792605 -0.0909215 -0.013359616
-0.092577524 0.056632128 0.13335499 -0.1281085 -0.17169018 -0.074883975 -0.029161068 0.120648496
0.13705337 0.018022105 0.10283895 -0.04465024 0.113302015 0.17344362 -0.025411023 0.06166835
-0.059792757 -0.0077001173 -0.14220512 -0.06299311 -0.092862874 -0.00909783 -0.17045167 0.16536993
0.14285517 -0.16132462 0.14336014 0.11261774 0.07010541 0.12599097 0.07522137 0.14431794
-0.008590513 -0.08088774 0.009590554 -0.06512044 0.03639711 0.12886998 -0.009297018 0.014542515

linears.1.bias f4 [100]
00000000: 1976 b3bd 3d95 dbbc 7e30 01bd d751 05bd
00000010: a3f4 56bd 2848 af3c e930 013d 7e78 65bd
00000020: 24f8 3dbd bffd f4bc a60e 6e3c 5298 373d
00000030: 4498 0e3d e14e 113d 0a06 103d 13a8 f7bc
00000040: 7f81 1dbd ebb2 b7bc bdd2 f1bc 4960 093d
00000050: 26ca db3b 1e3a 07bd 0f93 0d3d 9ddd 73bd
00000060: 3297 473d ff57 e53c 3b76 2a3c 7f47 9bbc
00000070: 9980 923c a09a 00bd c65c 8e3d 7cbb a8bc
00000080: 7e61 c8bc ca8d 02bd cf01 d0bc ae48 3f3d
00000090: bfc7 f2ba e866 e7bc e586 e43b 12a1 f63c
000000a0: 0a9e 253d c30c 84bd 5fbe 9c3c 3cd3 f2bc
000000b0: 6c49 a73c 5ada ce3c 121e a93c 9c4f 85bc
000000c0: 7418 29bd 42c5 1d3d 3595 12bd 0d1b 803d
000000d0: 517a 04bd e850 983c d4e0 113d 718f 8abc
000000e0: dbd0 8f3d 1a2e 073d 7551 efbc 3e91 cabc
000000f0: c542 643d 0e11 00bd 5151 8f3c 8e78 71bc
00000100: aff6 b33c 009f cfbc bfe4 953d 85c5 22bd
00000110: f98f 0abd 3d8a 273c 517f 14bd 3dc8 043d
00000120: ef83 eabc dcd7 c0bc a53f b7bc 54f8 c43d
00000130: fb45 933c 9a9d 07bd 416a 1f3d b986 69bc
00000140: 0110 1f3d 7b4a 723d 42b0 2dbd c4c5 ce3c
00000150: f24d c03d ee8e ac3c ed0d 14bd b7e5 66bd
00000160: 5d08 e73c 7735 c9bb 5f91 17bd a225 14bd
00000170: 3933 04bd 69a1 48bd 8b36 a03c 0802 053d
00000180: efd3 17bd 3317 0cbd d9aa e0bc 93db 9ebc
-0.0876276 -0.02680456 -0.031540386 -0.03254875 -0.052479398 0.021396711 0.031540785 -0.056023113
-0.046379223 -0.029906152 0.01452986 0.044823 0.03481318 0.035475615 0.03516201 -0.030231511
-0.038453575 -0.022424182 -0.029519433 0.03353909 0.0067074476 -0.03301441 0.034564074 -0.05953752
0.048728175 0.027996061 0.010404165 -0.01895499 0.017883586 -0.031397462 0.06951289 -0.020597212
-0.02446055 -0.0318735 -0.025391487 0.046700172 -0.0018522664 -0.028247312 0.0069740885 0.030106101
0.04043392 -0.064477466 0.019133745 -0.02964174 0.020420752 0.025250603 0.020644221 -0.016273312
-0.041283086 0.038518198 -0.035786826 0.062551595 -0.032343213 0.018593267 0.035614803 -0.016914101
0.07022258 0.03300295 -0.029213646 -0.02472746 0.05572774 -0.031266265 0.01749483 -0.014738215
0.021968214 -0.025344372 0.073190205 -0.03973915 -0.03382871 0.01022583 -0.03625423 0.032417525
-0.028627364 -0.02354043 -0.022369215 0.09617677 0.017977705 -0.033109285 0.03891969 -0.014253312
0.038833622 0.05915306 -0.04240442 0.025240786 0.09389867 0.021064248 -0.036146093 -0.056371417
0.02820223 -0.0061404067 -0.03700387 -0.036168702 -0.032275412 -0.048982058 0.019557258 0.03247264
-0.03706735 -0.034201812 -0.027425217 -0.01939181

linears.2.weight f4 [100, 100]
00000000: 3f43 803d 6bdc f63b f2c6 a0ba 6b79 6e3d
00000010: e95b 813d 8880 6e3d 8f7b a83c 791b 91bd
00000020: cea4 df3d 58a5 17be 5bce 47bc ced3 9c3c
00000030: 1567 a43c c695 fe3c 540b 043e 3fb9 0dbe
00000040: ba06 5a3d d451 f33d ec55 f7bc caac aebd
00000050: d991 00be 7cd1 cbbd 385f 953d b02a 78bd
00000060: d0e5 823d 4761 913d 9764 f93d 0360 d6ba
00000070: 714b e53d d16b 31be 583c d63d 07f4 0d3e
00000080: 8eb1 813d a1df a03d e9f7 253e b61c e73d
00000090: 13c6 8f3c 3c6b a8bd 9d59 753d 542f 1abe
000000a0: ec6b 853d ad4e 7ebe 5cd6 dc3d 0a3e 3abe
000000b0: 40fb efbd 6a32 bd3c 2b89 a83d 82dc 533c
000000c0: 5136 c4bd b476 d6bc ac8c 33be a7d1 b23d
000000d0: b23c 10be 25aa 14be 8262 013e f3c1 0e3c
000000e0: b121 463e dfac 83bd a7ce a13c de63 d83d
000000f0: 0063 4e3e ca79 febd ae5a 093c 0ae1 94bc
00000100: 127e 963d b169 ab3d 28c0 72bd b605 653d
00000110: ffd1 343d 5051 1e3d 6b71 80bc 5382 7e3d
00000120: 3206 1ebe 0941 c5bd ba74 293e 8ab0 153e
00000130: 22c5 273e 2a03 8c3d 33ad 053d 2fab bb3d
00000140: fa5b 1ebe ef8c 393e bd41 0b3e 5af6 a63d
00000150: 489e 013e 6885 fabd d17f c53d 04f2 21be
00000160: 252d 69bc 1406 c83d 8c3b e53d 4e0d 79bc
00000170: b8f3 5bbd 237f 943c 6315 d23d c7c3 d53c
00000180: 9e7a 073d d3f8 993c 6667 183e a72a 5a3d
00000190: 78bc 083e 25f9 47bd 0da7 27be d273 23be
000001a0: 7a22 1dbe 7631 97bd 8e70 3ebd d1bf 093d
000001b0: fe1a ccbd 661f 083e a350 96bc 5dc0 0fbe
000001c0: 6b20 8abc 9953 403e 6f59 8fbc 5fd7 493d
000001d0: 1252 16be 2e8b 5cbd 552e b4bd f33b 8cbd
000001e0: 8a61 ebbd 528f b1bc b331 a73d 085f 87bd
000001f0: ce2c e33d f69d 61bd 3c11 093e 9305 1d3e
00000200: 5b01 ea3c 14a0 b6bd bd81 2b3e 8b47 e2bc
00000210: 0f18 05be fffd ca3c a58c 78bc 41a6 90bd
00000220: 75cc c0bd 875d 4f3d 2b34 823d 72ce 51bd
00000230: 0b3a 03be fea1 debd 7252 123d 506c 14be
00000240: dfcc f7bd ad36 1f3d 2cc4 d1bc d259 713d
00000250: 5a1a d53d 91ef a03d 8185 cc3c a8c2 dfbc
00000260: 4d06 e2bd eb21 c63d b5df 0bbd e983 053e
00000270: 9479 963d fc93 07be 0300 163e fb7e 223e
00000280: 05d3 b33d f93e ae3d 2a93 4bbd 5d2c 143e
00000290: 6d67 693d 2ee8 90bd c930 d63d 74dc 58bd
000002a0: f351 24be 5600 ad3d b09a 973d c56f a1bd
000002b0: 76e3 e73d f8fd 0fbd bfe2 ddbd 1c22 713e
000002c0: 858e 923d 8fc8 d23d d464 19be c718 813d
000002d0: 3717 a3bd 0c46 17be 0a8b 08be 0efa 2b3d
000002e0: ecd6 3a3e 300a a23d 17fa 2f3d 1e25 65bc
000002f0: d8b2 c2bd 735c 883d 32da 0abe 1edc 653d
00000300: 17e4 093e d4d4 67bd 1aa3 1cbe 6091 28be
00000310: 2047 fdbd a294 d0bd edc2 973d 7c80 65bd
00000320: 791b 1dbd 103a e63d d125 a33d 51bf 4abe
00000330: b1e5 00be 5233 323e 116a 1d3d 80dd f4bd
00000340: f3c4 0fbc e191 063e 8800 ec3d 5918 2e3b
00000350: 3c99 b73d 4574 ea3c 57c4 9c3d 4f25 ad3d
00000360: 5762 22be 7033 cb3d 2fb0 25be 55ce a33c
00000370: 3ba4 3abd 6af4 113e c685 79bd 9f75 01be
00000380: 9709 18bc b32e d93d ef41 c03d 3f0e 9cbd
00000390: c936 893d 90de e73c 6281 223e f674 593c
000003a0: 9a6e 20be 1fff a33d 68cb 0abe a160 aabb
000003b0: 0d77 203e a0bd 1ebe b346 9dbc 857a d53d
000003c0: 9956 843d 3302 8bbe c6bf f73d 5e73 2dbe
000003d0: e302 1cbb 8b72 ea3d 9265 073e fa5a bebd
000003e0: 8821 e5bd 6c4c 793c 2e54 fabc 9037 383e
000003f0: aa79 153d b3ab 2e3d c56f 53bb 53e0 0fbe
0.06262826 0.0075336 -0.0012266322 0.058221262 0.063163586 0.058228046 0.02056673 -0.07085318
0.10920106 -0.14809167 -0.012195195 0.019143965 0.020068685 0.031077277 0.12894946 -0.13840197
0.05322907 0.11880842 -0.030192338 -0.08529051 -0.12555636 -0.09952065 0.07293552 -0.060587585
0.063914895 0.07098632 0.12177389 -0.0016355518 0.1119603 -0.17326285 0.104607284 0.1386262
0.06332694 0.07855154 0.16207851 0.11284773 0.017550504 -0.08223578 0.059899915 -0.15057117
0.06514725 -0.248347 0.10783073 -0.18187729 -0.11717844 0.023095328 0.08229288 0.012930991
-0.095806725 -0.026179649 -0.17534131 0.08731394 -0.14085653 -0.1451803 0.12635234 0.008713233
0.1934879 -0.06429457 0.01975186 0.10565923 0.20154953 -0.12425573 0.008383436 -0.018173713
0.07348265 0.083697684 -0.059265286 0.05591365 0.04414558 0.038651764 -0.015679082 0.062136006
-0.15432051 -0.09631545 0.16548434 0.14618126 0.16383794 0.06836541 0.03263588 0.0916351
-0.15464774 0.18120168 0.13599296 0.081524566 0.12658036 -0.122324765 0.0964352 -0.15814978
-0.014231955 0.09766784 0.11192998 -0.015200926 -0.053699225 0.01812703 0.102579854 0.02609433
0.03307592 0.018795406 0.14883193 0.053263333 0.13353145 -0.048821587 -0.16372319 -0.1596215
-0.15345183 -0.07382481 -0.04649406 0.033630196 -0.09966086 0.13293228 -0.018348997 -0.14038225
-0.016861161 0.1878189 -0.0174987 0.04927766 -0.14679745 -0.05384367 -0.087979 -0.06847372
-0.114932135 -0.021674786 0.08163776 -0.06609923 0.1109253 -0.055082284 0.1338548 0.15334158
0.0285651 -0.08917251 0.1674871 -0.027622005 -0.12997459 0.024779318 -0.015170251 -0.070629604
-0.09413997 0.050626304 0.063576065 -0.051222272 -0.1281511 -0.10870741 0.035723157 -0.14494443
-0.12099623 0.038870502 -0.025606237 0.05892355 0.10405417 0.07858194 0.024966003 -0.027314499
-0.11036358 0.09674438 -0.03414889 0.13038601 0.07347408 -0.13240045 0.14648442 0.15868752
0.08780483 0.08508105 -0.049700893 0.14470048 0.0569834 -0.07075535 0.10458524 -0.052944615
-0.16046886 0.0844733 0.07402551 -0.078826465 0.113226816 -0.035154313 -0.10834264 0.23548168
0.0715609 0.1029216 -0.14979869 0.06303554 -0.07963412 -0.14772815 -0.13334289 0.041986518
0.18246049 0.07912099 0.042963114 -0.0139859 -0.09506768 0.06658258 -0.13559797 0.056118123
0.13465916 -0.056599453 -0.15296593 -0.16461706 -0.12367082 -0.101845995 0.07410226 -0.056030735
-0.038356278 0.11241543 0.07966197 -0.19799544 -0.1258762 0.1740239 0.03843123 -0.1195631
-0.008774984 0.13141586 0.11523539 0.0026564805 0.08964774 0.028619895 0.07654636 0.08454382
-0.15857826 0.0992192 -0.1618049 0.019995848 -0.04556678 0.14253393 -0.060918592 -0.12642525
-0.00927963 0.1060461 0.09387576 -0.07619905 0.066999026 0.028304368 0.15869668 0.013272515
-0.15667191 0.08007645 -0.13554156 -0.0051995073 0.15670414 -0.15502024 -0.019198751 0.10423759
0.0646183 -0.27150115 0.12097125 -0.1693854 -0.0023805432 0.114476286 0.1322234 -0.09294696
-0.11188036 0.015215974 -0.030557718 0.17989945 0.03649298 0.042644214 -0.0032262665 -0.14050417

linears.2.bias f4 [100]
00000000: 6e99 cc3c dd4e c43c d160 c23c 185b c43c
00000010: b0e8 c53c a12f c2bc 99b6 c8bc 897b c13c
00000020: 1ffa c13c 0a91 ccbc f19e d73c 2155 cbbc
00000030: c0d1 c33c d959 e53c a338 c1bc 3819 c2bc
00000040: c9e5 c03c 6194 cfbc e263 303d 91fb c2bc
00000050: 1f7e c7bc 031d c33c 2ea3 cbbc 13d0 b0bc
00000060: c65e ddbc 2896 d33c 5eb9 c6bc 8c3f bdbc
00000070: babe c3bc 79d8 cbbc 84ad be3c ed9b c3bc
00000080: e201 c3bc 1e39 d0bc 7fb3 c53c 5d24 e7bc
00000090: 4acf c7bc b9f7 ce3c 65a5 edbc 846c d13c
000000a0: df04 c6bc af79 ed3c 5d2a c5bc 98a8 be3c
000000b0: 7584 c93c 7d13 c33c b5d6 1d3d 5af5 afbc
000000c0: a297 c8bc 067f 20bd 625d c03c 6df0 cc3c
000000d0: 556f cbbc 4291 bd3c 5a4f b9bc 0012 e53c
000000e0: d1ae d13c 2612 d73c df8b d9bc 11b1 c43c
000000f0: 9d33 c73c c71c ccbc e0ad c63c b418 f33c
00000100: a131 c13c 5a41 f2bc b32e 023d 3160 dbbc
00000110: a431 bc3c 5bc9 cc3c 4775 f03c fbda c63c
00000120: ad56 8c3c d317 cc3c 3302 c83c bb49 e1bc
00000130: 7e90 c53c 1623 343d e641 c23c 15ed cdbc
00000140: e467 c6bc 82fc cebc 0e08 c7bc df60 c83c
00000150: 9251 c8bc aa72 bf3c 1c5d c23c 75b7 d53c
00000160: e727 cdbc 5731 b8bc ee25 c4bc aaa3 c5bc
00000170: 5db2 d13c f90d cd3c 1b18 c93c 397b c33c
00000180: 3a82 c2bc c0ed ca3c 16f2 c43c c28d 0bbd
0.024975505 0.023963386 0.023727806 0.023969218 0.024158806 -0.023704352 -0.024501132 0.023618476
0.023678837 -0.024971504 0.026320906 -0.024820866 0.023903728 0.027996944 -0.023586577 -0.023693666
0.02354707 -0.025339307 0.043064006 -0.023801597 -0.024352131 0.023817545 -0.024858084 -0.021583593
-0.02702273 0.025828436 -0.024258312 -0.02310159 -0.023894656 -0.024883496 0.023276098 -0.023878062
-0.023804609 -0.02541786 0.024133442 -0.028215582 -0.024390835 0.025264608 -0.02900953 0.02556444
-0.024172245 0.028988687 -0.024068052 0.023273751 0.024599293 0.023813004 0.03853484 -0.021479297
-0.024486367 -0.03918364 0.023482028 0.025016988 -0.02483336 0.023140553 -0.022620846 0.027962685
0.025596054 0.026253771 -0.026555954 0.024010213 0.024316603 -0.024916066 0.024252832 0.029674865
0.023583235 -0.029572178 0.031782817 -0.026779266 0.02297289 0.024998358 0.029352797 0.02427434
0.017131174 0.024913704 0.024415111 -0.027500978 0.02411675 0.043978773 0.023713063 -0.025137464
-0.02421946 -0.02526689 -0.024295833 0.024460254 -0.024452958 0.023370106 0.023726039 0.026088456
-0.025043441 -0.022484465 -0.023943868 -0.024125893 0.025597746 0.025031077 0.024547627 0.023862468
-0.023743737 0.024771571 0.024041217 -0.034070738

linears.3.weight f4 [1, 100]
00000000: e423 08be 1940 efbd 085d 96be 8450 2bbe
00000010: 7111 89be 7305 353e 9d86 253e 16c8 fabd
00000020: bdc0 3cbe 4166 633e 7f24 27be f3da 853e
00000030: 4802 86be 4f83 b2bd 7982 153e 0a5c 4b3e
00000040: 8502 64be 822e 263e 4252 0dbd 762e ef3d
00000050: 4575 153e ac1a 80be fd6b 963e 4041 d23c
00000060: a415 eb3d 9fef 44be 7a04 8c3e 15aa 0e3d
00000070: 4685 4f3e 7265 023e 98ec 5dbe 517d 823e
00000080: 8412 ed3d a2be 553e 4dbd fdbd 08f6 0c3e
00000090: f135 e23d 772a 79be 9b02 b83d c935 3bbe
000000a0: 7a2a 353e 338c 13be c648 bd3d 9f0e 44be
000000b0: 3a9e 6abe 207e 90be a8dd 0fbe cd9e b43d
000000c0: 0953 913d 0ab7 bc3c b189 85be 3887 6dbe
000000d0: 95fa 413e fb76 f2bd e96e 5d3d 8e41 dcbc
000000e0: b36a 87bd d8dc 15be 9306 343e 331d 6dbe
000000f0: bcca 4dbe f5c7 483e 36a1 4abe e8af a3bd
00000100: 1b61 39be 68d7 1c3e 75b0 20bd 76aa 373e
00000110: ee94 3cbe f978 2bbe 32d9 03be 006c d3bd
00000120: 0731 8fbb 62a4 0dbd 2ffe 2fbe 4976 ee3c
00000130: 3fba 64be 4e1e d2bd 9dec 6dbe 6f3c 073e
00000140: 7dba 573e 25d1 8e3e e872 2a3e 4888 88be
00000150: aa3e 5a3e 5b62 68be 405e 37be cabb 94bd
00000160: 087e fc3d 0bb6 6f3e addf 393e fa78 343e
00000170: 9e69 3ebe d096 79be e27c 05be eae5 bbbd
00000180: fe40 433e 42e0 7fbe ccc3 a1bd 222f 6a3d
-0.13294941 -0.116821475 -0.29367852 -0.16729933 -0.2677112 0.1767786 0.16164632 -0.122451946
-0.18432899 0.22206976 -0.16322516 0.26143607 -0.26173615 -0.087164514 0.14600553 0.19859329
-0.22266586 0.16228679 -0.034502275 0.116787836 0.14595516 -0.2502035 0.29379264 0.02566588
0.11478737 -0.19232033 0.27347165 0.03483017 0.20265684 0.12734011 -0.21672285 0.25486234
0.11575797 0.20873502 -0.12389622 0.13765728 0.11045445 -0.24332605 0.08984872 -0.18282236
0.17691985 -0.1440895 0.09242396 -0.19146203 -0.22911921 -0.28221226 -0.14049399 0.08819351
0.07095916 0.023036499 -0.26081613 -0.23196113 0.18943246 -0.118391 0.05406085 -0.026886728
-0.06612148 -0.14635026 0.17580633 -0.2315567 -0.20096868 0.19607528 -0.1978806 -0.07992536
-0.18103449 0.15316546 -0.039230783 0.1793612 -0.18416187 -0.16745366 -0.12875822 -0.10323334
-0.004369858 -0.034580596 -0.17186807 0.029109137 -0.22336672 -0.102596864 -0.23234792 0.13206647
0.21067233 0.2789394 0.16645396 -0.26666474 0.21312967 -0.2269377 -0.17907047 -0.072623804
0.12328726 0.23409288 0.18151732 0.17624274 -0.18594977 -0.24373937 -0.1303592 -0.09174712
0.19067761 -0.24987891 -0.078986734 0.057173856
