Complete_thesis_stage_1_and_2/(d).Code_and_all_other_details/WAAM/PINN_CONSTANT_PROP/Sequential_trail_1/Models/final_model.pt (torch, 38192 bytes, 7 tensors)

linears.0.weight f4 [64, 4]
00000000: b97d 3dbe 82df 6dbd 18d7 4c3d 5c51 f93e
00000010: 2ce4 1b3f 0ba7 06bf d672 03bf 2ba7 2dbe
00000020: ac4d 3d3c cf7f c13d aad2 dd3d a50c 24be
00000030: b182 983e 663f 133f ce6b 693e 5469 153e
00000040: de89 5d3e 7d8d eabe 2c62 a43d e917 af3e
00000050: 78d9 ac3e d8a0 8ebe 347f 0d3e 833b 4b3e
00000060: 8162 db3e 2ded 80bf 7ac2 7bbe 3a76 9bbe
00000070: c14b 453f 7280 89be 10b3 8a3d eeee d33e
00000080: ad39 2fbd 6afa 54be 357e b43c 0df1 f5be
00000090: 3e26 b6bc cee0 b93e 9e2a 88bd cad4 2d3e
000000a0: 3074 84be 742d ecbd 1b1b 3d3e 1faf 943e
000000b0: 3f8c ba3e 99da d6be ff5d 0d3e f755 e4bd
000000c0: 0d9e 4e3e 388f 573f 22f9 0bbe a89f 00be
000000d0: 039e 26bf 21bc 443f a94e d7bc 42e0 c53e
000000e0: 9a96 e1be d79d 1bbd 7001 523e 5b21 f63d
000000f0: 38d6 7bbe 03e5 db3e 9cb5 10bd ac2e cc3e
00000100: 30fb a83e f8ec 2b3e 6402 8e3e fd92 1cbe
00000110: c99b 81be 3d5f 97be 1894 f0bd dd94 6cbe
00000120: b2a4 6abe 456e 9d3e 03a8 9bbe 9c89 a8be
00000130: c642 8b3e 04ca b1be 296d e73d 52b1 8a3e
00000140: d8db 7e3e 19e5 bb3d 6888 813d 9495 b43e
00000150: f323 52bf bac5 043e 5244 193f 2229 8a3e
00000160: 93f6 80be 864b 8ebe 182f eaba 399b a1be
00000170: 30e6 82be 87e9 c7be 4f35 17bd 7085 0f3f
00000180: 92e7 623e baa7 973b 5a66 1e3c 6ad1 c7be
00000190: c322 a63d 61dd 873e 6055 b0bd 2516 f53d
000001a0: 56cf 0fbf f3f5 6fbd 4bd3 ce3e 5e3e b0be
000001b0: abf6 e5be afae b8bb a4c3 a43d 20cb 9b3e
000001c0: b45c c03e 2e2c a1be b276 4c3e b334 a9be
000001d0: 4811 903e c98a 0b3e dc00 833d 81ec 92be
000001e0: 2755 1fbe ed57 2ebe b2ed a1be 18b0 bbbe
000001f0: 26d6 2ebf 732d 70be c86c 52bf 38d0 0d3f
00000200: e892 d9bd 321e d3bd 9129 833c 39ef 253f
00000210: ae76 bc3e af6e 61bd c85b 463e b186 83be
00000220: acd9 f33d 220f 1b3d 009d 71be ec0b 9bbd
00000230: d493 793e 7a2e 4fbd 6cf5 6e3e 5305 84be
00000240: 097f 1f3f 4d98 833f 40a4 a5be c92f a1be
00000250: a9ee f4bd d3ab b3ba 20fd e13d 3cfd a2bd
00000260: 2fe4 80be aadd 4f3c ce63 9bbe 2787 90be
00000270: d60c 233f a9cf b8be 1429 de3d d06f 2fbf
00000280: 8e8f 8b3e 129e 9bbe 3525 973c 31a4 a5be
00000290: 917d cf3d db65 673c b141 6b3e 93d5 9dbd
000002a0: be05 d2be f41a 8fbe b6ed c9bd 79ad dc3e
000002b0: d1d6 34bc dffb a63e 4f16 a8bd 2422 963e
000002c0: c733 793e 83e5 8b3e 009b b73c af00 3dbe
000002d0: 1b73 6bbe 8433 5b3d 3f12 263e ff6d bf3d
000002e0: 5075 0d3e 52ba 80bd 9e6a 1abe 9893 12be
000002f0: 897a c2be 9cfe d63c 820b b6bd ef9a 8cbe
00000300: 10c0 cebe 6d26 04be 2a79 54be fca9 493e
00000310: 4200 05be ec49 a43e 470f 51be 8063 4a3e
00000320: 4cf7 a33d 29bc 1b3f 2b0d 99be d866 2f3e
00000330: ae7e ab3e a1b9 833f 89dc d13e 4dca 953e
00000340: 8054 813e 5acb f4bb 910d 163d 40c1 e1bd
00000350: 681c 813e 463d 32bf 989f 5a3d ce2d babe
00000360: 61af b4be 1532 63be adb6 3bbe 337f 9c3e
00000370: 5214 0fbe b249 e0bd 8bb3 6fbe 0d00 aa3d
00000380: 2799 723e d5d2 113d d7a7 37be d86e b3be
00000390: 0dd0 d03e 1e90 edbd 3ab0 5bbe 5ddd 81be
000003a0: 12aa bf3e 0301 ef3e d7d5 19bd 3c75 ccbe
000003b0: ec9d 38be 73a6 b53f e5b9 babd aee4 e1bc
000003c0: 6344 633d eb9f ffbb b0ab ecbd 9b86 013f
000003d0: c0ef 303f 11c5 73ba f68e 123c f4c9 263e
000003e0: 1f8e ecbe 6a2e 9dbd 06bb 00be bc1d 14bc
000003f0: a242 dc3e 8d19 b53f c26f 1dbe e1ff c5be
-0.1850499 -0.05807448 0.050009817 0.48694885 0.6089504 -0.5259864 -0.513471 -0.16958301
0.011554163 0.09448206 0.108311966 -0.16020449 0.2978721 0.57518613 0.2279503 0.1459096
0.21634623 -0.45811072 0.08026537 0.3419793 0.33759665 -0.2785709 0.13818055 0.1984692
0.4284859 -1.007238 -0.24585906 -0.30363637 0.77068716 -0.26855808 0.06772435 0.41393226
-0.042779613 -0.2079865 0.022032836 -0.4803547 -0.022235032 0.36304325 -0.066487536 0.16975704
-0.25869894 -0.11532107 0.18467371 0.29039857 0.36435124 -0.41963652 0.13805388 -0.11149209
0.20177479 0.8420291 -0.13669255 -0.12560904 -0.65084857 0.7684956 -0.026282625 0.38647658
-0.44060212 -0.037992325 0.20508361 0.12018081 -0.24593437 0.4294816 -0.035329446 0.39879358
0.3300414 0.16789615 0.277362 -0.15290447 -0.25314167 -0.2956485 -0.11746997 -0.23103662
-0.22914389 0.3074819 -0.3040162 -0.32917488 0.27199382 -0.34724438 0.113001175 0.2708841
0.24888551 0.09174556 0.063248456 0.3527037 -0.82086104 0.12966052 0.59869874 0.26984507
-0.2518812 -0.27791995 -0.0017866818 -0.31563738 -0.25566244 -0.39045355 -0.036916073 0.56062984
0.2215865 0.004628149 0.009667957 -0.39026958 0.08112099 0.26536086 -0.08610034 0.11967114
-0.56175745 -0.058584165 0.4039558 -0.34422582 -0.44914755 -0.0056360583 0.08045128 0.3042841
0.37570727 -0.3147902 0.19967154 -0.3304802 0.28138185 0.13627161 0.06396648 -0.28696063
-0.15559827 -0.17025729 -0.3162666 -0.36657786 -0.68295515 -0.23454838 -0.82197237 0.5539584
-0.10623723 -0.10308494 0.016011031 0.6481815 0.36809295 -0.055037197 0.1937095 -0.256887
0.11906752 0.03785623 -0.23595047 -0.07570633 0.24372798 -0.050581433 0.23335809 -0.25785312
0.62303215 1.0280854 -0.32351875 -0.3148177 -0.11959583 -0.0013707824 0.11034608 -0.07958457
-0.2517409 0.012687126 -0.30349582 -0.28228113 0.6369146 -0.36095932 0.10847679 -0.6852999
0.2725796 -0.30394036 0.018450359 -0.3235183 0.10131372 0.014123405 0.22974278 -0.07706752
-0.41020006 -0.2795025 -0.09859793 0.431011 -0.011037544 0.32614037 -0.0820738 0.29322922
0.24336158 0.2732354 0.022412777 -0.18457292 -0.22993128 0.053515926 0.16217898 0.09347152
0.13814282 -0.06285538 -0.15079734 -0.14314115 -0.37984112 0.026244454 -0.08888914 -0.27461955
-0.40380907 -0.12905283 -0.20749345 0.1969375 -0.1298838 0.32087648 -0.20415984 0.19764519
0.080061525 0.60833985 -0.2989286 0.17129076 0.33495086 1.0291024 0.40988567 0.29255906
0.2525978 -0.0074705305 0.03663403 -0.11023188 0.25216985 -0.69624746 0.053374857 -0.3636307
-0.35290053 -0.22187074 -0.18331404 0.30565795 -0.13972595 -0.10951556 -0.23408334 0.08300791
0.23691235 0.035601456 -0.1793512 -0.35045505 0.4078373 -0.11599754 -0.21453944 -0.253642
0.3743444 0.4668046 -0.03755745 -0.39933193 -0.18028992 1.4191421 -0.09117488 -0.027574863
0.05548514 -0.007801046 -0.11556184 0.50596017 0.6911583 -0.00092990795 0.008945217 0.16287977
-0.4620218 -0.076748684 -0.12571344 -0.009040292 0.43019587 1.4148422 -0.15374663 -0.38671783

linears.0.bias f4 [64]
00000000: fb10 8e3e 0093 4a3f ce4f 9c3c f46a 223e
00000010: 4a77 ae3e f7b0 643e c3c5 2b3e 77d5 743f
00000020: 77de 07bf 6f11 033b ac22 edbc 9cdf db3d
00000030: a3b2 a23e 7800 eb3d 44eb 65bc a8c5 c83c
00000040: 92fd d83d 7dab a4be cf34 06be 9d67 5f3e
00000050: 17e3 bc3e 73cc 0a3e 5fe8 83be 50ee b53e
00000060: d7d5 ddbe 4e77 3a3d 6a6d 95bf ee6a 5abd
00000070: 241b cabc d24d 01ba 7ac3 bdbc 4da1 ce3d
00000080: 86e9 073f 162b 373e f4f9 923c 63c1 643d
00000090: a630 f1bd d46c aabc 0cdd c8bd a48c 62be
000000a0: 96f7 0c3d 9c86 323d 5097 da3d ff23 b0ba
000000b0: 0507 ea3d 795b da3d eefc 39be 9fcc 83be
000000c0: ce20 54bd 1e68 813c f405 753d 8f7a 7d3e
000000d0: aef5 123e 52f7 afbd 9f01 e8bb e056 01bd
000000e0: 17f1 81bd ab04 86bd 319f 263d 57aa a1be
000000f0: a8e2 273f 8448 aa3d 41d3 20be 6602 b3bd
0.2774733 0.79130554 0.019081023 0.15861112 0.34075385 0.22333132 0.16774659 0.9563822
-0.5307383 0.0019999405 -0.028947197 0.107360095 0.31776914 0.11474699 -0.0140331425 0.024508312
0.1059524 -0.32162085 -0.13106082 0.21816869 0.36892006 0.13554554 -0.25763223 0.3553338
-0.4332721 0.045523934 -1.1674016 -0.053324632 -0.024671145 -0.00049325556 -0.0231645 0.100893594
0.53090703 0.1788753 0.017941453 0.05584849 -0.11776857 -0.020803846 -0.09807786 -0.22123963
0.034415804 0.043585405 0.10673392 -0.0013438462 0.1142712 0.10661978 -0.18162891 -0.2574205
-0.051789097 0.015796717 0.05982013 0.24753784 0.14351532 -0.085920945 -0.0070802714 -0.03157699
-0.06344812 -0.06543859 0.04067916 -0.3157527 0.65580225 0.083146125 -0.15705587 -0.08740692

linears.1.weight f4 [64, 64]
00000000: e893 f83d 417f 58be 42fd 13be e860 e43d
00000010: 3f51 63bd 21f2 4c3e 2b66 adbd be2b 5b3e
00000020: 47c1 a8bd 49d5 bf3c df1e 04bd b722 62bd
00000030: 43df a43c db3c 813e ac17 8b3d 27f9 2c3e
00000040: 93de 123e a2b8 00be b6ec 5fbe 3c9d b6bd
00000050: 027c ca3d f511 f3bc 59df 01be 56e0 403b
00000060: c37f 7fbe f814 503e 3c7f 50be 59bd a43e
00000070: 5de1 8dbd afe7 7cbe de46 37b9 a37f aabe
00000080: ea2c 613e e2f1 23bd ba70 1cbd cc13 263e
00000090: 9e70 a83d c0ac f5bd f344 71be c8c6 b9be
000000a0: 6b20 eb3d 70f5 a53d 7af9 6f3e d6a0 1bbe
000000b0: a046 c7bd 6f8a a33c c20d 3bbe 969e 913d
000000c0: ca18 33bd 945f 143e 9ab9 043e 8ee4 cbbb
000000d0: a42e 60be 9ef0 52bd 4f15 eb3d 4820 af3d
000000e0: 7033 47be 40ec 92be 4efa 5e3d 7d72 803d
000000f0: d21c 613c 2354 19bd b80a 3d3e 2b03 11bd
00000100: b131 a3bf 78c1 80bf 3762 243e 5f49 63bf
00000110: 8f00 67bf 99d0 f7be 596a 803d 6971 fcbf
00000120: 49e2 dd3f 5701 4dbe bdb7 0a3e 3e47 63be
00000130: fb3b 16be 5789 62be 90eb b73c 3b80 6bba
00000140: eeb7 8cbe 6b6f 293f d2e3 de3d 24a8 fabe
00000150: 1366 13bf 8537 18be e49e af3e 0fad 3cbf
00000160: 9d6f 2c3f fd83 26be 351a c63f 13b3 c03e
00000170: 7552 923e fb89 2c3e b3c6 c43c d2a9 2e3f
00000180: f2ef 61c0 a339 0f3d 0492 22bd c5a5 2b3e
00000190: cef2 9f3d 1295 613e 6944 963e 0f98 083f
000001a0: c181 113d 89aa 773e 710d 66bd 2180 26be
000001b0: 1b28 74be 012c d23d 6ef4 df3e 388b 003f
000001c0: 021b 863d bd12 9bbd 2630 a03d 7541 94bf
000001d0: c5b8 9ebe 76ad c83e c39f 69be 71f0 80be
000001e0: bce1 2e3e dc15 5cbb 7511 70bc 9410 7e3d
000001f0: 694c d3bf 75ba b23d eff1 223f 5923 f13d
00000200: 6a45 0abe 6c2c 9b3e 2ceb 8dbd 2892 a83c
00000210: 860d 36be f2e7 d4bd 7030 673d 1366 273d
00000220: 4ca5 3d3e d59d 173e afb6 4ebe 98ec 6c3e
00000230: 3402 c43e a6a6 04bf 947a f5bd cf46 6abe
00000240: d9ec 513d ea88 e7bd eef0 1b3e 5c8f e4bc
00000250: 27a6 103e 1d25 6bbe 0246 a93d 0242 a5be
00000260: c3cf fb3e dab5 eb3d 2a84 2abe f877 4fbf
00000270: dc22 a33e 4da8 e03d e35e 163e 4c2d e2be
00000280: 7c79 1abe cb33 913e 7cbf 803d 5267 ddbc
00000290: ea0a 553e b964 1b3d 8fa8 44be e60f 6e3e
000002a0: aad9 fa3d 37c6 56bd d88a 29bd cf51 45bc
000002b0: a8d4 f03d 2f94 6bbc 257a a83e 7af0 aebe
000002c0: c25e 02bf 12b7 463e 3bfe 863d e083 9c3c
000002d0: e6e5 e83e 45b9 4dbd 7a14 6bbe 7d2d cabd
000002e0: 823a 3a3e 1415 ed3e aad5 963e 7906 38be
000002f0: a929 88bd 88a7 113c 3a04 99be 7135 0f3d
00000300: 52df d0bf e6e8 98be b838 603d cdfb 1abe
00000310: 6afc 50bf 31a1 aebe ebb0 9cbd 300a 0dbf
00000320: 76d2 a03f 5764 09be 1e5e 96be 3d9e 19be
00000330: 7b79 663e f168 d5be fbe4 533d a5e3 babe
00000340: 05b5 803e fc59 22bd 839a 8b3e 9fc7 6dbe
00000350: afcc ecbe ceb2 02bd ed04 9d3e c650 d6bf
00000360: 9a95 b13e 6b8f 00be 319a 573f 403f cb3c
00000370: 122b 823d 754b 8b3e e2ae 323e a30b e53e
00000380: 8318 b6bf d21f f83c 69a8 8f3d 1dfd f13b
00000390: 74d7 a03e 58f5 81bc b403 853d c565 683f
000003a0: 671c 32bb 1739 db3c 6431 dbbe 137c 14be
000003b0: 9fc4 3b3e 0fd5 0d3e 8478 4a3e 48f1 023e
000003c0: 5a51 67be 3e09 5cbd c6cc 1ebe 176e 22be
000003d0: b475 b03d e88f b53e 7b7c 9dbe 6922 0ebd
000003e0: 121c a83e e30c 963e a82f eb3e ae40 443e
000003f0: 537d 86bf 6088 54bc f987 453c 555c 4dbd
0.12137586 -0.21142294 -0.14452079 0.11151296 -0.055497404 0.2001424 -0.084667526 0.21403405
-0.0823999 0.023417132 -0.032256003 -0.055208888 0.02012599 0.25241742 0.067916244 0.16891919
0.14342718 -0.12570432 -0.21867642 -0.08916709 0.09886934 -0.029671649 -0.12682857 0.002943059
-0.24951081 0.20320499 -0.20361036 0.3217571 -0.0692775 -0.24697755 -0.0001747864 -0.33300504
0.2198979 -0.0400256 -0.038193442 0.1621849 0.08224605 -0.1199584 -0.23561458 -0.3628447
0.114807926 0.08103454 0.23435012 -0.15198073 -0.097302675 0.019963471 -0.18266967 0.07110326
-0.043724813 0.14489585 0.12961426 -0.006222314 -0.21892792 -0.051499 0.11478674 0.08551079
-0.19453216 -0.2869587 0.054437928 0.06271837 0.013739781 -0.037433755 0.1846112 -0.03540341
-1.274954 -1.0059042 0.16053091 -0.8878383 -0.9023523 -0.48401335 0.06270284 -1.972211
1.7334682 -0.20020042 0.13546653 -0.22195145 -0.14671318 -0.22122703 0.022451192 -0.00089836464
-0.27484077 0.66185635 0.10883297 -0.48956406 -0.5757763 -0.14864929 0.3430091 -0.73701566
0.6735781 -0.16261287 1.5476748 0.37636623 0.28578535 0.1684951 0.024020528 0.68227875
-3.53027 0.034967076 -0.039690033 0.16762455 0.07809983 0.22029522 0.29349068 0.53357023
0.035524134 0.24186148 -0.056165162 -0.16259815 -0.23843424 0.10262299 0.43741173 0.5021243
0.0654812 -0.075719334 0.078216836 -1.1582476 -0.31000343 0.3919484 -0.2281485 -0.25183442
0.17078298 -0.0033582365 -0.0146526 0.06202753 -1.6507694 0.0872697 0.6365041 0.1177432
-0.13503042 0.3030733 -0.06929621 0.020577505 -0.17778596 -0.103958026 0.056442678 0.04086883
0.18520087 0.14806302 -0.20186876 0.23137128 0.3828293 -0.51816785 -0.119862705 -0.22878574
0.051251266 -0.11305411 0.15228626 -0.02790039 0.14125882 -0.22963376 0.08265306 -0.32276922
0.49181947 0.11509295 -0.16651979 -0.8104243 0.31862533 0.10969601 0.14684634 -0.44175184
-0.15085405 0.28359827 0.06286523 -0.027026806 0.20804945 0.037937853 -0.19204925 0.23248252
0.122485474 -0.052435126 -0.041392177 -0.0120434305 0.11759311 -0.014378591 0.3290569 -0.34167844
-0.5092584 0.19405773 0.06591459 0.019105852 0.454879 -0.050225515 -0.2295703 -0.098719575
0.18186381 0.46305144 0.29459888 -0.17971219 -0.06648571 0.00889004 -0.29886037 0.034963075
-1.6318152 -0.29865187 0.05474159 -0.15135117 -0.81635153 -0.34107354 -0.07650932 -0.5509367
1.2564228 -0.13417183 -0.2936868 -0.1500177 0.22507279 -0.41681626 0.051732045 -0.36501804
0.25138107 -0.039636597 0.2726632 -0.2322068 -0.4624991 -0.031908803 0.3066782 -1.67434
0.3468445 -0.1255471 0.8421965 0.024810433 0.06355871 0.27206007 0.17449525 0.4473544
-1.422623 0.03028861 0.070145436 0.00738491 0.31414378 -0.01586406 0.06494847 0.9078029
-0.0027177574 0.026760621 -0.4281112 -0.14500456 0.18336724 0.13850807 0.19772536 0.12787354
-0.22589627 -0.05371975 -0.15507802 -0.15862308 0.086162 0.35461354 -0.30759034 -0.034700785
0.32833916 0.29306707 0.45934796 0.19165298 -1.0506996 -0.012971967 0.012056344 -0.050136883

linears.1.bias f4 [64]
00000000: 696c b0bb 8939 11be 58d1 19bd 1e9a 34bd
00000010: 8433 cdbd b406 09be 0d39 18bf 08f4 babd
00000020: d909 22bd ac21 edbd 296f a13d 7bdf b43d
00000030: 5383 c33d 1db1 12bf 774e 25bd 009e f2bc
00000040: eae8 663d c419 f9ba 8f7b e03b 690d 4fbc
00000050: 933d 3b3c 5300 19be 21cc 00be 7ff3 18be
00000060: 059c 5d3d a7b4 96bc a213 153e b800 433d
00000070: 7c31 30bd a81e 96ba 22da c5bd 988b e03c
00000080: 0e4b 643d c578 573d b37f 523c 88a6 883c
00000090: 66e7 bbbc 03a3 66be cc24 21bd 9f21 bf3c
000000a0: 68fc e5bc 99e2 193d 6233 d33c 5bfe a6bd
000000b0: f19b b1bc 0079 e13c 214b afbe f325 5dbd
000000c0: 6223 d3be 12ae b43c b39c 6e3c 1ecf 413d
000000d0: 4648 513d 3ea8 c4bd a09b 533e b619 d2ba
000000e0: 43f2 793d 38ba 2b3c 281f 883d 64c2 533d
000000f0: 319a 1e3c f230 203e d91e 22be b56f 2f3d
-0.0053840172 -0.14182104 -0.03755316 -0.04409229 -0.100195915 -0.13381463 -0.5946205 -0.091285765
-0.039560173 -0.11578688 0.0788253 0.08831688 0.095465325 -0.57301503 -0.040358033 -0.029616356
0.056374468 -0.0019004871 0.006850667 -0.012637475 0.011428255 -0.1494153 -0.12577869 -0.14936636
0.05410387 -0.018396689 0.1455827 0.047608107 -0.043015942 -0.0011453228 -0.09660746 0.027410313
0.05573564 0.05260541 0.012847829 0.01668097 -0.022937488 -0.22523122 -0.039341733 0.023331461
-0.028074458 0.037569616 0.025781337 -0.08153983 -0.021680804 0.027523518 -0.34237006 -0.05399127
-0.41237932 0.02205566 0.014563727 0.047316663 0.051094316 -0.09602402 0.20664835 -0.0016029391
0.061022054 0.01048141 0.066465676 0.051699057 0.009680317 0.15643671 -0.1583208 0.04283114

linears.2.weight f4 [64, 64]
00000000: 2338 1a3e a1ce 10be aaad c8bc a2af 193e
00000010: 8824 5e3d 1902 313c 2151 143c f83d ba3e
00000020: c4d2 59be c844 b63e a88a 48be 39ef 84be
00000030: 1cd1 8ebd 5b9c 47bd 3baa d2bd 920a 9dbd
00000040: 8560 73bd 36b4 07be 9224 6fbe 4fa8 f9bd
00000050: 1792 65bc 2d42 aa3e 3b5b 22bd 8d34 083d
00000060: 61ef 86bd 9c83 043e e349 24be b2cc 053e
00000070: cc12 c3bd 7cee 893e 3061 3b3e fcd9 103e
00000080: b3d9 953e 33ff c13d 6a05 1bbe f7b5 cdbc
00000090: d76d ee3d e718 283e 25ac 513e 4a34 a9be
000000a0: 5934 5d3e c014 97bd e820 d0bd 5b14 15be
000000b0: cac3 0bbe 83b1 a93d 98bd 0bbe 90b7 12be
000000c0: 0cd6 50be ebbc 653e 3a81 1c3e e0c3 33bd
000000d0: bbc6 cabd 1a9f 7abd 5dcc e13e c95a 26be
000000e0: 7284 60be a563 02be 45c7 0dbd 5773 463c
000000f0: e1d0 7d3e ccff 92be 4798 74bd 51bf 78be
00000100: c1e2 8f3e d8ed 2fbd 1c18 ecbe ec3f 873d
00000110: 9528 58be fa28 ccbe ceba 6e3e 1763 27be
00000120: f457 4fbe dd6b bbbe 8e8f 213e 932a 663e
00000130: dc32 ec3d a57b b0be 286d 27bb 3c1c 0d3d
00000140: c0ee 953e f38e c3be d5a6 96be db5f e2be
00000150: 170b 373e b5b2 ef3e 66d7 bbbd 2e62 13bd
00000160: 51f5 8c3e 09ec 86bc 8025 cbbd ec11 eabb
00000170: 41cc b0be d0fb bb3e becf 45be 6b3e e53c
00000180: 2fd9 2e3f 1644 873e cb47 52bc d018 5c3e
00000190: b303 22bf 1683 5e3e e6b3 91be d48d a0be
000001a0: 0100 11bc 2000 e43c 762c e23e 91d7 aebe
000001b0: d496 f6bd 10fe 4abe 29d3 68bd d3dc 87be
000001c0: 9361 f5be c565 c13e 1448 153f 4be7 92be
000001d0: 0fc2 c5bd d548 373d 8f6a 123f 45db 1d3f
000001e0: 4c51 10bd 39e1 7bbd 0b3c c3be f218 f9bd
000001f0: fdbc 043e c6d3 363f ce58 2b3f d29c f1be
00000200: 1fd5 7a3c 5a94 9c3b fa45 053e aa90 b3bc
00000210: df05 933e 340d 2bbe 644c 063f fb35 093f
00000220: 3826 713e 8855 053f c948 18be 9d70 a9bd
00000230: 8ed6 023e 8d19 97be 02b0 bd3e fc25 2d3e
00000240: fd2e a03e 87d8 8b3d 07cf 8e3e 56de 923d
00000250: ba46 17bd d625 413f 4a4a 323e ae00 9d3e
00000260: 1087 c4be 9efe d5bd 2a2a 1ebf b858 48be
00000270: dd76 4c3e 24d4 bb3d 5621 393d 9ea5 ba3d
00000280: a764 95be 5308 983c cff4 8e3d fb52 9bbb
00000290: d8a1 343e f3d9 773f 046d c03c d9ef acbb
000002a0: 9460 703e 83fa 34be 0b98 1f3f c1f4 af3d
000002b0: abc5 983e 4ee7 8dbd 25d4 bcbd 63e3 2e3e
000002c0: 36ba 65be 4857 913c 1140 a93e e3a7 0c3f
000002d0: 2eb6 a73e 3fea b53e 3414 9abe 61b6 97be
000002e0: 0613 8ebe 9027 b9be 0bea ccbe e080 80be
000002f0: d02f 223e a30a 52be 64b1 863e e5a5 8fbe
00000300: 6b99 85bd 5885 7cbd 2a46 8e3d bc4a 2fbe
00000310: d0b8 d13d 7b2e 933e 0df6 6b3e a915 2a3f
00000320: 3abc 453e d189 9e3e e0b3 29be 23d2 eebe
00000330: 8e51 d43b 7514 edbe a979 c13e 076e 923e
00000340: 88c7 9d3e c502 b0be 94d7 de3e 240c da3e
00000350: e683 d8be cd4e b63e 0012 a53d da87 503e
00000360: 33c3 cfbd 71d0 ecbd aaf0 e6be cfa8 c03c
00000370: da58 873c 318a 723e 266e 8b3e c428 37be
00000380: 427e 813e bcf4 acbe 8e31 8fbe 4d54 a53e
00000390: fb33 fb3e 7e2f 473f 6c39 323e ebba 113e
000003a0: 57a6 143e be85 9cbd a4cb f03e a55f 3d3d
000003b0: 4381 023f d68f 3ebd baed c3bd 9e0e cb3e
000003c0: e3df 00bf 2ddf acbe 9b45 d53e d83e 3f3f
000003d0: 717e be3e a5bd ab3e 511b 6c3e d3c5 afbe
000003e0: 349a 56be 0db7 4cbe 78ec 9d3d e549 5dbd
000003f0: 9b6b 1c3e 6e47 fdbd 2b2a 033f 9e7d 4dbe
0.15060477 -0.14141323 -0.024496872 0.15008405 0.054234058 0.010803723 0.009052546 0.36375403
-0.21271807 0.3559935 -0.19584143 -0.25963762 -0.06973478 -0.048733097 -0.10286375 -0.07668032
-0.05941822 -0.13252339 -0.23353794 -0.121903054 -0.014011881 0.33253613 -0.039637785 0.03325324
-0.06588627 0.1294083 -0.1604381 0.13066366 -0.095250696 0.26939762 0.18298793 0.14145654
0.29267654 0.094725035 -0.15138784 -0.025111182 0.11642044 0.1641575 0.20475824 -0.33047706
0.21602 -0.073770046 -0.10162526 -0.14558546 -0.13648906 0.08285811 -0.13646543 -0.14327836
-0.20394152 0.22435348 0.15283671 -0.043887973 -0.09901186 -0.061186887 0.4410123 -0.1624557
-0.21925524 -0.12733324 -0.034613866 0.01211246 0.24786712 -0.28710783 -0.059715535 -0.24291731
0.28102687 -0.042951435 -0.46112144 0.06603989 -0.21109231 -0.39875013 0.23313448 -0.16346394
-0.20248395 -0.3660573 0.15777418 0.22477178 0.11533138 -0.34469333 -0.002554724 0.034450755
0.29283714 -0.38195 -0.29424158 -0.44213757 0.17875324 0.4681603 -0.09171943 -0.035982303
0.27530912 -0.016469972 -0.09919262 -0.0071432497 -0.34530833 0.36715555 -0.19317529 0.027983865
0.68300146 0.26419133 -0.0128345 0.2149384 -0.63286895 0.21729693 -0.28457564 -0.31358206
-0.008850099 0.02783209 0.44174546 -0.3414884 -0.12040487 -0.1982348 -0.056842003 -0.26535663
-0.47926006 0.37772956 0.5831311 -0.28692088 -0.09656154 0.044747192 0.57193846 0.61662704
-0.03523378 -0.061494086 -0.38131747 -0.12162961 0.12962718 0.7141689 0.6693238 -0.47189957
0.015309601 0.004778427 0.13014975 -0.021919567 0.28715417 -0.16704255 0.5246031 0.5359799
0.23549736 0.52083635 -0.14871515 -0.082734324 0.12777159 -0.2951168 0.37048346 0.16909021
0.3128585 0.06828409 0.27892324 0.071713135 -0.036932684 0.7544836 0.17411152 0.3066458
-0.38384295 -0.10448955 -0.6178309 -0.19565094 0.19967218 0.09171322 0.045197807 0.0911362
-0.29178354 0.018558657 0.06980287 -0.0047401167 0.17639863 0.9681694 0.023489483 -0.0052776155
0.23474342 -0.17673688 0.62341374 0.08591605 0.2983831 -0.069288835 -0.09220151 0.17078929
-0.22434315 0.017741814 0.3305669 0.54943675 0.3275618 0.35530278 -0.3009354 -0.29631332
-0.2774889 -0.36162996 -0.4002231 -0.25098324 0.15838552 -0.2051187 0.26307213 -0.28056255
-0.06523403 -0.061650604 0.069469765 -0.17118353 0.10240328 0.287464 0.2304308 0.664393
0.19310084 0.3096452 -0.16572523 -0.46644697 0.0064794486 -0.4630467 0.37788132 0.2859957
0.30816293 -0.34377113 0.43523848 0.42587388 -0.4228813 0.35606995 0.08060074 0.20364323
-0.10144653 -0.115631945 -0.45105487 0.023517994 0.01652186 0.23685528 0.27232474 -0.17886645
0.2529164 -0.33780468 -0.27967495 0.3229088 0.49063095 0.7780684 0.17404717 0.1423146
0.14516579 -0.07642697 0.47030365 0.04623379 0.5097849 -0.04652389 -0.09566827 0.3965959
-0.50341624 -0.3376402 0.41654667 0.74705267 0.37205842 0.33543125 0.23057295 -0.34330615
-0.20957261 -0.19991703 0.077111185 -0.05402555 0.15275423 -0.1236714 0.5123622 -0.2006745

linears.2.bias f4 [64]
00000000: a5e4 00bd 446a e53d 2958 8cbd 1818 73bd
00000010: 177b 1cbd 0280 173d cd6d 4cbd 371c 583d
00000020: 7dd1 53bd 32a8 4bbd ded7 3d3d 4cc1 ee3d
00000030: 1b3e 653d c7ca 03bd 088d 1b3d a27a 8e3d
00000040: 8179 39bd ed5b 713d 9209 e43b 4c29 933d
00000050: 8c72 893d 2d15 553d 02d0 8f3d 2323 4bbd
00000060: cf3b 43bd 2c7a 8c3d 40f3 e6bd cf6a 983d
00000070: 1a13 fabc 6911 91bd 186a 5d3d f274 22be
00000080: 4f79 ed3b 7c79 29bd 584e c13c fe89 0f3c
00000090: d2c6 8a3d 925b 11bd c940 6f3d 6bf8 fcbd
000000a0: 83bb 3c3d 04cc 3b3c 2a28 1bbd 317c aa3c
000000b0: 6cc1 7e3d f428 9f3d 0390 8e3c 5bea e3bc
000000c0: 002c 28bd 5b84 793d bfc7 6abb f8e8 9fbd
000000d0: 27dd 8d3d 7d28 3abc e333 6d3a 7a7a 2fbd
000000e0: 42b3 8e3c 0844 243d 0d8a a4bc 49d9 9a3d
000000f0: 2ad2 c73d 1390 973d 9a1e 4c3d 4ed7 e03c
-0.031468052 0.11201909 -0.06852753 -0.05934915 -0.038203325 0.036987312 -0.0499094 0.052761283
-0.051713455 -0.04972095 0.046348445 0.11657962 0.05596743 -0.032175805 0.037976295 0.06956984
-0.04528189 0.058925558 0.0069591487 0.07185611 0.06711301 0.052022148 0.07022096 -0.049594056
-0.04766446 0.0685924 -0.11276865 0.07442247 -0.030526686 -0.07083399 0.054056257 -0.15864924
0.007247127 -0.041375622 0.023596928 0.008760927 0.06776203 -0.03548772 0.058411393 -0.123520695
0.046077263 0.011462215 -0.0378801 0.020811172 0.06219618 0.07771483 0.017402655 -0.02782171
-0.041057587 0.06091724 -0.0035824624 -0.07808107 0.06926947 -0.011362192 0.0009048564 -0.042841412
0.017419461 0.040103942 -0.020085359 0.07560975 0.097568825 0.07400527 0.04983387 0.027446415

linears.3.weight f4 [1, 64]
00000000: 65c0 e43e bb7a 6f3f b899 fc3e bfa1 c03e
00000010: 8d02 da3e ca11 1b3f 30d4 2c3f 1b56 afbe
00000020: f415 e73e eb43 b53d b33a 9cbe 8e40 a3be
00000030: b92e 8bbe b449 873e 1230 5abe 37dc 9f3f
00000040: 4a18 e23e cb10 9fbe 3db1 48bf d37c a8be
00000050: 0153 99be dfe2 02bf b644 0cbf d67d ae3e
00000060: f52b a23e 8f95 51be 5ccd 063f 42d2 16bf
00000070: bec5 b43e e4e3 f33d da7b 89be 7960 213f
00000080: 34d4 613e 13a7 c53e 97e3 f6be d4a9 d53e
00000090: 9a72 e3be 9cd8 0b3f bfd3 9ebe 373a 143f
000000a0: 1c51 fabe deaf d5be 8fd8 913e cb30 91be
000000b0: f729 5fbe 0723 93be 685b 29bf 8559 9c3e
000000c0: c350 233e 6505 4fbe a536 c1be 60eb 7d3e
000000d0: 883c 06bf e371 773e 50a4 b6be bc6a 593e
000000e0: 2b39 37be 5ae2 9fbe cbb3 d43e 2951 70be
000000f0: b9d3 36bf 0120 8b3f c9f6 88be 19f2 a4be
0.44678035 0.93546647 0.49336028 0.37623402 0.4258007 0.6057402 0.6751127 -0.3424538
0.45133936 0.08850845 -0.30513534 -0.3188519 -0.27184084 0.2642342 -0.213074 1.2489079
0.44159156 -0.310675 -0.78395444 -0.32907733 -0.2994614 -0.5112743 -0.54792345 0.3408038
0.31674162 -0.20467208 0.52657104 -0.5891458 0.35307115 0.11908701 -0.26852304 0.6303783
0.22053605 0.3860403 -0.48220512 0.4173113 -0.44423372 0.54627395 -0.31020924 0.5790133
-0.48890007 -0.4173574 0.28485534 -0.2835754 -0.21793352 -0.2873766 -0.661551 0.30537048
0.15948777 -0.20216902 -0.37737003 0.2479682 -0.52436113 0.24164538 -0.35672235 0.21232122
-0.17892902 -0.3122738 0.4154342 -0.2346846 -0.71416813 1.0869142 -0.26750782 -0.32215956
