Complete_thesis_stage_1_and_2/(d).Code_and_all_other_details/WAAM/PINN_CONSTANT_PROP/Sequential_trail_1/Models/model_epoch_28000.pt (torch, 38264 bytes, 7 tensors)

linears.0.weight f4 [64, 4]
-0.18307689 -0.032497644 0.04828328 0.4835839 0.6151008 -0.46928144 -0.46021324 -0.1652033
0.01236811 0.09680743 0.10461104 -0.16426492 0.30474147 0.5939417 0.2238413 0.14941476
0.21464041 -0.4213761 0.08222951 0.33487424 0.34322643 -0.20658243 0.123246595 0.18906043
0.41379118 -0.49287724 -0.23811573 -0.2961303 0.77820605 -0.50641865 0.06981145 0.41277286
-0.04743646 -0.19596067 0.028458465 -0.47974807 -0.023869341 0.35042664 -0.06695737 0.16679673
-0.258662 -0.122980766 0.18788508 0.28464258 0.3479654 -0.5152343 0.17110139 -0.11796418
0.19193155 0.769707 -0.029916305 -0.12651487 -0.63272226 0.75804454 -0.02932002 0.3905265
-0.4318889 -0.027892906 0.21172161 0.13076521 -0.24225664 0.42300427 -0.037649598 0.39747193
0.33999896 0.19919926 0.2797081 -0.14768863 -0.23006193 -0.326697 -0.14401084 -0.19282226
-0.23894875 0.27689895 -0.29983315 -0.33483016 0.30783957 -0.4389596 0.11044307 0.28093955
0.24431738 0.103028 0.06390809 0.34444687 -0.8202389 0.1147208 0.5999652 0.2656951
-0.25001058 -0.27414513 -0.0004777193 -0.297042 -0.24825545 -0.3308779 -0.037051436 0.5601274
0.21034662 -0.010713507 0.010837726 -0.4146089 0.085686125 0.24144435 -0.0844905 0.12447792
-0.5633089 -0.005258199 0.39633393 -0.3415893 -0.44949558 -0.003267473 0.07535188 0.28772607
0.37887904 -0.32358733 0.19994532 -0.3248029 0.2756729 0.14470914 0.062070426 -0.283989
-0.15134987 -0.20841679 -0.31343946 -0.35770065 -0.68312675 -0.25559413 -0.82174444 0.55585253
-0.106602974 -0.021012815 0.015978431 0.6419991 0.3809877 -0.07893644 0.19375567 -0.25099313
0.12070772 0.013834058 -0.23853672 -0.080372594 0.24850489 -0.0019228661 0.2334289 -0.2548478
0.60963786 1.0505668 -0.3211835 -0.30577353 -0.12330382 -0.009553482 0.11124619 -0.082166806
-0.25108135 -0.010583307 -0.30101255 -0.27548075 0.62652206 -0.41291407 0.106987104 -0.6893209
0.27625212 -0.2743669 0.018641522 -0.31510285 0.10529558 0.020894796 0.23008117 -0.076923095
-0.39732483 -0.14647307 -0.09268789 0.44046852 -0.0076965177 0.3528063 -0.0822431 0.2970587
0.23195708 0.29977039 0.029877063 -0.18442206 -0.23489903 0.04243381 0.16660753 0.09328213
0.1380673 -0.06323312 -0.15173964 -0.1453556 -0.3678367 0.10415825 -0.09943549 -0.24834692
-0.41397116 -0.15741816 -0.21013342 0.18455516 -0.12722789 0.2916113 -0.20426428 0.20009324
0.07291782 0.61290765 -0.29038802 0.18235148 0.3486037 1.0161283 0.40209478 0.2992911
0.25422928 -0.014169794 0.04151888 -0.10449585 0.24409135 -0.68746823 0.05112578 -0.3704046
-0.3574768 -0.18586537 -0.1869847 0.29769602 -0.14080693 -0.12830113 -0.23479205 0.081564195
0.2289126 0.102436386 -0.17788552 -0.349798 0.41558954 -0.080718905 -0.21903606 -0.24007525
0.3677507 0.4593369 -0.030916544 -0.38901475 -0.19484565 1.4476945 -0.10061925 -0.04359686
0.056541633 -0.023338756 -0.12232538 0.50140816 0.6917572 0.011423601 0.0131697375 0.16356428
-0.46574354 -0.043139458 -0.14716184 0.00037822666 0.4233996 1.3642485 -0.1580338 -0.3840965
00000000: 8278 3bbe 401c 05bd b0c4 453d 4f98 f73e
00000010: 3f77 1d3f a845 f0be 12a1 ebbe 0e2b 29be
00000020: 9da3 4a3c f942 c63d 503e d63d 1035 28be
00000030: 1307 9c3e 900c 183f a736 653e 2f00 193e
00000040: b2ca 5b3e 9cbe d7be f267 a83d a374 ab3e
00000050: 60bb af3e 588a 53be b668 fc3d 0f99 413e
00000060: 70dc d33e 685a fcbe 9cd4 73be 649e 97be
00000070: 8338 473f a7a4 01bf 4ef9 8e3d f756 d33e
00000080: bc4c 42bd eaa9 48be ba21 e93c 8aa1 f5be
00000090: a389 c3bc 1f6b b33e f220 89bd c3cc 2a3e
000000a0: 586f 84be 57dd fbbd f264 403e acbc 913e
000000b0: 8528 b23e 65e6 03bf 3435 2f3e 3497 f1bd
000000c0: b489 443e 850b 453f 0a13 f5bc 1d8d 01be
000000d0: 16fa 21bf 350f 423f 8a30 f0bc 17f3 c73e
000000e0: 8b20 ddbe aa7f e4bc 8dcd 583e 51e7 053e
000000f0: 2012 78be 0494 d83e 7736 1abd 7181 cb3e
00000100: 5814 ae3e e4fa 4b3e e635 8f3e b03b 17be
00000110: 5b95 6bbe d444 a7be 9477 13be 3373 45be
00000120: fbae 74be b3c5 8d3e bb83 99be dc6e abbe
00000130: 269d 9d3e 50bf e0be fa2f e23d 4fd7 8f3e
00000140: 562e 7a3e 5800 d33d 3fe2 823d 575b b03e
00000150: 2dfb 51bf bdf2 ea3d 5297 193f 3009 883e
00000160: 6301 80be c05c 8cbe 6676 fab9 e415 98be
00000170: ad36 7ebe d468 a9be 3fc3 17bd 8264 0f3f
00000180: 1b65 573e b587 2fbc b890 313c 9e47 d4be
00000190: 357c af3d 303d 773e 5b09 adbd 48ee fe3d
000001a0: 0335 10bf f84c acbb 48ec ca3e cbe4 aebe
000001b0: 4924 e6be 1a23 56bb 1652 9a3d d550 933e
000001c0: 6ffc c13e 3dad a5be 77be 4c3e 914c a6be
000001d0: 0025 8d3e a22e 143e 8f3d 7e3d 0267 91be
000001e0: 76fb 1abe 366b 55be 237b a0be 8a24 b7be
000001f0: 65e1 2ebf 3cdd 82be d85d 52bf 5a4c 0e3f
00000200: a952 dabd 1123 acbc 33e5 823c 0e5a 243f
00000210: d210 c33e 6ea9 a1bd e367 463e 2c82 80be
00000220: 9c35 f73d 3fa8 623c f842 74be 639a a4bd
00000230: 1178 7e3e ae08 fcba fc07 6f3e 697b 82be
00000240: 3a11 1c3f f978 863f 2a72 a4be 598e 9cbe
00000250: b786 fcbd 3586 1cbc 0bd5 e33d 1247 a8bd
00000260: bc8d 80be 9b65 2dbc 511e 9abe d00b 8dbe
00000270: c063 203f 7969 d3be 0e1c db3d 5677 30bf
00000280: eb70 8d3e d179 8cbe 1bb6 983c 2955 a1be
00000290: 36a5 d73d 902b ab3c 669a 6b3e db89 9dbd
000002a0: 296e cbbe 09fd 15be 26d3 bdbd 1785 e13e
000002b0: 1233 fcbb 07a3 b43e 126f a8bd 1418 983e
000002c0: 2886 6d3e 817b 993e bec0 f43c 23d9 3cbe
000002d0: 5f89 70be 13cf 2d3d 2a9b 2a3e b40a bf3d
000002e0: 8461 0d3e 5e80 81bd a361 1bbe 19d8 14be
000002f0: 1855 bcbe ec50 d53d d6a4 cbbd a84e 7ebe
00000300: 07f4 d3be 3a32 21be 372d 57be 07fc 3c3e
00000310: 0748 02be 144e 953e a82a 51be 3ee5 4c3e
00000320: f055 953d 84e7 1c3f bdad 94be 59ba 3a3e
00000330: 2f7c b23e 7e10 823f 5edf cd3e af3c 993e
00000340: 572a 823e 6c28 68bc b30f 2a3d ec01 d6bd
00000350: 15f3 793e ebfd 2fbf 4469 513d aca5 bdbe
00000360: 3307 b7be 7e53 3ebe eb78 3fbe 9d6b 983e
00000370: b12f 10be 5f61 03be 546d 70be 210b a73d
00000380: 1168 6a3e 2bca d13d 9f27 36be b918 b3be
00000390: 27c8 d43e f44f a5bd fd4a 60be 49d6 75be
000003a0: d249 bc3e 352e eb3e b144 fdbc f12c c7be
000003b0: 9e85 47be 0e4e b93f 7711 cebd 9f92 32bd
000003c0: 3398 673d eb30 bfbc bb85 fabd 495c 003f
000003d0: 0017 313f 0e2a 3b3c e2c5 573c 657d 273e
000003e0: f075 eebe 00b3 30bd 98b1 16be b94c c639
000003f0: d5c7 d83e b29f ae3f 9dd3 21be 4ca8 c4be

linears.0.bias f4 [64]
0.27722156 0.74891394 0.016647104 0.1582068 0.3402966 0.24033909 0.07601732 0.94304454
-0.5107776 0.0028004353 -0.026779715 0.11491669 0.2624767 0.11256227 -0.012448031 0.025854351
0.10568134 -0.3179583 -0.13162386 0.21658053 0.35879144 0.13664973 -0.25482243 0.35185054
-0.430102 0.045418344 -1.1664761 -0.050784674 -0.02465797 -0.00044527266 -0.025666589 0.10100994
0.5290299 0.17737131 0.016637938 0.055345967 -0.116009526 -0.0221684 -0.100983344 -0.22122909
0.031227967 0.042722523 0.103845015 0.0004210941 0.11065861 0.10373974 -0.17929904 -0.25766268
-0.05135474 0.01592455 0.059772704 0.24350373 0.14001657 -0.08537566 -0.006883096 -0.031633127
-0.06425237 -0.06565349 0.033749197 -0.31319255 0.649073 0.083337404 -0.15352786 -0.08895912
00000000: fcef 8d3e d3b8 3f3f 825f 883c f700 223e
00000010: 5b3b ae3e 731b 763e f8ae 9b3d 5e6b 713f
00000020: 52c2 02bf 8287 373b 2261 dbbc 7159 eb3d
00000030: 5963 863e 0c87 e63d d4f2 4bbc 81cc d33c
00000040: 756f d83d 6ecb a2be 68c8 06be 49c7 5d3e
00000050: 83b3 b73e e8ed 0b3e 1678 82be c125 b43e
00000060: 5436 dcbe 9608 3a3d 174f 95bf 9703 50bd
00000070: 83ff c9bc 7c73 e9b9 bd42 d2bc 4dde ce3d
00000080: 816e 073f d3a0 353e 494c 883c 74b2 623d
00000090: 6796 edbd 819a b5bc 5bd0 cebd e189 62be
000000a0: cbd1 ff3c d0fd 2e3d b2ac d43d 4bc6 dc39
000000b0: fba0 e23d 8075 d43d 2b9a 37be 5dec 83be
000000c0: 5959 52bd 3474 823c 39d4 743d 0b59 793e
000000d0: 8160 0f3e 6fd9 aebd 988b e1bb bd91 01bd
000000e0: bf96 83bd 5675 86bd 993c 0a3d c65a a0be
000000f0: a629 263f cdac aa3d 6836 1dbe 3330 b6bd

linears.1.weight f4 [64, 64]
0.12972456 -0.2184764 -0.14391221 0.1334273 -0.04214948 0.22238119 -0.097786196 0.21827886
-0.08647552 0.022621622 -0.013678987 -0.04261977 0.016942536 0.24408787 0.07035162 0.1719705
0.15258723 -0.1368625 -0.25193727 -0.05465922 0.11390199 -0.02660725 -0.16193374 0.0051252954
-0.2503382 0.20299456 -0.19791836 0.32721955 -0.057429116 -0.24471721 -0.067102894 -0.34707886
0.2243649 -0.03440288 -0.048001073 0.16834016 0.078094944 -0.11939286 -0.27135634 -0.33437634
0.114539154 0.08931409 0.23573163 -0.15006952 -0.09689014 0.022888623 -0.18710747 0.03675613
-0.057684213 0.13725889 0.123441644 0.013605747 -0.21312904 -0.05359698 0.10739085 0.07636117
-0.20884083 -0.29134113 0.037289187 0.062120542 0.013597591 -0.022074014 0.15772308 -0.035200004
-1.0820115 -0.9527012 0.15562521 -0.7937358 -0.86889887 -0.45819026 0.0688893 -1.1670781
0.94872004 -0.18824442 0.12161022 -0.22570817 -0.13225062 -0.21564819 0.013635292 0.011360301
-0.27163044 0.4037245 0.08750771 -0.47415477 -0.5368481 -0.15744749 0.3221484 -0.65437007
0.66457635 -0.15015876 1.4107546 0.35933346 0.27680182 0.16863795 0.0053502 0.6888425
-1.4822177 0.03506131 -0.03205106 0.163793 0.098771945 0.21252108 0.26645932 0.4926425
0.026950927 0.23828612 -0.054834314 -0.15284936 -0.22987363 0.098053776 0.43868846 0.4827702
0.053114947 -0.06538832 0.09490503 -0.88196725 -0.29877615 0.36599708 -0.22939926 -0.2505119
0.16748223 0.0023925889 -0.006572196 0.086704575 -1.3449056 0.094072 0.6029125 0.15859938
-0.13415411 0.2963944 -0.077053346 0.018786626 -0.17981237 -0.10598511 0.044487495 0.037095442
0.18878911 0.14677005 -0.19228666 0.23050886 0.37525052 -0.50509197 -0.115823664 -0.20804301
0.048885826 -0.11089995 0.15246505 -0.030219108 0.13806282 -0.23137112 0.08659533 -0.32200673
0.4925083 0.10354849 -0.15704216 -0.72774494 0.3156652 0.07693023 0.14606683 -0.4393812
-0.15349656 0.28037047 0.059776124 -0.030743403 0.202119 0.03588192 -0.19208542 0.22741844
0.10096891 -0.05343885 -0.011943792 -0.004514244 0.1069278 -0.013881552 0.32878664 -0.33838913
-0.50531024 0.19388755 0.06011435 0.019032504 0.45047256 -0.048930787 -0.2207196 -0.09707139
0.17699705 0.45998105 0.18738636 -0.17778464 -0.07104753 -0.0009100148 -0.29586756 0.032752242
-0.7781984 -0.2172858 0.037010357 -0.2830168 -0.69835687 -0.29161632 0.039456178 -0.39515364
1.0235078 -0.1306982 -0.2833131 -0.12979634 0.18780296 -0.44637972 0.04068382 -0.35875544
0.228392 -0.019638535 0.23135024 -0.19170447 -0.4301465 -0.044781104 0.29472715 -0.78835475
0.33819112 -0.118228264 0.77327394 0.027008869 0.05067876 0.23658744 0.16990052 0.47073776
-1.1312947 0.017435497 0.084813885 -0.009158426 0.32389498 -0.03008582 0.052001033 0.86392933
-0.008578397 0.009618453 -0.3595138 -0.13590121 0.15150636 0.12756659 0.20713006 0.106902204
-0.18638204 -0.04250924 -0.14268616 -0.46366554 0.07548102 0.36263537 -0.27579495 -0.012402952
0.311487 0.30446425 0.39520234 0.16683976 -0.9207063 -0.004784989 0.011918043 -0.073829815
00000000: 84d6 043e 47b8 5fbe b95d 13be 2ba1 083e
00000010: efa4 2cbd e5b7 633e 2144 c8bd 7e84 5f3e
00000020: 141a b1bd fb50 b93c d41d 60bc 1192 2ebd
00000030: 13cb 8a3c 2cf2 793e 8314 903d 0919 303e
00000040: d43f 1c3e af25 0cbe ecfd 80be 59e2 5fbd
00000050: 7245 e93d 73f7 d9bc f5d1 25be 18f2 a73b
00000060: 542c 80be cedd 4f3e 1cab 4abe 5289 a73e
00000070: cb3a 6bbd 2697 7abe 3e6d 89bd 52b4 b1be
00000080: eabf 653e 09ea 0cbd c69c 44bd 5d61 2c3e
00000090: 3ef0 9f3d 3e84 f4bd 38ef 8abe 6033 abbe
000000a0: 8193 ea3d 4eea b63d a263 713e d3ab 19be
000000b0: 566e c6bd ec80 bb3c 1a99 3fbe 998d 163d
000000c0: 4846 6cbd 988d 0c3e f9ce fc3d a4ea 5e3c
000000d0: 803e 5abe 8288 5bbd bcef db3d 3f63 9c3d
000000e0: 5fda 55be aa2a 95be 8cbc 183d 1c72 7e3d
000000f0: 6ec8 5e3c 90d4 b4bc 2982 213e e12d 10bd
00000100: 5a7f 8abf 3ae4 73bf 375c 1f3e 4532 4bbf
00000110: 2870 5ebf ea97 eabe d515 8d3d d162 95bf
00000120: 51df 723f 25c3 40be c70e f93d 0b20 67be
00000130: b56c 07be e1d2 5cbe 8f66 5f3c 8e20 3a3c
00000140: 2513 8bbe fab4 ce3e 3e37 b33d 6ac4 f2be
00000150: e16e 09bf ea39 21be a3f0 a43e cc84 27bf
00000160: ad21 2a3f 38c3 19be 9b93 b43f 8efa b73e
00000170: f8b8 8d3e 6daf 2c3e bb50 af3b fb57 303f
00000180: 4fb9 bdbf 739c 0f3d f947 03bd 5ab9 273e
00000190: f248 ca3d 209f 593e 5b6d 883e a33b fc3e
000001a0: 31c8 dc3c 4701 743e f299 60bd 8b84 1cbe
000001b0: fe63 6bbe 6bd0 c83d c69b e03e a82d f73e
000001c0: 0f8f 593d 50ea 85bd 925d c23d 9bc8 61bf
000001d0: 30f9 98be f863 bb3e a4e7 6abe 1943 80be
000001e0: 7680 2b3e fbcc 1c3b 935b d7bb 2b92 b13d
000001f0: de25 acbf d2a8 c03d 7958 1a3f e067 223e
00000200: b25f 09be 02c1 973e 25ce 9dbd 69e6 993c
00000210: bc20 38be b90e d9bd 8538 363d 64f1 173d
00000220: ef51 413e e34a 163e cbe6 44be 840a 6c3e
00000230: d620 c03e b54d 01bf f534 edbd 3a09 55be
00000240: 813c 483d 831f e3bd cc1f 1c3e 108e f7bc
00000250: 5760 0d3e 8dec 6cbe e458 b13d 11de a4be
00000260: 0c2a fc3e 3b11 d43d a9cf 20be 7e4d 3abf
00000270: de9e a13e 998d 9d3d 8b92 153e 93f6 e0be
00000280: 342e 1dbe b88c 8f3e cfd7 743d 97d9 fbbc
00000290: 48f8 4e3e ecf8 123d 0ab2 44be 61e0 683e
000002a0: cac8 ce3d b2e2 5abd e5af 43bc 39ec 93bb
000002b0: f6fc da3d 736f 63bc b956 a83e 5741 adbe
000002c0: 035c 01bf 758a 463e 773a 763d 0eea 9b3c
000002d0: 57a4 e63e a66b 48bd 5204 62be 5dcd c6bd
000002e0: b73e 353e a382 eb3e 36e2 3f3e 2d0d 36be
000002f0: 5e81 91bd 0f8e 6eba f47b 97be 3727 063d
00000300: 0338 47bf 2b80 5ebe 2c98 173d 94e7 90be
00000310: 84c7 32bf bc4e 95be cd9c 213d 9451 cabe
00000320: 4e02 833f c0d5 05be 6a0e 91be 55e9 04be
00000330: 6b4f 403e e28b e4be 14a4 263d cbae b7be
00000340: 98df 693e fee0 a0bc 14e7 6c3e 2d4e 44be
00000350: 293c dcbe 646c 37bd 7ae6 963e 9ed1 49bf
00000360: 6327 ad3e a921 f2bd 48f5 453f b441 dd3c
00000370: 8894 4f3d fa43 723e 67fa 2d3e 8a04 f13e
00000380: 44ce 90bf e3d4 8e3c e7b2 ad3d 390d 16bc
00000390: 90d5 a53e 8a76 f6bc 09ff 543d 792a 5d3f
000003a0: 688c 0cbc b796 1d3c 3112 b8be b029 0bbe
000003b0: 7c24 1b3e d1a0 023e e719 543e 8bef da3d
000003c0: efda 3ebe 2b1e 2ebd 521c 12be 9265 edbe
000003d0: cb95 9a3d 58ab b93e ff34 8dbe c035 4bbc
000003e0: 397b 9f3e bde2 9b3e f657 ca3e 0bd8 2a3e
000003f0: 68b3 6bbf 66cb 9cbb e543 433c 1634 97bd

linears.1.bias f4 [64]
-0.005210411 -0.14159928 -0.040003512 -0.050099764 -0.09683363 -0.10018864 -0.5788227 -0.08780267
-0.038313717 -0.11259923 0.07478368 0.08496786 0.08883107 -0.56923753 -0.036683783 -0.021782327
0.049423195 -0.0029966026 0.007054507 -0.0108456435 -0.009875977 -0.14854914 -0.12534653 -0.14733122
0.05200097 -0.008383766 0.14316574 0.049981464 -0.04148624 0.0024880823 -0.09174027 0.02506887
0.0461603 0.04975517 0.010566683 0.018194225 -0.019525617 -0.2245674 -0.03674835 0.02284735
-0.017078916 0.03145845 0.026822967 -0.074341565 -0.019680014 0.026387298 -0.3410282 -0.051697142
-0.41856065 0.027182441 0.014586596 0.04789037 0.044720642 -0.092006974 0.19810498 -0.0030090953
0.05551073 0.023613233 0.05810476 0.049177878 0.010126204 0.12299719 -0.1479818 0.03078352
00000000: 18bc aabb 67ff 10be b9da 23bd 6935 4dbd
00000010: b650 c6bd b42f cdbd b92d 14bf e3d1 b3bd
00000020: d8ee 1cbd 6d9a e6bd 3028 993d a103 ae3d
00000030: 10ed b53d 8db9 11bf bc41 16bd da70 b2bc
00000040: fa6f 4a3d a662 44bb 7e29 e73b edb1 31bc
00000050: dace 21bc 441d 18be d75a 00be ffdd 16be
00000060: f8fe 543d 105c 09bc 0a9a 123e 5db9 4c3d
00000070: 7aed 29bd 180f 233b 53e2 bbbd 3b5d cd3c
00000080: 9512 3d3d 14cc 4b3d e11f 2d3c 0e0c 953c
00000090: 30f4 9fbc fff4 65be 7085 16bd 5e2a bb3c
000000a0: 15e9 8bbc 93da 003d d7bb db3c 6440 98bd
000000b0: fb37 a1bc 2d2a d83c 409b aebe 62c0 53bd
000000c0: 954d d6be b6ad de3c 9efc 6e3c b128 443d
000000d0: fe2c 373d 276e bcbd 08dc 4a3e 3e34 45bb
000000e0: 385f 633d 8a70 c13c 42ff 6d3d be6e 493d
000000f0: 61e8 253c f3e5 fb3d 8a88 17be b82d fc3c

linears.2.weight f4 [64, 64]
0.164006 -0.1413496 0.015936714 0.14268361 0.0464417 -0.0003211046 0.007951232 0.35941017
-0.19521537 0.3505856 -0.18777293 -0.252672 -0.06448289 -0.04812947 -0.11168971 -0.082640246
-0.05212213 -0.1392253 -0.23378192 -0.1217638 0.037969347 0.35280895 -0.040441956 0.024642905
-0.06532464 0.13716051 -0.15721685 0.13990542 -0.08788167 0.24687791 0.19697493 0.119619735
0.26100156 0.09515085 -0.16267806 -0.023943553 0.15019909 0.16314682 0.17236616 -0.30165228
0.22406733 -0.072888754 -0.0751117 -0.15014336 -0.064256206 0.07546934 -0.143437 -0.15208708
-0.20676129 0.10196965 0.18720084 -0.022890458 -0.1014989 -0.06734949 0.43890622 -0.14961363
-0.21624593 -0.12366249 -0.046848256 0.010401676 0.27454665 -0.2136565 -0.0674532 -0.2531228
0.23300537 -0.09278649 -0.46904916 0.03626276 -0.19214965 -0.42365274 0.22889677 -0.1299896
-0.066791534 -0.33281463 0.13162608 0.1870309 0.12708917 -0.3549758 -0.01819204 0.045114707
0.3338151 -0.37498042 -0.27790824 -0.4557468 -0.113793045 0.6485523 -0.13060272 -0.034554735
0.33701038 -0.04437109 -0.10566414 -0.035069156 -0.24507476 0.3718568 -0.033867154 0.07655883
0.4974587 0.19477929 -0.014868387 0.17993037 -0.55198026 0.3627754 -0.35405838 -0.26351622
-0.0030228356 -0.020075645 0.49197894 -0.32893342 -0.11242394 -0.18048742 -0.10192921 -0.22441377
-0.4892981 0.37229508 0.5901564 -0.3020657 0.031140609 -0.024761684 0.5738488 0.45741838
-0.04265951 -0.015335593 -0.36987194 -0.08286707 0.13854602 0.58943635 0.5468023 -0.43709278
0.008210258 -0.008776498 0.14563152 -0.035360392 0.28419948 -0.15834637 0.51624256 0.5273514
0.22168091 0.51223236 -0.13994259 -0.075698875 0.13783038 -0.2982172 0.36117712 0.14539479
0.32430205 0.0860966 0.2830391 0.0699436 -0.036615636 0.7268795 0.15369642 0.29856405
-0.37145153 -0.111418195 -0.6013295 -0.194713 0.1840249 0.06407792 -0.002648717 0.064579226
-0.28495607 0.034644213 0.06653888 -0.008948094 0.19144148 0.94995254 -0.006308981 -0.037543084
0.23401882 -0.17429633 0.57660764 0.08621088 0.293433 -0.069538966 -0.10800448 0.1641353
-0.23433483 -0.09617248 0.32122925 0.549619 0.33201677 0.34804526 -0.318759 -0.2941823
-0.2732867 -0.35804975 -0.37128702 -0.24585852 0.14818452 -0.22757539 0.24823482 -0.3366322
-0.07723024 -0.061854277 0.09106201 -0.16988327 0.100093335 0.28954738 0.23043261 0.6666314
0.1952719 0.3106203 -0.16292632 -0.466246 0.006030698 -0.4648098 0.36675373 0.24695754
0.30855304 -0.33858517 0.42915237 0.42938435 -0.40559265 0.3498371 0.089533284 0.19884972
-0.09666373 -0.12392935 -0.44725585 0.012271538 0.008637703 0.21349028 0.2630178 -0.20240358
0.23564477 -0.3192782 -0.26699355 0.30659488 0.48515165 0.7942019 0.11577405 0.14872918
0.13254298 -0.079109 0.4504342 0.047241252 0.48546278 -0.03683776 -0.098224044 0.3981939
-0.50306225 -0.34108707 0.42387456 0.74875575 0.3581937 0.33843252 0.22674064 -0.34509882
-0.21149512 -0.1938159 0.08963663 -0.048386052 0.15088102 -0.15715457 0.5313622 -0.23304746
00000000: 30f1 273e f3bd 10be b68d 823c a71b 123e
00000010: a739 3e3d ee59 a8b9 e245 023c 9c04 b83e
00000020: 8ae6 47be f57f b33e 8c47 40be 395e 81be
00000030: 9b0f 84bd 6823 45bd 93bd e4bd 4a3f a9bd
00000040: 047e 55bd 1491 0ebe 8764 6fbe 4d5f f9bd
00000050: bf85 1b3d 60a3 b43e 77a6 25bd ebdf c93c
00000060: edc8 85bd ce73 0c3e 74fd 20be 5e43 0f3e
00000070: 4efb b3bd 90cd 7c3e ccb3 493e 31fb f43d
00000080: ffa1 853e 73de c23d 1495 26be 4525 c4bc
00000090: cacd 193e f60f 273e c180 303e 2b72 9abe
000000a0: e871 653e b346 95bd 2ad4 99bd 2ebf 19be
000000b0: c298 83bd ab8f 9a3d 26e1 12be b7bc 1bbe
000000c0: 3bb9 53be 77d5 d03d 94b1 3f3e c584 bbbc
000000d0: a8de cfbd 88ee 89bd 51b8 e03e 5134 19be
000000e0: 936f 5dbe c242 fdbd f5e3 3fbd cb6b 2a3c
000000f0: 6191 8c3e c5c8 5abe e724 8abd 5099 81be
00000100: f698 6e3e d806 bebd 3627 f0be 4388 143d
00000110: e1c2 44be 03e9 d8be ea63 6a3e fe1b 05be
00000120: 00ca 88bd ae66 aabe fdc8 063e 0785 3f3e
00000130: aa23 023e 63bf b5be 7907 95bc 33ca 383d
00000140: d0e9 aa3e 6ffd bfbe fd49 8ebe a557 e9be
00000150: 540c e9bd 8607 263f b8bc 05be 4489 0dbd
00000160: a08c ac3e 76be 35bd 7166 d8bd ada4 0fbd
00000170: e1f4 7abe 0464 be3e 49b8 0abd e0ca 9c3d
00000180: e8b2 fe3e 3974 473e 899a 73bc ab3f 383e
00000190: 944e 0dbf b2bd b93e 2447 b5be 99eb 86be
000001a0: c41a 46bb ae75 a4bc aae4 fb3e f669 a8be
000001b0: 863e e6bd b2d1 38be 43c0 d0bd b9cc 65be
000001c0: 4885 fabe 769d be3e 7d14 173f 5ba8 9abe
000001d0: 971a ff3c 04d9 cabc c1e7 123f be32 ea3e
000001e0: bdbb 2ebd 2442 7bbc db5f bdbe 36b6 a9bd
000001f0: 02df 0d3e 4de5 163f 3cfb 0b3f a0ca dfbe
00000200: 5184 063c 4dcb 0fbc 6e20 153e 0fd6 10bd
00000210: 9882 913e 8d25 22be 7928 043f 8000 073f
00000220: 5200 633e a921 033f 1c4d 0fbe 0308 9bbd
00000230: 6823 0d3e edaf 98be 35ec b83e 5fe2 143e
00000240: eb0a a63e 6a53 b03d 80ea 903e 973e 8f3d
00000250: 47fa 15bd c614 3a3f 9862 1d3e 63dd 983e
00000260: e52e bebe 392f e4bd bbf0 19bf d862 47be
00000270: 0671 3c3e 493b 833d 1996 2dbb 1d42 843d
00000280: c3e5 91be 17e7 0d3d 8945 883d 079b 12bc
00000290: 3c09 443e 1730 733f 92bb cebb c7c6 19bd
000002a0: a1a2 6f3e bd7a 32be 8f9c 133f 548f b03d
000002b0: da3c 963e 726a 8ebd 7431 ddbd 1613 283e
000002c0: 78f5 6fbe 14f6 c4bd 2978 a43e d5b3 0c3f
000002d0: 1afe a93e fd32 b23e 6134 a3be 109f 96be
000002e0: 3cec 8bbe 4c52 b7be 5519 bebe 56c2 7bbe
000002f0: afbd 173e 8609 69be 4531 7e3e 0e5b acbe
00000300: e32a 9ebd e95a 7dbd b87e ba3d e1f5 2dbe
00000310: bcfd cc3d 8e3f 943e 87f6 6b3e 5ba8 2a3f
00000320: 5bf5 473e a009 9f3e 28d6 26be ccb7 eebe
00000330: 299d c53b 8dfb edbe 25c7 bb3e 70e2 7c3e
00000340: aafa 9d3e 095b adbe dcb9 db3e 44d8 db3e
00000350: d7a9 cfbe d91d b33e 3a5d b73d 439f 4b3e
00000360: a2f7 c5bd acce fdbd b8fe e4be 900e 493c
00000370: 2785 0d3c 329d 5a3e 45aa 863e e242 4fbe
00000380: dd4c 713e 6f78 a3be 61b3 88be 01fa 9c3e
00000390: cc65 f83e d150 4b3f f21a ed3d 764c 183e
000003a0: 59b9 073e e603 a2bd 509f e63e 0b80 413d
000003b0: 948e f83e 31e3 16bd b029 c9bd 12e0 cb3e
000003c0: b0c8 00bf f7a2 aebe 1606 d93e 75ae 3f3f
000003d0: 2a65 b73e 0747 ad3e b32e 683e cbb0 b0be
000003e0: 2d92 58be ad77 46be 6993 b73d 7430 46bd
000003f0: 8e80 1a3e 21ed 20be 5a07 083f fea3 6ebe

linears.2.bias f4 [64]
-0.02586731 0.07794419 -0.06289142 -0.0582372 -0.03453703 0.029812224 -0.04324174 0.0776427
-0.047684174 -0.044306733 0.0383211 0.036413886 0.04728165 -0.03656608 0.030756745 0.07716135
-0.04216389 0.05308099 0.003657616 0.056764394 0.053592302 0.04176672 0.06866175 -0.048936933
-0.053292304 0.05587025 -0.11315908 0.07171934 -0.030799083 -0.055385575 0.055758704 -0.14815822
-0.0023673133 -0.03809294 0.025821963 0.0002685883 0.05852677 -0.040644515 0.05136545 -0.071545914
0.04038535 0.0078026173 -0.039502252 0.03851372 0.052568324 0.06410265 0.018801397 -0.028645506
-0.039656322 0.04976749 -0.017763043 -0.073012 0.062048517 -0.011329668 -0.0086972965 -0.047516827
0.016489036 0.034343712 -0.026645456 0.06070913 0.09125111 0.12602286 0.04579955 0.027396433
00000000: aee7 d3bc 34a1 9f3d 38cd 80bd 218a 6ebd
00000010: b376 0dbd c438 f43c 401e 31bd 2303 9f3d
00000020: 7b50 43bd fa7a 35bd 96f6 1c3d ba26 153d
00000030: 67aa 413d 50c6 15bd 92f5 fb3c c506 9e3d
00000040: 0bb4 2cbd 746b 593d 9db4 6f3b c881 683d
00000050: 9a83 5b3d 9513 2b3d 889e 8c3d 1872 48bd
00000060: 0849 5abd 34d8 643d f3bf e7bd 97e1 923d
00000070: 5c4e fcbc fcdb 62bd 3d63 643d cab6 17be
00000080: ed24 1bbb 5807 1cbd 9588 d33c 50d1 8c39
00000090: c4b9 6f3d dd7a 26bd 9464 523d aa86 92bd
000000a0: 1c6b 253d 19ad ff3b 1dcd 21bd 90c0 1d3d
000000b0: e251 573d 4048 833d 6305 9a3c fba9 eabc
000000c0: ab6e 22bd ffd8 4b3d cd83 91bc 5187 95bd
000000d0: 9626 7e3d 12a0 39bc 1b7f 0ebc 01a1 42bd
000000e0: 0414 873c feab 0c3d 9247 dabc 23aa 783d
000000f0: dde1 ba3d 230c 013e 4f98 3b3d 7c6e e03c

linears.3.weight f4 [1, 64]
0.43952492 0.92758393 0.46949524 0.3965607 0.42603293 0.6101624 0.671709 -0.39589068
0.4378922 0.08519463 -0.30402148 -0.29567486 -0.26978743 0.2617463 -0.19550388 1.2001182
0.44344166 -0.3068169 -0.7683359 -0.32665372 -0.29634997 -0.5095361 -0.53538543 0.32651165
0.3140714 -0.20509602 0.50117743 -0.57786083 0.35475743 0.11656955 -0.27948084 0.57504123
0.21136384 0.38153607 -0.5151506 0.40773672 -0.44100004 0.5144992 -0.30739644 0.55523974
-0.48609972 -0.41086987 0.27668744 -0.25581753 -0.21492293 -0.28356507 -0.6588442 0.3959607
0.15019047 -0.19907093 -0.3743632 0.23908293 -0.52052754 0.23472549 -0.34334245 0.19879435
-0.1706578 -0.30759355 0.40771097 -0.2315893 -0.69461846 1.0403358 -0.2610281 -0.30628452
00000000: 6909 e13e 2476 6d3f ae61 f03e 010a cb3e
00000010: fd20 da3e 9a33 1c3f 1ff5 2b3f 2fb2 cabe
00000020: 6833 e03e 867a ae3d b4a8 9bbe b262 97be
00000030: 9421 8abe 9c03 863e 2b32 48be 799d 993f
00000040: c90a e33e 1b17 9dbe a9b1 44bf 283f a7be
00000050: 2fbb 97be f570 02bf 050f 09bf 892c a73e
00000060: f7cd a03e b104 52be 2a4d 003f b0ee 13bf
00000070: c4a2 b53e 04bc ee3d 1d18 8fbe e735 133f
00000080: c36f 583e b258 c33e e9e0 03bf dec2 d03e
00000090: c2ca e1be 38b6 033f 1163 9dbe 3124 0e3f
000000a0: 10e2 f8be 895d d2be faa9 8d3e 84fa 82be
000000b0: c214 5cbe 712f 91be 03aa 28bf 5cbb ca3e
000000c0: 88cb 193e 40d9 4bbe 89ac bfbe 28d2 743e
000000d0: 4b41 05bf e15b 703e 95ca afbe bf90 4b3e
000000e0: ebc0 2ebe e77c 9dbe 7ebf d03e bf25 6dbe
000000f0: 84d2 31bf b929 853f 7aa5 85be 53d1 9cbe
