Complete_thesis_stage_1_and_2/(d).Code_and_all_other_details/WAAM/PINN_CONSTANT_PROP/Sequential_trail_1/Models/model_epoch_19000.pt (torch, 38264 bytes, 7 tensors)

linears.0.weight f4 [64, 4]
00000000: eaa4 38be 7613 87bb 6ecb 4b3d 77b3 f43e
00000010: 221c 1e3f f00e 86be 970f debe 92ef 29be
00000020: f6e4 103c 04ec f03d 4522 d23d d6fa 27be
00000030: 78c5 9e3e 09cf 193f cfe2 623e 1763 1a3e
00000040: 40fc 5c3e 9936 b5be 4341 af3d d6ed a73e
00000050: 11e5 ad3e 3922 793c 70dc df3d 9f25 303e
00000060: af39 c23e 2992 84be 634f 73be f787 96be
00000070: daab 453f e471 0fbf 9f21 9f3d 6cc1 c93e
00000080: 01bd 4dbd 2e0f 20be ef51 da3c f25b f2be
00000090: 38ca d1bc 8541 983e 2fe2 8abd f22b 263e
000000a0: 73b9 77be fd5e 23be 40fb 413e 776c 933e
000000b0: e950 c03e df00 25bf 93a8 473e 60ef f0bd
000000c0: dfd6 323e 5dd9 503f b709 013d c74d bdbd
000000d0: 427e 1fbf 5432 1f3f 425b f5bc e5be c83e
000000e0: 92db d7be aa48 d7bc c0aa 583e b4af 073e
000000f0: 76f4 77be 4470 cd3e 4e66 21bd 0bd9 c83e
00000100: 0da3 ae3e 0405 4d3e 7ae1 8e3e 438b 1bbe
00000110: c8d2 6cbe fa10 c4bd b877 2dbe 7f51 35be
00000120: 0f0e 79be 6112 003e 86fc 98be ca34 aabe
00000130: b57c a23e a5f9 e0be 7742 e23d 0d82 883e
00000140: 8171 823e 1ee8 903d df0c b73d b07c af3e
00000150: 2e01 50bf c424 343e acea 193f 4ac5 8c3e
00000160: 7f51 81be 0568 55be 3ca2 123c 9e37 92be
00000170: a788 75be f28b 83be 75fc 21bd 9d02 0f3f
00000180: 33e0 463e 6325 f0bc cdda 333c c841 d9be
00000190: 439f b73d 9bdb 5b3e 3c17 a8bd 2df1 013e
000001a0: d08b 0fbf d253 ba3d 7e80 ca3e 3135 a9be
000001b0: 61bd e5be aa5e 083d ad94 8e3d 25f9 813e
000001c0: 4a22 c23e b14c a1be 7147 4c3e 0f06 a5be
000001d0: 210e 893e 110b fa3d 10cc 7a3d e2c2 90be
000001e0: ef70 17be 1095 8fbe 36cd a0be 4ff3 b1be
000001f0: 094c 2bbf b2f2 86be bdc1 53bf 9f1c 143f
00000200: fd9f d1bd 6ea9 a0bc 2dc1 a33c c19d 223f
00000210: 05cd c53e c09c eabd 1ff5 453e 3587 80be
00000220: 76be fd3d 1d7b aa3b 68ac 74be 26fc 9ebd
00000230: f392 7d3e 9e92 7e3c c1c9 6c3e 1aa7 83be
00000240: cbeb 183f ea9d 8c3f ed82 a0be ab5d 97be
00000250: 832e febd 5922 85bc 4e2d e23d 68b2 a3bd
00000260: dbca 81be c684 bbbc b796 96be 0edf 88be
00000270: 4e15 1f3f 6b39 0bbf 4c8a d13d 6623 2fbf
00000280: 0bb6 8d3e 8ee6 7cbe 7902 9f3c f57c 9ebe
00000290: d630 d53d f491 bb3c 3393 6b3e 3759 a3bd
000002a0: d518 c5be bac1 acbd 5cb6 b4bd fb97 e23e
000002b0: 22db b5bb 621d 9e3e a9cf a7bd 0b53 9a3e
000002c0: 7284 5d3e 91e0 893e 5592 053d 1b99 38be
000002d0: 6c7f 6dbe c8f0 103d d725 2c3e fbae c93d
000002e0: b003 0e3e 7339 85bd 4f43 1cbe a656 13be
000002f0: 3c7d b9be 2a94 203e a0b6 d7bd 43bc 65be
00000300: 4e86 d3be a855 27be bd62 57be 4e1f 393e
00000310: e965 01be a14b 8c3e 3431 50be 6c1e 4b3e
00000320: 2b70 943d d544 0c3f e240 91be e1f3 4f3e
00000330: b2aa b83e 9c58 633f ad0c ca3e 405c 9b3e
00000340: a66d 823e 68ab 65bd a73d 373d 8df1 c7bd
00000350: 8ae8 773e cf80 22bf e394 453d a365 bfbe
00000360: e736 b5be 4d29 e6bd d8c2 41be 039b 963e
00000370: 98d9 0abe a7ec ffbd 97e7 6fbe 99a3 ab3d
00000380: fe2d 593e 6b32 0d3e 7728 38be 46e4 b0be
00000390: 9c5c d53e 9fd2 9bbd 1030 63be ca8d 62be
000003a0: 9ecf ac3e ff42 cd3e 513c d3bc 0fc2 bebe
000003b0: 5b32 52be 226e b43f a0c0 dbbd d43e 5abd
000003c0: 58d7 703d 97b7 35bc 7e94 fbbd ab1f fd3e
000003d0: 3293 313f 47d3 b63a 629e 7f3c 76f2 273e
000003e0: 25f6 01bf 243f 493d 3d38 28be 0812 563c
000003f0: 80f7 d23e 4330 b73f e905 23be 8a34 c6be
-0.1803166 -0.004122193 0.049754553 0.4779317 0.6176168 -0.2618327 -0.4337127 -0.16595295
0.008843651 0.117637664 0.10260443 -0.1640428 0.31010032 0.60081536 0.22156833 0.15076862
0.215806 -0.35393217 0.085573696 0.32798642 0.33963826 0.015205913 0.10930717 0.17201851
0.37934634 -0.2589276 -0.23760752 -0.29400608 0.7721535 -0.5603316 0.077700846 0.39405382
-0.050229076 -0.1563079 0.026650397 -0.47335774 -0.02560912 0.29737487 -0.06781422 0.16227701
-0.24191837 -0.15954204 0.189435 0.2879369 0.3756173 -0.64454454 0.194979 -0.11764407
0.1746478 0.8158167 0.031503405 -0.092433505 -0.6230203 0.6218617 -0.029950742 0.3920814
-0.42159706 -0.026279766 0.21158886 0.13250619 -0.24214348 0.40124714 -0.039404206 0.3922809
0.34108773 0.20021445 0.279064 -0.15189843 -0.23127282 -0.095735505 -0.169402 -0.1770687
-0.24321769 0.12507011 -0.2988016 -0.332434 0.3173577 -0.43940464 0.110478334 0.2666172
0.25477222 0.07075523 0.08938002 0.34274817 -0.812518 0.1759215 0.60123706 0.2749427
-0.2525749 -0.20840462 0.0089498125 -0.28558058 -0.2397791 -0.25692707 -0.039547402 0.5586336
0.19421463 -0.029314702 0.010977459 -0.42433 0.08965924 0.21470492 -0.082075566 0.12689658
-0.5607271 0.09098019 0.39551157 -0.33048394 -0.44871047 0.033293404 0.069619514 0.25385395
0.37916785 -0.31503823 0.19949128 -0.32231185 0.26768592 0.12209142 0.061229765 -0.28273684
-0.14789174 -0.28043413 -0.31406564 -0.34755942 -0.66912895 -0.26357037 -0.82717496 0.5785617
-0.102355935 -0.01961204 0.019989574 0.63521963 0.3863298 -0.11455679 0.19331788 -0.25103155
0.12389843 0.0052026645 -0.23893893 -0.07762937 0.24763088 0.015537886 0.23123838 -0.25713426
0.5973479 1.0985692 -0.31349888 -0.2956365 -0.12411215 -0.01625173 0.110437974 -0.07993013
-0.2535008 -0.02289046 -0.2941186 -0.26732677 0.62141883 -0.5438449 0.10231456 -0.6841339
0.2767795 -0.24697325 0.019410359 -0.3095471 0.10409705 0.022896744 0.23005371 -0.07976001
-0.38495508 -0.08435388 -0.08823845 0.44256577 -0.0055498043 0.30881792 -0.08193905 0.30141482
0.21632555 0.26929143 0.032610256 -0.18027155 -0.23193139 0.035385877 0.1681131 0.09847828
0.13868594 -0.06505098 -0.15260051 -0.14388523 -0.3622836 0.1568152 -0.1053288 -0.22435097
-0.41313404 -0.16341269 -0.2103376 0.18078348 -0.12636532 0.2740145 -0.2033127 0.19835824
0.07247957 0.5479253 -0.28369814 0.20307876 0.3606773 0.8880708 0.39462796 0.3034382
0.2547428 -0.05607167 0.04473653 -0.09762869 0.242098 -0.63477796 0.048237693 -0.3738223
-0.3539345 -0.11238346 -0.18921983 0.2941514 -0.13559568 -0.1249631 -0.23428188 0.08380813
0.21208951 0.13788764 -0.17984186 -0.3454916 0.41672218 -0.07608532 -0.22186303 -0.221244
0.3375215 0.40090176 -0.025785597 -0.3725743 -0.20527022 1.409611 -0.107301 -0.053282574
0.058799118 -0.0110911345 -0.12284182 0.49438223 0.6936523 0.0013948464 0.015601726 0.16401085
-0.5076621 0.04913248 -0.16427703 0.013065822 0.41204453 1.4311603 -0.15920223 -0.3871196

linears.0.bias f4 [64]
00000000: 565d 8d3e 4b1f 3c3f 3fd4 7b3c ec03 1e3e
00000010: ab4f ad3e c397 683e 9ee8 b83c 1ff4 6f3f
00000020: f841 fbbe 538b 313b 0ad8 c8bc ee5a ef3d
00000030: 6e86 3e3e de70 e33d c76e 29bc 4724 d23c
00000040: ed21 d63d 867b a2be 2a18 05be 20a2 583e
00000050: 15a8 ab3e e163 0c3e c185 77be 1a43 b03e
00000060: a3af d9be 4ef4 373d ad7b 94bf 7abd 45bd
00000070: 72f7 c2bc ff3c 2b39 7c9f efbc cc31 d03d
00000080: b2c6 043f 0cc7 333e 49da 6c3c 03f0 5e3d
00000090: a045 e0bd f2fc bbbc 68e4 c6bd 8af5 61be
000000a0: 33ec ed3c c6f3 2d3d c8d3 cd3d 9911 9a3a
000000b0: 420d d63d e7cb cf3d a4f5 35be bcb9 7bbe
000000c0: 60b1 4fbd f6fe 793c 619e 7f3d 0848 703e
000000d0: 2b16 0b3e 3a42 adbd 8134 d9bb cacb 01bd
000000e0: 5a25 85bd f4ed 87bd d7a4 da3c ab51 9dbe
000000f0: c978 233f 72d5 a83d af48 13be 4cb3 b3bd
0.27610272 0.7348525 0.015370428 0.15431184 0.33849844 0.22714143 0.022571858 0.93731874
-0.49073768 0.00270911 -0.024517078 0.11687265 0.18605968 0.11105512 -0.010341353 0.025652064
0.104556896 -0.31734866 -0.12997499 0.21155596 0.33526674 0.13709976 -0.24172117 0.34426194
-0.42516813 0.04491072 -1.1600243 -0.048276402 -0.023799632 0.00016330554 -0.029250853 0.10165748
0.51865685 0.17556399 0.01445634 0.05442811 -0.1095078 -0.022947762 -0.09711534 -0.22066322
0.029043293 0.04246881 0.1005016 0.0011754512 0.104517475 0.10146313 -0.17769486 -0.24582571
-0.050706267 0.015258541 0.0624069 0.23464978 0.13582675 -0.08459897 -0.0066285734 -0.03168849
-0.06501265 -0.06637183 0.02668993 -0.3072637 0.6385618 0.082438365 -0.14383195 -0.087744325

linears.1.weight f4 [64, 64]
00000000: de6d ea3d 4e5e 66be 8583 13be 8698 013e
00000010: 35a4 3fbd bb99 613e 5ec6 bbbd 5e4d 553e
00000020: ebfb 8bbd b39e 873c ae5b 5fbc 91b8 12bd
00000030: 0d1a 233b c96b 603e ee1d 8d3d 7420 223e
00000040: 03df 1c3e 5b2f 07be 5361 84be 5556 36bd
00000050: 888e cf3d 0622 e4bc 5335 0cbe dd72 64bc
00000060: 161c 75be 0a06 4b3e 796a 3bbe 13fd a03e
00000070: 8519 38bd d49d 73be d80f 9fbd 643c b3be
00000080: a258 553e 3247 07bd 3eb3 48bd b69c 2e3e
00000090: 1922 a33d 3f49 f3bd 6446 8ebe 8f76 38be
000000a0: 7815 013e a528 ba3d 6b84 4d3e c90c 1dbe
000000b0: 5122 cebd 6068 a63c 06f8 3bbe 8e51 1b3d
000000c0: 5ce4 80bd 116b 063e 7903 f33d 7bf7 8a3b
000000d0: c67c 59be e3c0 7cbc 03e8 d13d 8ada 993d
000000e0: 8644 52be f9ac 93be 8d53 0c3d eeaf 7e3d
000000f0: 0385 4ebb ed52 79bc ec6e 163e e117 1abd
00000100: ff8e 35bf 5594 71bf 8bf2 243e 2926 2abf
00000110: b4db 55bf 0693 e2be accc 2c3d b10f 62bf
00000120: 84fc 333f c379 3bbe 8e3c 2e3e dcd7 75be
00000130: ca5e dbbd 9a29 35be fde0 c23c ee1c e23c
00000140: adbb 84be 2d90 b53e cd82 923d 91dc f1be
00000150: a221 00bf 1d66 17be 0051 9f3e 7b2c 0ebf
00000160: fad0 1e3f 8e4b 18be cb66 a53f 6fcc c63e
00000170: 6475 863e 6b1a 273e 224d 4ebc 53cb 2c3f
00000180: 753d 2abf ba59 223d 7703 32bd bb71 2c3e
00000190: f7b6 bd3d 08c6 5e3e 5bad 7a3e a712 b43e
000001a0: f52d 203c 9b5e 7c3e abcc f8bc dcdd 1abe
000001b0: e0e7 60be 032c e23d 3812 d83e d67d f23e
000001c0: aaf2 3e3d f586 81bd 15d0 c43d 695c febe
000001d0: 9cf7 95be 8191 a73e 347e 6cbe 2978 85be
000001e0: a15d c93d 51e9 43bc ba75 1dbc b101 d43d
000001f0: a1a1 4bbf c7e7 b23d 75f8 193f dd12 283e
00000200: 25df 07be c90b 953e dbe0 9fbd c647 933c
00000210: ba37 38be f3b0 d9bd 6dfb 1e3d fd1e 223d
00000220: c95e 413e ad78 0f3e 47ff 3cbe 9b4e 6c3e
00000230: 7d1c bd3e bbe1 febe 4be3 ddbd c213 4dbe
00000240: df67 453d ae00 e3bd 3d2d 1c3e 1058 01bd
00000250: 2649 0d3e c7c3 6bbe 0214 b43d d638 a4be
00000260: 05be fb3e 0a67 9e3d d102 1fbe 061f 25bf
00000270: c8fe a13e 726c 6b3d f615 153e b981 e0be
00000280: 0693 1cbe 834f 8f3e 9426 633d 229f fdbc
00000290: 893b 4b3e 37fb 2c3d 6ed2 44be d7d0 653e
000002a0: 55ea b63d cac5 55bd 1597 643b 9c8b 13bc
000002b0: 1424 ce3d 7c10 34bc da77 a73e 9eeb acbe
000002c0: 33e9 00bf 2e05 433e 3e59 543d c932 983c
000002d0: dac8 e53e fe29 3fbd 00a9 5ebe d5db c7bd
000002e0: 4224 313e d850 e93e 8018 063e ebe0 31be
000002f0: 1d08 92bd 0764 2dbc 5dda 96be 918b 0f3d
00000300: 3b40 47be 478b 91be 1b02 d93c a2c9 07be
00000310: b9e2 28bf e9b4 8bbe 2a80 823c c9ea b8be
00000320: a29e 173f ded7 dabd fa20 6abe f8dc 33be
00000330: a9a9 473e 5d4d d1be e122 273d 7ee5 a2be
00000340: 31bf 603e 4830 1dbd 51e5 503e fd61 3abe
00000350: b872 c4be 8e59 41bd bc06 8b3e 517b 1dbf
00000360: 9d6a 9e3e 4336 d0bd ab35 3d3f d188 853d
00000370: b722 243c 37ea 513e b88d 083e 8d2a f33e
00000380: 8b9c 26bf 0153 c0b9 ed4a ae3d 2090 c3bc
00000390: 7020 ab3e 60fe 1dbd 5fca a13c 3e03 273f
000003a0: e91e 5dbd 5039 f639 a19a 9abe 49b8 eebd
000003b0: ae6f 0e3e 2479 023e 2709 513e 2f63 bd3d
000003c0: 8016 24be 0406 afbc 9563 ffbd 8b2f 68be
000003d0: 7919 443d 3c5a 973e 48c5 81be 0766 a0bb
000003e0: 9213 7a3e 2075 993e 20a0 b93e 5aae 553e
000003f0: 6040 33bf 75b8 3bba f02d ad3c e331 4abd
0.11446737 -0.22496912 -0.1440564 0.1265584 -0.04678746 0.220313 -0.09168695 0.20830294
-0.06835159 0.016555166 -0.013632698 -0.035820547 0.0024887354 0.21916117 0.06890474 0.15832692
0.15319447 -0.13201658 -0.25855502 -0.044515926 0.101346076 -0.027848255 -0.13692217 -0.013943401
-0.23936495 0.19826522 -0.18302335 0.3144308 -0.044946212 -0.23790675 -0.07766694 -0.35007012
0.20834592 -0.03302688 -0.048999064 0.17051968 0.07965488 -0.11879205 -0.2778808 -0.18013977
0.12605846 0.090897836 0.20070045 -0.15336908 -0.10065139 0.020313442 -0.18356332 0.037919573
-0.06293556 0.1312678 0.11865897 0.0042409278 -0.21239004 -0.015426847 0.10249331 0.07512386
-0.20533952 -0.28842905 0.034259368 0.0621795 -0.0031512387 -0.015217525 0.14690751 -0.03762043
-0.7092132 -0.9436696 0.16108148 -0.6646448 -0.83538365 -0.44252795 0.042187378 -0.88305193
0.70307183 -0.18308167 0.17015287 -0.24008125 -0.10711439 -0.17691651 0.023788923 0.027601685
-0.25924435 0.3546156 0.071538545 -0.4723859 -0.5005132 -0.14785047 0.31116486 -0.5553662
0.6203762 -0.14872572 1.2921995 0.38827845 0.26261437 0.16318671 -0.012591632 0.6749775
-0.66500026 0.03963635 -0.043460336 0.1684026 0.092634134 0.2175523 0.24480192 0.3517048
0.009776582 0.24645464 -0.03037103 -0.15123695 -0.21963453 0.11043551 0.422014 0.4736163
0.04661814 -0.06324569 0.09610001 -0.49679878 -0.29290473 0.32728198 -0.23095018 -0.26068237
0.098323114 -0.011957482 -0.009610588 0.10351885 -0.795435 0.08735614 0.6014474 0.16413446
-0.13268717 0.29110554 -0.0780656 0.01797856 -0.17990008 -0.106294535 0.038813997 0.039580334
0.18883814 0.14010878 -0.18456756 0.2307686 0.36935797 -0.49781594 -0.10834368 -0.20027068
0.048194762 -0.11084114 0.15251632 -0.031578124 0.13797435 -0.23023902 0.08792879 -0.32074612
0.4916841 0.07734497 -0.15528418 -0.64500463 0.31639695 0.05747647 0.14559159 -0.4384897
-0.1529046 0.2799035 0.055456713 -0.03095967 0.1984693 0.042231765 -0.19220898 0.22442947
0.08931414 -0.05219058 0.003488009 -0.009005453 0.10065475 -0.010990258 0.32708627 -0.33773512
-0.50355834 0.19044945 0.05184292 0.018578904 0.448798 -0.046670906 -0.21744156 -0.097587265
0.17298988 0.4556949 0.13095284 -0.17370956 -0.07130454 -0.01058293 -0.29463473 0.03504521
-0.19458096 -0.28426573 0.026490262 -0.1326051 -0.6597095 -0.2728646 0.015930254 -0.36116627
0.5922643 -0.10685705 -0.22864142 -0.17564762 0.19498314 -0.40879336 0.040804747 -0.31815714
0.21947934 -0.038376123 0.20399977 -0.18201442 -0.38368773 -0.047204547 0.27153575 -0.6151629
0.30940714 -0.101665996 0.73910016 0.06520236 0.010018042 0.20499502 0.13335311 0.474934
-0.65082616 -0.00036682936 0.08510385 -0.023872435 0.33423185 -0.03857267 0.019749818 0.6523932
-0.053984556 0.00046963478 -0.30196097 -0.11656243 0.1390979 0.12741524 0.20413648 0.092474334
-0.16024208 -0.021365173 -0.12470166 -0.22674386 0.047875855 0.2956103 -0.25345826 -0.004894975
0.24421528 0.29972172 0.36254978 0.20867291 -0.70020103 -0.000716097 0.021140069 -0.049363982

linears.1.bias f4 [64]
00000000: c832 1fbc 3cc8 03be 9861 24bd 3a71 60bd
00000010: 2593 bfbd 97d6 c4bc 7e82 10bf e324 aebd
00000020: 8a9b 13bd 0016 e1bd 8909 923d f1d2 a63d
00000030: 1e20 973d f119 0fbf 642c 09bd 89b0 b1bc
00000040: f888 3e3d 3bd6 adba 74ce d33b a3d4 06bc
00000050: 7c32 b3bc 73a2 17be bc84 00be f3ab 14be
00000060: ae6d 513d 3215 cfbb 13bd 0f3e c6c5 513d
00000070: f5b3 24bd 9a5b 753a b243 a0bd 05ca c63c
00000080: 716d 573d 3fba 433d 2871 223c f4e5 b63c
00000090: 5280 9bbc 44ec 64be 757d 0cbd c9b6 fe3c
000000a0: 5810 76bc f877 df3c 12c2 e63c 9e90 81bd
000000b0: 401d 9abc 8dcc c03c 6789 a4be 5711 4dbd
000000c0: 04f1 d6be fc7d eb3c 8212 583c d754 433d
000000d0: 6322 093d 9391 c4bd e2b2 443e ecaf e9bb
000000e0: 3fa6 513d 2eb9 eb3c b201 4d3d f83a 423d
000000f0: cc9e c23b 049e a93c 7d6b 0cbe e200 bd3c
-0.009716697 -0.12869352 -0.040132135 -0.05479548 -0.093542375 -0.024028106 -0.56449115 -0.08503129
-0.036037005 -0.10990524 0.07130725 0.08145703 0.07379173 -0.5589896 -0.0334896 -0.021690624
0.046517342 -0.0013262698 0.00646382 -0.0082294075 -0.021874659 -0.14808063 -0.12550634 -0.14518718
0.05112999 -0.0063196654 0.1403697 0.051214002 -0.040210683 0.0009359658 -0.07825412 0.024266252
0.052594606 0.04778504 0.009914674 0.022326447 -0.018982086 -0.22355753 -0.034299333 0.031093018
-0.015018545 0.027278885 0.028168712 -0.06326412 -0.018812776 0.023535037 -0.3213608 -0.050065365
-0.41980755 0.028746597 0.013188006 0.04768833 0.03348006 -0.095980786 0.19208863 -0.007131567
0.051183935 0.028774824 0.050050445 0.04741952 0.00593934 0.02070523 -0.13712879 0.02307171

linears.2.weight f4 [64, 64]
00000000: ddca 273e a319 0dbe d8c2 623d ea0d 0f3e
00000010: 7825 3d3d b0b6 87bb c0ba 583c 61e0 b73e
00000020: 2577 3bbe a654 b33e e0a0 40be 3404 80be
00000030: fe2c 82bd 9d8a 34bd 50c6 e2bd 60e1 59bd
00000040: 6b3d 57bd 2f98 19be dd58 74be 6f72 f5bd
00000050: e277 373d 51da b93e 04b1 1abd 4321 a13c
00000060: 8f22 84bd 3975 103e b220 22be 3f7b 143e
00000070: 588a b8bd 1cc7 923e 72ae 3f3e db90 b53d
00000080: 5e57 6d3e 34be bd3d 9a02 2abe 9b90 d7bc
00000090: 5f63 1e3e 5f5d 243e 89ed 3c3e 1fd7 91be
000000a0: 254a 673e 6249 9dbd b5ec 81bd f2b4 19be
000000b0: ed00 87bc 31f3 973d 4efb 15be 4a36 1fbe
000000c0: e222 4ebe 8901 4f3d 3737 633e 71c1 a1bc
000000d0: 9df4 01be b06f 97bd 8968 da3e 0554 0cbe
000000e0: 3aed 5dbe 7f32 edbd 227d 4fbd c611 a43b
000000f0: 4545 9b3e 24c1 25be abc3 8fbd a640 77be
00000100: b98e 3a3e d18a 38be 9cdc b7be 2b9a cd3c
00000110: d294 18be f15d b1be 21b1 2e3e fd75 9ebd
00000120: b94e 963d ad30 8abe e53c 8f3d 1e41 103e
00000130: 1a4d 363e 2f4b c2be 72aa d93c a17c 993d
00000140: 8a55 c83e 46ec b9be 496e 51be c9f4 c1be
00000150: 498e 84be d626 1d3f 2025 38be b280 3abc
00000160: 824f 993e 23b1 c8bd 0090 23be 5bbe ebbd
00000170: 983c 1abe 2d16 b23e eaf1 163d 5221 d03d
00000180: a63e 823e 8492 fb3d 249b 363d 2ba8 103e
00000190: aa55 d4be 3cd3 df3e 032c 5fbe d9d3 52be
000001a0: cc6a 57bc 823d 17bd e34b f63e 4521 82be
000001b0: 314f c7bd ecf2 fdbd f465 11be 0a38 2cbe
000001c0: b25f 00bf d802 a33e 5eb3 0a3f c10c 97be
000001d0: ef32 903d f203 cebc 45a1 053f 25b3 ac3e
000001e0: b0ef 95bd bbbf b73d 5aad 8dbe d0e5 c0bd
000001f0: 14a7 e13d e697 513e 53f2 cf3e f79a aebe
00000200: 3376 83ba 83bf a6bc 97d5 1f3e 7041 42bd
00000210: 726d 913e 8231 19be 2317 033f 2ccb 053f
00000220: ba85 603e e435 023f 5484 0abe 08a6 94bd
00000230: fdaa 183e 9f4f 99be 5721 b73e d673 fc3d
00000240: 84c0 a83e 6bc5 e53d fef1 8e3e 1776 963d
00000250: c9fc 18bc 74ea 323f 9863 0b3e 134b 963e
00000260: 9db0 bcbe c87d efbd 37f4 17bf e259 43be
00000270: 59bf 3d3e 170d 863b b5ae fcbc 48a9 5a3d
00000280: f5ca 97be 48d2 193d 3d00 7a3d 51b9 61bc
00000290: 88d3 433e 9a1d 6f3f 1041 8bbc 3fed 22bd
000002a0: 111b 723e 266b 2dbe 0a9a 0a3f 2c07 b93d
000002b0: 4379 933e 251c 9fbd ffb3 fabd 900b 223e
000002c0: f817 76be a595 52be dab0 943e 60e2 093f
000002d0: 537a 953e c6fe af3e 2740 aebe 783e 91be
000002e0: de67 8bbe 05fa b8be 5db6 b5be 0401 77be
000002f0: f37f 0e3e 8a31 29be 0d93 6e3e 6eef aabe
00000300: 4192 a9bd 8a03 80bd a782 fb3d 7a46 28be
00000310: a214 bf3d 7355 953e d3bd 693e bf11 2a3f
00000320: d02b 473e d65d 9d3e 6d2a 21be 1d05 ecbe
00000330: 1998 8d3b 1396 f1be c528 b83e 907f 713e
00000340: e58f 9d3e a75a aebe 08dd dd3e fa68 dc3e
00000350: 8166 bdbe 2994 ad3e dfa0 c53d 41ff 423e
00000360: 4f39 cebd d03a 00be 47de e2be f559 5f3b
00000370: 948f 4e3c f0d2 4a3e 21b4 853e 316f 68be
00000380: 6bfc 523e 1672 9abe ac24 83be 0b1d 993e
00000390: 7074 f93e 7212 4d3f d726 df3d b201 203e
000003a0: 67db ff3d 6434 9dbd 4663 e53e 2d69 3c3d
000003b0: 0610 f73e f8a5 f2bc 6626 c4bd 053e ca3e
000003c0: ff75 01bf 8ad3 a8be 95b3 e33e 45c2 423f
000003d0: 6081 b43e c505 b03e 58d6 6a3e 659c b2be
000003e0: 2447 56be d889 4fbe 1c44 bc3d 3e6e 2bbd
000003f0: e310 263e a4bc 14be 6cd0 0e3f 33c9 72be
0.1638598 -0.13779311 0.0553616 0.13970152 0.04617831 -0.004141651 0.013228118 0.35913375
-0.18307169 0.3502552 -0.18811369 -0.25003207 -0.06356238 -0.044077504 -0.11072981 -0.05319345
-0.052548807 -0.1499946 -0.23862024 -0.11984717 0.044792064 0.36299375 -0.03776647 0.01966918
-0.06451904 0.14107217 -0.15832785 0.1450014 -0.09010762 0.28667533 0.1871889 0.088655196
0.23177859 0.09264794 -0.16602555 -0.02631407 0.15467595 0.16051243 0.18449987 -0.28484437
0.22586878 -0.07680012 -0.063439764 -0.15010431 -0.016479934 0.07419432 -0.14646646 -0.15548053
-0.20130494 0.050538573 0.22189032 -0.01974556 -0.12690969 -0.073943496 0.4265788 -0.13703926
-0.21672526 -0.11581897 -0.050656445 0.0050070016 0.30326286 -0.16186959 -0.070197426 -0.24145755
0.18218507 -0.18021704 -0.359105 0.025097927 -0.1490052 -0.34641984 0.17059757 -0.07737348
0.07339234 -0.26990262 0.069940366 0.1408734 0.1780285 -0.37947986 0.026570532 0.07494474
0.3912776 -0.36313075 -0.20452227 -0.3788207 -0.25889805 0.61387384 -0.17982912 -0.011383222
0.29943472 -0.09799411 -0.159729 -0.11510917 -0.15062177 0.34782544 0.0368518 0.10162605
0.25438422 0.12283805 0.044581547 0.14126651 -0.41471606 0.43715847 -0.21794133 -0.20588626
-0.013148021 -0.036923893 0.48104772 -0.25416008 -0.097319014 -0.12399849 -0.14199048 -0.16818252
-0.5014602 0.31838107 0.5417994 -0.29501918 0.07040965 -0.025148366 0.521992 0.33730426
-0.073211074 0.089721166 -0.2767132 -0.09418833 0.11018196 0.20468101 0.40614566 -0.34102604
-0.0010029733 -0.020354992 0.15608822 -0.047425687 0.28403813 -0.14960292 0.5120718 0.5226314
0.21926013 0.5086348 -0.13527042 -0.072582304 0.14908977 -0.2994356 0.35767624 0.123267815
0.32959378 0.11219295 0.27919 0.073467426 -0.009337612 0.69889 0.13612211 0.29354152
-0.36853495 -0.11693913 -0.5935702 -0.19077256 0.18530025 0.004090916 -0.030845026 0.053384095
-0.2964703 0.037554055 0.061035383 -0.013777093 0.19123662 0.93404543 -0.016998798 -0.039777037
0.23643138 -0.16935405 0.54141295 0.09034571 0.28803453 -0.0776904 -0.12241363 0.15824723
-0.24032581 -0.20564897 0.29041177 0.53861046 0.29194888 0.34374064 -0.3403332 -0.28367972
-0.27227682 -0.3612825 -0.35490695 -0.24121481 0.13915996 -0.16522804 0.23298283 -0.33385795
-0.08279849 -0.06250675 0.12280779 -0.16433135 0.09330107 0.29166755 0.22826318 0.6643333
0.19450307 0.30735654 -0.1573884 -0.4609765 0.00432111 -0.4718481 0.35968605 0.23583817
0.30773845 -0.34053537 0.43332696 0.4304884 -0.36992267 0.339021 0.09649824 0.19042684
-0.100695245 -0.12522435 -0.4431021 0.0034080718 0.012607474 0.19807029 0.2611399 -0.22698666
0.20604102 -0.30165166 -0.25613916 0.2990497 0.48721647 0.8010627 0.1089608 0.15625647
0.124930196 -0.07676008 0.44802302 0.04599874 0.48254412 -0.029620156 -0.095776364 0.39500442
-0.5057067 -0.32973891 0.44472948 0.7607768 0.35254955 0.34379402 0.22933328 -0.34884945
-0.20925575 -0.20267427 0.09192678 -0.041853182 0.1621738 -0.14525086 0.55786777 -0.23709564

linears.2.bias f4 [64]
00000000: eb0b dabc d464 e83c 903e 77bd 01ca 55bd
00000010: d42e 0cbd 7e7d 873c 6ade 2dbd f57e ce3d
00000020: 024e 43bd d5c0 23bd 6d6f 0a3d f7bc e53a
00000030: 8023 283d 1941 24bd 5b72 f33c e779 b23d
00000040: 5aa5 23bd 7569 3c3d ae82 e03b 89e0 303d
00000050: 3d4b 383d 5919 233d 4075 853d 728a 3abd
00000060: 1070 5bbd bccc 453d 3a53 dfbd 142a 913d
00000070: cdf9 00bd 7db8 3abd f87e 593d e216 0dbe
00000080: e14d afbc 2854 19bd c3c9 db3c 6954 b0bb
00000090: c393 5c3d 9b55 34bd d616 3e3d 7673 edbc
000000a0: 4e3f 223d 522e 063c 6ee6 1dbd 6fe6 363d
000000b0: fe24 3a3d 84f1 533d 6af6 823c 0ec7 e7bc
000000c0: 4a6b 25bd 15ca 283d 876f e73b d575 94bd
000000d0: ada8 5f3d fb0d 3cbc 1a77 b2b9 f54e 44bd
000000e0: 6595 843c 6868 f93c f97b efbc 495b 4c3d
000000f0: ab5a b43d 37fe 043e 07db 2b3d 0ea6 f63c
-0.026617011 0.028368391 -0.0603624 -0.0521946 -0.034224346 0.016539332 -0.04244844 0.10082809
-0.047681816 -0.03997882 0.03379767 0.0017527629 0.04104948 -0.040101144 0.029717615 0.08714657
-0.039952613 0.04599901 0.0068515157 0.043182883 0.044993628 0.039819095 0.06516504 -0.045542188
-0.053573668 0.048290953 -0.10904546 0.07088104 -0.03148823 -0.045586098 0.053099602 -0.1377826
-0.02139944 -0.037433773 0.026829606 -0.005381156 0.053851854 -0.044026952 0.046408497 -0.02898572
0.039611153 0.008189755 -0.038549833 0.044653352 0.045445435 0.051744 0.01598664 -0.028293159
-0.040385522 0.041208345 0.0070628556 -0.07249037 0.05460422 -0.011477943 -0.00034039543 -0.04792686
0.016184518 0.030445293 -0.02923392 0.049891744 0.08806356 0.129876 0.041956928 0.030108478

linears.3.weight f4 [1, 64]
00000000: bd32 de3e ab56 6b3f 6831 e43e 755b f93e
00000010: 9240 d53e 1da2 1d3f fdc4 2a3f 7889 cfbe
00000020: 2ea9 da3e 4a7f a93d 438e 9abe 25c6 93be
00000030: 0e5a 88be 544a 863e 9ca0 4abe fe06 8b3f
00000040: 003b e13e 8f85 9bbe f659 41bf 43da a7be
00000050: 06e7 97be e76e 02bf 84fb 07bf 98ad 9e3e
00000060: e6e2 9f3e a883 51be a257 ef3e d966 10bf
00000070: 72b7 b93e e1a5 ec3d dc5b a3be e2c5 003f
00000080: 5b1a 493e 47b2 bf3e 39ab 0abf 3cbf cc3e
00000090: 3565 e0be 1027 003f 8a7e 9cbe 7a0e 0a3f
000000a0: 1dc4 f6be ab3b d1be c163 8c3e 5651 6cbe
000000b0: 4de1 5abe 3834 90be 3bf4 25bf cf99 c13e
000000c0: d8a3 153e e646 4abe 9f4b bbbe adfe 533e
000000d0: 5a23 05bf d4cf 693e a3af acbe 1f6e 423e
000000e0: dfa1 22be f036 99be 8a12 c93e f43b 6cbe
000000f0: 2984 2dbf 9197 6d3f d565 82be 81c9 a8be
0.43398085 0.9192912 0.44568944 0.4870259 0.41650826 0.6157549 0.6670683 -0.40534568
0.427072 0.082762316 -0.30186662 -0.2886211 -0.26631206 0.26228583 -0.1978783 1.0861509
0.43990326 -0.30375335 -0.75527894 -0.32783708 -0.29668444 -0.50950474 -0.5311816 0.30991817
0.31227797 -0.20460379 0.46746546 -0.56406933 0.3627277 0.115550764 -0.3190602 0.50301945
0.1963896 0.37440702 -0.54167515 0.3998965 -0.43827215 0.50059605 -0.30565292 0.5392834
-0.48196498 -0.40865836 0.27419856 -0.23077902 -0.21375008 -0.2816484 -0.6482579 0.3781266
0.14613283 -0.19753608 -0.36581132 0.2070262 -0.5200707 0.22833186 -0.3372775 0.1898732
-0.15882061 -0.29924726 0.39271957 -0.23069745 -0.67779785 0.92809397 -0.25468317 -0.32966235
