Complete_thesis_stage_1_and_2/(d).Code_and_all_other_details/WAAM/PINN_CONSTANT_PROP/Sequential_trail_1/Models/model_epoch_27000.pt (torch, 38264 bytes, 7 tensors)

linears.0.weight f4 [64, 4]
-0.18275079 -0.029699596 0.048254434 0.48340395 0.6154061 -0.45519164 -0.45840248 -0.16494392
0.012170013 0.09827979 0.104338296 -0.16435437 0.3051421 0.5957665 0.22364534 0.14959224
0.21468242 -0.4164838 0.082538895 0.33447525 0.3429223 -0.1870626 0.12214265 0.1880351
0.412862 -0.46503338 -0.23804492 -0.29490003 0.77833253 -0.5303473 0.06980176 0.41233277
-0.04775062 -0.19179289 0.028412739 -0.47961158 -0.023922635 0.3473739 -0.06705775 0.16659974
-0.25752556 -0.12638023 0.18816954 0.28467324 0.34747997 -0.52583 0.17376241 -0.11846889
0.19046655 0.76671565 -0.021211844 -0.1246489 -0.6318705 0.75327426 -0.029612495 0.39063329
-0.43064988 -0.027830344 0.21192168 0.13100858 -0.24205339 0.4221078 -0.03787367 0.39730152
0.34021166 0.20069225 0.279775 -0.14764757 -0.23029098 -0.30810538 -0.14572464 -0.19223672
-0.23938759 0.27038044 -0.29966012 -0.33477965 0.3087342 -0.44148704 0.11026739 0.28073928
0.24486153 0.10130148 0.065174565 0.34432453 -0.8197345 0.115447745 0.60008484 0.2658784
-0.25011688 -0.2687331 -7.3604744e-05 -0.2965688 -0.2476314 -0.32349968 -0.037285022 0.5601604
0.20864272 -0.013453606 0.0109135695 -0.41601807 0.08603167 0.23790917 -0.08440522 0.12475803
-0.5632713 -0.004713189 0.39620072 -0.34112647 -0.44928712 -0.0016832042 0.074869975 0.28577927
0.37872222 -0.32362726 0.1999464 -0.32470763 0.27500919 0.14275765 0.06207776 -0.28383225
-0.15112492 -0.21290043 -0.31339332 -0.35696048 -0.6823369 -0.2564908 -0.82212186 0.5571852
-0.10631725 -0.010875811 0.016095057 0.64174026 0.3814239 -0.08160295 0.19373518 -0.2507799
0.120834924 0.012368849 -0.23869802 -0.08035125 0.2481407 0.0011816322 0.23339832 -0.25510564
0.608675 1.0518953 -0.3208894 -0.30508024 -0.12341948 -0.010174825 0.11125747 -0.08218814
-0.2512668 -0.0114250565 -0.30058774 -0.27505317 0.6259682 -0.4176036 0.10682883 -0.6892853
0.27630594 -0.27131832 0.018734256 -0.3146354 0.105314344 0.02180713 0.2301021 -0.07702346
-0.39641285 -0.13408785 -0.09237402 0.44059828 -0.0075864512 0.35284147 -0.082295895 0.29725388
0.23054168 0.29949096 0.03025579 -0.18407692 -0.2349437 0.041536532 0.16683002 0.093255766
0.13796075 -0.063713685 -0.15180974 -0.14547019 -0.36732408 0.110989906 -0.10014733 -0.2470964
-0.41399652 -0.1589159 -0.21028315 0.18414669 -0.12702942 0.28994218 -0.20421134 0.20008017
0.072295874 0.6042276 -0.2898855 0.18319596 0.3492429 1.0094601 0.40153682 0.29948092
0.25407234 -0.01620973 0.04188396 -0.10395624 0.2437323 -0.6844428 0.05097271 -0.3707876
-0.35716438 -0.1827058 -0.18725416 0.2973772 -0.14045756 -0.12914896 -0.23483391 0.081648715
0.2275857 0.107017405 -0.17782167 -0.3498805 0.41545856 -0.079492636 -0.21932822 -0.23902914
0.36636975 0.45789555 -0.0304053 -0.38800162 -0.1955158 1.4533973 -0.10130737 -0.044393998
0.05687266 -0.025150476 -0.12248315 0.5012499 0.69140273 0.013121648 0.013514499 0.16322625
-0.46869096 -0.03625392 -0.14882669 -0.0017563791 0.42285118 1.3621716 -0.15827744 -0.38399997
00000000: 0623 3bbe 914c f3bc 71a6 453d b980 f73e
00000010: 418b 1d3f e10e e9be bbb3 eabe 0fe7 28be
00000020: bc64 473c ea46 c93d 51af d53d 834c 28be
00000030: 963b 9c3e 2784 183f 4903 653e b52e 193e
00000040: b5d5 5b3e 5d3d d5be 270a a93d 5740 ab3e
00000050: 8393 af3e 578d 3fbe ed25 fa3d 468c 403e
00000060: a662 d33e db18 eebe 0cc2 73be 23fd 96be
00000070: cd40 473f d7c4 07bf 3af4 8e3d 481d d33e
00000080: 2796 43bd 5b65 44be d5c1 e83c a68f f5be
00000090: 67f9 c3bc feda b13e 9355 89bd 1f99 2a3e
000000a0: 64da 83be d269 01be 84af 403e b1c0 913e
000000b0: e5e8 b13e cb9c 06bf c6ee 313e d19f f2bd
000000c0: aa09 433e 7a47 443f 76c4 adbc ec47 ffbd
000000d0: 44c2 21bf 95d6 403f e795 f2bc 1601 c83e
000000e0: 247e dcbe 76fc e3bc ff01 593e 1d27 063e
000000f0: d8dc 77be 831e d83e 6c21 1bbd 1b6b cb3e
00000100: 3930 ae3e 4582 4d3e ab3e 8f3e ed30 17be
00000110: 66d1 6bbe fdbf 9dbe d738 15be b4d9 44be
00000120: 0522 75be 4e6f 8a3e 0d6d 99be 3d68 abbe
00000130: 6912 9e3e 970a e2be dfd3 e13d 0fbd 8f3e
00000140: fbbc 7a3e 2677 cf3d 3e7a 853d 4e4b b03e
00000150: 1fda 51bf de6f ec3d 299f 193f 3721 883e
00000160: 520f 80be 6397 89be 3f5c 9ab8 ded7 97be
00000170: 1693 7dbe c0a1 a5be 2eb8 18bd ac66 0f3f
00000180: 70a6 553e 836c 5cbc d4ce 323c 5200 d5be
00000190: 5f31 b03d 769e 733e a5dc acbd 2381 ff3d
000001a0: 8c32 10bf 1871 9abb d2da ca3e 21a8 aebe
000001b0: f608 e6be f69e dcba 6e55 993d a951 923e
000001c0: e1e7 c13e 79b2 a5be c0be 4c3e 1440 a6be
000001d0: 01ce 8c3e 102f 123e 4045 7e3d 7652 91be
000001e0: 7ec0 1abe 9202 5abe 1775 a0be 86c3 b6be
000001f0: a2ad 2ebf c352 83be 9476 52bf b0a3 0e3f
00000200: dcbc d9bd 7530 32bc c8d9 833c 1749 243f
00000210: fe49 c33e 731f a7bd 8462 463e 3966 80be
00000220: 4d78 f73d b6a6 4a3c 416d 74be 328f a4bd
00000230: 9818 7e3e ffe0 9a3a f8ff 6e3e 359d 82be
00000240: 20d2 1b3f 81a4 863f 9e4b a4be 7a33 9cbe
00000250: 5ac3 fcbd 4fb4 26bc f5da e33d 4152 a8bd
00000260: 0ba6 80be 2930 3bbc a3e6 99be c5d3 8cbe
00000270: 743f 203f 24d0 d5be 13c9 da3d 0075 30bf
00000280: f977 8d3e 3cea 8abe 9578 993c e417 a1be
00000290: 0caf d73d dea4 b23c e39f 6b3e 7abe 9dbd
000002a0: a0f6 cabe 534e 09be 972e bdbd 1996 e13e
000002b0: c497 f8bb a3a7 b43e c08a a8bd a931 983e
000002c0: 1e13 6c3e e156 993e feda f73c a97e 3cbe
000002d0: 1595 70be 3622 2a3d 7dd5 2a3e e1fc be3d
000002e0: 9545 0d3e 527c 82bd 0374 1bbe 23f6 14be
000002f0: e711 bcbe ad4e e33d 0b1a cdbd d706 7dbe
00000300: 5af7 d3be daba 22be 7754 57be f390 3c3e
00000310: 0014 02be 4d73 943e c71c 51be d1e1 4c3e
00000320: dc0f 943d a9ae 1a3f df6b 94be b997 3b3e
00000330: f7cf b23e fd35 813f 3c96 cd3e 9055 993e
00000340: c515 823e 45ca 84bc 848e 2b3d 02e7 d4bd
00000350: f694 793e a537 2fbf c3c8 503d dfd7 bdbe
00000360: 40de b6be 3b17 3bbe 8ebf 3fbe d341 983e
00000370: 1bd4 0fbe a03f 04be 4d78 70be 7137 a73d
00000380: 3a0c 693e f12b db3d e216 36be 8923 b3be
00000390: fcb6 d43e 09cd a2bd 9497 60be 0ec4 74be
000003a0: d194 bb3e 4971 ea3e 8914 f9bc 26a8 c6be
000003b0: 4b35 48be ec08 ba3f 3d7a cfbd 7bd6 35bd
000003c0: 4ef3 683d 5f08 cebc 72d8 fabd ea51 003f
000003d0: c5ff 303f 2efc 563c eb6b 5d3c c824 273e
000003e0: 43f8 efbe fe7e 14bd 0666 18be 4e36 e6ba
000003f0: f37f d83e a45b ae3f 7b13 22be a59b c4be

linears.0.bias f4 [64]
0.27726498 0.74798936 0.016465949 0.1580685 0.34035763 0.24028195 0.068078965 0.9426921
-0.5102504 0.0028158883 -0.02651583 0.11540549 0.25720793 0.11250209 -0.012285123 0.025885364
0.10563164 -0.31799445 -0.1316719 0.21639636 0.35802513 0.13673693 -0.25423506 0.3516353
-0.42981043 0.04537473 -1.1663798 -0.050489124 -0.024609275 -0.0004176119 -0.025968071 0.10108972
0.5289153 0.17724645 0.016494965 0.055342503 -0.115791515 -0.02226896 -0.10095566 -0.22131813
0.031037824 0.042697553 0.1036929 0.0004988265 0.11019992 0.10355847 -0.17916185 -0.25779524
-0.051267993 0.015878487 0.05985555 0.2431465 0.1397117 -0.085333034 -0.0068658823 -0.031643283
-0.06433039 -0.06576644 0.03304665 -0.31299 0.6487029 0.083362274 -0.15281016 -0.08909831
00000000: adf5 8d3e 3b7c 3f3f 99e3 863c b5dc 213e
00000010: 5b43 ae3e 790c 763e fc6c 8b3d 4554 713f
00000020: c59f 02bf c48a 383b ba37 d9bc b759 ec3d
00000030: c2b0 833e 7f67 e63d 8a47 49bc 8b0d d43c
00000040: 6755 d83d 2bd0 a2be 00d5 06be 0297 5d3e
00000050: 124f b73e c404 0c3e 192b 82be 8b09 b43e
00000060: 1d10 dcbe dada 393d ef4b 95bf afcd 4ebd
00000070: 6499 c9bc ecf2 dab9 feba d4bc 2108 cf3d
00000080: fe66 073f 1880 353e 7320 873c d2ae 623d
00000090: 1a24 edbd 656d b6bc d7c1 cebd 38a1 62be
000000a0: 0943 fe3c a1e3 2e3d f15c d43d aec3 023a
000000b0: 7fb0 e13d 7716 d43d 3476 37be bdfd 83be
000000c0: 63fe 51bd 9a13 823c 182b 753d 65fb 783e
000000d0: 9510 0f3e 16c3 aebd 32fb e0bb 639c 01bd
000000e0: a7bf 83bd 8eb0 86bd ed5b 073d 3a40 a0be
000000f0: 6511 263f d7b9 aa3d 447a 1cbe 2d79 b6bd

linears.1.weight f4 [64, 64]
0.12919901 -0.21944046 -0.14364265 0.13442174 -0.04198722 0.22337541 -0.09808457 0.21781565
-0.085611194 0.022187268 -0.0127681615 -0.041839447 0.01644817 0.24277306 0.07060283 0.17130238
0.15319477 -0.13704188 -0.25412768 -0.05249173 0.11380403 -0.026343932 -0.16132632 0.0040368317
-0.24981791 0.20256123 -0.19673352 0.32692116 -0.056200743 -0.24393137 -0.072354004 -0.34800136
0.2236328 -0.03400167 -0.048660185 0.16887979 0.07790407 -0.11909461 -0.2737109 -0.32401946
0.11513245 0.08991382 0.23282346 -0.15032956 -0.09683717 0.023035334 -0.18722278 0.035391524
-0.058793202 0.13651581 0.12281047 0.014228885 -0.21283787 -0.051829763 0.106573574 0.07570609
-0.20935087 -0.2915398 0.037320286 0.06219023 0.012561305 -0.0215586 0.15578659 -0.035257407
-1.0688167 -0.95588535 0.15648158 -0.7887821 -0.8690932 -0.45869866 0.06683817 -1.1427059
0.93843484 -0.18854569 0.124153845 -0.22605187 -0.13078257 -0.21316834 0.014632651 0.011488355
-0.27045774 0.40065753 0.08760897 -0.4749137 -0.5363311 -0.1566952 0.3223479 -0.65131426
0.66256565 -0.15067454 1.4073004 0.36155346 0.27679962 0.16909078 0.005186087 0.6876617
-1.4173162 0.035842743 -0.033147458 0.16458996 0.098497204 0.21336739 0.26615545 0.48812062
0.026771622 0.23923734 -0.054634698 -0.15331738 -0.22884695 0.09913596 0.43744883 0.48328897
0.052126862 -0.06584276 0.09461406 -0.8668088 -0.29810613 0.36472902 -0.230202 -0.25159335
0.16414864 0.0011973436 -0.0060645095 0.088235915 -1.3178122 0.093127474 0.6035745 0.15965872
-0.13411692 0.29574743 -0.077226944 0.018584577 -0.17982717 -0.10603356 0.04380513 0.03704599
0.18900426 0.14628737 -0.19156536 0.23049936 0.3746294 -0.5045403 -0.115242936 -0.20726937
0.048778724 -0.11073089 0.15236296 -0.030237755 0.13792318 -0.23133135 0.086844824 -0.3219649
0.49259815 0.10118297 -0.15652636 -0.72055143 0.3157195 0.07522505 0.14596942 -0.4393429
-0.15359798 0.28022414 0.059397902 -0.03082198 0.20200677 0.03635083 -0.19214804 0.2273689
0.099716306 -0.053372394 -0.01086782 -0.004552586 0.10624954 -0.013735371 0.32874495 -0.33830512
-0.5051306 0.1936451 0.059569303 0.018787514 0.4501811 -0.048576694 -0.22040036 -0.09709142
0.1766546 0.45966923 0.1817373 -0.17737736 -0.071279965 -0.0011831224 -0.29570952 0.033009868
-0.73795927 -0.22161222 0.035300933 -0.28240806 -0.6950493 -0.2900231 0.03973628 -0.39061725
1.0033877 -0.12888227 -0.2815246 -0.13211487 0.1857804 -0.44662252 0.039581068 -0.3562846
0.22652383 -0.018645568 0.228926 -0.18981642 -0.4277892 -0.046211984 0.2929876 -0.77601683
0.33830494 -0.11663266 0.77373767 0.028384905 0.04805779 0.23362419 0.16783006 0.47222123
-1.0984515 0.015504457 0.08598552 -0.011026011 0.32554838 -0.031554077 0.049963 0.8556095
-0.0113170585 0.007967473 -0.35532314 -0.13409531 0.14915213 0.12638076 0.2082351 0.10530686
-0.1832993 -0.04060387 -0.14081009 -0.4638899 0.07293616 0.35962445 -0.273362 -0.010692709
0.30907872 0.30539447 0.3912367 0.16910213 -0.9116576 -0.0036275545 0.011947144 -0.072534494
00000000: bf4c 043e 00b5 60be 0f17 13be daa5 093e
00000010: cbfa 2bbd 86bc 643e 90e0 c8bd 110b 5f3e
00000020: ec54 afbd 13c2 b53c 8d31 51bc d75f 2bbd
00000030: 50be 863c 8099 783e 3798 903d e469 2f3e
00000040: 17df 1c3e b554 0cbe 061d 82be 9101 57bd
00000050: 1612 e93d 3bcf d7bc ba32 25be 6647 843b
00000060: 44d0 7fbe 366c 4f3e 8374 49be 3662 a73e
00000070: c032 66bd 25c9 79be 562e 94bd 3c2d b2be
00000080: ffff 643e 5645 0bbd e74f 47bd d3ee 2c3e
00000090: 2b8c 9f3d e0e7 f3bd d623 8cbe e1e5 a5be
000000a0: 90ca eb3d bd24 b83d 4669 6e3e feef 19be
000000b0: 9152 c6bd 99b4 bc3c 54b7 3fbe b4f6 103d
000000c0: 24d1 70bd cdca 0b3e 0e84 fb3d 4520 693c
000000d0: 2cf2 59be 724b 54bd 3f43 da3d cb0b 9b3d
000000e0: 1360 56be b444 95be 28dd 183d 2fbb 7e3d
000000f0: efcd 4d3c a99b b0bc 8586 1f3e 126a 10bd
00000100: fcce 88bf e7b4 74bf b53c 203e a0ed 49bf
00000110: e47c 5ebf 8dda eabe 73e2 883d 3044 92bf
00000120: 443d 703f 1f12 41be 5f44 fe3d 247a 67be
00000130: deeb 05be cd48 5abe c9bd 6f3c a739 3c3c
00000140: 7079 8abe fc22 cd3e 556c b33d e327 f3be
00000150: ff4c 09bf b574 20be c90a a53e 88bc 26bf
00000160: e79d 293f 6d4a 1abe 6b22 b43f 891d b93e
00000170: aeb8 8d3e 2226 2d3e 0df0 a93b 990a 303f
00000180: 9e6a b5bf d7cf 123d a1c5 07bd 458a 283e
00000190: e7b8 c93d fb7c 5a3e 8745 883e f2ea f93e
000001a0: 2950 db3c a2fa 743e a2c8 5fbd 3bff 1cbe
000001b0: db56 6abe cb07 cb3d 4bf9 df3e a771 f73e
000001c0: fa82 553d 92d8 86bd 04c5 c13d 2ee7 5dbf
000001d0: 5ea1 98be c3bd ba3e 13ba 6bbe d8d0 80be
000001e0: 9516 283e 2ff0 9c3a cbb8 c6bb 08b5 b43d
000001f0: 12ae a8bf 9eb9 be3d dc83 1a3f 937d 233e
00000200: f255 09be 356c 973e 2929 9ebd af3e 983c
00000210: 9d24 38be 2028 d9bd 026d 333d 89bd 173d
00000220: 558a 413e 5bcc 153e b629 44be 0608 6c3e
00000230: 6dcf bf3e 8e29 01bf 7d04 ecbd 6c3e 54be
00000240: 33cc 473d e0c6 e2bd 0905 1c3e 2bb5 f7bc
00000250: bc3b 0d3e 20e2 6cbe b3db b13d 95d8 a4be
00000260: d335 fc3e 0439 cf3d 7248 20be 0f76 38bf
00000270: fca5 a13e 970f 9a3d 0279 153e 8df1 e0be
00000280: ca48 1dbe 8a79 8f3e 374b 733d 617e fcbc
00000290: ddda 4e3e 9ce4 143d 75c2 44be 65d3 683e
000002a0: 1038 cc3d 039d 5abd f10e 32bc dc2d 95bb
000002b0: 5c99 d93d 520a 61bc 4251 a83e 5436 adbe
000002c0: 3d50 01bf e74a 463e f1fe 733d 46e8 993c
000002d0: 237e e63e 5bf8 46bd a2b0 61be ded7 c6bd
000002e0: f2e4 343e c459 eb3e 5819 3a3e 69a2 35be
000002f0: 3bfb 91bd 0013 9bba 3d67 97be 5b35 073d
00000300: e6ea 3cbf 50ee 62be b697 103d ca97 90be
00000310: c0ee 31bf e87d 94be 82c2 223d fcfe c7be
00000320: 026f 803f b7f9 03be fe23 90be 1f49 07be
00000330: 383d 3e3e b5ab e4be c21f 223d ef6a b6be
00000340: ddf5 673e 97be 98bc 946b 6a3e 3c5f 42be
00000350: 3007 dbbe c748 3dbd 7902 963e 0aa9 46bf
00000360: 4e36 ad3e 1bdd eebd ac13 463f 7687 e83c
00000370: 3fd8 443d 2e3b 6f3e a5db 2b3e fbc6 f13e
00000380: 0f9a 8cbf 6806 7e3c 2d19 b03d 71a6 34bc
00000390: 47ae a63e d93e 01bd 01a6 4c3d 3909 5b3f
000003a0: 2f6b 39bc 018a 023c eaec b5be 4850 09be
000003b0: 56bb 183e f569 013e 953b 553e 1fab d73d
000003c0: d0b2 3bbe 3e50 26bd 8530 10be fa82 edbe
000003d0: 8e5f 953d b220 b83e 1bf6 8bbe 7930 2fbc
000003e0: 913f 9e3e aa5c 9c3e 2d50 c83e 1c29 2d3e
000003f0: 6462 69bf 44bc 6dbb f4bd 433c f78c 94bd

linears.1.bias f4 [64]
-0.005391003 -0.14058834 -0.040198144 -0.051509492 -0.09662299 -0.09538455 -0.57812786 -0.08755439
-0.038154565 -0.11238108 0.074520454 0.0847195 0.08870883 -0.56878537 -0.036417656 -0.021465395
0.04933677 -0.003022184 0.007001282 -0.010701654 -0.011246874 -0.14853776 -0.12501055 -0.14713787
0.051937737 -0.0077512544 0.14295754 0.05042247 -0.041459057 0.0026200237 -0.09080098 0.024946427
0.045935504 0.049545527 0.010298726 0.018540375 -0.019298881 -0.22453482 -0.036523074 0.02260293
-0.016670808 0.031064436 0.026771648 -0.073716775 -0.019553367 0.026338002 -0.3420648 -0.05151151
-0.4186448 0.027306518 0.014542427 0.047864746 0.043962926 -0.09195346 0.19762175 -0.0032048328
0.055158388 0.024484996 0.05735444 0.04897303 0.010042843 0.11832892 -0.14772879 0.029752348
00000000: 03a7 b0bb 64f6 0fbe cfa6 24bd 9efb 52bd
00000010: 46e2 c5bd fa58 c3bd 3000 14bf b74f b3bd
00000020: f647 1cbd 0d28 e6bd 2e9e 983d 6b81 ad3d
00000030: faac b53d eb9b 11bf ae2a 15bd 32d8 afbc
00000040: 5a15 4a3d d50f 46bb 036b e53b fd55 2fbc
00000050: cf44 38bc 481a 18be c402 00be 4fab 16be
00000060: aabc 543d 3cfe fdbb 7663 123e cb87 4e3d
00000070: f9d0 29bd b4b4 2b3b ddf5 b9bd 735c cc3c
00000080: de26 3c3d 40f0 4a3d fdbb 283c fce1 973c
00000090: b018 9ebc 75ec 65be 3899 15bd c829 b93c
000000a0: 3891 88bc d87a fe3c 3750 db3c d2f8 96bd
000000b0: 622e a0bc cbc2 d73c 1e23 afbe bcfd 52bd
000000c0: 9c58 d6be ebb1 df3c 5c43 6e3c d30d 443d
000000d0: 7812 343d 1852 bcbd 5b5d 4a3e 2c08 52bb
000000e0: c3ed 613d c294 c83c 7dec 6a3d f297 483d
000000f0: bd8a 243c 6f56 f23d 3746 17be 32bb f33c

linears.2.weight f4 [64, 64]
0.16428702 -0.14116746 0.018802254 0.14221545 0.046217382 -0.0009190365 0.008200858 0.35930166
-0.19402538 0.35039398 -0.18759006 -0.25234282 -0.06430642 -0.047770437 -0.11174639 -0.07980997
-0.051932268 -0.14001322 -0.2343379 -0.12201453 0.03948032 0.35415506 -0.04031406 0.02415789
-0.065245055 0.13770188 -0.15725814 0.14042914 -0.08776056 0.24863182 0.19656037 0.11709209
0.2595042 0.09496422 -0.1630638 -0.024079291 0.15104912 0.162881 0.17148161 -0.29968384
0.22429517 -0.07319041 -0.07441867 -0.15026216 -0.058270436 0.07516317 -0.14384665 -0.15258965
-0.20652318 0.09565097 0.19027 -0.022338813 -0.10225762 -0.06778443 0.4378633 -0.1483593
-0.21625887 -0.12325279 -0.047644295 0.009954988 0.27713037 -0.20885578 -0.0677862 -0.25279227
0.23193282 -0.09509712 -0.46718454 0.036230717 -0.19083448 -0.42460206 0.2387702 -0.12724653
-0.057070006 -0.32917964 0.12817353 0.18397869 0.12735744 -0.35395604 -0.018262144 0.049479738
0.33791324 -0.37654588 -0.2678284 -0.45445165 -0.12794536 0.65625966 -0.1277635 -0.034163292
0.3395498 -0.047539823 -0.107322365 -0.039026584 -0.2350319 0.37558445 -0.017269494 0.08099343
0.46340135 0.19076826 -0.014302231 0.18041116 -0.54842174 0.37548846 -0.35136268 -0.25515956
-0.00030738613 -0.021754347 0.49543175 -0.32564965 -0.11349621 -0.17424195 -0.10304704 -0.21944211
-0.48391095 0.37279907 0.5898328 -0.30433032 0.048130825 -0.03293921 0.5746953 0.4248458
-0.04221728 -0.0030560275 -0.362068 -0.07984712 0.1382815 0.5710722 0.5283974 -0.43156144
0.007466828 -0.009708791 0.14706217 -0.036395494 0.28418303 -0.15759802 0.51571643 0.526986
0.22124965 0.511902 -0.1396006 -0.07548111 0.13866048 -0.2983254 0.3609355 0.1425585
0.32508463 0.088111565 0.28311348 0.07043773 -0.034675732 0.7246474 0.15235563 0.29826203
-0.3714515 -0.11213412 -0.6006041 -0.19479218 0.18344654 0.05925943 -0.005471398 0.06340862
-0.28573585 0.03515953 0.06624036 -0.009627505 0.19218466 0.94908065 -0.0071044993 -0.03884075
0.23396441 -0.17403097 0.5726885 0.08663189 0.29260072 -0.06967227 -0.10911877 0.16388865
-0.2349226 -0.10528166 0.31938964 0.5490991 0.33047247 0.34773323 -0.32073376 -0.29367858
-0.2731966 -0.35781965 -0.36912236 -0.24556364 0.14705597 -0.22420236 0.24696405 -0.33991858
-0.07791647 -0.061744228 0.094383046 -0.16939928 0.09964529 0.2896424 0.23045364 0.66657203
0.19532177 0.31043804 -0.16249394 -0.465966 0.0058662086 -0.4651453 0.36602747 0.24508572
0.30834648 -0.3384657 0.42919305 0.4295648 -0.40321407 0.34845513 0.0904811 0.19827957
-0.09693427 -0.12409195 -0.44697 0.011574886 0.008813497 0.21096769 0.26231062 -0.20418046
0.23420249 -0.31776434 -0.2661226 0.30560973 0.48556948 0.7950386 0.11383435 0.14951985
0.13177353 -0.07910356 0.44907436 0.04708745 0.48508322 -0.036299538 -0.0979207 0.3979853
-0.5031318 -0.34404725 0.4250866 0.7495744 0.35800287 0.33880466 0.22689928 -0.34536564
-0.21143901 -0.19431895 0.08977821 -0.047857918 0.15159287 -0.15805602 0.53319895 -0.2345487
00000000: db3a 283e 348e 10be 2f07 9a3c eda0 113e
00000010: 704e 3d3d 7feb 70ba e45c 063c 63f6 b73e
00000020: 97ae 46be d766 b33e 9c17 40be 1433 81be
00000030: 16b3 83bd efaa 43bd 4bdb e4bd 6973 a3bd
00000040: eeb6 54bd a05f 0fbe 46f6 6fbe c1e2 f9bd
00000050: 1eb6 213d d053 b53e 5b20 25bd c4e6 c53c
00000060: 339f 85bd b901 0d3e 4708 21be a8cc 0f3e
00000070: cfbb b3bd 5799 7e3e 1f47 493e facd ef3d
00000080: bcdd 843e 9a7c c23d 32fa 26be ef41 c5bc
00000090: 9fac 1a3e 47ca 263e e098 2f3e 2970 99be
000000a0: a2ad 653e dbe4 95bd d168 98bd 53de 19be
000000b0: fbac 6ebd 26ef 993d 894c 13be 7640 1cbe
000000c0: d07a 53be a8e4 c33d 24d6 423e e3ff b6bc
000000d0: 716c d1bd 90d2 8abd 9e2f e03e 80eb 17be
000000e0: f772 5dbe f56b fcbd aa26 43bd 3f1a 233c
000000f0: 08e4 8d3e 4ade 55be 7ed3 8abd fd6d 81be
00000100: cc7f 6d3e 47c2 c2bd d032 efbe a966 143d
00000110: 1d6a 43be 7165 d9be 2d80 743e ea4c 02be
00000120: 3dc2 69bd 3c8a a8be ec3f 033e e964 3c3e
00000130: fd69 023e ba39 b5be 7e9a 95bc 44ab 4a3d
00000140: f702 ad3e 9fca c0be ce20 89be e3ad e8be
00000150: 1c04 03be a200 283f 6fd4 02be cfee 0bbd
00000160: 79d9 ad3e 1eb9 42bd d4cb dbbd 57da 1fbd
00000170: 34ac 70be 9b4c c03e c178 8dbc e2df a53d
00000180: f142 ed3e c158 433e e853 6abc b4bd 383e
00000190: 5e65 0cbf 0640 c03e cfe5 b3be 46a4 82be
000001a0: ab28 a1b9 2c36 b2bc 3ba9 fd3e 8dbb a6be
000001b0: b370 e8bd 7b6c 32be 540a d3bd 6fb5 60be
000001c0: 2dc3 f7be 85df be3e 48ff 163f 2fd1 9bbe
000001d0: d424 453d 44eb 06bd 3b1f 133f 6485 d93e
000001e0: 07ec 2cbd a247 48bb fa60 b9be e386 a3bd
000001f0: aa99 0d3e ca31 123f 0d45 073f 9ff5 dcbe
00000200: 4bac f43b 9f11 1fbc 7797 163e 7113 15bd
00000210: 7080 913e 6061 21be fe05 043f 8ee8 063f
00000220: 458f 623e 020c 033f 76f3 0ebe d795 9abd
00000230: 03fd 0d3e 1bbe 98be 8acc b83e dbfa 113e
00000240: 7e71 a63e d673 b43d 40f4 903e a841 903d
00000250: 2408 0ebd 7e82 393f 1d03 1c3e cdb5 983e
00000260: e42e bebe 93a6 e5bd 31c1 19bf 9a77 47be
00000270: 69d9 3b3e 04ba 723d 6a49 b3bb 61dc 813d
00000280: f84b 92be 7003 103d 07a9 873d afbc 1dbc
00000290: 0ecc 443e f3f6 723f dccc e8bb 7a17 1fbd
000002a0: 5e94 6f3e 2d35 32be b79b 123f 0f6c b13d
000002b0: c3cf 953e 56b0 8ebd a979 dfbd 6dd2 273e
000002c0: 8d8f 70be e99d d7bd 0a87 a33e c291 0c3f
000002d0: b033 a93e 170a b23e 3737 a4be 0a5d 96be
000002e0: 6de0 8bbe 2334 b7be 9bfd bcbe 0975 7bbe
000002f0: d795 163e 4e95 65be 25e4 7c3e cf09 aebe
00000300: ac92 9fbd 84e7 7cbd e64b c13d 0177 2dbe
00000310: d412 cc3d 024c 943e 0afc 6b3e 77a4 2a3f
00000320: 6e02 483e bcf1 9e3e d064 26be 1893 eebe
00000330: 5339 c03b 8627 eebe f467 bb3e c0f7 7a3e
00000340: 97df 9d3e 604b adbe 31bf db3e ebef db3e
00000350: 1372 cebe b668 b23e 284e b93d cd09 4b3e
00000360: 7985 c6bd ec23 febd 40d9 e4be 97a4 3d3c
00000370: 7c66 103c ea07 583e 944d 863e af14 51be
00000380: c7d2 6f3e 02b2 a2be 3941 88be e178 9c3e
00000390: 909c f83e a687 4b3f fc21 e93d bb1b 193e
000003a0: a4ef 063e 0c01 a2bd 13ed e53e c5de 403d
000003b0: d45c f83e d3ae 14bd a68a c8bd bbc4 cb3e
000003c0: 3fcd 00bf f626 b0be f3a4 d93e 1ce4 3f3f
000003d0: 274c b73e ce77 ad3e 4958 683e c4d3 b0be
000003e0: 7883 58be 8cfb 46be a3dd b73d aa06 44bd
000003f0: 293b 1b3e 70d9 21be ba7f 083f 892d 70be

linears.2.bias f4 [64]
-0.02581794 0.075306885 -0.062688015 -0.05787399 -0.03438776 0.02941932 -0.04303755 0.07961848
-0.047563832 -0.043951962 0.03779995 0.029213522 0.046720564 -0.037244882 0.03036075 0.07865398
-0.041793797 0.052616306 0.0033459198 0.055555947 0.05256161 0.0414621 0.068530746 -0.04900183
-0.053470172 0.055097215 -0.11277896 0.071604684 -0.03084593 -0.05448203 0.055741247 -0.14729077
-0.004118752 -0.03791027 0.026002837 -2.46945e-05 0.05799076 -0.041013397 0.050786402 -0.069113165
0.04007663 0.007671311 -0.03953497 0.03957784 0.05190001 0.06309993 0.018846197 -0.028684668
-0.03973811 0.049003314 -0.015590464 -0.07267766 0.061473265 -0.011933087 -0.007552576 -0.04769489
0.016316662 0.033929694 -0.027112659 0.05976302 0.09095594 0.12688398 0.04548453 0.027648058
00000000: 2580 d3bc 7f3a 9a3d 9362 80bd 470d 6dbd
00000010: 2eda 0cbd c900 f13c 2448 30bd 030f a33d
00000020: 4bd2 42bd f906 34bd 1fd4 1a3d 3251 ef3c
00000030: 105e 3f3d 178e 18bd 1cb7 f83c 5615 a13d
00000040: f92f 2bbd 3284 573d 3847 5b3b a28e 633d
00000050: d84a 573d 2ad4 293d d959 8c3d 25b6 48bd
00000060: 8a03 5bbd 9ead 613d a8f8 e6bd 7aa5 923d
00000070: 9bb0 fcbc 8d28 5fbd ef50 643d 64d3 16be
00000080: 99f6 86bb cd47 1bbd e703 d53c 0927 cfb7
00000090: b887 6d3d aafd 27bd 6705 503d 348b 8dbd
000000a0: 6427 243d 9f5f fb3b 6cef 21bd 601c 223d
000000b0: 1b95 543d 893a 813d 5763 9a3c 1cfc eabc
000000c0: 6ec4 22bd b3b7 483d 256f 7fbc 06d8 94bd
000000d0: 64cb 7b3d ff82 43bc 997b f7bb b85b 43bd
000000e0: 85aa 853c ddf9 0a3d 5e1b debc 12ca 743d
000000f0: 1c47 ba3d e0ed 013e fd4d 3a3d 2e7e e23c

linears.3.weight f4 [1, 64]
0.43908486 0.9270705 0.46745244 0.40045196 0.42581123 0.6107583 0.6714066 -0.3979464
0.4369176 0.085055634 -0.3040089 -0.2948333 -0.26971033 0.26183432 -0.194962 1.1952926
0.4437342 -0.3065824 -0.767338 -0.32667443 -0.29633924 -0.5095061 -0.53473425 0.32574674
0.314005 -0.20517145 0.49879497 -0.5768641 0.35461563 0.11649428 -0.2825829 0.56977963
0.21024776 0.38126752 -0.522486 0.40692112 -0.4408336 0.5136512 -0.30735335 0.5536921
-0.4859644 -0.41059253 0.27667698 -0.25510228 -0.21483256 -0.28339523 -0.6580732 0.39763466
0.14916962 -0.19896385 -0.3739027 0.23765743 -0.5203883 0.23405159 -0.34262678 0.19805995
-0.169887 -0.30729225 0.40736455 -0.23148592 -0.693158 1.035572 -0.26064056 -0.3062752
00000000: bbcf e03e 7e54 6d3f ed55 ef3e 0a08 cd3e
00000010: ee03 da3e a85a 1c3f 4ee1 2b3f a1bf cbbe
00000020: aab3 df3e a631 ae3d 0ea7 9bbe 64f4 96be
00000030: 7917 8abe 260f 863e 1ea4 47be 59ff 983f
00000040: 2131 e33e 5ef8 9cbe 4370 44bf df41 a7be
00000050: c7b9 97be fe6e 02bf 58e4 08bf 47c8 a63e
00000060: 43c5 a03e 7718 52be 0e62 ff3e 5ead 13bf
00000070: 2e90 b53e 8e94 ee3d b5ae 90be 14dd 113f
00000080: 304b 573e 7f35 c33e a4c1 05bf f757 d03e
00000090: f1b4 e1be a57e 033f 6b5d 9dbe c4be 0d3f
000000a0: 53d0 f8be 2f39 d2be 9ba8 8d3e c49c 82be
000000b0: 11fd 5bbe 2e19 91be 7c77 28bf c596 cb3e
000000c0: ecbf 183e 2ebd 4bbe 2d70 bfbe 785c 733e
000000d0: 2b38 05bf 38ab 6f3e c76c afbe 3ad0 4a3e
000000e0: dcf6 2dbe 6955 9dbe 1692 d03e a50a 6dbe
000000f0: cd72 31bf a08d 843f ae72 85be 1ad0 9cbe
