Complete_thesis_stage_1_and_2/(d).Code_and_all_other_details/WAAM/PINN_CONSTANT_PROP/Sequential_trail_1/Models/model_epoch_2000.pt (torch, 38252 bytes, 7 tensors)

linears.0.weight f4 [64, 4]
000000 b0 c8 05 be a0 ad 85 3e 01 4f 61 3e 00 6e 3c 3e
       -0.13064837 0.26109028 0.22002794 0.18401337
000010 a7 81 80 3e 9d 2a 6b bd 6e 9b a2 bd 72 f6 98 3d
       0.25098917 -0.057413686 -0.07939802 0.07468881
000020 91 74 9a bd cb 60 7e 3e 70 42 c2 3d c4 72 1f be
       -0.075417645 0.24841611 0.09485328 -0.15571123
000030 aa 05 68 3e 97 ec 7e 3e 20 ac 56 3e e2 2e e0 3d
       0.2265841 0.2489494 0.20964098 0.10946442
000040 af 5f 91 3d 02 8d 85 be 5e 05 0a 3e 47 ec 68 3d
       0.07098328 -0.26084143 0.1347861 0.056865957
000050 f9 82 55 3e 4a 73 42 3c 56 88 89 3d d7 3b 15 3e
       0.20850743 0.011868307 0.06715457 0.14573608
000060 91 b0 19 3e 9e 9a c8 3d 2b c6 67 be f9 aa 8f be
       0.15008761 0.09795116 -0.22634189 -0.2806013
000070 69 4b 87 3e e4 6a 62 be d7 e6 da 3d 1c 1d 32 3e
       0.2642472 -0.22111088 0.106885605 0.17393917
000080 93 c4 56 be 22 ef 69 3c e3 88 43 3e 59 c6 5f be
       -0.20973425 0.014278205 0.19095187 -0.21853007
000090 9a e0 8d bc 61 89 0b 3e 6b 21 91 bc dd 27 03 3e
       -0.017319012 0.13626625 -0.01771613 0.12808175
0000a0 c9 71 6b bd f8 14 f4 bd 6e eb 4b 3e a0 27 87 3e
       -0.05748156 -0.11918062 0.19914028 0.2639742
0000b0 26 79 80 3e 3e ab 84 be b7 71 69 3e a0 68 d4 bd
       0.2509243 -0.25911897 0.22797285 -0.10371518
0000c0 6d 07 32 3d 8c f4 73 3e c3 d5 37 bc 15 35 9d bd
       0.043464113 0.23823756 -0.011220398 -0.0767614
0000d0 32 ce 89 be f0 ed ae 3b 74 ba 54 3d d4 9a 01 3e
       -0.26915127 0.005338423 0.051935628 0.12656718
0000e0 33 5a 7d be f3 ee 22 be 1a 49 8f 3e b9 c4 26 3d
       -0.2474144 -0.15911464 0.2798546 0.040714953
0000f0 c9 f6 fc bc ed 0b 6f 3e a8 8a 03 bb ba 31 91 3e
       -0.030879395 0.23344393 -0.002007166 0.2835825
000100 ce 6a f0 3d fe 23 72 3d 13 6d 36 3e f0 db 08 bd
       0.117391214 0.059116356 0.17815046 -0.033412874
000110 05 fb 4a bd 15 24 5f 3e 9e 69 0e bd 9e f3 78 bd
       -0.049555797 0.21791108 -0.034768693 -0.060779206
000120 c4 5f 6c be 9b 0d 02 bd a5 d4 86 be 6a b2 81 be
       -0.23083407 -0.031751256 -0.2633411 -0.25331432
000130 5f d7 e9 3d c9 c1 7a be 3c 50 f9 3d 8d 88 d9 3d
       0.11418032 -0.24487986 0.121735066 0.10621748
000140 20 71 08 3e 2a 15 32 3e c9 e4 df 3d d8 e2 46 3e
       0.13324404 0.17390886 0.10932309 0.19422472
000150 0f b7 93 be b2 cc eb 3d 2b 88 8b 3e 6f 2a 94 3e
       -0.288506 0.11513652 0.27252325 0.28938624
000160 18 03 80 be 21 7c 68 be fb b2 39 3e 0a 83 75 be
       -0.2500236 -0.22703601 0.18134682 -0.23975769
000170 7b d5 5e be b4 bb 48 3d b0 8d ba 3d 4f e6 91 3e
       -0.21761124 0.049007133 0.09109056 0.28496024
000180 eb 23 17 be bf 2d 03 3e 0c 62 29 bd 6f ab 00 3d
       -0.14759795 0.1281042 -0.04135327 0.03141349
000190 31 71 ea 3d a5 e2 34 3e eb 5c 20 bd e7 b7 ea 3d
       0.11447371 0.17664583 -0.039151113 0.11460858
0001a0 af 52 0a be f9 3d fd 3d de 54 39 3e 5a 58 00 3e
       -0.13508104 0.12365336 0.1809878 0.12533703
0001b0 5f 0e 07 be 67 e9 4a 3e fc 15 93 3d fe 69 72 3d
       -0.13189076 0.19815598 0.071819276 0.059183113
0001c0 62 41 fe 3d 14 20 05 bd c0 9a 97 3e 7d e0 15 be
       0.124148145 -0.032501295 0.29610252 -0.14636417
0001d0 5c 34 4f 3e 25 18 b8 3d 12 3b a2 3b 4b af 70 be
       0.20234817 0.0898898 0.0049508894 -0.23504369
0001e0 dd 18 54 bd 2c 83 5d be a2 3a 83 be 7c f1 4b be
       -0.051781524 -0.2163207 -0.2563067 -0.19916338
0001f0 ab e1 c4 3d 86 7c 70 3d b4 70 f9 bd 39 a0 59 3d
       0.09613355 0.058712505 -0.121796995 0.053131316
000200 f2 36 f0 bd 38 82 ce bb b0 ef bd 3d f5 fd 99 3e
       -0.1172923 -0.0063021444 0.092742324 0.30076566
000210 85 cd 57 3e e0 37 8f 3d 8c 59 55 3e ac d9 12 be
       0.21074493 0.06993079 0.2083494 -0.14340848
000220 fa 22 4f bc ea 7c 28 3d 07 cd 53 be 63 8d 18 bd
       -0.012642616 0.041134752 -0.2068368 -0.037244212
000230 a9 2b 4e 3d 1f 73 4d bd e2 86 9a 3e ec 48 99 be
       0.050334606 -0.050158616 0.30181032 -0.29938447
000240 c4 b3 0d 3e 46 1c 7c 3e fa 93 7d be b7 58 76 be
       0.13838106 0.2462016 -0.2476348 -0.2405728
000250 53 ba 00 be 03 74 f4 3d 52 ea 90 3d 8a 8a 95 bd
       -0.12571077 0.1193619 0.07075943 -0.07301815
000260 99 44 2c be 68 9d 1a be 13 58 8c be 1c e8 2e be
       -0.16823043 -0.15099108 -0.27410945 -0.1708073
000270 94 2b 7b 3e ef 6c 1c bd b8 27 f1 bb 90 e3 95 be
       0.24528342 -0.038189825 -0.007359471 -0.2927518
000280 5c 50 2c 3e ae 80 d9 bd 6f 29 ad bd ab 6d 21 be
       0.1682753 -0.10620247 -0.084551685 -0.15764491
000290 4e 73 f1 3c 01 c5 b4 bc 9c 18 33 3e b1 33 a5 bd
       0.029473927 -0.022066595 0.17489856 -0.080665
0002a0 eb 5d 43 be f3 6d 0b be a2 33 a6 bc ec 43 91 3e
       -0.19078796 -0.13616161 -0.020288292 0.28372133
0002b0 0a 25 26 3e 65 4e 27 3c 2d 5b 75 be 70 ef 9a 3e
       0.16225067 0.010211562 -0.23960562 0.302608
0002c0 8c df 21 3e e8 ad 1b 3e 87 44 07 3d d9 2a 03 be
       0.15807933 0.15203059 0.033024337 -0.12809314
0002d0 5d 87 c7 bd 79 b3 83 3d 04 61 63 3e 9d 30 35 3c
       -0.09742615 0.06430716 0.22204977 0.011058954
0002e0 17 ab 0a 3e 84 8c ba 3b 50 94 65 bd 81 e4 47 bd
       0.13541828 0.0056930203 -0.056049645 -0.048801903
0002f0 61 74 3f be a2 aa 17 3e 60 14 7e bd cc 6b 82 bd
       -0.18696739 0.14811185 -0.06203115 -0.06368217
000300 02 f1 90 be 8c 68 c0 3d a2 a0 3a be f2 72 ef 3c
       -0.28308874 0.09394941 -0.18225339 0.029229615
000310 aa 65 1d bd f4 d7 89 3e 50 eb 92 be 6c 39 37 3e
       -0.038427033 0.26922572 -0.28695154 0.17892998
000320 44 eb c9 3d 0d 2d 96 3e 6f 2d 82 be a8 a5 5c 3e
       0.098593265 0.29331246 -0.25425288 0.21547568
000330 be 1d 2c 3e 96 f9 50 3e 3a e1 6d 3e eb a2 80 3e
       0.1680822 0.2040771 0.23230448 0.25124297
000340 9e 75 7d 3d 36 52 b0 bd 9d e6 7a bd fa 3a 39 bd
       0.061879747 -0.086094305 -0.061255086 -0.04522226
000350 41 f1 11 bd d5 19 48 be d9 98 b5 3d 5d 51 7c be
       -0.03563047 -0.19541104 0.08867044 -0.24640413
000360 57 87 6a be 9d db b6 bd 51 23 8a be 32 e9 57 3e
       -0.2290319 -0.08928607 -0.2698007 0.2108505
000370 83 de d4 bd 21 96 1d bd 42 d7 55 be be 29 14 3d
       -0.10394003 -0.038473252 -0.20882896 0.03617262
000380 3e 16 91 3c 72 77 e6 bc 1f 44 7c be 5e 2d 12 be
       0.017710801 -0.028133128 -0.24635361 -0.14275119
000390 ed cd 79 3e a8 b5 ef bd d6 1e 8d be 0a 78 f8 bd
       0.2439496 -0.1170457 -0.27562588 -0.12132271
0003a0 19 38 5c 3e c3 57 a4 3d 0b 74 7d bc a7 52 4d be
       0.21505775 0.08024552 -0.015469561 -0.2005106
0003b0 01 b1 8b be 56 84 5a 3e a6 34 46 3e 6e 41 7a be
       -0.2728348 0.21339545 0.19356021 -0.24439022
0003c0 e2 6d 1c 3e e2 16 64 3e 9c 54 9e bd 2f 94 25 3e
       0.15276292 0.22274354 -0.07730982 0.16169809
0003d0 35 b1 82 3e f7 75 7a bd 41 51 b6 3d 7c 4e 07 3e
       0.25525823 -0.061147656 0.08902217 0.13213533
0003e0 59 c8 5f be 76 1d f1 3d bc b4 89 be 81 be e2 3c
       -0.2185377 0.11773197 -0.26895702 0.02767873
0003f0 de 82 1f 3e 84 43 39 3e bb 75 24 be 0a c3 6f be
       0.15577266 0.18092161 -0.16060536 -0.23414245

linears.0.bias f4 [64]
000000 bf bf bf 3c d8 c3 62 bd 30 d1 0b 3d 79 5b c8 bc
       0.023406861 -0.055362552 0.034135044 -0.02445768
000010 cd 82 57 bc 06 01 03 bd d7 15 ce 3c aa fb 3d bd
       -0.013153744 -0.031983398 0.025156898 -0.046382584
000020 01 30 80 3d 98 16 e1 bc 4c 28 bb 3c b0 0d 28 bc
       0.06259156 -0.027476594 0.022846363 -0.01025717
000030 0e da 25 3d 88 8e a4 bc 05 9b 0e 3d 79 5c 59 bd
       0.040491156 -0.020087495 0.034815807 -0.053066704
000040 f5 c8 69 3d c1 41 4d bb 08 58 e7 3c 97 d3 5e 3c
       0.057076413 -0.003131971 0.028240219 0.013600252
000050 58 b7 f2 3c d6 d7 10 bd e3 07 2f 3d 77 93 e8 bb
       0.02962844 -0.035362087 0.04273213 -0.0070976573
000060 ed dc 59 be d4 69 f5 bc 04 e1 2e be 11 24 4c bc
       -0.21275683 -0.02995769 -0.17078024 -0.012459771
000070 d0 41 4b 3d 22 c8 d7 3c bc 08 02 3d 9d d4 88 3e
       0.04962331 0.026340548 0.03174661 0.2672471
000080 b9 72 a3 bc 11 69 02 3e ce e1 aa 3c 76 66 74 3d
       -0.019952165 0.12735392 0.020859625 0.059668027
000090 7a 08 42 ba 37 a0 02 3d c5 8a d6 3c c8 01 f5 3c
       -0.0007401776 0.031891074 0.026189217 0.029908076
0000a0 0c 67 22 3d d5 e2 13 3d 25 4e 4c b9 29 56 36 bd
       0.039649054 0.036104996 -0.00019484067 -0.044515762
0000b0 8d b8 e2 3c da 75 7c 3d fe 39 af bd 83 52 21 3d
       0.027675891 0.06163583 -0.08555983 0.03938533
0000c0 49 47 a6 bc 49 bb 18 bd cb f6 9b 3c 9b d0 12 bd
       -0.020297663 -0.037287984 0.019038578 -0.035843473
0000d0 0b b6 19 3d dd c0 a5 3d 9a 75 ba bc 02 b4 fb bc
       0.037527125 0.080934264 -0.022761155 -0.030725483
0000e0 ad 3a e0 bc 47 52 f2 bc f6 75 ea 3c 68 ac 38 3d
       -0.027371729 -0.029580249 0.028620701 0.045086294
0000f0 8e 4f 48 3c af 3e 55 bd 6f 3a b2 3c 2a 63 e8 3c
       0.012225999 -0.052061733 0.021756379 0.028367598

linears.1.weight f4 [64, 64]
000000 ae 5e dc 3c 67 b0 4c be de f1 12 be 28 1f 68 3d
       0.026900616 -0.19989167 -0.14350078 0.056670338
000010 74 47 cf bd b0 5b 4e 3e f9 53 04 bd 9b c7 38 3e
       -0.101210505 0.20152164 -0.032306645 0.18044893
000020 5c c0 04 bd 15 cf 1f bc e7 ba 6a bd d2 f5 ff bc
       -0.03241001 -0.009753962 -0.05730715 -0.031245146
000030 25 a7 c6 bb 0b 54 c2 3d bc 61 72 3c 4a 13 e2 3d
       -0.0060624056 0.09488686 0.0147938095 0.11038835
000040 ca ed 1b 3e 28 7a db bd a5 16 62 be a4 ab 86 bd
       0.15227428 -0.10716659 -0.2207895 -0.065757066
000050 0e ba 85 3d ea 1e 12 be f8 45 e6 bd c4 2b 93 bd
       0.06529628 -0.14269605 -0.11243814 -0.07186082
000060 f4 84 ce bd 05 de 39 3e a9 e2 83 bd 09 ba 3d 3d
       -0.100839525 0.181511 -0.06439716 0.046319995
000070 fc c6 8b bc 53 b3 55 be fc 8f 13 bc 23 18 ba bd
       -0.017062657 -0.20869188 -0.0090064965 -0.09086635
000080 53 2b 21 3e 21 4d d6 bc c5 db 28 bc 3c e6 33 3e
       0.15739183 -0.026159825 -0.010306303 0.17568296
000090 1d 62 2d 3e 9b 24 fc bd 55 21 67 be 84 74 73 bd
       0.16931958 -0.123116694 -0.22571309 -0.05943729
0000a0 99 79 4b 3e 3d e6 b7 3d 42 e3 17 3e 85 79 26 be
       0.19870605 0.08979461 0.14832786 -0.16257294
0000b0 34 cd a9 bd 21 ad ae bc a2 46 8b 3d 4d 9c 50 3d
       -0.082910925 -0.021322789 0.068005815 0.05093031
0000c0 14 f7 9d bd 6f 1b fa 3d b0 1b 02 3e 94 9b 2f bd
       -0.07713142 0.12212264 0.12705874 -0.04287298
0000d0 64 e4 b9 bd b3 a5 72 3d ec 54 b3 3d 0d ee a2 3d
       -0.09076765 0.059240054 0.08756432 0.07955561
0000e0 45 10 f9 bd 82 44 75 bd c5 b1 96 3d bb 4b b5 3d
       -0.12161306 -0.059879787 0.073581256 0.08852335
0000f0 de 5b 4d bd 80 14 18 3d 98 c7 0e 3e 01 d6 37 3d
       -0.05013644 0.037128925 0.13943326 0.044881824
000100 b7 b3 30 be d6 bf 0c be 93 d6 dc 3d de 36 1d be
       -0.17256056 -0.13745055 0.10783114 -0.15352961
000110 be 64 33 bd 14 bb 5d be e0 ae 8a 3d 32 61 2c be
       -0.043797247 -0.21653396 0.06771636 -0.16833952
000120 16 0b 4f 3e 19 02 db bd 8e dc 4b 3e 68 c5 0a be
       0.20219073 -0.106937595 0.19908354 -0.13551867
000130 6d 07 7f 3d 2b 45 fd bd 4c aa 92 bd e8 7c ed 3d
       0.06226294 -0.12366708 -0.07161388 0.115960896
000140 b4 6e 34 be df 43 9f 3d 41 29 06 be e5 be e4 bd
       -0.17620355 0.07776617 -0.13101675 -0.11169223
000150 6a 9f fc bd dd 58 ec ba f5 d3 fc 3d 33 02 d6 bd
       -0.12335093 -0.0018031854 0.12345115 -0.10449638
000160 b1 9e 7c 3d 51 48 8f bc fb 72 2a 3e 09 c4 b3 bd
       0.061674777 -0.017490538 0.16645424 -0.08777625
000170 86 73 3e 3e bc eb df 3d fb 75 dd bd b0 6f 88 3e
       0.18598756 0.10933635 -0.108135186 0.2664771
000180 58 49 8e bd 4d 10 14 3e c2 eb d6 3d 53 d9 20 3e
       -0.06947583 0.14459343 0.10494186 0.15707903
000190 13 7e 09 3c ea 18 da 3d a9 d9 3d 3d c0 cb fa bc
       0.008391875 0.10649283 0.046350155 -0.030614734
0001a0 6d c7 50 3c 06 18 64 3e 8d 99 00 3e 8a 23 e3 bd
       0.012742859 0.22274789 0.12558575 -0.11090763
0001b0 2c 23 0c be 6b ae 1c 3e a8 c5 11 3e 93 10 81 3d
       -0.13685292 0.1530091 0.14235556 0.063019894
0001c0 5d 1f ff bd 4b d3 ce bb 66 cc 0f 3e 31 1e 67 bd
       -0.12457154 -0.006311809 0.14042816 -0.056425277
0001d0 ab e6 1b 3e 61 04 32 3e 6e 93 3f be 30 f2 6d be
       0.15224712 0.17384483 -0.18708584 -0.23236918
0001e0 4b eb a9 bc de fc cd bc 7a fd e7 bc 98 9f a3 bd
       -0.02074208 -0.02514499 -0.02831911 -0.079894245
0001f0 93 ba 28 3d bf fd ea 3d 83 4b 40 3e e0 dd 9c 3d
       0.041193556 0.114741795 0.18778805 0.07659507
000200 3f 03 9d 3d 2c be 0e 3d 14 99 a7 bd e8 17 16 be
       0.07666635 0.03484933 -0.08183494 -0.14657557
000210 bb e0 26 be 12 5d 50 be 60 33 03 be 06 cd 7d bd
       -0.16296665 -0.20348004 -0.12812567 -0.061963104
000220 8e cc 3f 3e 3b 24 1e 3e 5b 5c 90 bd 27 f7 81 3d
       0.18730375 0.15443508 -0.070488654 0.06345969
000230 17 f6 1b 3e f1 77 fb bd e2 37 1d 3e e8 6a e9 bd
       0.15230595 -0.122787364 0.15353349 -0.11397344
000240 86 c5 f7 bd 9a 14 b9 bd 65 bf 48 3e 75 ca b9 bd
       -0.120982215 -0.090371326 0.19604261 -0.09071819
000250 d5 c8 00 3e f4 3b 40 3b 2a 7d 0a 3e 21 1c 2b be
       0.12576611 0.002933261 0.13524309 -0.16709949
000260 55 ea 3d 3d 27 e2 1c bd 07 a6 2e be 08 e3 46 bd
       0.046366055 -0.038301613 -0.17055522 -0.048556358
000270 ff b1 4c 3e f4 d7 dc bd ff c5 2e 3e 08 1b 2a be
       0.19989775 -0.10783377 0.17067717 -0.16611874
000280 2c 16 85 bd 4c 14 19 3e 28 bf b7 bd ca 78 9b bd
       -0.064983696 0.14949149 -0.08972007 -0.07591398
000290 06 f9 13 3d de 48 14 3e c2 c5 dd bd a0 b7 60 3c
       0.03612616 0.14480922 -0.10828735 0.013715655
0002a0 df 1e 46 be 59 23 a8 bd 5a 0c 36 3e 13 25 df bb
       -0.19347714 -0.08209867 0.17778149 -0.0068098395
0002b0 03 47 d3 bd 91 ad 3b 3e 24 3f bc bd e5 74 3e be
       -0.10316279 0.18327929 -0.091917306 -0.18599279
0002c0 87 09 a1 bd dc 1d 5a 3e 06 ab 9f 3b 16 84 c7 bd
       -0.07863145 0.21300453 0.0048726825 -0.0974199
0002d0 d6 52 84 3d 1d 33 e2 bd 0f 5a cf bd b4 78 e9 3b
       0.06461112 -0.11044905 -0.10124599 0.0071249846
0002e0 0b f9 02 bc 15 e5 1a 3d d5 82 40 be 76 c4 d9 bd
       -0.007993947 0.037816126 -0.18799908 -0.10633175
0002f0 67 50 0b bd dc 3a 48 be c0 bf 47 bd f1 c9 9a bd
       -0.034012225 -0.19553703 -0.04876685 -0.075580485
000300 e4 3f 2c 3e a9 f2 13 3d 21 ab ec bc 99 05 c7 3d
       0.16821247 0.03612009 -0.028890194 0.097178645
000310 49 0d 3c be e3 03 2a be 05 a3 6e bd d4 6a bb bd
       -0.18364443 -0.16603045 -0.058260936 -0.09151235
000320 ba 5a 53 3e 46 5b 01 bd 2e 70 08 be 64 f9 3f be
       0.20640078 -0.031581186 -0.13324043 -0.18747479
000330 b4 0c 34 3e 1c c3 5f be 4e ff 97 3d 08 85 5a be
       0.17582971 -0.21851772 0.074217424 -0.2133981
000340 76 2c 49 3e de 04 1f be bb 27 a9 3d a2 8d e6 3c
       0.19645867 -0.155292 0.08259531 0.028143708
000350 d8 78 11 be 2c 83 b2 3d 77 fb 36 3e 67 8a 2e be
       -0.14206254 0.08716425 0.17869364 -0.17044984
000360 a5 b5 05 be 5c 3c 03 bd 58 a5 2a 3d b9 c6 df 3d
       -0.13057573 -0.032039985 0.04166159 0.10926575
000370 25 49 c0 bd 45 36 ad 3d 4c ad 69 3d bb fc 72 3e
       -0.09388951 0.08457617 0.057050034 0.23729222
000380 8f 11 18 be 35 0a 85 bb 73 6f f7 3d 23 fe 80 bd
       -0.14850448 -0.0040600547 0.12081804 -0.06298473
000390 6f 95 56 3e 9a 46 ca bd 12 9d b1 bd 3c e7 41 3e
       0.20955442 -0.098767474 -0.08672537 0.18935865
0003a0 75 2a 3e be bb 35 2b bd fc 7b d6 bd 06 60 a3 bd
       -0.18570884 -0.04179929 -0.10472867 -0.079772994
0003b0 c6 73 a5 3d 73 3c 39 3e 10 d7 46 be b7 12 d7 bd
       0.08078723 0.18089466 -0.19417977 -0.105016164
0003c0 c9 56 02 be 4d 26 f2 3c 56 f0 c4 bd 14 b3 3f bd
       -0.12728418 0.029559279 -0.09616153 -0.04680164
0003d0 3e 93 99 3d ac 51 1d 3e de b8 28 be 64 9b 44 3d
       0.07498787 0.15363187 -0.16476771 0.047999755
0003e0 7f e8 9c 3d 68 05 0e 3e 19 b3 52 3e 93 75 fb 3d
       0.076615326 0.1386925 0.20576133 0.12278285
0003f0 3f ff 51 be a7 2c a2 bc f4 14 5d bb 26 42 53 be
       -0.20507525 -0.019796683 -0.0033734413 -0.20630702

linears.1.bias f4 [64]
000000 a4 bb b6 bc 28 66 03 3d e8 1f 81 bb fc 46 c5 3c
       -0.02230627 0.032079846 -0.003940571 0.0240817
000010 4d c0 18 bd 74 7c ea 3b c5 4f 98 bd d5 b8 22 bd
       -0.037292767 0.0071559492 -0.0743709 -0.03972705
000020 95 1e b7 bc 4d c0 25 bd e0 36 ee 3c 56 ce 0b 3d
       -0.02235345 -0.040466595 0.0290789 0.034132324
000030 5e a8 b6 bc 25 11 77 3d 1b 2e a4 bc e0 16 bd bc
       -0.02229708 0.060319085 -0.020041516 -0.023082197
000040 92 ab e9 bc 07 d2 ed 3c 27 02 c8 bb 62 44 71 bc
       -0.028524194 0.029030813 -0.006103772 -0.014725776
000050 ef 30 57 bc 43 8f a3 bd 24 42 11 3d 38 9c 7f bd
       -0.013134225 -0.079863094 0.035463467 -0.06240484
000060 92 f1 f2 3c 45 8f 9e bc 87 9b 84 3d fc 0f 84 3c
       0.029656205 -0.019355426 0.06474977 0.016120903
000070 d0 81 e9 bc 86 bc a8 bc 87 a6 16 bd ad 5a ba 3c
       -0.028504282 -0.020597707 -0.036779907 0.022748316
000080 64 62 1b 3c d0 83 c3 3c b9 c2 a0 3c 38 a2 aa 3c
       0.009483907 0.023866564 0.019624101 0.020829305
000090 1e d1 2f bc f8 b2 11 be 1f c3 c3 bc 14 e4 70 3c
       -0.01073101 -0.14228427 -0.023896752 0.014702816
0000a0 86 82 cb bc d8 73 c5 3c 03 75 8b bd 57 c0 8d bc
       -0.024842512 0.02410309 -0.068094276 -0.017303629
0000b0 f6 50 cb bc 7c 4e c5 3c 58 7d 57 bd 27 58 d3 bc
       -0.024818879 0.024085276 -0.05260977 -0.02579887
0000c0 50 b0 05 b8 00 00 f3 3b c0 95 e5 bc 81 6a d4 bb
       -3.1873875e-05 0.0074157715 -0.028025508 -0.006482423
0000d0 c0 da 37 3c 6d 3f 66 bc 23 3c 14 bd 03 1c 93 bc
       0.011221588 -0.014053208 -0.036190163 -0.017957693
0000e0 3a cb 99 3c 74 91 de 3c 5c 02 21 3d d9 30 fd 3c
       0.018773664 0.027168967 0.03930889 0.030907081
0000f0 c8 ff a2 bc f3 e7 c5 bc d2 c2 8f bc 88 51 90 3c
       -0.019897357 -0.024158454 -0.017548952 0.017617002

linears.2.weight f4 [64, 64]
000000 22 b4 1b 3e 1b db 08 be c5 4a 92 3d 52 4e 04 3e
       0.15205434 -0.13364832 0.071431674 0.12920502
000010 70 e2 d5 3c b8 24 0a 3d 4e 1e 3d be da b0 83 3e
       0.02610895 0.033726424 -0.18468592 0.25720865
000020 e3 5a 43 be 45 fc 88 3e de 7d 2c be e2 d0 4e be
       -0.1907764 0.26754966 -0.1684489 -0.2019687
000030 4d 2d 5a bd b5 8c 29 3c 80 62 0f be 58 51 7a bd
       -0.05326586 0.010348489 -0.14002419 -0.06111273
000040 42 44 9b bd 8e 64 e9 bd b9 28 22 be 0f 69 a5 bd
       -0.075813785 -0.113961324 -0.15835847 -0.08076679
000050 3f 2a 70 3d 8f 9f 34 3e bd d4 b0 bc c3 a2 f4 bb
       0.05863404 0.17638992 -0.021585817 -0.007465692
000060 5c bb 53 bd 4d e0 14 3e 3f 00 5d bd 64 a4 2d 3e
       -0.05169235 0.14538689 -0.053955313 0.16957241
000070 a5 3c bb bd 89 34 49 3e 9c 94 06 3e 09 66 f0 3d
       -0.091424264 0.19648947 0.13142627 0.11738212
000080 af 42 2f 3e a8 f1 00 3e f4 8a 2d be af 29 a5 bc
       0.17115282 0.12592185 -0.16947538 -0.020161478
000090 e2 49 4b 3e 30 a0 f4 bd 91 ff 29 3e 1c e6 4a be
       0.19852403 -0.11944616 0.16601397 -0.19814342
0000a0 01 f2 5f 3e 0f 0c 78 bd d6 a2 47 be 10 0c e5 bd
       0.21869661 -0.060558375 -0.1949571 -0.11183941
0000b0 83 b7 bd bd 16 ec 6f 3d 69 22 2a be e5 52 46 be
       -0.09263518 0.05857476 -0.16614689 -0.19367559
0000c0 98 d9 a1 bd d4 19 6e 3d 98 57 ab 3d ac 66 a7 bc
       -0.07902831 0.0581301 0.083663166 -0.0204347
0000d0 e0 ce 3d be aa 59 03 be 62 01 5a 3e 04 94 2a be
       -0.18535948 -0.12827173 0.2128959 -0.16658026
0000e0 c5 f1 42 be ea a5 f3 bd be 13 a8 bc 74 25 9b 3c
       -0.1903754 -0.1189688 -0.020517226 0.018938757
0000f0 22 b9 45 3e 77 17 2e be cd 7b 3f be 85 22 54 be
       0.19308904 -0.17001139 -0.1869957 -0.20716293
000100 ca 06 8f 3d e8 61 17 be fb ec 3f be b9 9e 18 3d
       0.06983717 -0.14783442 -0.18742745 0.037260745
000110 48 99 89 bc 63 5c 42 be 16 94 84 bd 18 a2 b8 bd
       -0.016796723 -0.18980555 -0.06473558 -0.09015292
000120 a8 1d 16 3e 34 fe c3 bd d4 ef 98 3b 56 55 8f 3d
       0.1465975 -0.0956997 0.0046672616 0.069986984
000130 33 32 46 3e 1b 59 4c bd d9 f7 6d 3e 86 6c 9f 3d
       0.19355087 -0.049889665 0.23239078 0.07784371
000140 45 f7 47 3e ef ed 41 be 6b 2f d3 3c 89 5b ff bd
       0.1952792 -0.1893842 0.025779447 -0.12468631
000150 3b d3 27 be 8e a1 0a 3e 89 d7 2b bd ba 66 95 3c
       -0.16389172 0.1353819 -0.041953597 0.01823746
000160 56 a0 e4 3d 7f 04 13 be 64 d8 12 be 07 e8 21 be
       0.11163394 -0.14357184 -0.14340359 -0.15811168
000170 64 d6 d5 bd 80 66 0c 3e 1b 2d 0b be 02 eb 38 3d
       -0.104412824 0.13710976 -0.13591425 0.045145996
000180 d5 fb e3 3d df d0 64 3d c9 0a eb 3d f8 d7 3a bc
       0.111320175 0.055863257 0.114766665 -0.01140403
000190 ef cd 1c be 91 3b 2c 3e 11 b3 ea bd 5c f7 08 3d
       -0.15312932 0.16819598 -0.114599355 0.033439025
0001a0 12 35 9d bb c8 c6 b8 bc a8 c0 30 3e ca b9 1f 3c
       -0.0047975862 -0.022555724 0.17260993 0.009748885
0001b0 79 32 95 bd 97 c8 02 be fd ee 12 be 6a be 0d be
       -0.072850175 -0.12771831 -0.1434898 -0.13842168
0001c0 7d f0 09 bd 67 86 28 3e b4 ef 61 3e 7d e5 3f be
       -0.033676613 0.1645752 0.22064096 -0.18739887
0001d0 51 5c 85 3d 0e 2a dc bd 09 ae 06 3e 67 90 26 3e
       0.065117486 -0.10750209 0.13152327 0.16266023
0001e0 c6 0a e1 bd aa da 25 3e 2d 23 12 be 25 a5 0e be
       -0.10988383 0.16196695 -0.14271231 -0.13930185
0001f0 df c9 9c bd 3f 0a b1 3d 98 e7 d2 3d 93 11 1f be
       -0.07655691 0.086445324 0.10298079 -0.15534048
000200 c5 4f fc bd 62 03 c3 3c 3a 9d 04 3e 51 7b ba 3b
       -0.12319902 0.023805324 0.12950602 0.00569097
000210 ba 98 09 3e e0 44 36 be 18 77 fd 3d 48 47 59 3e
       0.13437167 -0.17799711 0.12376231 0.21218598
000220 c0 b1 1e 3e 0f 9e 35 3e 9b 07 44 bd 60 26 10 3e
       0.15497494 0.17736076 -0.047858816 0.14077139
000230 9f 1c 18 3e d9 a9 13 be d9 73 29 3e 4f 25 d3 3d
       0.14854668 -0.1442026 0.16548099 0.103098504
000240 52 6b 3d 3e fb d4 d6 3d 8a b1 72 bc 67 a2 f7 bc
       0.1849797 0.104898416 -0.014812836 -0.030228807
000250 47 97 3b be 98 13 25 3e 3e 08 48 3e 38 47 3f 3e
       -0.18319426 0.16120756 0.19534394 0.18679512
000260 0f 37 67 be d4 ff 2e be e0 87 81 be fa 16 cf bd
       -0.22579597 -0.17089778 -0.25298977 -0.10111804
000270 09 dc 96 3d 89 99 e7 bc 96 cb 1b be a7 7e 72 3d
       0.07366187 -0.028271453 -0.1521438 0.059202816
000280 4c 7c b4 bd fc 1f 30 3e 06 35 10 3e 95 76 e2 3d
       -0.0881277 0.17199701 0.14082727 0.11057774
000290 82 8f 88 bd 7a 53 9e 3e 88 63 af bd 13 dc 86 bd
       -0.06667997 0.30923063 -0.08563906 -0.065849446
0002a0 c2 92 ae 3d 11 b9 05 be f4 d2 e8 3d db 9b c1 3c
       0.085240856 -0.13058878 0.11368361 0.023633888
0002b0 29 bf d7 3d d9 0b 6b 3c ea 9f 29 be 36 3e 93 3c
       0.10534508 0.014346086 -0.16564909 0.017974
0002c0 c3 e3 e9 bd 08 52 32 be 70 54 d4 3d 1b be 18 3e
       -0.11420395 -0.17414105 0.10367668 0.1491627
0002d0 b1 e7 a4 3d 6f 52 f6 3d b5 c4 27 be fc 65 0e be
       0.08052004 0.12027442 -0.16383632 -0.13906091
0002e0 bb da 32 be 4b 56 66 be c5 a9 61 be b5 09 25 be
       -0.17466252 -0.22493856 -0.22037418 -0.16116984
0002f0 e6 9f 52 3e 9f 80 7e bd 4f e6 27 bd 7e 68 22 be
       0.20568809 -0.06213438 -0.040991124 -0.15860173
000300 6e fe 1a be ae a8 e2 3c 61 a3 1b bd fc a4 a5 bd
       -0.1513612 0.027668323 -0.037997607 -0.08088109
000310 d0 59 39 ba 97 b4 37 3e 3a 92 12 be 51 48 92 3e
       -0.0007070573 0.17939983 -0.14313594 0.28570798
000320 8d 29 bd 3d 45 61 25 bd 05 03 bc bd 23 a0 71 be
       0.09236441 -0.040375967 -0.091802634 -0.23596244
000330 3c 0e 69 3d 95 37 1e be d9 b5 65 3e 08 3f 21 3e
       0.05689834 -0.1545089 0.2243265 0.15746701
000340 3b db 13 3e d8 63 5b be 81 5b c3 3d c7 c8 22 3e
       0.14439099 -0.21424806 0.09538937 0.15896903
000350 5e 24 5e be 40 e7 26 be 18 21 1b 3e 4a 94 bc 3d
       -0.2169356 -0.16299152 0.15149343 0.092079714
000360 ce f6 c3 3c 35 53 8d bd a0 38 90 bd 26 d1 df 3d
       0.023921397 -0.06900636 -0.0704205 0.10928564
000370 11 86 8f bd 8b 46 e2 bc 70 e5 9d 3d dc c0 2a bd
       -0.07007993 -0.027621528 0.07709777 -0.04168783
000380 c4 6d a0 3c d3 05 38 be c3 3b 20 be 41 ac 35 3e
       0.01958359 -0.17970972 -0.15647797 0.17741491
000390 af b9 a3 3d 8e ac 21 3e 86 b6 a2 bc 0e 3a 89 3d
       0.07994401 0.1578848 -0.019862425 0.06700526
0003a0 a0 43 67 bd 23 68 ee bc f6 f4 8b bb df 5f 47 3d
       -0.056460977 -0.02910239 -0.004271145 0.048675414
0003b0 b1 e5 4a 3e 8d 90 e1 3c 1c d3 b5 bd 7e e3 69 3e
       0.19814183 0.027534747 -0.088781565 0.22840688
0003c0 b2 c5 78 bd 3f 02 8e bd b5 00 3d 3d f2 c6 4f 3e
       -0.060735412 -0.06934022 0.046143252 0.20290735
0003d0 0e a4 7a 3c 1f 5c cd 3d c4 a4 72 3e f1 21 96 bd
       0.015297903 0.10027336 0.23695666 -0.073306926
0003e0 84 3b 95 bd 95 af c4 bd 39 bd 41 3e ac 57 77 bd
       -0.07286742 -0.09603802 0.18919839 -0.060386345
0003f0 6a 8d 0d 3e ea e2 1c be 2e 85 38 3e fc 2b 58 3d
       0.13823476 -0.15320936 0.18019554 0.05277632

linears.2.bias f4 [64]
000000 36 8d 9d bc dc 3b a6 bc 99 53 ad bc cd 4c 10 bd
       -0.019232374 -0.020292215 -0.021158027 -0.035229493
000010 1b 67 99 bc ec 33 c2 bc f2 1c a8 bc d7 25 51 3d
       -0.018725922 -0.023706399 -0.020521615 0.051061478
000020 5d d9 a2 bc cf 2f 98 bc b8 19 93 3c fa 51 9b 3c
       -0.019879038 -0.018577484 0.0179566 0.018959988
000030 16 e4 a1 3c ee 86 98 bc a4 77 8f 3c 0e 88 bb bc
       0.01976208 -0.018619027 0.017513104 -0.022892024
000040 88 25 9e bc c0 4a a1 3c c6 52 a1 3c 10 cf 90 3c
       -0.019305006 0.019688964 0.01969279 0.01767686
000050 f7 c7 99 3c 5c bb a1 3c 5f af b2 3c 93 a1 9c bc
       0.018772108 0.01974266 0.02181214 -0.019120013
000060 bb 63 96 bc 8a 74 ad 3c 3e 8f 19 bd 78 bd b8 3c
       -0.018358102 0.021173734 -0.037490122 0.022551283
000070 a5 af 9c bc 15 0b 9d bc 76 f9 a1 3c 54 a7 5f bd
       -0.019126723 -0.019170323 0.019772273 -0.054602936
000080 c2 5a ad bc e0 d1 9e bc f1 e8 98 3c 05 92 a4 bc
       -0.02116144 -0.019387186 0.018665763 -0.020089159
000090 a9 87 a7 3c ab 1d 92 bc 00 2c 9c 3c 93 d5 99 bc
       0.02045043 -0.017836412 0.01906395 -0.018778598
0000a0 22 d3 9d 3c e1 41 97 3c c9 e8 9b bc 44 17 9c 3c
       0.019265715 0.01846403 -0.019031899 0.019054063
0000b0 44 cf a4 3c 80 70 9a 3c 0f 50 96 3c b9 de 90 bc
       0.020118363 0.018852472 0.018348722 -0.017684327
0000c0 a6 9b 94 bc 09 7f 96 3c 72 b1 84 3c f5 e4 d6 bc
       -0.018140625 0.018371122 0.016197894 -0.026232222
0000d0 6d 15 a3 3c 4a aa 9a bc 10 cc 96 3c eb 33 a0 bc
       0.019907678 -0.018880028 0.018407851 -0.019556006
0000e0 07 ac a3 3c 35 bd 7f 3c fc 34 a2 bc 1f c5 9e 3c
       0.01997949 0.015609075 -0.019800656 0.019381104
0000f0 a0 55 f0 3c 17 0a d8 bc a1 1c 9d 3c 5c 10 8f 3c
       0.029337704 -0.026371999 0.01917869 0.017463855

linears.3.weight f4 [1, 64]
000000 48 e5 86 3e e4 cf a1 3e ac 4b 7a 3d 6b 68 ae 3d
       0.26346803 0.3160392 0.061107323 0.0851601
000010 c4 54 9e 3e 0a a3 a2 3d fd fe 9a 3e b1 ad f8 bc
       0.30924046 0.079412535 0.30272666 -0.03035626
000020 82 68 26 3e 3b 7a 6d 3d 3a 35 74 be 8f 12 37 be
       0.16250804 0.057977896 -0.2384843 -0.17878173
000030 db 85 34 be c7 80 15 3e cc 2f 99 bd e3 9e 1a 3d
       -0.17629187 0.14599906 -0.0747982 0.037749182
000040 83 0d 86 3e ad d5 7c be ef 58 9e be 4c 62 80 be
       0.26182184 -0.24690886 -0.30927226 -0.25074995
000050 20 a2 3e be 14 61 a3 be f9 cf 17 be 05 46 0e 3e
       -0.18616533 -0.31910002 -0.14825429 0.13893898
000060 64 a7 c0 3d cc d8 ad bd 73 83 a6 3c ea ee 1a be
       0.09406927 -0.08488616 0.020326352 -0.15130201
000070 b6 bf 61 3e b4 14 c9 3d 62 5e a5 bd 19 89 08 3d
       0.22045788 0.09818402 -0.08074643 0.03333387
000080 a1 81 6f 3d 93 9e 73 3e 31 66 98 be db 9a 25 3e
       0.058473233 0.2379096 -0.29765466 0.16172354
000090 03 fd 4a be 27 79 f8 3d 14 7f fb bd d6 9a 8e 3e
       -0.19823079 0.12132483 -0.122800976 0.27852505
0000a0 4f c3 95 be 36 e1 86 be fb 8b 52 3e 56 a1 ce bd
       -0.2925057 -0.26343697 0.20561211 -0.10089366
0000b0 9e 74 e0 bd cc e7 3c be cb 9b 96 be 2f 48 85 3e
       -0.10959743 -0.18447798 -0.29415736 0.26031634
0000c0 da 4c 9f 3d ea bd 07 be fa 7a 81 be e3 03 f7 3c
       0.0777833 -0.1325604 -0.25289136 0.03015322
0000d0 90 75 9a be 14 bb f8 3d 88 2d a8 bd 83 59 97 3d
       -0.30167818 0.12145057 -0.082118094 0.0739012
0000e0 83 a9 c0 bd d9 35 82 be 39 14 13 3e b4 1d 1a be
       -0.09407332 -0.25431708 0.14363183 -0.15050393
0000f0 81 2f ad bd 06 92 0b 3d 23 7a 0d be ac d6 77 be
       -0.08456326 0.034074806 -0.13816123 -0.24202985
