Complete_thesis_stage_1_and_2/(d).Code_and_all_other_details/WAAM/PINN_CONSTANT_PROP/Sequential_trail_1/Models/model_epoch_45000.pt (torch, 38264 bytes, 7 tensors)

linears.0.weight f4 [64, 4]
-0.18516627 -0.051323686 0.04959863 0.48663443 0.610006 -0.52336144 -0.50142604 -0.16856225
0.011458477 0.09547573 0.10772949 -0.16221061 0.29928476 0.57893676 0.22707629 0.14684185
0.21618386 -0.45688874 0.07997944 0.34152395 0.33871943 -0.28609163 0.13737838 0.19745564
0.42723775 -0.8955847 -0.2481094 -0.30495206 0.7720331 -0.291517 0.06785704 0.4144373
-0.042900905 -0.20221743 0.022893213 -0.4803693 -0.022532517 0.36317188 -0.0662164 0.1691872
-0.2602581 -0.10913577 0.18519218 0.28916454 0.36225948 -0.4328948 0.14116332 -0.11175986
0.20123726 0.83308536 -0.12255298 -0.12615016 -0.6478549 0.7748733 -0.02617543 0.3876238
-0.44028965 -0.03398965 0.20662497 0.12280238 -0.2454372 0.42654997 -0.035295278 0.39847577
0.33183002 0.17239593 0.27771783 -0.15196763 -0.24683617 -0.35115483 -0.12066939 -0.22431408
-0.23117721 0.30312932 -0.3034388 -0.3311175 0.27706897 -0.3671028 0.11272477 0.27358052
0.24683087 0.09239065 0.06137445 0.35141972 -0.82133263 0.12337127 0.5991561 0.26875356
-0.24980389 -0.29462856 -0.0016787845 -0.3118749 -0.25527126 -0.38175413 -0.03647079 0.5604992
0.22194895 0.0038015593 0.009834293 -0.39399305 0.08205443 0.26550132 -0.08580405 0.12086108
-0.56191957 -0.044885267 0.40202978 -0.34431124 -0.448822 -0.004401439 0.080160476 0.3029192
0.3769362 -0.3172806 0.19968821 -0.3289876 0.28094098 0.14079204 0.06322406 -0.28700474
-0.15516336 -0.17786817 -0.31578317 -0.36559278 -0.68317086 -0.23805133 -0.8211675 0.5531871
-0.10671195 -0.10150779 0.015678313 0.6474065 0.37109658 -0.058077343 0.19356889 -0.25525782
0.11939086 0.0339853 -0.23623072 -0.076841176 0.24503425 -0.04393705 0.23338161 -0.25696853
0.6219552 1.0311621 -0.3231379 -0.31273496 -0.120425455 -0.00029458967 0.11039183 -0.08017735
-0.25130868 0.0060222144 -0.30339772 -0.2815341 0.6355763 -0.3681792 0.108037755 -0.68648136
0.27338707 -0.30162936 0.018192923 -0.32247934 0.10226193 0.014996219 0.2297563 -0.07699972
-0.40811187 -0.25857627 -0.09758306 0.43408844 -0.010190612 0.33078784 -0.081827655 0.2942326
0.24370575 0.2917829 0.023539161 -0.18397738 -0.230996 0.05345007 0.16289331 0.09389474
0.13815182 -0.062800005 -0.1508965 -0.14367083 -0.37708744 0.03411882 -0.09019083 -0.2691426
-0.4058541 -0.1335416 -0.20767692 0.19481511 -0.12957972 0.31634384 -0.20424981 0.19821067
0.0786772 0.6171921 -0.2974423 0.17376752 0.33781815 1.0349399 0.408807 0.29445705
0.25325945 -0.007631595 0.037079606 -0.10888999 0.2503427 -0.69698876 0.05282711 -0.3650683
-0.35437664 -0.22038943 -0.18368761 0.30447617 -0.14045599 -0.11281528 -0.23412383 0.08266225
0.23726779 0.04458511 -0.17907906 -0.35025743 0.410049 -0.11140987 -0.21538992 -0.25203452
0.37356937 0.46505046 -0.03668687 -0.3985105 -0.18269151 1.423471 -0.09236638 -0.029651016
0.055149525 0.0016300207 -0.11790488 0.5053359 0.6913682 -0.005788104 0.009514637 0.16340321
-0.46028715 -0.067555666 -0.12794451 -0.006282014 0.4304966 1.4078063 -0.15446657 -0.3847008
00000000: 3a9c 3dbe c938 52bd ef27 4b3d 2628 f93e
00000010: 5a29 1c3f 04fb 05bf 755d 00bf 959b 2cbe
00000020: 56bc 3b3c c888 c33d 47a1 dc3d 8a1a 26be
00000030: da3b 993e 3335 143f b086 683e b65d 163e
00000040: 4d5f 5d3e 52ed e9be 43cc a33d 3adc ae3e
00000050: a26c ad3e 9a7a 92be ebac 0c3e d031 4a3e
00000060: e8be da3e 0a45 65bf 6410 7ebe ad22 9cbe
00000070: f6a3 453f b741 95be a2f8 8a3d 2031 d43e
00000080: dcb8 2fbd 1612 4fbe 8c8a bb3c f7f2 f5be
00000090: 1d96 b8bc aaf1 b93e 779c 87bd 693f 2d3e
000000a0: 8d40 85be 9382 dfbd 05a3 3d3e 600d 943e
000000b0: 137a b93e 63a4 ddbe 1e8d 103e 5ae2 e4bd
000000c0: 2411 4e3e 1545 553f 0ffd fabd 822d 01be
000000d0: d2d9 25bf 195e 463f db6d d6bc a076 c63e
000000e0: a56d e1be bb38 0bbd 7f95 533e d07f fb3d
000000f0: e453 7bbe c264 da3e c891 10bd 0405 cc3e
00000100: a0e5 a93e 8f88 303e 0831 8e3e 679d 1bbe
00000110: 9fc2 7cbe 91ca b3be 8321 f7bd 97b2 65be
00000120: b8b9 6cbe c433 9b3e 555c 9bbe 3c88 a9be
00000130: fcdb 8d3e e6f4 bbbe 3fdc e63d bf12 8c3e
00000140: 3bc1 7c3e 4f37 bd3d c663 7b3d 49ed b33e
00000150: db42 52bf 14aa fc3d 4b62 193f 119a 893e
00000160: 97cc 7fbe 8ed9 96be a90a dcba 11ae 9fbe
00000170: eab2 82be 4775 c3be 6562 15bd e07c 0f3f
00000180: 9646 633e 9523 793b 0420 213c 75b9 c9be
00000190: 270c a83d caef 873e 09ba afbd 0486 f73d
000001a0: f6d9 0fbf 9dd9 37bd d9d6 cd3e 9049 b0be
000001b0: ffcb e5be f239 90bb 2d2b a43d 3a18 9b3e
000001c0: c8fd c03e 9a72 a2be 117b 4c3e 1071 a8be
000001d0: 7fd7 8f3e ca2b 103e 9e7b 813d 49f2 92be
000001e0: 25e3 1ebe 1323 36be 55ae a1be fa2e bbbe
000001f0: 49e4 2ebf bac3 73be 0938 52bf ab9d 0d3f
00000200: cb8b dabd 51e3 cfbd ce6f 803c 6fbc 253f
00000210: 5f00 be3e 82e2 6dbd ec36 463e 27b1 82be
00000220: 3283 f43d 2c34 0b3d 77e6 71be e85e 9dbd
00000230: 42ea 7a3e 56f7 33bd 97fb 6e3e 6191 83be
00000240: 7538 1f3f 1ffd 833f 5572 a5be cc1e a0be
00000250: 9fa1 f6bd 2873 9ab9 1d15 e23d 0634 a4bd
00000260: 88ab 80be ff55 c53b f256 9bbe 3d25 90be
00000270: 21b5 223f fc81 bcbe e642 dd3d 3ebd 2fbf
00000280: 64f9 8b3e 2a6f 9abe 5309 953c 031c a5be
00000290: b46e d13d b4b2 753c 3c45 6b3e 07b2 9dbd
000002a0: 0af4 d0be 1c64 84be a1d9 c7bd d740 de3e
000002b0: 86f6 26bc 065d a93e 4295 a7bd a8a5 963e
000002c0: 008e 793e 9164 953e 33d5 c03c 9164 3cbe
000002d0: 378a 6cbe 76ee 5a3d 81cd 263e e34b c03d
000002e0: ac77 0d3e 4a9d 80bd 9d84 1abe 721e 13be
000002f0: 9b11 c1be 2dc0 0b3d f8b5 b8bd 0fcd 89be
00000300: 1ccc cfbe 21bf 08be 42a9 54be 9d7d 473e
00000310: 8cb0 04be d2f7 a13e dd26 51be bdf7 4a3e
00000320: 8321 a13d 4d00 1e3f 5b4a 98be 1df0 313e
00000330: 80f6 ac3e e978 843f 274f d13e 13c3 963e
00000340: 39ab 813e 7512 fabb c9e0 173d b701 dfbd
00000350: eb2c 803e db6d 32bf 3d61 583d 3bea babe
00000360: db70 b5be c4ad 61be 9b18 3cbe 4de4 9b3e
00000370: b2d3 0fbe b30b e7bd 28be 6fbe d34a a93d
00000380: 54f6 723e e09e 363d 8060 37be f154 b3be
00000390: f1f1 d13e dc2a e4bd 2d8f 5cbe ab0a 81be
000003a0: 7c44 bf3e 181b ee3e f944 16bd 9109 ccbe
000003b0: 7c13 3bbe 4c34 b63f 962a bdbd b0e6 f2bc
000003c0: 78e4 613d 6ba6 d53a 1d78 f1bd b25d 013f
000003d0: 82fd 303f 23aa bdbb 48e3 1b3c 2c53 273e
000003e0: c2aa ebbe a05a 8abd e303 03be 5ad9 cdbb
000003f0: 0d6a dc3e ff32 b43f 7c2c 1ebe 81f7 c4be

linears.0.bias f4 [64]
0.2772338 0.7807743 0.018736959 0.15861249 0.34042692 0.22771835 0.15462005 0.953559
-0.5273525 0.002160696 -0.028593095 0.109212205 0.3132101 0.11397372 -0.01369026 0.024742588
0.1060502 -0.32226336 -0.13106287 0.21812715 0.3676532 0.13568646 -0.25755832 0.35468116
-0.43277675 0.045472916 -1.1675296 -0.053195983 -0.024675073 -0.00042174998 -0.023383895 0.10067723
0.5301114 0.17863286 0.017595561 0.055848368 -0.11749983 -0.021032117 -0.09872082 -0.22113253
0.033934657 0.043446276 0.10610998 -0.0010253844 0.11403325 0.10614068 -0.18124765 -0.25732875
-0.051973484 0.015848165 0.059839603 0.24688402 0.14317316 -0.08587975 -0.0071589085 -0.031679057
-0.063521795 -0.06532792 0.039979074 -0.31540775 0.6543717 0.08331334 -0.157428 -0.08749977
00000000: 97f1 8d3e d3e0 473f 407e 993c 506b 223e
00000010: 704c ae3e 002f 693e b854 1e3e 711c 743f
00000020: 9300 07bf 779a 0d3b 113c eabc a6aa df3d
00000030: 135d a03e 0e6b e93d 1d4d 60bc f8b0 ca3c
00000040: d930 d93d b4ff a4be 5835 06be b95c 5f3e
00000050: 0a3d bc3e 64f1 0a3e afde 83be c598 b53e
00000060: ea94 ddbe cf41 3a3d 9c71 95bf 08e4 59bd
00000070: 6123 cabc 531e ddb9 958f bfbc dd2f ce3d
00000080: 61b5 073f 88eb 363e 9124 903c 42c1 643d
00000090: c0a3 f0bd 8c4b acbc 242e cabd 9170 62be
000000a0: 11ff 0a3d b9f4 313d 3050 d93d 3166 86ba
000000b0: 448a e93d 4960 d93d fc98 39be 98c0 83be
000000c0: 26e2 54bd 03d4 813c 5f1a 753d 2acf 7c3e
000000d0: fc9b 123e b9e1 afbd 4795 eabb e6c1 01bd
000000e0: b717 82bd a5ca 85bd 19c1 233d 207d a1be
000000f0: e784 273f 2fa0 aa3d ce34 21be 1433 b3bd

linears.1.weight f4 [64, 64]
0.12371359 -0.21126735 -0.14408886 0.11388881 -0.05305464 0.20317873 -0.088300705 0.21559745
-0.08390851 0.022350028 -0.028625138 -0.052902382 0.020067675 0.25272304 0.06909085 0.16883469
0.14483716 -0.12760405 -0.22268084 -0.08566266 0.101185486 -0.028418176 -0.13018878 0.0048009995
-0.25068933 0.20219973 -0.20393853 0.32543552 -0.0674521 -0.24757789 -0.0057012565 -0.3355884
0.22167732 -0.038873482 -0.04016611 0.16340011 0.08053243 -0.11929316 -0.23964038 -0.36460683
0.11520989 0.08256711 0.24302225 -0.15248464 -0.09743378 0.021097993 -0.18399788 0.06748421
-0.045211602 0.14318922 0.12779939 -0.003341125 -0.21788627 -0.050937288 0.11414813 0.08403068
-0.19734336 -0.28838545 0.049075775 0.061723072 0.014907774 -0.036391694 0.1819608 -0.036172174
-1.2481421 -0.99020827 0.15909377 -0.8697775 -0.8980796 -0.4804577 0.06611494 -1.8613998
1.4752088 -0.19674888 0.1269221 -0.22563201 -0.14171875 -0.22095697 0.019667264 0.0023368811
-0.27520174 0.5056936 0.10737529 -0.48696154 -0.56813914 -0.15123093 0.33822986 -0.726539
0.67276603 -0.15905787 1.512802 0.37004536 0.28261474 0.16884093 0.02126254 0.68515307
-3.2423396 0.034287408 -0.036606263 0.1660159 0.08410764 0.2180365 0.29034352 0.5239628
0.03327837 0.24008894 -0.05738288 -0.15993337 -0.23594074 0.10089584 0.4385433 0.49840233
0.064178936 -0.072350666 0.08300084 -1.1166675 -0.30790123 0.38500902 -0.22802351 -0.250516
0.17480414 -0.0011356542 -0.010582047 0.069083504 -1.605354 0.08912935 0.63049644 0.12985808
-0.13480484 0.30307922 -0.071477294 0.02048858 -0.1783974 -0.10453013 0.056161847 0.040086817
0.18557014 0.14847714 -0.20077339 0.23112085 0.38186848 -0.5159758 -0.12016516 -0.22445738
0.050665922 -0.11287564 0.1528179 -0.028573563 0.14078118 -0.23014162 0.08291329 -0.32255268
0.49176976 0.116353996 -0.16529524 -0.80148435 0.31765157 0.10322773 0.14698021 -0.44113347
-0.15132873 0.28293285 0.06294656 -0.02802871 0.20653567 0.035964414 -0.19175032 0.23099265
0.11921385 -0.052990593 -0.03422109 -0.009434969 0.11573628 -0.014642599 0.32913688 -0.3409945
-0.5083498 0.19451083 0.065334566 0.019646026 0.4542467 -0.05019757 -0.22740498 -0.09803541
0.18129629 0.4629728 0.27509096 -0.17989115 -0.06705754 0.0073410454 -0.29836956 0.033901174
-1.5309627 -0.26907352 0.05465178 -0.16846651 -0.79491717 -0.33317876 -0.029405838 -0.5125357
1.2214183 -0.13612564 -0.29888713 -0.14084636 0.22503655 -0.42107752 0.05123646 -0.36762157
0.25110006 -0.056029152 0.26967743 -0.22671944 -0.45598593 -0.032005616 0.30584386 -1.5143857
0.34224907 -0.12629613 0.8145206 0.019460686 0.06481567 0.27146396 0.17793493 0.44906273
-1.3748074 0.032052476 0.071606085 0.007834135 0.314631 -0.016175319 0.06667133 0.9087999
0.0009811074 0.026425174 -0.42084467 -0.14621575 0.18387763 0.13876727 0.196868 0.12590604
-0.2248314 -0.054265153 -0.15455054 -0.20019002 0.09098783 0.35860184 -0.3063209 -0.033601306
0.33031034 0.29385456 0.4568417 0.18725595 -1.0193876 -0.013723278 0.010251074 -0.050959185
00000000: 8d5d fd3d 7856 58be 088c 13be 893e e93d
00000010: d24f 59bd 160e 503e 00d7 b4bd 94c5 5c3e
00000020: 3ad8 abbd 6817 b73c 447f eabc 2bb0 58bd
00000030: f764 a43c ea64 813e 817f 8d3d 00e3 2c3e
00000040: 3150 143e a3aa 02be 7206 64be e86f afbd
00000050: 563a cf3d 3ccd e8bc 3550 05be b451 9d3b
00000060: 5a5a 80be 720d 4f3e 43d5 50be 7c9f a63e
00000070: 5424 8abd 0f85 7dbe 9bd1 babb 3ed2 abbe
00000080: 61ff 623e cd39 1fbd 3885 24bd 5c52 273e
00000090: 30ee a43d f94f f4bd 4a64 75be bfad babe
000000a0: 2af3 eb3d f218 a93d d3da 783e ef24 1cbe
000000b0: 5d8b c7bd b3d5 ac3c f169 3cbe 2935 8a3d
000000c0: cd2f 39bd 32a0 123e d8dd 023e c7f6 5abb
000000d0: 941d 5fbe 9ea3 50bd 7fc6 e93d 4718 ac3d
000000e0: 6114 4abe 42a7 93be ae03 493d 55d1 7c3d
000000f0: bc3f 743c 750f 15bd ef53 3a3e 4629 14bd
00000100: 1fc3 9fbf 4a7e 7dbf 7ae9 223e bda9 5ebf
00000110: 8be8 65bf 8dfe f5be 4567 873d 5942 eebf
00000120: a4d3 bc3f 8a78 49be def7 013e 140c 67be
00000130: b81e 11be 8b42 62be 3e1d a13c 5c26 193b
00000140: 3ee7 8cbe 2375 013f 93e7 db3d 0653 f9be
00000150: 9171 11bf 48dc 1abe 772c ad3e 76fe 39bf
00000160: 653a 2c3f 11e0 22be 7fa3 c13f 9676 bd3e
00000170: e1b2 903e a3e4 2c3e c72e ae3c 3166 2f3f
00000180: 7e82 4fc0 f470 0c3d 73f0 15bd 1200 2a3e
00000190: a040 ac3d f644 5f3e e8a7 943e 6d22 063f
000001a0: e64e 083d e0d9 753e 500a 6bbd 93c5 23be
000001b0: 739a 71be 7aa2 ce3d bf88 e03e 972e ff3e
000001c0: 3f70 833d 962c 94bd 58fc a93d f6ee 8ebf
000001d0: 3ba5 9dbe e71f c53e ff7e 69be a243 80be
000001e0: dbff 323e 3bda 94ba 5260 2dbc a77b 8d3d
000001f0: 3d7c cdbf 7389 b63d 3768 213f 84f9 043e
00000200: 480a 0abe 332d 9b3e b062 92bd abd7 a73c
00000210: cfad 36be e513 d6bd f709 663d 1332 243d
00000220: 1906 3e3e 640a 183e 8a97 4dbe f2aa 6c3e
00000230: 4484 c33e fd16 04bf 2719 f6bd 28d8 65be
00000240: 1287 4f3d 582b e7bd 4c7c 1c3e 1b13 eabc
00000250: f128 103e 3faa 6bbe 71ce a93d a025 a5be
00000260: 3fc9 fb3e 014b ee3d 2843 29be 142e 4dbf
00000270: 3aa3 a23e 0f69 d33d fb81 163e 3fdc e1be
00000280: ebf5 1abe 93dc 903e 20ea 803d 779c e5bc
00000290: 167e 533e 6c4f 133d 325a 44be 5689 6c3e
000002a0: 6426 f43d aa0c 59bd 6a2b 0cbd 2195 1abc
000002b0: 2507 ed3d 83e7 6fbc a184 a83e d596 aebe
000002c0: 3623 02bf d92d 473e 21ce 853d b4f0 a03c
000002d0: 0693 e83e f89b 4dbd dadc 68be cac6 c8bd
000002e0: bca5 393e c50a ed3e b9d8 8c3e 6335 38be
000002f0: 7755 89bd 278d f03b e5c3 98be f5db 0a3d
00000300: 96f6 c3bf 01c4 89be 8bda 5f3d 7c82 2cbe
00000310: b17f 4bbf 6896 aabe 83e4 f0bc 8a35 03bf
00000320: 6f57 9c3f 8564 0bbe bc07 99be 073a 10be
00000330: fb6f 663e 7997 d7be 53dd 513d e538 bcbe
00000340: 3090 803e d37e 65bd 2913 8a3e 2429 68be
00000350: fd76 e9be 5218 03bd 9197 9c3e 64d7 c1bf
00000360: 453b af3e c653 01be 6c84 503f 046c 9f3c
00000370: 14be 843d 53fd 8a3e 9334 363e 8deb e53e
00000380: b0f9 afbf 7549 033d 36a6 923d be5a 003c
00000390: 5017 a13e 1a82 84bc fa8a 883d 1ca7 683f
000003a0: 8098 803a 9b79 d83c f478 d7be 95b9 15be
000003b0: 6b4a 3c3e 0219 0e3e c497 493e 83ed 003e
000003c0: 343a 66be 2345 5ebd 7f42 1ebe 9dfe 4cbe
000003d0: d457 ba3d a99a b73e 18d6 9cbe 86a1 09bd
000003e0: 701e a93e 1b74 963e 28e7 e93e 06c0 3f3e
000003f0: 4b7b 82bf 9ad7 60bc 1ff4 273c 94ba 50bd

linears.1.bias f4 [64]
-0.0045538116 -0.14210737 -0.037828885 -0.04128379 -0.0995648 -0.13071057 -0.59179276 -0.09076176
-0.039457746 -0.115305096 0.07812464 0.08788025 0.09477958 -0.57157314 -0.03981893 -0.028756749
0.05569227 -0.0021669604 0.0069705984 -0.012401359 0.008073409 -0.14906496 -0.12724489 -0.14898327
0.053609543 -0.016875338 0.14523612 0.04705527 -0.042152524 -0.00081956806 -0.09608857 0.02706799
0.05510637 0.05221894 0.013308863 0.016423073 -0.022573935 -0.22511193 -0.03891794 0.022462448
-0.025248118 0.03651239 0.025903882 -0.08020895 -0.021402523 0.025937324 -0.34205198 -0.053778227
-0.41362208 0.022988772 0.014607617 0.0473853 0.05069474 -0.09559579 0.20496152 -0.0020057908
0.0602033 0.011947645 0.065499336 0.051400404 0.00959836 0.15274774 -0.15683173 0.04159954
00000000: 2438 95bb 9884 11be 76f2 1abd 3119 29bd
00000010: a1e8 cbbd fed8 05be bb7f 17bf 4de1 b9bd
00000020: 729e 21bd 1425 ecbd d0ff 9f3d 8ffa b33d
00000030: cc1b c23d 9e52 12bf 2d19 23bd 4693 ebbc
00000040: 941d 643d 9003 0ebb 9e69 e43b 122f 4bbc
00000050: 5546 043c 7ca4 18be 7c4c 02be 128f 18be
00000060: ae95 5b3d 263e 8abc c7b8 143e 07bd 403d
00000070: 20a8 2cbd 48d8 56ba 16ca c4bd b0bd dd3c
00000080: 38b7 613d 87e3 553d 6b0d 5a3c ae89 863c
00000090: f9ec b8bc be83 66be 6b68 1fbd 2b03 b83c
000000a0: 24d5 cebc 048e 153d 6134 d43c 9744 a4bd
000000b0: 5854 afbc 837a d43c 7021 afbe 8f46 5cbd
000000c0: 46c6 d3be f352 bc3c c954 6f3c 1717 423d
000000d0: 4aa5 4f3d bac7 c3bd 6fe1 513e 9673 03bb
000000e0: bc97 763d 0ec0 433c 8424 863d 3b89 523d
000000f0: 7142 1d3c e769 1c3e 7f98 20be 4764 2a3d

linears.2.weight f4 [64, 64]
0.15360968 -0.14145295 -0.014890742 0.14954259 0.053165495 0.009634459 0.008769065 0.36327437
-0.20924878 0.35553432 -0.19470511 -0.2589503 -0.06911395 -0.048962478 -0.10411746 -0.08114432
-0.057985544 -0.13340195 -0.23230481 -0.12026422 -0.0067897 0.33383363 -0.039526407 0.032230895
-0.066912346 0.13028467 -0.16020156 0.13223813 -0.09299243 0.2640511 0.18779165 0.14008829
0.2874426 0.093036935 -0.1544542 -0.02458953 0.1247229 0.16483492 0.20367432 -0.3267459
0.21820158 -0.07298694 -0.09594975 -0.14621985 -0.12884478 0.08121172 -0.1374946 -0.14397463
-0.20452161 0.21029726 0.15666467 -0.03950046 -0.099099524 -0.062352095 0.44311255 -0.16196582
-0.21865687 -0.12761708 -0.03643312 0.012180942 0.24943013 -0.2740714 -0.061435122 -0.2445878
0.2748035 -0.051210847 -0.46218985 0.059589196 -0.2076659 -0.39680755 0.22725876 -0.15901338
-0.18598731 -0.36152604 0.15533955 0.21885002 0.11842922 -0.34714067 -0.0048528654 0.039777145
0.29822588 -0.37987557 -0.29646835 -0.445469 0.16248259 0.48185393 -0.09941672 -0.035460044
0.2836246 -0.021625273 -0.100075215 -0.008951263 -0.33919054 0.372348 -0.18983774 0.0073938384
0.65332305 0.25764453 -0.014207596 0.20690347 -0.62029254 0.23651809 -0.30710214 -0.3117265
-0.008529638 0.01668282 0.44490504 -0.3407181 -0.110344045 -0.20059118 -0.066218995 -0.25903195
-0.48255715 0.38045943 0.5878123 -0.28546453 -0.081110895 0.03754627 0.5758349 0.6113879
-0.03766502 -0.060352456 -0.37615427 -0.12250466 0.12888914 0.6944168 0.6599816 -0.46379218
0.01578559 0.0022871613 0.1280813 -0.024273695 0.28645456 -0.16516006 0.5231824 0.53426105
0.2324086 0.5191538 -0.1467945 -0.081377946 0.1294421 -0.2961021 0.36803514 0.16586304
0.3152543 0.06974875 0.27867585 0.06930422 -0.039132345 0.75067353 0.17064132 0.30528998
-0.3790452 -0.10439995 -0.6145798 -0.19403464 0.19775152 0.08832135 0.038164627 0.08866809
-0.2871109 0.021081582 0.06785895 -0.0035459253 0.17544879 0.9642762 0.014384004 -0.012225218
0.2359661 -0.17618884 0.62010443 0.085061744 0.29865006 -0.07053096 -0.095141165 0.16903521
-0.22608854 0.014588897 0.33062264 0.5487246 0.3296775 0.3533199 -0.30024537 -0.29561818
-0.2764155 -0.36218172 -0.39810804 -0.24965012 0.15766189 -0.22391063 0.25999373 -0.29413855
-0.067433074 -0.061232157 0.069280535 -0.17097823 0.10248601 0.28810742 0.23102266 0.6650488
0.19329886 0.31019852 -0.16567686 -0.46675497 0.006044383 -0.46270695 0.37638238 0.2800131
0.3080957 -0.34233433 0.43416512 0.42674217 -0.42151532 0.3565281 0.08208258 0.20314193
-0.10041864 -0.11782313 -0.4504184 0.021390514 0.01372432 0.23455092 0.27054897 -0.18330526
0.25174862 -0.33487767 -0.2768365 0.32001773 0.48790908 0.780509 0.16253158 0.14265569
0.14263731 -0.07708674 0.4698243 0.046831917 0.50442636 -0.044143684 -0.09618945 0.3974585
-0.50259125 -0.330799 0.41676304 0.7465442 0.3689467 0.33575127 0.22978356 -0.34374395
-0.21020412 -0.19737075 0.081353426 -0.05362624 0.15149216 -0.13121715 0.5153885 -0.20381889
00000000: db4b 1d3e 0bd9 10be 4cf8 73bc b121 193e
00000010: 10c4 593d dad9 1d3c 20ac 0f3c 19ff b93e
00000020: 5045 56be 9808 b63e c760 47be 2295 84be
00000030: 9d8b 8dbd e18c 48bd 893b d5bd fe2e a6bd
00000040: 4082 6dbd 859a 08be 50e1 6dbe 164d f6bd
00000050: 227c debb 3eec aa3e 71e6 21bd 8b04 043d
00000060: 5709 89bd 5869 053e e10b 24be 6f69 073e
00000070: d172 bebd b531 873e 744c 403e 4e73 0f3e
00000080: ad2b 933e 268a be3d 3e29 1ebe fb6f c9bc
00000090: b86e ff3d 7cca 283e 0090 503e 3d4b a7be
000000a0: 3c70 5f3e 2d7a 95bd 4d81 c4bd a8ba 15be
000000b0: e3ef 03be 5552 a63d 62cb 0cbe 166e 13be
000000c0: 1d6e 51be 2a58 573e b46c 203e 3ccb 21bd
000000d0: b1f4 cabd e964 7fbd a6df e23e 5eda 25be
000000e0: 96e7 5fbe 0dae 02be e53a 15bd 9392 473c
000000f0: 9d6a 7f3e 1653 8cbe 65a3 7bbd 3975 7abe
00000100: 0bb3 8c3e 77c2 51bd 26a4 ecbe cd13 743d
00000110: 5fa6 54be 5c2a cbbe 85b6 683e 67d4 22be
00000120: 7573 3ebe f119 b9be 5511 1f3e 381a 603e
00000130: 058b f23d 6cbc b1be c904 9fbb 5ced 223d
00000140: 10b1 983e 0d7f c2be b3ca 97be 8314 e4be
00000150: d661 263e 8fb5 f63e fe9a cbbd 8d3e 11bd
00000160: 3e37 913e 7c27 b1bc 3cf4 ccbd 51a8 12bc
00000170: 62aa adbe 66a4 be3e d364 42be 0348 f23b
00000180: 2e40 273f fce9 833e fac6 68bc 81de 533e
00000190: 7ecb 1ebf cc31 723e 7e3c 9dbe 9e9a 9fbe
000001a0: e5bf 0bbc 69aa 883c 98ca e33e 9a72 aebe
000001b0: 0ffc e1bd c667 4dbe d39d 87bd d69f 84be
000001c0: bb11 f7be 94cb c23e de7a 163f 6828 92be
000001d0: 781d a6bd 1eca 193d ea69 133f eb83 1c3f
000001e0: a346 1abd 2334 77bd 4b97 c0be b9e3 fabd
000001f0: 84fb 033e 4dc5 313f 8ef4 283f 2b76 edbe
00000200: c850 813c 33e4 153b bf27 033e a1d9 c6bc
00000210: 2caa 923e b81f 29be 48ef 053f 55c5 083f
00000220: 85fc 6d3e 43e7 043f 4c51 16be 7ba9 a6bd
00000230: 788c 043e b29a 97be 1a6f bc3e 00d8 293e
00000240: 0369 a13e 6fd8 8e3d 9aae 8e3e 5fef 8d3d
00000250: 3d49 20bd 242c 403f 99bc 2e3e f84e 9c3e
00000260: 3612 c2be a4cf d5bd 1a55 1dbf 04b1 46be
00000270: 607f 4a3e d3e1 b43d 8352 1c3d 9e97 b53d
00000280: 3300 93be 48b3 ac3c a2f9 8a3d c162 68bb
00000290: d9a8 333e ceda 763f e3aa 6b3c 484c 48bc
000002a0: 19a1 713e d96a 34be 2abf 1e3f da34 ae3d
000002b0: a9e8 983e 8972 90bd 5fd9 c2bd 9117 2d3e
000002c0: c183 67be 4506 6f3c 5f47 a93e 3779 0c3f
000002d0: 7dcb a83e 59e6 b43e c3b9 99be 445b 97be
000002e0: 5586 8dbe e26f b9be d1d4 cbbe 48a4 7fbe
000002f0: 1e72 213e d448 65be e61d 853e 5499 96be
00000300: 5a1a 8abd 92ce 7abd f4e2 8d3d eb14 2fbe
00000310: 2fe4 d13d d182 933e 3491 6c3e a340 2a3f
00000320: 23f0 453e 57d2 9e3e 32a7 29be 82fa eebe
00000330: f60f c63b ede7 ecbe 31b5 c03e e15d 8f3e
00000340: b8be 9d3e 7246 afbe e44a de3e f37d da3e
00000350: dbd0 d7be da8a b63e e91a a83d 7004 503e
00000360: 4aa8 cdbd 414d f1bd 3e9d e6be 293b af3c
00000370: f8db 603c 1e2e 703e 6585 8a3e 60b4 3bbe
00000380: 32e5 803e 1675 abbe 84bd 8dbe 5dd9 a33e
00000390: 38cf f93e 70cf 473f ae6e 263e 5514 123e
000003a0: 840f 123e a7df 9dbd d08c f03e d3d2 3f3d
000003b0: 1622 013f 02d0 34bd f9fe c4bd ae7f cb3e
000003c0: d2a9 00bf 7d5e a9be f761 d53e 851d 3f3f
000003d0: 95e6 bc3e 97e7 ab3e 624c 6b3e 35ff afbe
000003e0: c03f 57be 8f1b 4abe a09c a63d 30a7 5bbd
000003f0: c320 1b3e ca5d 06be 80f0 033f e6b5 50be

linears.2.bias f4 [64]
-0.03059364 0.10728497 -0.06722426 -0.059656218 -0.03742905 0.03581049 -0.04876736 0.055942874
-0.051301535 -0.048946504 0.04536331 0.10015105 0.054494534 -0.033316113 0.0367137 0.06946113
-0.04554278 0.058303304 0.007823868 0.06995141 0.06571147 0.049889393 0.06996478 -0.04897845
-0.048374433 0.06663984 -0.11342629 0.07382445 -0.030705212 -0.0683025 0.05465359 -0.15715668
0.010376586 -0.041004468 0.02365991 0.0060741357 0.0662408 -0.036339004 0.057553906 -0.11355791
0.045047626 0.009990362 -0.03808971 0.018406251 0.060968045 0.07555566 0.017567748 -0.0279583
-0.04091677 0.059420895 -0.011267609 -0.07690018 0.06833115 -0.010336642 -0.0007192172 -0.04376805
0.017562857 0.039160036 -0.020711783 0.073185556 0.09637523 0.08997062 0.049454287 0.027170578
00000000: 839f fabc 39b8 db3d dfac 89bd 145a 74bd
00000010: 344f 19bd 05ae 123d 49c0 47bd 5b24 653d
00000020: 8f21 52bd 217c 48bd e1ce 393d fe1b cd3d
00000030: a935 5f3d 7a76 08bd 1b61 163d a341 8e3d
00000040: 118b 3abd 72cf 6e3d ae2f 003c af42 8f3d
00000050: bc93 863d d258 4c3d b249 8f3d a19d 48bd
00000060: 4524 46bd 787a 883d 0b4c e8bd 4631 973d
00000070: 7f89 fbbc 2ee2 8bbd 71dc 5f3d aeed 20be
00000080: 8e02 2a3c 4df4 27bd 6dd2 c13c 8b09 c73b
00000090: 42a9 873d 35d8 14bd a5bd 6b3d 0d91 e8bd
000000a0: dc83 383d 9eae 233c f503 1cbd b5c8 963c
000000b0: a1b9 793d edbc 9a3d 3dea 8f3c ce08 e5bc
000000c0: 5898 27bd 5363 733d c79b 38bc d77d 9dbd
000000d0: 34f1 8b3d 055b 29bc d989 3cba 2046 33bd
000000e0: fbdf 8f3c 4666 203d c2ab a9bc 4fe2 953d
000000f0: 6060 c53d 8442 b83d 9490 4a3d d594 de3c

linears.3.weight f4 [1, 64]
0.44659165 0.93398327 0.49068445 0.37265888 0.42585617 0.6063923 0.67457426 -0.35433337
0.44912928 0.08784312 -0.30478388 -0.3137019 -0.2714578 0.26361078 -0.20912841 1.24292
0.44144222 -0.31006476 -0.7813232 -0.3284734 -0.29864424 -0.5105812 -0.54564476 0.33817306
0.3164616 -0.20449185 0.5234822 -0.58775365 0.3537472 0.1185353 -0.26302087 0.6239459
0.21974908 0.38509455 -0.4809887 0.41590634 -0.44364798 0.5444226 -0.3094951 0.5752925
-0.48839378 -0.41623732 0.28231874 -0.27684727 -0.21727233 -0.28669178 -0.6625768 0.31148103
0.15711819 -0.20148951 -0.37661856 0.24774529 -0.52359897 0.24069807 -0.3539269 0.20970859
-0.178442 -0.31158498 0.4141131 -0.23407522 -0.711471 1.0811592 -0.26640525 -0.3212737
00000000: a9a7 e43e 8719 6f3f fe3a fb3e 25cd be3e
00000010: d209 da3e 873c 1b3f e6b0 2c3f 2f6b b5be
00000020: 46f4 e53e 18e7 b33d a20c 9cbe 899d a0be
00000030: 84fc 8abe fef7 863e c225 56be 0118 9f3f
00000040: b704 e23e cfc0 9ebe cc04 48bf aa2d a8be
00000050: e6e7 98be 73b5 02bf 60af 0bbf 0525 ad3e
00000060: 4107 a23e 5066 51be ee02 063f 0677 16bf
00000070: 5a1e b53e a3c2 f23d acaa 86be ebba 1f3f
00000080: e705 613e 1d2b c53e 2744 f6be adf1 d43e
00000090: d425 e3be 485f 0b3f 2476 9ebe 5f46 133f
000000a0: c00e fabe 0f1d d5be 158c 903e edbe 8dbe
000000b0: a37c 5ebe 44c9 92be a29e 29bf 717a 9f3e
000000c0: 97e3 203e 4453 4ebe 26d4 c0be f1b0 7d3e
000000d0: 950a 06bf 8e79 763e e835 b5be d9bd 563e
000000e0: 80b9 36be 1188 9fbe a206 d43e 6ab1 6fbe
000000f0: f722 36bf 6d63 8a3f 4566 88be fd7d a4be
