Complete_thesis_stage_1_and_2/(d).Code_and_all_other_details/WAAM/PINN_CONSTANT_PROP/Sequential_trail_1/Models/model_epoch_15000.pt (torch, 38264 bytes, 7 tensors)

linears.0.weight f4 [64, 4]
00000000: acf6 47be 9a40 543d fbc0 753d 4acb d73e
00000010: 06cb 233f dedf 9abd 0311 ccbe 170a 5cbe
00000020: bb7e 42b9 3d0c 0b3e f96f d93d 1bdd 26be
00000030: 8151 a13e 773c 1a3f fb22 653e 9c9d 0d3e
00000040: 7468 623e ccb0 c1be 42a2 a83d eb24 9a3e
00000050: 814f b13e 4b82 953d 3914 a53d bc01 063e
00000060: 9c10 a03e 8883 13be 1884 69be b7db a9be
00000070: 695d 3b3f 486e 0cbf ce62 ca3d 0ca8 803e
00000080: ef3c 93bd f341 fbbd 2c45 df3c 8740 dabe
00000090: a60e d5bc 7120 853e 81a4 8abd f956 1f3e
000000a0: 4842 6fbe 35d6 33be 2c95 423e 9013 943e
000000b0: 2127 c33e dfba 22bf 6cf9 433e 5447 0cbe
000000c0: b165 273e e3d5 4e3f c00e ca3c a35e f5bd
000000d0: b016 1ebf 8266 083f 4f0f 85bc 0355 ba3e
000000e0: cdd4 d2be fa8a 99bc 3be8 563e 1721 123e
000000f0: 24ef 7abe f2d7 c03e ac31 18bd 13aa c23e
00000100: f03e ae3e d01f 453e dcba 8d3e 441a 25be
00000110: 1808 4abe 8df5 833d cde6 20be a395 e3bd
00000120: c3da 82be d9ff 6a3d fc98 97be bdfa a4be
00000130: 24a2 a83e 5327 b6be 3aa0 e23d 8c6a 4f3e
00000140: cd98 9b3e 76eb f93c df45 c23d e80c a83e
00000150: 2d20 4dbf 01b8 773e c7b4 183f 3d35 923e
00000160: e2cc 8abe 76c1 4bbe 0d8e 683c 0da2 79be
00000170: ac1f 76be 208e 82bd 1b96 c5bc f566 ff3e
00000180: 8b27 5f3e a623 53bd a8cc f73b 0049 c2be
00000190: 9bc7 b83d 80ce 5d3e c6e5 9fbd 3bd5 f03d
000001a0: f0ea 0ebf 700e 703d dcd8 ca3e 3183 93be
000001b0: 9e22 e3be 7124 893d 4ee1 873d 4f93 6c3e
000001c0: c9d1 be3e c84e 94be 5ca3 4a3e 9cb5 a5be
000001d0: b9f5 853e b26f af3d 19e4 7b3d dab5 8fbe
000001e0: ef84 10be 365f a1be 80fc a0be 7f77 a8be
000001f0: 817c 27bf 0e1d 91be 01dd 55bf fda2 193f
00000200: c32a 8bbd d404 73bd 09c2 bc3c 8dfa 103f
00000210: 33ff c63e 025e f1bd 9852 463e 4e12 8abe
00000220: 3355 043e 3d41 aebb 7465 74be f896 9dbd
00000230: 13cc 793e 3aa1 9d3b 3ac7 683e c140 87be
00000240: abea 143f c132 983f fb87 9bbe 0f18 97be
00000250: 9244 01be d630 0cbc c5a1 e23d 8881 8fbd
00000260: a01f 88be 715e 9cbd b6e6 91be f368 79be
00000270: ea56 1d3f 7eb6 c2be 6afa b33d 2159 22bf
00000280: bfef 8e3e 8b91 72be 05e2 943c c75e 9bbe
00000290: 51f1 c33d 7e45 9c3c 5964 6b3e 393f b3bd
000002a0: 2c22 c1be 83f1 66bd 6e35 adbd dd6d db3e
000002b0: 6b68 e8bb 83b3 743e dfc4 a0bd f6c2 9a3e
000002c0: 3241 633e e4ae 5a3e 7c12 d93c 4e1f 33be
000002d0: 8faf 6cbe 8dc1 1c3d 26c4 2c3e 3ce6 c93d
000002e0: 50d1 143e f84f 8abd 8a80 1dbe 896c 07be
000002f0: 7360 c1be 62ce 133e 03c0 a6bd bab6 09be
00000300: c89b d3be 8b91 0bbe 449c 57be 7707 3a3e
00000310: 162a f0bd 3dc6 883e 1396 4fbe 4b2a 4c3e
00000320: 18e0 dc3d 682b fc3e 5976 8ebe 0c29 723e
00000330: 5342 c13e 128d 553f 73c7 c63e dec3 953e
00000340: 4c0b 7e3e ac45 a7bd df74 393d feeb e5bd
00000350: fb81 763e 84cd 13bf 025c 353d 63e1 bebe
00000360: 2c6b b3be 46c2 61bd 08d4 41be 43ef 933e
00000370: e9bc 05be 40d0 ebbd a55e 6ebe fbfd ad3d
00000380: 812c 5a3e 1878 003e 1880 42be aca7 9fbe
00000390: 807b cf3e fcb4 bfbd 993b 64be 8f11 54be
000003a0: 5c51 ae3e bb64 7f3e c951 d1bc d92c a0be
000003b0: ee7b 5abe 63b1 9b3f 16cf dcbd fe19 37bd
000003c0: e10f a63d 37e0 0bbd 045b 01be 5cf8 d33e
000003d0: c668 373f fc57 b53b 417b 333c c738 3d3e
000003e0: 6239 00bf 0389 ec3d 9fd0 29be ac45 a63d
000003f0: 636d cb3e f2c8 be3f 8564 25be 40e9 c5be
-0.19527692 0.05181942 0.059998494 0.42147285 0.63981664 -0.075622305 -0.3985673 -0.21488224
-0.00018548493 0.13578887 0.1061706 -0.16295283 0.31507495 0.6024851 0.22376625 0.13829654
0.22110158 -0.37830198 0.08234073 0.3010629 0.3463097 0.07300242 0.08060498 0.13086599
0.31262672 -0.14405644 -0.22804296 -0.33175442 0.7318941 -0.54855776 0.09882127 0.2512821
-0.071893565 -0.12268438 0.027254663 -0.42627355 -0.026007961 0.26001313 -0.06769658 0.15560521
-0.23365128 -0.17562182 0.19002217 0.28921175 0.3811579 -0.6356639 0.19138116 -0.13699085
0.16347386 0.80795115 0.024665236 -0.11980941 -0.6175337 0.53281415 -0.016242651 0.36392984
-0.4117798 -0.018743027 0.20987026 0.14270435 -0.24505287 0.37664753 -0.037156746 0.3802038
0.34032393 0.19250417 0.27681625 -0.16123301 -0.1972965 0.064433195 -0.15713044 -0.11112525
-0.25557527 0.0573729 -0.29608905 -0.32222548 0.32936203 -0.35576877 0.11065717 0.20255488
0.30390015 0.030507784 0.09485983 0.32822347 -0.8012722 0.24191286 0.59650844 0.28556243
-0.27109438 -0.19898018 0.014194024 -0.24378224 -0.2403552 -0.063747644 -0.024119427 0.49883237
0.21792428 -0.05154767 0.0075622387 -0.3794632 0.09022447 0.21660805 -0.07807498 0.117594205
-0.55827236 0.05860752 0.39618576 -0.2881103 -0.44362348 0.06696404 0.0663477 0.23103069
0.37269428 -0.28966355 0.19788879 -0.3236512 0.26164034 0.08566226 0.061496828 -0.2806843
-0.1411321 -0.31517953 -0.31442642 -0.32903668 -0.6542435 -0.2834248 -0.8354035 0.60014325
-0.067952655 -0.059330776 0.023041742 0.5663231 0.38866577 -0.11785509 0.19367445 -0.2696709
0.12923126 -0.0053178356 -0.23866826 -0.07694811 0.24394254 0.0048104795 0.22732249 -0.2641659
0.58170575 1.1890489 -0.30377182 -0.29510543 -0.12623814 -0.008556565 0.11066011 -0.07007128
-0.26586628 -0.07635201 -0.2849633 -0.24356441 0.61460745 -0.38029855 0.08787997 -0.6341725
0.27917287 -0.23688333 0.01817418 -0.30345747 0.09567512 0.019076105 0.22987498 -0.08752293
-0.37721384 -0.056382667 -0.084574565 0.42857257 -0.0070925257 0.23896603 -0.0785005 0.30226868
0.22192839 0.21355778 0.026498072 -0.1749241 -0.23113845 0.038270522 0.168717 0.09858367
0.14532971 -0.06753534 -0.15381065 -0.13224997 -0.37768897 0.14434198 -0.08142092 -0.13448611
-0.4132979 -0.13629739 -0.21055704 0.1816691 -0.11726777 0.26713744 -0.20272093 0.19938008
0.1078493 0.49251866 -0.27824667 0.2364847 0.37745914 0.8341838 0.38824043 0.29250997
0.24808997 -0.08167586 0.045277473 -0.112266526 0.24073021 -0.57735467 0.0442772 -0.3728133
-0.35042703 -0.055116914 -0.1892854 0.2889348 -0.13060345 -0.1151433 -0.23278292 0.084957086
0.2130604 0.12545812 -0.18994176 -0.3118261 0.4052391 -0.09360692 -0.2228836 -0.20709823
0.34046447 0.2494077 -0.025551694 -0.31284216 -0.21336338 1.2163509 -0.10781686 -0.044702522
0.081084974 -0.034149375 -0.12632376 0.4140042 0.71644247 0.00553417 0.010954679 0.1847869
-0.5008756 0.115495704 -0.16583489 0.081187576 0.39731893 1.4905074 -0.16151626 -0.38654518

linears.0.bias f4 [64]
00000000: bebd 803e 4ee4 1b3f e97a 973c 24a9 133e
00000010: 2500 9f3e 9bc5 0c3e 233b f23c 4c77 3f3f
00000020: 9be0 c3be 8f22 49ba 0950 c3bc 3c85 d13d
00000030: 1ad5 123e e7c7 ce3d a018 1dbc e10b b43c
00000040: edec d03d d343 44be 7729 eabd 38ed 423e
00000050: b6d9 8f3e c581 093e 2c07 59be f3b1 873e
00000060: ca74 d3be 33c4 293d a3e8 8bbf 02a6 37bd
00000070: 8ac1 a4bc 1bfb a53b 3d74 e2bc c14d cd3d
00000080: 80cf bf3e 2106 313e b704 533c d34e 583d
00000090: cf54 cabd 532a 9fbc 2380 9cbd d7e2 3fbe
000000a0: 5ec5 ec3c 541d 313d e44f b03d c8f1 0ebb
000000b0: 56c0 b53d 3a53 c73d 8341 32be 70db 3fbe
000000c0: 1875 4dbd 2d2e 433c 075e 773d 0ddf 5d3e
000000d0: 6e14 033e dfb3 a3bd 5386 11bc 37d6 02bd
000000e0: 6605 7cbd b655 7dbd 34ef ca3c b7da 94be
000000f0: 32ce fd3e db20 973d 0ba6 f8bd 6e28 a9bd
0.25144762 0.6089524 0.018491225 0.14419991 0.31054798 0.13747256 0.029569214 0.7479141
-0.38257298 -0.0007672691 -0.023841875 0.102304906 0.14339104 0.10096722 -0.009588391 0.02197832
0.1020144 -0.19166498 -0.1143369 0.19035804 0.28095788 0.1342841 -0.21194142 0.26502952
-0.4130004 0.041446876 -1.093037 -0.04483605 -0.020111818 0.0050653345 -0.027643317 0.10024596
0.37462997 0.17287494 0.012879542 0.052809548 -0.09879457 -0.019429361 -0.07641628 -0.18738876
0.028902706 0.04324086 0.08608988 -0.0021811593 0.08874576 0.09732671 -0.17407803 -0.18736053
-0.050160497 0.011912865 0.060392406 0.21667118 0.12800762 -0.07993292 -0.008882123 -0.031942572
-0.061528586 -0.06184932 0.024772264 -0.29073116 0.49571377 0.073793136 -0.12141045 -0.082596645

linears.1.weight f4 [64, 64]
00000000: a207 ca3d 8339 6abe bcb7 1abe a76d dd3d
00000010: 8f9b 58bd 99c4 583e 20f9 95bd 0579 4b3e
00000020: 55f0 4fbd 340e 543c 2494 c3bc 3e76 06bd
00000030: 14be adbc bf2e 3a3e 0cb2 6d3d 0d04 113e
00000040: 5d09 153e 4f02 fbbd 930b 81be b6a5 2fbd
00000050: 4e6d b83d a80d 2abd 634f f5bd c016 03bd
00000060: 2d9d 67be 3bab 493e ed7a 2cbe de7e 923e
00000070: ba4f 1fbd ca9e 71be 89b5 77bd 295f adbe
00000080: 1d4e 443e 339c 17bd 6c1f 22bd 3dad 293e
00000090: 287d b33d ce5e 00be f1e9 89be 1774 e3bd
000000a0: 61bb 0f3e 3619 ac3d 5736 363e fc62 1dbe
000000b0: 51f5 debd d21a 2b3c b8cf 31be de94 293d
000000c0: 3cb0 6fbd 1915 073e d863 f83d 5d35 83bc
000000d0: 6d43 5cbe 0d95 f23c 1b0b d63d 6306 aa3d
000000e0: 2af3 46be c295 8dbe 8b69 133d 0a98 843d
000000f0: 0952 9fbc 0873 523b d2f0 163e 6e4d 06bd
00000100: 6421 b5be f154 0bbf 3952 183e 6b6f c4be
00000110: f952 f8be 2669 abbe b729 fd3c e320 05bf
00000120: 1628 c73e afe6 24be 800d 583e 8b64 56be
00000130: a6d8 93bd 580a 0fbe e62f a13c 0ccd 8c3d
00000140: bfd0 76be eed4 613e 4816 2dbd 4512 abbe
00000150: 38fa a7be 9241 f5bd 08a6 683e f73a 6fbe
00000160: d145 ff3e c088 efbd 2a60 6b3f b688 be3e
00000170: 13da 6d3e 11ff 063e 2413 abbd b9c3 263f
00000180: 01c0 80be 346a 6e3d 4b55 23bd d7b3 2a3e
00000190: 3a1f c63d ff11 4b3e 8de3 043e f4f0 a93d
000001a0: c5fc 85bc 7b8a 7f3e 403f 653d 2b7c 08be
000001b0: 94bd 4dbe 1f39 fe3d 8c6c c73e 77a5 ac3e
000001c0: ac46 043d f61c 3dbd 033c e73d b362 38be
000001d0: 8e39 69be afde 7f3e 3fc6 5abe 1476 86be
000001e0: 2e60 253c 204c bbbc b5aa 61bd 8f65 873d
000001f0: 2f13 8abe 9e68 ca3d 2bb8 d13e 72cd 1a3e
00000200: 52cc 04be a6d5 933e 537c 96bd a00a 803c
00000210: 3c4c 38be d67a ddbd a728 023d 2927 3a3d
00000220: 2e94 403e c9ec 023e 0860 34be 3158 6d3e
00000230: f709 b83e 36f8 f9be b4a6 c4bd 4f9c 55be
00000240: 9710 4a3d 16d9 e7bd fa32 1e3e 851a 0cbd
00000250: 3423 0c3e 86a4 65be e9e2 bc3d 60da a2be
00000260: 7ec0 f93e 4cd7 323d 153e 22be e9d2 11bf
00000270: 3766 a33e bd26 3b3d 776e 173e 4415 e1be
00000280: 7129 1bbe 85ae 903e 4d36 473d 8c46 e4bc
00000290: 60b6 473e 2140 623d f525 43be 1978 5f3e
000002a0: 1e11 b03d d847 45bd 7ce4 b03c fa67 e1bc
000002b0: 687d c63d 748b 89bb 59eb a43e b6b7 abbe
000002c0: 5cc5 00bf 1129 3c3e 0e3a 1a3d 2485 833c
000002d0: a17d e63e 85f3 2dbd d140 5ebe 80a9 cdbd
000002e0: ee7e 2b3e 2b35 e53e 2c28 9a3d 86c5 2cbe
000002f0: daf7 8ebd 42c0 46bd d839 96be cda6 263d
00000300: 4f1f 1a3c f372 c2bd 4265 963c 93f7 1b3d
00000310: 7485 e4be 8475 57be a489 afbc 6993 68be
00000320: 9041 983e 52cc aebd b4f1 35be e756 45be
00000330: 4452 5e3e ece0 aebe bb5a 513d 6842 8abe
00000340: 545b 5f3e 27d2 c3bd 30a7 0b3e 0280 c2bd
00000350: 0d9d 79be 7c1f aebc 7b79 5d3e 9a94 99be
00000360: 8b9f 683e b0fb a5bd 6cb3 0e3f 28c3 d03d
00000370: 3385 11bd 4a29 253e af2b af3d 1f19 ef3e
00000380: d78b 90be 5bb4 15bb ae0d a63d f304 09bd
00000390: 38e8 aa3e 2983 3dbd 4b70 2ebd fbf1 a63e
000003a0: ccc5 cebd bcf9 01bb 10d8 4dbe 7353 cebd
000003b0: 4e56 0a3e 22de 133e 8f08 363e 9c1f d43b
000003c0: 8f7b 08be 66ed c9ba eab1 e2bd 8be9 a6bd
000003d0: 2482 6a3d 29b3 573e c38f 64be c64a efb9
000003e0: 401e 353e c43e 8f3e 36a7 913e 5d1c 4e3e
000003f0: 130e babe b872 cdbb 7047 453c 5272 6dbd
0.09864737 -0.22873501 -0.15109152 0.1081193 -0.052882727 0.21168746 -0.073229074 0.19870384
-0.050766308 0.012942839 -0.02387435 -0.03282761 -0.0212088 0.18181895 0.058031127 0.14161702
0.14554353 -0.122563 -0.25204143 -0.042882644 0.09005223 -0.04151693 -0.119780324 -0.032004118
-0.22618552 0.19694225 -0.16843767 0.28612417 -0.038894393 -0.2359573 -0.06047586 -0.33861664
0.19170423 -0.037014198 -0.039580747 0.16569991 0.08764106 -0.12536165 -0.26936296 -0.11106127
0.14036323 0.08403246 0.17794167 -0.15369791 -0.10886634 0.010443406 -0.17364395 0.041401736
-0.05851768 0.13191642 0.12128419 -0.016016657 -0.21510096 0.029612089 0.10451337 0.083019994
-0.19428697 -0.2765332 0.035989325 0.06474312 -0.019448297 0.003211202 0.14740303 -0.032788686
-0.35377038 -0.54426485 0.14875115 -0.38366255 -0.48500803 -0.3347866 0.03090368 -0.52003306
0.3889777 -0.16103624 0.210989 -0.20936792 -0.07219057 -0.1396879 0.01967616 0.06875047
-0.24103068 0.22053882 -0.042257577 -0.33412376 -0.3280809 -0.11975397 0.22719586 -0.23362337
0.49857953 -0.11696005 0.9194361 0.37213677 0.2322772 0.13183238 -0.0835326 0.651424
-0.25146487 0.058206752 -0.039876264 0.16670166 0.09673925 0.19831084 0.12977429 0.08297911
-0.016355881 0.2495517 0.055968523 -0.13328616 -0.2009185 0.12413239 0.38950002 0.3371999
0.03229396 -0.046170197 0.11290743 -0.18006401 -0.22775862 0.24987291 -0.21364687 -0.2626196
0.010093732 -0.022863448 -0.05509444 0.06611168 -0.2696776 0.098832354 0.40960822 0.15117434
-0.12968567 0.28873938 -0.07347932 0.015630066 -0.17997831 -0.10814445 0.03177705 0.045447502
0.18806526 0.12785639 -0.17614758 0.23178174 0.35945103 -0.48822182 -0.096021086 -0.20860408
0.049332228 -0.11320703 0.15449134 -0.03420498 0.13685304 -0.22426042 0.09222967 -0.31807232
0.48779672 0.043662354 -0.15843995 -0.5696245 0.3191392 0.04569124 0.14788233 -0.43961537
-0.15152527 0.28258148 0.04863577 -0.02786567 0.19503164 0.05523694 -0.19057448 0.21823157
0.08597015 -0.04816422 0.021593325 -0.0275154 0.09691888 -0.0041975323 0.32210806 -0.33538598
-0.50301147 0.1837504 0.03765302 0.016054697 0.45017722 -0.042468566 -0.21704413 -0.10042095
0.16747639 0.44767126 0.075271934 -0.16872224 -0.06980868 -0.048523195 -0.29341006 0.040686417
0.009406879 -0.09494581 0.01835883 0.038077902 -0.44633067 -0.21040922 -0.021427937 -0.22712483
0.2973752 -0.08535065 -0.17767984 -0.19271432 0.2171107 -0.34155977 0.051111918 -0.2700379
0.21812183 -0.09561568 0.13637996 -0.09497072 -0.24376316 -0.021255247 0.21628372 -0.29996186
0.22717111 -0.08104646 0.55742526 0.10193473 -0.03552742 0.16129032 0.08553254 0.46698853
-0.2823169 -0.0022843096 0.08108078 -0.033451986 0.33380294 -0.046267662 -0.04258756 0.3260649
-0.100963205 -0.0019832691 -0.20101953 -0.100745104 0.13509485 0.14440206 0.17776702 0.0064734947
-0.13328384 -0.0015405833 -0.11069091 -0.081500135 0.057253018 0.21064438 -0.22320466 -0.00045641343
0.1768732 0.27977574 0.28447884 0.20128007 -0.36338863 -0.006269779 0.012040958 -0.057970352

linears.1.bias f4 [64]
00000000: 4d45 8dbc c7a4 b0bd b7f3 13bd a5af e1bc
00000010: aa4c b6bd 4b57 68bc ba4a 00bf 4faa a9bd
00000020: 0e40 0cbd 95fe d8bd 0c6d 893d 9372 9f3d
00000030: b7d2 923c b669 00bf 0a13 fdbc 0996 d5bc
00000040: a125 f83c 33d3 af3b 02ec 053c 3825 aabb
00000050: e0f3 05bd 76f1 17be 1487 c5bd d6fa 12be
00000060: 942e 4a3d 5b93 86bc 3afb 0d3e c066 273d
00000070: db20 23bd 45f1 b4bb b613 78bd 93be d63c
00000080: 28d4 6b3d a000 3d3d cbf0 733c 9e68 bc3c
00000090: 834d 83bc 89ea 62be 02cf fdbc a269 b13c
000000a0: c5f1 a3bc 81e1 d03c a8b4 053d d7ba 37bd
000000b0: a8e3 a4bc 6630 d13c ab7a 64be 31e2 46bd
000000c0: be9e c0be 9c9e ce3c c315 293c d857 3f3d
000000d0: b9a6 9f3c bbd5 c1bd 2741 393e 92ab 4dbc
000000e0: c576 453d 9000 f73c 1182 3e3d 8474 453d
000000f0: b80c dbba 0356 153b 31fd dbbd ad7d 7b3c
-0.01724496 -0.08625179 -0.036121096 -0.027549574 -0.08901341 -0.0141809685 -0.50114024 -0.08284437
-0.034240775 -0.10595433 0.06710252 0.07785525 0.017922742 -0.501613 -0.030892868 -0.026072519
0.03029138 0.005365753 0.008173944 -0.005192425 -0.03270328 -0.14838204 -0.09644905 -0.14353499
0.049360827 -0.016427686 0.13865367 0.040869474 -0.039826255 -0.0055219256 -0.060565673 0.02621392
0.057575375 0.046143174 0.0148889525 0.022999104 -0.016028171 -0.2215978 -0.030982498 0.021656815
-0.020012746 0.025498154 0.03264299 -0.04485592 -0.020128086 0.025535773 -0.22312419 -0.048555557
-0.3762111 0.025222115 0.01032013 0.046714634 0.01948868 -0.09464594 0.1809126 -0.012553113
0.04820897 0.030151635 0.04651076 0.04820682 -0.0016712165 0.0022786863 -0.10741652 0.015349788

linears.2.weight f4 [64, 64]
00000000: 9c2d 2a3e fddf 12be 1b7f 3f3d 61c4 053e
00000010: 04bf 393d d937 b6ba f8fa 00bb f1f3 b53e
00000020: 4525 34be 1e49 b23e 61bb 3cbe 589e 7bbe
00000030: bd90 5dbd c6d6 59bd c7e1 f2bd d482 26bd
00000040: d4bb 40bd 32ab 35be 9138 79be 3087 efbd
00000050: 7f57 143d 676f bc3e 5b83 2ebd 2860 5c3c
00000060: 2aaf 58bd de92 103e de44 1cbe ca65 1a3e
00000070: b859 bdbd fa0c 9b3e 599f 373e 0e6e 983d
00000080: 6c76 603e c404 c53d 926b 31be 2c27 a0bc
00000090: e591 0e3e c0f5 1a3e 4ceb 2d3e 1e3e 8dbe
000000a0: b3ea 6b3e 4d6c 9cbd f43d 5cbd d571 1dbe
000000b0: a674 aeb8 03bb 923d f037 1ebe 67cd 24be
000000c0: a8a4 53be 220e a23d 1fb8 863e df6f 93bc
000000d0: 7a4b 21be 29ff a8bd 5fc2 da3e 5368 07be
000000e0: 0998 5bbe eaf7 dfbd 8613 37bd 6133 fb3b
000000f0: 75e1 933e 8961 0abe 3155 a7bd b739 7fbe
00000100: 5911 1e3e ee00 59be 28d0 97be 7d08 71bc
00000110: e675 cabd ea93 98be e9c7 c73d 2e3f e5bc
00000120: efe1 0e3e 1c5a 5bbe 4961 ac3c a83c c53d
00000130: 64a6 743e fef4 9fbe 6907 973d fd2a ec3d
00000140: aeb8 e43e 1efc aabe d9bf 60be 3d50 a3be
00000150: 9305 90be 7813 113f 38fd 44be b20f 8d3c
00000160: 480a 863e e20c f7bd c03f 5ebe c0c6 0abe
00000170: b981 03be ded1 b43e 4539 623c 88d1 543d
00000180: 4773 6a3e d2bc 843d 481d 3e3d 0fc1 c43d
00000190: 164c cdbe 7c25 f63e 8548 2dbe 1e64 34be
000001a0: 3430 46bc 011e 8dbd 989c fa3e fb7c 5dbe
000001b0: 3eb3 9c39 a071 f2bd 0e81 48be 8934 08be
000001c0: 5f75 e5be 28b6 923e 44cf 053f e6ae a3be
000001d0: 3113 913c bb69 5abd a0c0 f43e 501c b83e
000001e0: 4282 eebd ec2b fc3d f520 81be 328d 07be
000001f0: d3e9 e43d 8f50 343e 6a3a 903e 3146 a2be
00000200: a7d0 74bc 1659 bbbc 6c1d 5c3e f5d7 3dbd
00000210: c22a 933e 9157 11be 44fc 003f a494 053f
00000220: 6ed1 663e e150 023f 5772 0abe a9ae 8fbd
00000230: 7d02 1a3e bf56 9abe 3ca6 b73e f49d 013e
00000240: b66b a43e 1dd8 ff3d 06cc 8e3e 6024 b63d
00000250: 32c8 fa3c 1151 2b3f 961d 0b3e 6ab2 933e
00000260: dda3 bdbe 1fc2 fcbd b0f9 16bf e258 3dbe
00000270: d150 423e 241a bbbb 8d49 64bd d7e6 aa3c
00000280: ca97 9bbe 297b 033d d9cf 853d 999f b6bc
00000290: 924f 4c3e eec4 6a3f 1481 7f3b 610e cabc
000002a0: 89e4 713e 603b 2bbe 93ca fc3e aeca c33d
000002b0: afd9 9b3e 8dc2 a3bd 31aa fcbd 7509 1e3e
000002c0: fc4d 79be 20d8 8dbe 3982 833e 16ff 083f
000002d0: 9427 743e 81ed aa3e 8fc5 bdbe 3c18 8dbe
000002e0: 8633 8cbe 986a b8be 7d66 abbe 01e4 75be
000002f0: c4b2 2d3e 945a e4bd c294 6e3e e778 82be
00000300: 1528 abbd 0204 92bd 52eb cc3d 82c9 2abe
00000310: 8952 b93d 0cf2 9a3e 623f 573e d0c7 293f
00000320: 0282 4d3e 727f 9d3e f3a4 1ebe 38e6 eabe
00000330: 284c 173c 1531 f6be 873a b63e 18f7 793e
00000340: a44e a33e cc14 c1be 4b80 e03e f6ad e03e
00000350: 9192 c8be fc79 ad3e b6f8 b63d de62 3c3e
00000360: c590 d1bd 556f 04be 3e5c e1be 4bf4 1539
00000370: a04e 403c 264c 593e f884 893e 63bd 81be
00000380: 81a0 443e 3a54 97be 607b 82be a9ad 9a3e
00000390: 29d8 f53e 2a00 4f3f d925 c33d 123e 263e
000003a0: e66b 003e acb0 9cbd fb7f 013f 7e8b 383d
000003b0: 1bc0 fd3e 8f54 d4bc 281e d2bd 9419 cb3e
000003c0: 9fdb 02bf e316 9cbe beef 023f b722 473f
000003d0: ed7f b73e a162 ac3e 3ab4 793e 2f75 b6be
000003e0: b4a2 52be dbfb 4bbe 796f dc3d 5a7b 1dbd
000003f0: 52f6 133e 0b11 83bd 2605 113f fc34 81be
0.16618961 -0.14343257 0.046752077 0.13063194 0.045348182 -0.0013902142 -0.001968084 0.35537675
-0.17592342 0.3482141 -0.18430854 -0.24572122 -0.05409311 -0.05318334 -0.1185947 -0.04065211
-0.047054127 -0.17741087 -0.24337985 -0.11695707 0.036216255 0.36803743 -0.04260574 0.01345066
-0.052901424 0.14118525 -0.15260646 0.15077892 -0.09245628 0.30283338 0.1793188 0.07442866
0.21920174 0.096200496 -0.17326191 -0.019549929 0.13922842 0.15132809 0.1698429 -0.27586454
0.2303875 -0.07637844 -0.05377002 -0.15375455 -8.318694e-05 0.07164576 -0.15451026 -0.1609398
-0.2066828 0.07912852 0.26312348 -0.01799768 -0.15751448 -0.08251793 0.42726418 -0.1322339
-0.21444716 -0.10935958 -0.044696353 0.007666037 0.28882948 -0.13513769 -0.08170546 -0.2492436
0.15436305 -0.21191761 -0.29650998 -0.014711496 -0.098857686 -0.2980035 0.09754927 -0.027984228
0.13953374 -0.21421093 0.021042483 0.0963071 0.23891598 -0.31241602 0.0737446 0.11531637
0.4467215 -0.33395475 -0.21948184 -0.31897154 -0.28129253 0.5667033 -0.1923722 0.017219398
0.2617972 -0.12063004 -0.21704006 -0.1355238 -0.12842454 0.35316366 0.013807599 0.051957637
0.22895537 0.06481327 0.046414644 0.096071355 -0.4009711 0.48075473 -0.16922195 -0.17616317
-0.012096453 -0.068904884 0.48947597 -0.21629708 0.00029888185 -0.118380785 -0.1958048 -0.1330129
-0.4481611 0.286546 0.5226939 -0.31969374 0.017709346 -0.05332349 0.4780321 0.359591
-0.116459385 0.12313065 -0.25220457 -0.13237455 0.11177411 0.17608856 0.28169566 -0.31694177
-0.014942325 -0.022869628 0.21495599 -0.04634853 0.2874356 -0.1419356 0.50384927 0.5217993
0.22540829 0.5090466 -0.1352018 -0.07015736 0.15040012 -0.30144307 0.35869014 0.1265791
0.32113427 0.12492392 0.27890033 0.08893657 0.030613039 0.6692057 0.13585505 0.28847057
-0.3703908 -0.12341713 -0.5897474 -0.18490937 0.18976142 -0.0057099033 -0.055734206 0.020862026
-0.30389243 0.032099877 0.065337844 -0.022292899 0.19952229 0.9170674 0.0038986849 -0.02466506
0.23622335 -0.16721869 0.49373302 0.095601425 0.30439517 -0.07996092 -0.12337149 0.15433295
-0.24346155 -0.27703953 0.2568529 0.5351423 0.23843223 0.33384326 -0.37064788 -0.27557552
-0.2738306 -0.36018825 -0.3347663 -0.24012758 0.16962725 -0.11150089 0.23298934 -0.25482866
-0.083572544 -0.07129671 0.10005821 -0.16678432 0.090489455 0.30262792 0.21020272 0.66320515
0.20069125 0.30761296 -0.1549261 -0.45878768 0.009234466 -0.48084322 0.35591528 0.24410665
0.31895936 -0.3771118 0.4384788 0.43882722 -0.3917432 0.3388213 0.089341566 0.1839709
-0.10232691 -0.12933095 -0.44015688 0.00014300754 0.011737496 0.21220455 0.2685926 -0.25339803
0.19201852 -0.29556447 -0.25484753 0.30210617 0.4801648 0.80859625 0.09528703 0.16234615
0.1254116 -0.07650885 0.5058591 0.045054905 0.49560627 -0.025919227 -0.10259658 0.39667952
-0.51116365 -0.3048621 0.5114707 0.77787346 0.35839787 0.33668998 0.24385157 -0.3563628
-0.20569879 -0.19920294 0.10763449 -0.038447715 0.14449432 -0.06399735 0.5664848 -0.25235736

linears.2.bias f4 [64]
00000000: d378 c7bc aa81 05bc 35b1 7dbd 2be3 46bd
00000010: fe3a 03bd d8f8 cabb 65a8 26bd 0fff ee3d
00000020: 9ef3 3ebd 575b 1cbd ef3d f93c 5ad0 393c
00000030: 1f79 213d 57d5 09bd eb12 e53c 7e3b 4e3d
00000040: 9039 0fbd 609c 1e3d 7872 5e3c 8a8e 1c3d
00000050: 2d2b 1c3d 44fd 103d 6054 6e3d fc66 18bd
00000060: c945 56bd 05ad 423d 3267 ddbd bbd7 8b3d
00000070: 6a86 e3bc 4e2e 23bd eb03 393d 051c 08be
00000080: ad4f c9bc 06df 0ebd 7b06 c53c c449 59bc
00000090: 3701 423d 6154 37bd 8750 403d f067 38bc
000000a0: 3852 233d 9bd7 7d3c 662f 1abd bd3a 203d
000000b0: cabf 323d 9018 2d3d 14b2 9d3c 5f52 d6bc
000000c0: 13a3 12bd 5f67 133d a27a 2c3c defc 91bd
000000d0: bc2d 3c3d 21f7 8cbc 4635 833c a1eb 3ebd
000000e0: 1e4b 933c 036e f23c e660 dcbc 4e3d 323d
000000f0: 5e7b b13d 6b77 993d 8c2e 253d cffa df3c
-0.024349606 -0.00814859 -0.061936576 -0.048556488 -0.03203868 -0.0061942153 -0.040687937 0.11669742
-0.04661905 -0.038173046 0.03042504 0.011341179 0.03942215 -0.033650722 0.027963122 0.050349705
-0.034967005 0.03872335 0.013577096 0.038221873 0.038127113 0.035397783 0.058185935 -0.03720759
-0.052312646 0.047528286 -0.108106986 0.06828257 -0.027774055 -0.03983908 0.045169752 -0.13291939
-0.024574125 -0.03488066 0.024050942 -0.013262216 0.04736444 -0.044758204 0.046951797 -0.011255249
0.03987333 0.015493299 -0.03764286 0.039118517 0.043639936 0.042259753 0.019249953 -0.026162324
-0.03580005 0.035987254 0.010527285 -0.07128309 0.045942053 -0.017207684 0.016016614 -0.046611432
0.017980155 0.029593473 -0.026901674 0.043515496 0.086661085 0.0749348 0.040327594 0.027341275

linears.3.weight f4 [1, 64]
00000000: 1e08 dd3e 739a 693f 5e95 d53e 5cd0 113f
00000010: 6259 cc3e 850f 1a3f 3a43 283f d8d4 cdbe
00000020: c8f0 d33e 957b 993d 9548 95be 09f5 8ebe
00000030: e744 81be 2212 803e e044 3bbe 9138 4c3f
00000040: bd8f da3e c880 97be 7241 3fbf c34e a4be
00000050: ee7e 95be bccf 01bf 566a 07bf 834a 8a3e
00000060: 6404 9c3e 2af2 44be 496e d43e 30dd 0cbf
00000070: e3e2 b03e 2be0 e33d 33c6 6ebe cc14 dd3e
00000080: a810 3f3e b4fa b83e b2ca 03bf 5b27 ca3e
00000090: 7efd dcbe 1b9f f43e abea 97be 70e8 063f
000000a0: 241b f1be df76 ccbe 12ec 853e 55ed 39be
000000b0: 5978 52be adb6 8dbe 7f8a 23bf ba6b a73e
000000c0: 88dc d43d ff34 44be bd89 b5be b464 353e
000000d0: 386d 04bf fdc5 653e f7f3 aabe eb27 343e
000000e0: 21bc 1bbe e2eb 90be a78f bc3e 9fd9 66be
000000f0: 8836 25bf 7b63 253f a0bd 77be 2bd2 9abe
0.43170255 0.91251296 0.4171552 0.56958556 0.39911944 0.6017993 0.6572758 -0.4020145
0.4139464 0.074942745 -0.29156938 -0.27921322 -0.2524788 0.25013834 -0.18287992 0.79773813
0.4268779 -0.2959044 -0.74709237 -0.3209134 -0.29198402 -0.507076 -0.5289663 0.27009973
0.304721 -0.19233003 0.4149039 -0.55025005 0.345481 0.11126741 -0.23317795 0.4317993
0.18658698 0.3612877 -0.51481164 0.3948315 -0.4316215 0.47777638 -0.29671225 0.5269842
-0.4709102 -0.3993444 0.2615667 -0.18156941 -0.20553721 -0.27678433 -0.63883203 0.32699376
0.103936255 -0.19160841 -0.35456648 0.17714196 -0.51729155 0.22438808 -0.33389255 0.17593352
-0.15208484 -0.28304964 0.36828348 -0.22543953 -0.64536333 0.6460492 -0.2419343 -0.3023847
