Complete_thesis_stage_1_and_2/(d).Code_and_all_other_details/WAAM/PINN_CONSTANT_PROP/Sequential_trail_1/Models/model_epoch_26000.pt (torch, 38264 bytes, 7 tensors)

linears.0.weight f4 [64, 4]
0	0xbe3ac855	-0.18240483
1	0xbcd3ff65	-0.025878618
2	0x3d459b16	0.048243605
3	0x3ef7636d	0.48318043
4	0x3f1da24e	0.6157578
5	0xbee066bd	-0.43828383
6	0xbee9c112	-0.45655113
7	0xbe2893f1	-0.16462685
8	0x3c436c49	0.011927673
9	0x3dcd05b4	0.100108534
10	0x3dd51860	0.1040504
11	0xbe286a55	-0.16446812
12	0x3e9c75ba	0.30558568
13	0x3f18fe5b	0.59763116
14	0x3e64ccb3	0.22343712
15	0x3e196301	0.14979173
16	0x3e5be891	0.21475436
17	0xbed2ed21	-0.4119654
18	0x3da9b1e0	0.0828588
19	0x3eab0c6e	0.3340792
20	0x3eaf654f	0.3425698
21	0xbe29abcf	-0.16569446
22	0x3df80379	0.12110037
23	0x3e3f66a9	0.18691505
24	0x3ed2aa43	0.41145524
25	0xbedf7524	-0.4364406
26	0xbe740c6a	-0.2383286
27	0xbe967e68	-0.29393315
28	0x3f474476	0.7783884
29	0xbf0cf3e0	-0.55059624
30	0x3d8f0a15	0.06984345
31	0x3ed2d4e4	0.41178048
32	0xbd44db2c	-0.04806058
33	0xbe3ffad2	-0.18748024
34	0x3ce7d595	0.028300086
35	0xbef575bb	-0.47941384
36	0xbcc46895	-0.02397565
37	0x3eb00ba5	0.34383884
38	0xbd89884f	-0.06715452
39	0x3e2a60b9	0.1663846
40	0xbe832742	-0.2561589
41	0xbe051254	-0.12995273
42	0x3e40fab5	0.18845637
43	0x3e91d2c6	0.2848112
44	0x3eb1ec1b	0.34750447
45	0xbf099582	-0.53743756
46	0x3e34acae	0.17643997
47	0xbdf33c42	-0.11876728
48	0x3e4154ef	0.18880056
49	0x3f43c5f0	0.76473904
50	0xbc3dfaa1	-0.011595399
51	0xbdfab22f	-0.12241017
52	0xbf21842d	-0.6309231
53	0x3f3eeebb	0.74583024
54	0xbcf4fe85	-0.02990652
55	0x3ec81b79	0.3908346
56	0xbedbd2a8	-0.42934155
57	0xbce50aee	-0.027959313
58	0x3e5933c0	0.21211147
59	0x3e066214	0.13123351
60	0xbe77ab9c	-0.24186558
61	0x3ed7956f	0.42106196
62	0xbd1c0f3b	-0.038100462
63	0x3ecb4e86	0.39708346
64	0x3eae437f	0.3403587
65	0x3e4ed651	0.20198943
66	0x3e8f4422	0.2798167
67	0xbe1739e7	-0.14768182
68	0xbe6c3482	-0.23066905
69	0xbe933115	-0.28748384
70	0xbe171037	-0.14752279
71	0xbe445c99	-0.19175948
72	0xbe75983e	-0.23983857
73	0x3e863d09	0.2621844
74	0xbe9958b5	-0.2995049
75	0xbeab5ee8	-0.33470845
76	0x3e9e854b	0.3096107
77	0xbee3654f	-0.4441323
78	0x3de18659	0.11011953
79	0x3e8f929e	0.28041548
80	0x3e7b5c48	0.24546921
81	0x3dcb4e1f	0.0992701
82	0x3d88900c	0.066681
83	0x3eb0387e	0.344181
84	0xbf51b37d	-0.819145
85	0x3deeca9f	0.11659741
86	0x3f19a91f	0.60023683
87	0x3e8844d5	0.26615015
88	0xbe801ef0	-0.25023603
89	0xbe86c528	-0.26322293
90	0x39e021a6	0.0004274968
91	0xbe979820	-0.2960825
92	0xbe7ce02a	-0.24694887
93	0xbea08c23	-0.31356916
94	0xbd19c431	-0.03754062
95	0x3f0f68bc	0.56019187
96	0x3e53e4f8	0.20692813
97	0xbc871690	-0.01649025
98	0x3c34097f	0.010988592
99	0xbed5aec4	-0.41734898
100	0x3db0face	0.08641587
101	0x3e6fd1b9	0.23419847
102	0xbdaca819	-0.084304996
103	0x3e00104e	0.1250622
104	0xbf102d08	-0.5631871
105	0xbb152957	-0.0022760236
106	0x3ecaca50	0.39607477
107	0xbeae6013	-0.34057674
108	0xbee5e63d	-0.4490222
109	0x39ea1694	0.0004464878
110	0x3d985bd1	0.074393876
111	0x3e9136ed	0.28362218
112	0x3ec1d30c	0.37856328
113	0xbea5b0b1	-0.32361367
114	0x3e4cbdb2	0.19994238
115	0xbea6315d	-0.32459536
116	0x3e8c6fb7	0.27428982
117	0x3e0fcb88	0.14042485
118	0x3d7e3476	0.06206175
119	0xbe913f75	-0.28368726
120	0xbe1a8954	-0.15091449
121	0xbe5f3679	-0.21798123
122	0xbea0719f	-0.31336686
123	0xbeb65e09	-0.35618618
124	0xbf2e6ce9	-0.68134934
125	0xbe83c5e1	-0.25736907
126	0xbf529233	-0.8225433
127	0x3f0f0b22	0.5587636
128	0xbdd9224b	-0.10602244
129	0xbb6a2066	-0.0035724877
130	0x3c855c1b	0.01627927
131	0x3f24340c	0.6414192
132	0x3ec386af	0.38188693
133	0xbdad9578	-0.084757745
134	0x3e4658a2	0.19369748
135	0xbe804770	-0.25054502
136	0x3df7cab5	0.1209921
137	0x3c318a16	0.010836145
138	0xbe74928b	-0.23884027
139	0xbda458e7	-0.08024769
140	0x3e7daceb	0.24772994
141	0x3b8a83b0	0.004227124
142	0x3e6ef1fa	0.23334494
143	0xbe82c1d0	-0.25538492
144	0x3f1b9a81	0.6078263
145	0x3f86d839	1.0534736
146	0xbea41a2a	-0.32051212
147	0xbe9bc370	-0.30422544
148	0xbdfcf883	-0.12352087
149	0xbc3218a4	-0.010870133
150	0x3de3d3ab	0.11124357
151	0xbda8510a	-0.08218582
152	0xbe80c32b	-0.251489
153	0xbc4457fa	-0.011983866
154	0xbe99aa57	-0.3001277
155	0xbe8c9847	-0.27459928
156	0x3f201938	0.6253848
157	0xbed8ae0c	-0.42320287
158	0x3dda5e4f	0.10662519
159	0xbf3070ed	-0.6892231
160	0x3e8d7fa3	0.27636442
161	0xbe8967e3	-0.26837072
162	0x3c9a2edf	0.018821178
163	0xbea0d758	-0.31414294
164	0x3dd7b788	0.10533053
165	0x3cb99e42	0.022658471
166	0x3e6ba29a	0.23011246
167	0xbd9df34a	-0.07712419
168	0xbeca72dc	-0.39540756
169	0xbdf72e04	-0.12069324
170	0xbdbc860c	-0.09205255
171	0x3ee1a9fb	0.44074997
172	0xbbf2950b	-0.007403021
173	0x3eb45ec9	0.35228565
174	0xbda8a25d	-0.08234093
175	0x3e98562e	0.2975325
176	0x3e6a617e	0.22888753
177	0x3e992cbe	0.29916948
178	0x3cfb0024	0.030639715
179	0xbe3c2f08	-0.18377316
180	0xbe708b16	-0.23490557
181	0x3d263ac4	0.040583387
182	0x3e2b0bb3	0.16703682
183	0x3dbf14c8	0.093301356
184	0x3e0d27ac	0.13784665
185	0xbd83654d	-0.06415806
186	0xbe1b85b0	-0.15187716
187	0xbe150f80	-0.14556694
188	0xbebbc8d1	-0.36676648
189	0x3df4096d	0.1191586
190	0xbdcebcae	-0.100945815
191	0xbe7ba1dc	-0.24573463
192	0xbed3f140	-0.41394997
193	0xbe2431bf	-0.16034602
194	0xbe577332	-0.21040037
195	0x3e3c31b7	0.1837834
196	0xbe01e237	-0.1268395
197	0x3e93a296	0.2883498
198	0xbe510cf5	-0.20415099
199	0x3e4cd478	0.20002925
200	0x3d931258	0.07181233
201	0x3f184417	0.59478897
202	0xbe9425c3	-0.2893506
203	0x3e3caf4f	0.1842625
204	0x3eb33524	0.3500148
205	0x3f80117f	1.0005339
206	0x3ecd43a1	0.4009066
207	0x3e997b87	0.29977056
208	0x3e81ffdd	0.2539052
209	0xbc9aeaa1	-0.018910708
210	0x3d2cfd8f	0.042234
211	0xbdd39cc7	-0.10332637
212	0x3e792e1e	0.24333999
213	0xbf2e4bb5	-0.6808427
214	0x3d5015b3	0.050801944
215	0xbebe10a8	-0.37122083
216	0xbeb6acc5	-0.35678688
217	0xbe3764f5	-0.17909606
218	0xbe400643	-0.18752389
219	0x3e9817ca	0.2970565
220	0xbe0f69c3	-0.14005189
221	0xbe0502dc	-0.12989372
222	0xbe707ea3	-0.23485808
223	0x3da7741e	0.081764445
224	0x3e678f54	0.22613269
225	0x3de46150	0.111513734
226	0xbe360d9b	-0.17778628
227	0xbeb3241b	-0.34988484
228	0x3ed49874	0.41522563
229	0xbda02e49	-0.07821328
230	0xbe60e669	-0.21962894
231	0xbe73a380	-0.23792839
232	0x3ebab115	0.36463228
233	0x3ee95c29	0.45578125
234	0xbcf4ef82	-0.029899362
235	0xbec61757	-0.38689682
236	0xbe48fec8	-0.19628441
237	0x3fbad97c	1.4597621
238	0xbdd0db37	-0.10198062
239	0xbd398099	-0.045288656
240	0x3d6a5cbd	0.05721735
241	0xbcda040b	-0.026613256
242	0xbdfb2a8b	-0.12263974
243	0x3f0044ea	0.50105155
244	0x3f30e6e5	0.6910232
245	0x3c6a85f5	0.014314164
246	0x3c63698d	0.013880146
247	0x3e26c3e0	0.16285658
248	0xbef19801	-0.47186282
249	0xbcdfde3e	-0.027327653
250	0xbe1a1f4e	-0.15051004
251	0xbb8ebdf4	-0.0043561403
252	0x3ed83c1d	0.42233363
253	0x3fae3cc0	1.361229
254	0xbe224ad0	-0.15848851
255	0xbec484fd	-0.38382712

linears.0.bias f4 [64]
0	0x3e8dfb72	0.277309
1	0x3f3f3d20	0.74702644
2	0x3c8558df	0.016277729
3	0x3e21ae96	0.15789255
4	0x3eae49c7	0.34040663
5	0x3e75e4e7	0.240131
6	0x3d74ae15	0.05973633
7	0x3f713dee	0.9423512
8	0xbf027b20	-0.50969124
9	0x3b398722	0.0028309305
10	0xbcd6f80f	-0.02624133
11	0x3ded5d5d	0.11590073
12	0x3e80994a	0.2511695
13	0x3de63b07	0.11241727
14	0xbc462c40	-0.012095511
15	0x3cd43bf6	0.025907498
16	0x3dd8377e	0.10557459
17	0xbea2da2e	-0.31807083
18	0xbe06dd5a	-0.13170376
19	0x3e5d6021	0.21618702
20	0x3eb6ecb8	0.35727477
21	0x3e0c1c3c	0.13682646
22	0xbe81cdd2	-0.2535234
23	0x3eb3e709	0.35137203
24	0xbedbe749	-0.42949894
25	0x3d39a854	0.045326546
26	0xbf9547da	-1.1662552
27	0xbd4d7eb5	-0.050169665
28	0xbcc924b2	-0.02455363
29	0xb9cd9e43	-0.0003921856
30	0xbcd767f3	-0.026294684
31	0x3dcf344d	0.101173975
32	0x3f075ef5	0.5287927
33	0x3e355bdc	0.17710823
34	0x3c85d1ef	0.016335456
35	0x3d62a67b	0.05533455
36	0xbdec976d	-0.1155232
37	0xbcb75006	-0.022377025
38	0xbdce9dc0	-0.10088682
39	0xbe62bad9	-0.22141589
40	0x3cfca7ee	0.030841794
41	0x3d2ec776	0.04267069
42	0x3dd40204	0.10351947
43	0x3a157806	0.0005701784
44	0x3de0bd42	0.10973598
45	0x3dd3b35d	0.10336945
46	0xbe375203	-0.17902379
47	0xbe840f82	-0.25793082
48	0xbd519c51	-0.051174466
49	0x3c81a9dd	0.015828067
50	0x3d75a5c5	0.059972543
51	0x3e788085	0.24267776
52	0x3e0eba6c	0.13938302
53	0xbdaeac00	-0.085289
54	0xbbe0aef3	-0.006856793
55	0xbd01a6b8	-0.031653136
56	0xbd83ec61	-0.0644157
57	0xbd86f3cd	-0.0658947
58	0x3d046485	0.032322425
59	0xbea01ecd	-0.312735
60	0x3f25f721	0.64830214
61	0x3daaca44	0.0833936
62	0xbe1bab9d	-0.15202184
63	0xbdb6b73b	-0.08921667

linears.1.weight f4 [64, 64]
0	0x3e0389c1	0.12845518
1	0xbe61c28b	-0.22046869
2	0xbe12c2ee	-0.14332172
3	0x3e0a892e	0.13528892
4	0xbd2c032a	-0.041995205
5	0x3e659037	0.22418295
6	0xbdc965d3	-0.098338746
7	0x3e5e6ef5	0.21722014
8	0xbdad1d88	-0.08452898
9	0x3cb17ff8	0.021667466
10	0xbc4348cd	-0.0119192125
11	0xbd28272a	-0.041052975
12	0x3c827203	0.015923506
13	0x3e771e88	0.2413274
14	0x3d91286b	0.07087787
15	0x3e2e8f8e	0.1704695
16	0x3e1d81df	0.15381573
17	0xbe0c6eb2	-0.13714102
18	0xbe832814	-0.25616515
19	0xbd4fe13d	-0.050751913
20	0x3de854b3	0.1134428
21	0xbcd57b50	-0.026059777
22	0xbe2410e1	-0.16022064
23	0x3b2fad46	0.002680616
24	0xbe7f2e63	-0.24920039
25	0x3e4ee428	0.20204222
26	0xbe481cb4	-0.195422
27	0x3ea72f02	0.32653052
28	0xbd60bfc2	-0.054870375
29	0xbe78db15	-0.24302323
30	0xbd9defc6	-0.07711749
31	0xbeb2ab57	-0.34896347
32	0x3e640c74	0.22270375
33	0xbd0985bf	-0.033574816
34	0xbd4a0e74	-0.04933019
35	0x3e2d8783	0.16946225
36	0x3d9f39da	0.07774706
37	0xbdf32e8e	-0.11874114
38	0xbe8d460b	-0.275925
39	0xbe9fb210	-0.31190538
40	0x3ded4c57	0.11586826
41	0x3db96c0b	0.09053811
42	0x3e6b0dab	0.22954433
43	0xbe1a48ee	-0.15066883
44	0xbdc62d23	-0.09676578
45	0x3cbdf3d2	0.023187552
46	0xbe3fd0f5	-0.18732055
47	0x3d0d05e5	0.03442945
48	0xbd7585b8	-0.059941977
49	0x3e0af777	0.13570963
50	0x3dfa2166	0.122134015
51	0x3c715279	0.014729136
52	0xbe59a38d	-0.21253796
53	0xbd4bd857	-0.049766865
54	0x3dd87151	0.105684884
55	0x3d99a92e	0.075029716
56	0xbe56ccf1	-0.20976616
57	0xbe955e5c	-0.29173553
58	0x3d19a67b	0.037512284
59	0x3d7f5816	0.062339865
60	0x3c39e0e4	0.011345122
61	0xbcacf2d2	-0.02111188
62	0x3e1d8b5a	0.1538519
63	0xbd1059a2	-0.03524173
64	0xbf86d6ec	-1.0534339
65	0xbf758703	-0.95909137
66	0x3e2109c6	0.15726385
67	0xbf48825f	-0.7832393
68	0xbf5e8715	-0.8692487
69	0xbeeb1940	-0.45917702
70	0x3d84a34d	0.0647646
71	0xbf8f6c50	-1.1204929
72	0x3f6d26b0	0.9263716
73	0xbe413776	-0.18868813
74	0x3e01ce17	0.12676273
75	0xbe683264	-0.22675472
76	0xbe044c4a	-0.12919727
77	0xbe577b89	-0.21043219
78	0x3c7f6a8f	0.01558937
79	0x3c4233d1	0.011853174
80	0xbe89ebd5	-0.26937738
81	0x3ecb8b58	0.39754748
82	0x3db3b390	0.08774483
83	0xbef38cba	-0.47568303
84	0xbf091cb6	-0.53559434
85	0xbe1fb91c	-0.15597957
86	0x3ea51340	0.3224125
87	0xbf25cd4e	-0.64766395
88	0x3f290f2b	0.6603877
89	0xbe1ab25a	-0.15107098
90	0x3fb39a1d	1.4031407
91	0x3eba511b	0.36390004
92	0x3e8d91e6	0.27650374
93	0x3e2d6e71	0.16936661
94	0x3ba1af8f	0.0049342583
95	0x3f2fbf1f	0.68651
96	0xbfabe1b2	-1.3428252
97	0x3d1576d5	0.03649028
98	0xbd0bfd9b	-0.034177404
99	0x3e293de2	0.16527513
100	0x3dc93af8	0.098257005
101	0x3e5b472e	0.21413872
102	0x3e881d64	0.26584923
103	0x3ef6fc9e	0.48239607
104	0x3cd7a8eb	0.026325664
105	0x3e75dabb	0.2400922
106	0xbd5d8ee9	-0.054091368
107	0xbe1d5a40	-0.15366459
108	0xbe69557e	-0.22786519
109	0x3dcd2e00	0.100185394
110	0x3edf58b7	0.43622372
111	0x3ef7af73	0.48376045
112	0x3d526d82	0.051373966
113	0xbd8773aa	-0.06613858
114	0x3dc1666e	0.09443365
115	0xbf59b6f1	-0.8504477
116	0xbe986076	-0.29761094
117	0x3eb9e288	0.36305642
118	0xbe6c6431	-0.23085095
119	0xbe81530c	-0.25258672
120	0x3e247866	0.16061553
121	0x379e3870	1.8861349e-05
122	0xbbb8a63a	-0.00563505
123	0x3db86937	0.09004443
124	0xbfa45729	-1.2839099
125	0x3dbce22a	0.09222825
126	0x3f1ab702	0.604355
127	0x3e24bcf8	0.16087711
128	0xbe0946b5	-0.13405879
129	0x3e9716ea	0.2950967
130	0xbd9e891b	-0.077409945
131	0x3c96de1b	0.018416455
132	0xbe38247a	-0.17982665
133	0xbdd938cd	-0.10606537
134	0x3d30c531	0.043156806
135	0x3d17bbed	0.037044454
136	0x3e41b91b	0.18918268
137	0x3e1555e8	0.14583552
138	0xbe436762	-0.19082406
139	0x3e6c070e	0.23049566
140	0x3ebf80b3	0.37402877
141	0xbf010437	-0.50397056
142	0xbdead058	-0.1146552
143	0xbe53466b	-0.20632331
144	0x3d4766e0	0.048682094
145	0xbde27de9	-0.11059172
146	0x3e1be883	0.15225415
147	0xbcf7c453	-0.030244982
148	0x3e0d2100	0.1378212
149	0xbe6cd6d1	-0.23128821
150	0x3db240fe	0.087038025
151	0xbea4d0ef	-0.32190654
152	0x3efc3f9d	0.49267283
153	0x3dcaa43b	0.09894606
154	0xbe1fcb31	-0.15604855
155	0xbf369337	-0.7131838
156	0x3ea1aecb	0.3157867
157	0x3d968105	0.07348827
158	0x3e155903	0.14584737
159	0xbee0ecf1	-0.43930772
160	0xbe1d5c30	-0.15367198
161	0x3e8f67be	0.28008837
162	0x3d71affd	0.059005726
163	0xbcfd118a	-0.030892152
164	0x3e4ebf1d	0.20190091
165	0x3d16c629	0.036810074
166	0xbe44d722	-0.19222692
167	0x3e68be0b	0.22728746
168	0x3dc98b9a	0.0984108
169	0xbd5a4ad8	-0.053294033
170	0xbc200954	-0.009767849
171	0xbb936f68	-0.0044993646
172	0x3dd835b7	0.1055712
173	0xbc5e7cab	-0.013579528
174	0x3ea84a85	0.32869354
175	0xbead2f73	-0.33825263
176	0xbf01456f	-0.5049657
177	0x3e4608a6	0.19339237
178	0x3d71bf9e	0.05902063
179	0x3c98396e	0.018582072
180	0x3ee659df	0.4499044
181	0xbd45d01c	-0.04829417
182	0xbe615fef	-0.22009252
183	0xbdc6e8d7	-0.097123794
184	0x3e34871d	0.17629667
185	0x3eeb2fdc	0.4593495
186	0x3e346ad5	0.17618878
187	0xbe352df0	-0.17693305
188	0xbd9263bb	-0.07147928
189	0xbab2c684	-0.0013639485
190	0xbe97564b	-0.29558024
191	0x3d087ea4	0.0333239
192	0xbf31690d	-0.6930092
193	0xbe68ead7	-0.22745834
194	0x3d09c6a2	0.033636697
195	0xbe8f65ae	-0.28007263
196	0xbf31338d	-0.69219285
197	0xbe93d6a5	-0.28874698
198	0x3d21e954	0.03952916
199	0xbec6b77b	-0.3881186
200	0x3f7acbb7	0.97967094
201	0xbe01ef97	-0.12689053
202	0xbe8ef510	-0.27921343
203	0xbe0a3e37	-0.13500296
204	0x3e3c879d	0.18411107
205	0xbee46dea	-0.44615108
206	0x3d1e2c2e	0.03861635
207	0xbeb4fa8f	-0.3534741
208	0x3e661607	0.2246934
209	0xbc93e10d	-0.018051649
210	0x3e682456	0.22670111
211	0xbe40b243	-0.18818001
212	0xbed9bf47	-0.42528746
213	0xbd42a4c9	-0.047520433
214	0x3e951456	0.29117078
215	0xbf437e12	-0.76364243
216	0x3ead1a8f	0.33809325
217	0xbdeb76d2	-0.114972726
218	0x3f462b7e	0.77410114
219	0x3cf8294b	0.030293128
220	0x3d389b43	0.045069944
221	0x3e6c1298	0.23053968
222	0x3e2992ea	0.1655995
223	0x3ef27c3c	0.47360408
224	0xbf87ba0a	-1.060365
225	0x3c5cde6d	0.013480765
226	0x3db23fca	0.08703573
227	0xbc53c3e8	-0.012925126
228	0x3ea784ea	0.32718593
229	0xbd070591	-0.032964293
230	0x3d445334	0.04793091
231	0x3f586771	0.8453284
232	0xbc6d11c5	-0.014469569
233	0x3bcfd005	0.0063419365
234	0xbeb39ea2	-0.35081965
235	0xbe075f5b	-0.13219969
236	0x3e166b91	0.14689471
237	0x3e00544a	0.12532154
238	0x3e56370a	0.20919433
239	0x3dd4ac9c	0.10384485
240	0xbe38651e	-0.18007323
241	0xbd1dfeb1	-0.03857297
242	0xbe0e3394	-0.13886863
243	0xbeebe439	-0.46072558
244	0x3d8fa928	0.07014686
245	0x3eb638bb	0.35590157
246	0xbe8ab039	-0.27087572
247	0xbc1434ea	-0.009045819
248	0x3e9caa1a	0.30598527
249	0x3e9cbe1b	0.3061379
250	0x3ec65353	0.38735446
251	0x3e300f49	0.17193331
252	0xbf6693bd	-0.9006918
253	0xbb28821d	-0.002571232
254	0x3c48b999	0.012251281
255	0xbd911bc8	-0.07085377

linears.1.bias f4 [64]
0	0xbbb6ebce	-0.0055823093
1	0xbe0ef4d4	-0.13960582
2	0xbd256d07	-0.04038718
3	0xbd588d54	-0.052869156
4	0xbdc56ec0	-0.096402645
5	0xbdb76fba	-0.08956857
6	0xbf13d5f0	-0.5774832
7	0xbdb2c74e	-0.087294206
8	0xbd1b93d3	-0.037982773
9	0xbde5b1be	-0.11215542
10	0x3d98128d	0.07425413
11	0x3dacf4c3	0.08445122
12	0x3db5224e	0.08844434
13	0xbf117419	-0.56817776
14	0xbd140d56	-0.03614553
15	0xbcada7be	-0.02119815
16	0x3d49d332	0.049273677
17	0xbb46fad3	-0.0030361905
18	0x3be32108	0.006931428
19	0xbc2d14c6	-0.010564035
20	0xbc4e32db	-0.012585367
21	0xbe1817d3	-0.14852838
22	0xbdff78e6	-0.124742314
23	0xbe16739c	-0.14692539
24	0x3d5485aa	0.051885284
25	0xbbea59fa	-0.0071518393
26	0x3e122885	0.1427327
27	0x3d504199	0.05084381
28	0xbd29a30c	-0.04141526
29	0x3b323c96	0.0027196757
30	0xbdb7cb68	-0.089743435
31	0x3ccb3cad	0.024809206
32	0x3d3c3be5	0.045955557
33	0x3d4a0f73	0.04933114
34	0x3c244dc6	0.010028308
35	0x3c9b01fc	0.018921845
36	0xbc9ca2d9	-0.01912062
37	0xbe65e21d	-0.22449537
38	0xbd14a941	-0.036294226
39	0x3cba9131	0.02277431
40	0xbc855b63	-0.016278928
41	0x3cfb4637	0.03067313
42	0x3cdad8cc	0.026714705
43	0xbd959fdb	-0.07305881
44	0xbc9f260a	-0.019427318
45	0x3cd72400	0.026262283
46	0xbeafb07a	-0.34314328
47	0xbd523f74	-0.051330045
48	0xbed66269	-0.41871956
49	0x3ce0f4d3	0.027460491
50	0x3c6d6be7	0.014491058
51	0x3d43ed8f	0.047833975
52	0x3d30aa3a	0.04313109
53	0xbdbc5cc7	-0.091973834
54	0x3e49dba2	0.1971269
55	0xbb61082d	-0.0034337149
56	0x3d6075f8	0.054800004
57	0x3ccfc320	0.025361598
58	0x3d67aabe	0.056559317
59	0x3d47bfab	0.048766773
60	0x3c22635f	0.009911387
61	0x3de625e1	0.112376936
62	0xbe170cb4	-0.1475094
63	0x3ceb3181	0.028710129

linears.2.weight f4 [64, 64]
0	0x3e2876ca	0.16451564
1	0xbe105098	-0.14093244
2	0x3cb687bd	0.022281522
3	0x3e11329f	0.14179467
4	0x3d3ca93f	0.046059843
5	0xbabc1482	-0.0014349374
6	0x3c0bcffc	0.008533474
7	0x3eb7ef76	0.35924882
8	0xbe45727f	-0.19281958
9	0x3eb356fb	0.35027298
10	0xbe3fff9e	-0.18749854
11	0xbe810f2d	-0.2520689
12	0xbd836b3d	-0.064169385
13	0xbd41f17f	-0.04734945
14	0xbde4b3b8	-0.11167091
15	0xbd9d4134	-0.07678452
16	0xbd54149d	-0.05177747
17	0xbe1030f1	-0.1408117
18	0xbe708482	-0.23488048
19	0xbdfa242f	-0.12213933
20	0x3d263d7e	0.040585987
21	0x3eb5fec3	0.3554593
22	0xbd2451f0	-0.040117204
23	0x3cc24156	0.023712795
24	0xbd85c02a	-0.06530793
25	0x3e0d89dc	0.1382212
26	0xbe2129f2	-0.15738657
27	0x3e104e8b	0.14092462
28	0xbdb384f2	-0.08765592
29	0x3e807bd0	0.2509446
30	0x3e48c0db	0.19604819
31	0x3dea8c96	0.11452596
32	0x3e840db0	0.25791693
33	0x3dc1e7ed	0.094680645
34	0xbe275a6e	-0.1634309
35	0xbcc6cd1e	-0.02426773
36	0x3e1b91e7	0.15192376
37	0x3e268f71	0.16265656
38	0x3e2f8ee5	0.17144354
39	0xbe98716b	-0.2977403
40	0x3e65e500	0.22450638
41	0xbd96906f	-0.07351767
42	0xbd971e07	-0.07378774
43	0xbe19ef0e	-0.15032598
44	0xbd57118c	-0.05250697
45	0x3d9967ba	0.074904874
46	0xbe13b235	-0.1442345
47	0xbe1cb498	-0.15303266
48	0xbe532155	-0.20618184
49	0x3db6699a	0.08906861
50	0x3e45eea0	0.1932931
51	0xbcb2f657	-0.02184598
52	0xbdd33a62	-0.1031387
53	0xbd8bb461	-0.06821514
54	0x3edf90c7	0.43665144
55	0xbe16b062	-0.14715722
56	0xbe5d7e8c	-0.21630305
57	0xbdfb7678	-0.122784555
58	0xbd465b9f	-0.04842722
59	0x3c1aa7fc	0.009439465
60	0x3e8f39cd	0.27973786
61	0xbe50dc24	-0.20396477
62	0xbd8b7e1f	-0.06811165
63	0xbe8121cf	-0.25221106
64	0x3e6c88a7	0.23099004
65	0xbdc86a89	-0.09785945
66	0xbeede561	-0.46464065
67	0x3d179b73	0.037013482
68	0xbe41c978	-0.1892451
69	0xbed952a2	-0.42445856
70	0x3e7e6106	0.24841699
71	0xbdfe257a	-0.12409492
72	0xbd3b09db	-0.045663696
73	0xbea66bba	-0.32504064
74	0x3dfe8afc	0.12428853
75	0x3e39085b	0.18069594
76	0x3e02fe01	0.12792207
77	0xbeb4d0b8	-0.3531549
78	0xbc929618	-0.017893836
79	0x3d5e1d60	0.054227233
80	0x3eaf253b	0.34208092
81	0xbec1be77	-0.37840626
82	0xbe8363bb	-0.25662026
83	0xbee79f6b	-0.45238814
84	0xbe0fb146	-0.14032468
85	0x3f294974	0.66127706
86	0xbdff85f2	-0.1247672
87	0xbd098499	-0.03357372
88	0x3eaec1d6	0.3413226
89	0xbd51a236	-0.051180087
90	0xbde06678	-0.10957044
91	0xbd3143c9	-0.043277536
92	0xbe669cfd	-0.22520824
93	0x3ec25d08	0.37961602
94	0xbb0af8a3	-0.0021205328
95	0x3daba864	0.08381727
96	0x3ed88123	0.42286023
97	0x3e3ed4d8	0.18635881
98	0xbc5274f3	-0.012845266
99	0x3e39013e	0.1806688
100	0xbf0b6936	-0.54457414
101	0x3ec6ff37	0.38866588
102	0xbeb1f709	-0.34758785
103	0xbe7ba97d	-0.24576373
104	0x3b2abd6f	0.0026052853
105	0xbcc1fb8d	-0.02367952
106	0x3eff0370	0.4980731
107	0xbea4b079	-0.32165888
108	0xbde7fbcf	-0.113273256
109	0xbe2b2fef	-0.16717504
110	0xbdd46f5f	-0.10372805
111	0xbe5afa79	-0.2138461
112	0xbef5056a	-0.47855693
113	0x3ebf172e	0.37322372
114	0x3f16fef7	0.58982795
115	0xbe9c26cb	-0.30498347
116	0x3d857e82	0.0651827
117	0xbd2991b6	-0.041398726
118	0x3f13584f	0.57556623
119	0x3eca585d	0.3952054
120	0xbd2c2209	-0.042024646
121	0x3c2cff10	0.0105588585
122	0xbeb44a83	-0.35213098
123	0xbd9eea95	-0.07759587
124	0x3e0d54a0	0.13801813
125	0x3f0b9416	0.54522836
126	0x3f02845e	0.50983226
127	0xbed96ac3	-0.42464265
128	0x3bdb6f89	0.0066966456
129	0xbc2efba4	-0.010680113
130	0x3e17ff87	0.1484357
131	0xbd199afa	-0.037501313
132	0x3e9182ed	0.284202
133	0xbe2081cc	-0.15674514
134	0x3f03e34e	0.51518714
135	0x3f06d166	0.52663267
136	0x3e6229c2	0.22086242
137	0x3f02f7f3	0.5115959
138	0xbe0e9b1c	-0.13926357
139	0xbd9a3453	-0.07529511
140	0x3e0ee530	0.13954616
141	0xbe98cb12	-0.2984243
142	0x3eb8ae5b	0.36070523
143	0x3e0eed13	0.13957624
144	0x3ea6dcd4	0.32590353
145	0x3db912bf	0.09036779
146	0x3e90ef5c	0.28307617
147	0x3d9155b4	0.07096425
148	0xbd04b6d8	-0.032400936
149	0x3f38e176	0.72219026
150	0x3e1a8a8c	0.15091914
151	0x3e989152	0.2979837
152	0xbebe2e0c	-0.37144506
153	0xbde72bb0	-0.112876296
154	0xbf19929f	-0.5998935
155	0xbe477eb2	-0.19481924
156	0x3e3b5952	0.18295792
157	0x3d5bec4d	0.05369215
158	0xbc089b1c	-0.008337762
159	0x3d7f45ce	0.06232243
160	0xbe92b4d2	-0.2865358
161	0x3d11d58f	0.035604056
162	0x3d86da82	0.06584646
163	0xbc29018d	-0.010315311
164	0x3e456a39	0.19278802
165	0x3f72b940	0.9481392
166	0xbc0279e6	-0.007963633
167	0xbd23f9b6	-0.040033065
168	0x3e6f9160	0.233953
169	0xbe31e8a2	-0.17373899
170	0x3f119e62	0.568823
171	0x3db263e9	0.087104626
172	0x3e955eb0	0.29173803
173	0xbd8f2bb2	-0.06990756
174	0xbde1f792	-0.110335484
175	0x3e278c8c	0.16362208
176	0xbe712ba1	-0.235518
177	0xbdea65fd	-0.11445234
178	0x3ea2699e	0.31721205
179	0x3f0c6539	0.54841954
180	0x3ea82d19	0.32846907
181	0x3eb1e042	0.34741408
182	0xbea53f71	-0.32274964
183	0xbe96076f	-0.29302546
184	0xbe8bd907	-0.27314016
185	0xbeb71c2e	-0.35763687
186	0xbebbe470	-0.3669772
187	0xbe7b23cf	-0.24525379
188	0x3e154631	0.14577557
189	0xbe61a2bf	-0.22034739
190	0x3e7b7778	0.24557292
191	0xbeafa67c	-0.34306705
192	0xbda107f2	-0.078628436
193	0xbd7c1cff	-0.06155109
194	0x3dc8356b	0.09775814
195	0xbe2cd580	-0.16878319
196	0x3dcb0244	0.099125415
197	0x3e9459df	0.28974816
198	0x3e6c0ea2	0.23052457
199	0x3f2a9dcf	0.66647047
200	0x3e480550	0.19533277
201	0x3e9ed354	0.31020606
202	0xbe25e216	-0.16199526
203	0xbeee65a9	-0.46561936
204	0x3bb802bc	0.0056155603
205	0xbeee57e8	-0.46551442
206	0x3ebb03af	0.36526248
207	0x3e792b3d	0.243329
208	0x3e9db836	0.30804604
209	0xbead3cc1	-0.33835414
210	0x3edbcbdb	0.42928967
211	0x3edbfd20	0.42966557
212	0xbeccfcc1	-0.40036586
213	0x3eb1a124	0.34693253
214	0x3dbb7718	0.09153575
215	0x3e4a5ea7	0.1976267
216	0xbdc724d0	-0.09723818
217	0xbdfe5fa0	-0.12420583
218	0xbee4af5a	-0.44665033
219	0x3c31cee4	0.010852549
220	0x3c14de71	0.009086237
221	0x3e5533a7	0.20820485
222	0x3e85f43a	0.26162893
223	0xbe531608	-0.20613873
224	0x3e6e205d	0.23254533
225	0xbea1de01	-0.31614688
226	0xbe87bff0	-0.26513624
227	0x3e9bf61f	0.30461213
228	0x3ef8d1d9	0.485976
229	0x3f4bbbf6	0.7958368
230	0x3de4f497	0.11179464
231	0x3e1a06fd	0.15041728
232	0x3e061a3c	0.13095945
233	0xbda1ed0e	-0.07906543
234	0x3ee56042	0.448
235	0x3d401ebc	0.04690431
236	0x3ef8488e	0.48492855
237	0xbd12552c	-0.035725757
238	0xbdc7a8ac	-0.097489685
239	0x3ecba0b9	0.3977106
240	0xbf00cf7e	-0.5031661
241	0xbeb18779	-0.3467367
242	0x3eda6491	0.4265485
243	0x3f40237d	0.7505415
244	0x3eb72cc4	0.3577634
245	0x3eadabe7	0.33920214
246	0x3e68a029	0.22717346
247	0xbeb0f1a9	-0.34559372
248	0xbe586d4d	-0.21135445
249	0xbe47b183	-0.19501309
250	0x3db803b2	0.0898508
251	0xbd41b489	-0.047291312
252	0x3e1c34dd	0.1525454
253	0xbe2272bd	-0.15864082
254	0x3f090b08	0.5353246
255	0xbe716687	-0.23574267

linears.2.bias f4 [64]
0	0xbcd39af4	-0.025830723
1	0x3d941885	0.07231239
2	0xbd80027b	-0.06250473
3	0xbd6b52e4	-0.057452098
4	0xbd0c4ecc	-0.034254834
5	0x3cedf7c2	0.029048804
6	0xbd2f9e08	-0.04287532
7	0x3da72838	0.08161968
8	0xbd4270fb	-0.047471028
9	0xbd32986f	-0.043602403
10	0x3d18bd62	0.037289985
11	0x3cb439ea	0.022000272
12	0x3d3d02ea	0.046145357
13	0xbd1b78d7	-0.03795704
14	0x3cf4e2fd	0.029893393
15	0x3da41c66	0.08013229
16	0xbd29a122	-0.041413434
17	0x3d55818f	0.05212551
18	0x3b4c6253	0.0031186535
19	0x3d5e65dc	0.05429636
20	0x3d530c93	0.051525664
21	0x3d288f28	0.04115215
22	0x3d8bfee9	0.0683573
23	0xbd48e3a0	-0.049045205
24	0xbd5ba3f4	-0.053623155
25	0x3d5e771a	0.054312803
26	0xbde6192e	-0.112352714
27	0x3d926aae	0.07149254
28	0xbcfd6f6b	-0.030936917
29	0xbd5b77fc	-0.053581223
30	0x3d64306d	0.055710245
31	0xbe15e622	-0.1463857
32	0xbbc713bb	-0.00607535
33	0xbd1a9b9e	-0.037746064
34	0x3cd694ea	0.026194055
35	0xba08a886	-0.00052131
36	0x3d6b653c	0.05746959
37	0xbd2995b5	-0.041402537
38	0x3d4d7489	0.050159965
39	0xbd8856f7	-0.06657212
40	0x3d22f9d8	0.03978905
41	0x3bf52f66	0.007482457
42	0xbd2206a6	-0.03955712
43	0x3d2665f0	0.04062456
44	0x3d51bd54	0.051205948
45	0x3d7e2d26	0.062054776
46	0x3c9a6e6e	0.018851485
47	0xbceb4c1d	-0.028722817
48	0xbd235182	-0.039872654
49	0x3d457e02	0.048215874
50	0xbc550011	-0.013000504
51	0xbd9430a0	-0.07235837
52	0x3d795fed	0.060882498
53	0xbc4c3e8b	-0.012466083
54	0xbbd0c2c8	-0.006370876
55	0xbd43f9a6	-0.047845505
56	0x3c848e96	0.016181272
57	0x3d0938dc	0.03350149
58	0xbce19d21	-0.027540745
59	0x3d70e8f7	0.058815923
60	0x3db9b6fd	0.09068105
61	0x3e02fa17	0.12790714
62	0x3d390133	0.04516716
63	0x3ce5151c	0.027964167

linears.3.weight f4 [1, 64]
0	0x3ee09619	0.43864515
1	0x3f6d2d11	0.9264689
2	0x3eee3afb	0.46529374
3	0x3ecf45c1	0.40482906
4	0x3ed9db80	0.42550278
5	0x3f1c84b9	0.6114002
6	0x3f2bcc32	0.6710845
7	0xbeccbe47	-0.3998892
8	0x3edf2f47	0.43590757
9	0x3dadeb06	0.08492093
10	0xbe9ba5b4	-0.3039986
11	0xbe968c97	-0.29404137
12	0xbe8a0ee7	-0.26964495
13	0x3e8621ca	0.26197654
14	0xbe475c0d	-0.19468708
15	0x3f9849bd	1.1897503
16	0x3ee3599d	0.44404307
17	0xbe9cdc46	-0.30636805
18	0xbf442826	-0.7662376
19	0xbea74a55	-0.32673898
20	0xbe97bdd5	-0.29637018
21	0xbf026eb7	-0.5095019
22	0xbf08bb35	-0.53410655
23	0x3ea65fe3	0.3249503
24	0x3ea0beea	0.31395656
25	0xbe522e89	-0.20525564
26	0x3efe11d3	0.49622974
27	0xbf1367cf	-0.57580274
28	0x3eb586d3	0.35454425
29	0x3dee74b2	0.116433516
30	0xbe9294f5	-0.2862927
31	0x3f106509	0.5640417
32	0x3e560091	0.20898654
33	0x3ec30da2	0.3809634
34	0xbf0746dd	-0.52842504
35	0x3ecfe63f	0.4060535
36	0xbee19f6e	-0.44066948
37	0x3f034972	0.51283944
38	0xbe9d5d40	-0.30735207
39	0x3f0d567c	0.5521009
40	0xbef8be34	-0.48582613
41	0xbed212fa	-0.41030103
42	0x3e8da786	0.27666873
43	0xbe823e4c	-0.25438154
44	0xbe5bebb8	-0.21476638
45	0xbe91047c	-0.28323734
46	0xbf283c1d	-0.65716726
47	0x3ecc5fa0	0.39916706
48	0x3e17d355	0.1482671
49	0xbe4ba571	-0.1988733
50	0xbebf2611	-0.3733373
51	0x3e718f80	0.23589897
52	0xbf05303b	-0.5202672
53	0x3e6eeccc	0.23332518
54	0xbeaf0da9	-0.3419011
55	0x3e4a0fff	0.19732665
56	0xbe2d1018	-0.1690067
57	0xbe9d2d6d	-0.3069872
58	0x3ed04f0d	0.4068531
59	0xbe6cf40f	-0.23139976
60	0xbf31106b	-0.69165677
61	0x3f83da16	1.030093
62	0xbe853f1b	-0.26024708
63	0xbe9d5b50	-0.30733728
