Complete_thesis_stage_1_and_2/(d).Code_and_all_other_details/WAAM/PINN_CONSTANT_PROP/Sequential_trail_1/Models/model_epoch_12000.pt (torch, 38264 bytes, 7 tensors)

linears.0.weight f4 [64, 4]
-0.24854174 0.20495567 0.08354204 0.3560575 0.672759 -0.037776835 -0.30484644 -0.23583491
-0.0052239243 0.21948516 0.10964163 -0.1643947 0.3355542 0.58043957 0.22706968 0.13499166
0.18335028 -0.48193175 0.076363534 0.2431481 0.35591123 0.09743352 0.060004156 0.106663465
0.2790897 0.03001621 -0.21805722 -0.34335744 0.69683087 -0.42791805 0.089388154 0.07362084
-0.13765337 -0.03486343 0.014926485 -0.38913402 -0.019603012 0.22382799 -0.06672104 0.1597082
-0.20256005 -0.2077802 0.19313663 0.2988244 0.37807438 -0.55706835 0.20100085 -0.14126363
0.19111988 0.6445585 0.023960685 -0.1412407 -0.595769 0.24842717 -0.003583278 0.3375116
-0.39558068 -0.050823417 0.21003859 0.14699917 -0.23071404 0.39410216 -0.032123346 0.38654983
0.35915643 0.1758424 0.27648303 -0.1672476 -0.14885035 0.24905507 -0.11371464 -0.08364486
-0.26424894 -0.016789889 -0.28967637 -0.30001038 0.30715007 -0.22597274 0.11960374 0.15472358
0.29643935 0.034572024 0.10681269 0.29440805 -0.7591435 0.24671021 0.5806342 0.30523974
-0.326488 -0.23769304 0.012780377 -0.23775886 -0.2945876 -0.054187473 0.022515666 0.42140394
0.26339576 -0.045563444 -0.0030659258 -0.3385168 0.09607541 0.21909052 -0.07177562 0.11281242
-0.5388618 -0.01891801 0.3750974 -0.20195782 -0.4245043 0.17758825 0.060074072 0.21227665
0.36876956 -0.21040101 0.1963465 -0.33038825 0.26971245 0.07994898 0.061522312 -0.28162205
-0.100251496 -0.37524682 -0.30835825 -0.29626885 -0.61237437 -0.28116202 -0.849045 0.6297701
-0.10451188 -0.036446825 0.03384104 0.48412856 0.4195165 -0.06651994 0.19744664 -0.28619537
0.11133791 0.010575011 -0.24202739 -0.09232637 0.24995774 -0.018143093 0.22409895 -0.27501917
0.53187567 1.1800693 -0.29110068 -0.33111134 -0.13075903 0.031090925 0.11239722 -0.06679371
-0.2578477 -0.17606743 -0.2804974 -0.21544527 0.60362 -0.20045243 0.05631831 -0.5814786
0.29400474 -0.22519293 0.012649325 -0.2968529 0.09941101 0.015586923 0.22994858 -0.092142954
-0.38274616 -0.08833601 -0.0793475 0.4243119 -0.009658288 0.0958694 -0.07554248 0.31183925
0.23925059 0.21082233 0.02224525 -0.17426778 -0.22242007 0.04844245 0.17278929 0.09528571
0.13277368 -0.041051354 -0.15771721 -0.13315728 -0.34316695 0.19823435 -0.04889412 -0.072056554
-0.44052264 -0.1365083 -0.21410054 0.17828359 -0.10512837 0.24242143 -0.20375341 0.20500852
0.13478428 0.41563892 -0.26898676 0.2379401 0.396909 0.71605957 0.3718894 0.26762706
0.24469747 -0.13378513 0.050768845 -0.13080995 0.22832668 -0.48348325 0.03982434 -0.3909133
-0.35579416 0.0035626572 -0.19084002 0.2848928 -0.14345926 -0.10286988 -0.2318594 0.07706795
0.20387512 0.04780788 -0.20534867 -0.28989413 0.37919456 -0.09528175 -0.22522901 -0.20218801
0.36289907 0.0783273 -0.019524341 -0.2867506 -0.2931241 0.95934784 -0.09147377 -0.064846225
0.06549391 -0.13554002 -0.1276406 0.340971 0.70603836 0.024903458 0.017019788 0.15686788
-0.48473355 0.23914294 -0.17805322 0.10338197 0.35778743 1.3664709 -0.16432823 -0.41059607
00000000: ba81 7ebe e6df 513e 1718 ab3d 2b4d b63e
00000010: ef39 2c3f e2bb 1abd d514 9cbe b57e 71be
00000020: 742d abbb b8c0 603e ca8b e03d 1657 28be
00000030: c3cd ab3e b097 143f f484 683e 413b 0a3e
00000040: 2dc0 3b3e c2bf f6be 7c64 9c3d d1fb 783e
00000050: ff39 b63e 3a8b c73d ebc6 753d 6072 da3d
00000060: d8e4 8e3e 8ee4 f53c 644a 5fbe 8ccc afbe
00000070: 8263 323f 1318 dbbe 2311 b73d 86c6 963d
00000080: 01f5 0cbe f5cc 0ebd 378e 743c 933c c7be
00000090: 7f96 a0bc 2a33 653e 0aa5 88bd 8c8a 233e
000000a0: e76b 4fbe 55c4 54be 9cc5 453e 83ff 983e
000000b0: f792 c13e 089c 0ebf 2bd3 4d3e 6aa7 10be
000000c0: eeb4 433e c901 253f 3349 c43c 67a1 10be
000000d0: 5184 18bf b163 7e3e 6ed5 6abb 52ce ac3e
000000e0: 8d89 cabe 372c 50bd 5b14 573e f386 163e
000000f0: 4d40 6cbe c2c7 c93e c593 03bd dce9 c53e
00000100: 5ae3 b73e 0810 343e 2f8f 8d3e f442 2bbe
00000110: 3a6c 18be 4b08 7f3e 39e3 e8bd ff4d abbd
00000120: a34b 87be f38a 89bc 7650 94be f69a 99be
00000130: c642 9d3e 6665 67be cef2 f43d dc6f 1e3e
00000140: e6c6 973e 659b 0d3d 9dc0 da3d a7bc 963e
00000150: 3a57 42bf 9aa1 7c3e 71a4 143f 6248 9c3e
00000160: 6f29 a7be ce65 73be c964 513c 0f77 73be
00000170: 30d4 96be aff3 5dbd c672 b83c 42c2 d73e
00000180: cfdb 863e bca0 3abd b3ed 48bb 1352 adbe
00000190: 2fc3 c43d 4459 603e 19ff 92bd 330a e73d
000001a0: d9f2 09bf f1f9 9abc c40c c03e 08ce 4ebe
000001b0: a158 d9be b2d9 353e 3b10 763d 0d5f 593e
000001c0: 5dcf bc3e 5d73 57be 0f0f 493e a628 a9be
000001d0: c017 8a3e 4abc a33d d2fe 7b3d c430 90be
000001e0: a850 cdbd 5a20 c0be 22e1 9dbe 8db0 97be
000001f0: 91c4 1cbf 78f4 8fbe 035b 59bf 9d38 213f
00000200: 530a d6bd 4449 15bd e79c 0a3d b3df f73e
00000210: deca d63e 9b3b 88bd 742f 4a3e 3388 92be
00000220: 2105 e43d d042 2d3c 07d6 77be 9c15 bdbd
00000230: ecf4 7f3e d3a0 94bc 327a 653e 50cf 8cbe
00000240: 0129 083f 830c 973f 260b 95be 6d87 a9be
00000250: b2e5 05be 65b2 fe3c 8430 e63d 24cb 88bd
00000260: 9d04 84be 054b 34be 5b9d 8fbe af9d 5cbe
00000270: d786 1a3f 6743 4dbe 07ae 663d c8db 14bf
00000280: ca87 963e fa98 66be 1d3f 4f3c 1afd 97be
00000290: 0098 cb3d 4b60 7f3c a477 6b3e 72b5 bcbd
000002a0: 4ef7 c3be 83e9 b4bd f180 a2bd 693f d93e
000002b0: cc3d 1ebc 2d57 c43d 04b6 9abd 65a9 9f3e
000002c0: 1bfe 743e cfe1 573e ac3b b63c 4173 32be
000002d0: 16c2 63be 976b 463d adef 303e 2825 c33d
000002e0: d3f5 073e 7725 28bd 9f80 21be 625a 08be
000002f0: 94b3 afbe f2fd 4a3e 3345 48bd 6392 93bd
00000300: 2f8c e1be d5c8 0bbe 2c3d 5bbe f98f 363e
00000310: 8b4d d7bd 533d 783e bca4 50be c1ed 513e
00000320: e404 0a3e a0ce d43e a2b8 89be 92a6 733e
00000330: a837 cb3e ae4f 373f 4a68 be3e 6a06 893e
00000340: f991 7a3e f8fe 08be fef2 4f3d 0bf3 05be
00000350: 78ce 693e 1e8b f7be d91e 233d ca25 c8be
00000360: a72a b6be 787b 693b 916b 43be 78dd 913e
00000370: fce6 12be 72ad d2bd 8d6c 6dbe cdd5 9d3d
00000380: a4c4 503e 32d2 433d ec46 52be 016d 94be
00000390: ca25 c23e 1423 c3bd 6fa2 66be 600a 4fbe
000003a0: e8cd b93e 106a a03d 83f1 9fbc fad0 92be
000003b0: 5d14 96be d297 753f 9a56 bbbd 19ce 84bd
000003c0: ac21 863d 01cb 0abe 38b4 02be c093 ae3e
000003d0: eebe 343f 5602 cc3c 156d 8b3c f9a1 203e
000003e0: ff2e f8be e3e1 743e 9553 36be edb9 d33d
000003f0: ea2f b73e 85e8 ae3f a945 28be a639 d2be

linears.0.bias f4 [64]
0.19059058 0.38634107 0.020539155 0.12646961 0.2514234 0.06604544 0.037787367 0.4775386
-0.2593276 -0.0043513053 -0.023400681 0.06518581 0.10473824 0.07129329 -0.010962215 0.019404456
0.09338177 -0.06856905 -0.0873046 0.15460987 0.20363674 0.12674983 -0.1551894 0.13696286
-0.38782433 0.033913407 -0.93832004 -0.03319709 -0.0147448 0.010999909 -0.024211723 0.09788076
0.2445605 0.16288212 0.018035965 0.04736665 -0.0785825 -0.0153193865 -0.050040085 -0.11934014
0.029382154 0.04184672 0.063923135 -0.0112981405 0.06490128 0.08524898 -0.1626337 -0.123071775
-0.0388043 0.006781596 0.0509162 0.1833322 0.10525371 -0.07229176 -0.014778596 -0.028538376
-0.05075683 -0.051056832 0.025533434 -0.24489036 0.31474698 0.05766635 -0.075846285 -0.0675784
00000000: 2d2a 433e 7fce c53e bb41 a83c 4081 013e
00000010: 91ba 803e d542 873d edc6 1a3d f07f f43e
00000020: 96c6 84be 6595 8ebb c9b2 bfbc 2380 853d
00000030: 0181 d63d 3702 923d dd9a 33bc 18f6 9e3c
00000040: f13e bf3d ee6d 8cbd c1cc b2bd 0d52 1e3e
00000050: 2686 503e b5ca 013e f8e9 1ebe fe3f 0c3e
00000060: e990 c6be c9e8 0a3d be35 70bf acf9 07bd
00000070: 2c94 71bc f638 343c aa57 c6bc b575 c83d
00000080: 116e 7a3e 92ca 263e 29c0 933c 8803 423d
00000090: ddef a0bd 2afe 7abc d5f6 4cbd 9a68 f4bd
000000a0: d8b2 f03c 7767 2b3d 22ea 823d d61b 39bc
000000b0: f6ea 843d 0497 ae3d 7389 26be 0e0d fcbd
000000c0: 42f1 1ebd 2738 de3b 818d 503d 70bb 3b3e
000000d0: 428f d73d b40d 94bd ed21 72bc 50c9 e9bc
000000e0: 65e6 4fbd f820 51bd 7e2b d13c 8ac4 7abe
000000f0: 8426 a13e 8d33 6c3d 4c55 9bbd 8b66 8abd

linears.1.weight f4 [64, 64]
0.08626183 -0.21433407 -0.15143132 0.10981945 -0.060846746 0.21591243 -0.057753984 0.19851786
-0.047440454 0.013215771 -0.035671588 -0.0355777 -0.017310796 0.14539514 0.03882678 0.13547057
0.14732172 -0.11722857 -0.24767974 -0.04415009 0.08986831 -0.064149134 -0.12255524 -0.044096146
-0.21653086 0.20082709 -0.1588237 0.22101325 -0.033763792 -0.22775345 -0.0531096 -0.33694294
0.18319748 -0.034241404 -0.025764616 0.1664235 0.12065884 -0.13113181 -0.2653496 -0.091727935
0.15794349 0.08094863 0.16765194 -0.15388426 -0.09911696 -0.0007768297 -0.16480456 0.03826736
-0.06778794 0.13377005 0.13096376 -0.017140027 -0.20858264 0.035790116 0.09986228 0.08501944
-0.17843252 -0.2588401 0.051899865 0.07567911 -0.024934651 0.02992261 0.14146882 0.0053678793
-0.23856796 -0.27811757 0.13776022 -0.2735917 -0.2707031 -0.2736016 0.053455822 -0.32610932
0.26512352 -0.13899478 0.19390815 -0.19035648 0.023314333 -0.08738689 -0.005415132 0.09155356
-0.22877327 0.122080475 -0.08265816 -0.21393578 -0.20777275 -0.07404044 0.1627936 -0.13634361
0.3780585 -0.07512101 0.63179886 0.2953078 0.20148876 0.11854132 -0.09595184 0.6456218
-0.1233023 0.086034454 0.00022098381 0.16270225 0.070320584 0.16661164 0.08903847 -0.004384551
-0.01927447 0.24124694 0.097857684 -0.12297226 -0.16089794 0.13518348 0.34988266 0.18034588
0.03222377 -0.023867315 0.12670445 -0.108875245 -0.13910891 0.20699301 -0.19769354 -0.24804127
-0.0029173277 -0.022638347 -0.044777006 0.0053136847 -0.06163462 0.096591525 0.30758348 0.12655139
-0.127052 0.23390236 -0.07295588 0.0076707816 -0.18198928 -0.11030653 0.001816798 0.037297048
0.19262443 0.113068424 -0.14728665 0.23347197 0.32225475 -0.47501078 -0.066697024 -0.20203759
0.050459664 -0.11853178 0.15102686 -0.033277567 0.13479653 -0.21390802 0.10118944 -0.3121355
0.4914431 -0.0003350353 -0.14184642 -0.4732037 0.32804036 0.02682937 0.14303821 -0.4430481
-0.15138145 0.2806309 0.026345827 -0.023513168 0.18666501 0.078798786 -0.19493522 0.21125607
0.05486042 -0.0386711 0.037086494 -0.029311327 0.071747646 0.0066244705 0.31740466 -0.33405665
-0.5044398 0.16789223 0.005794035 0.006067068 0.44314006 -0.033947296 -0.22048019 -0.10930604
0.1510789 0.43044692 0.0024711757 -0.15667301 -0.07895201 -0.053502418 -0.29391745 0.05422713
0.07111088 0.0019317793 0.0019379173 0.012220588 -0.35654247 -0.20800959 -0.02905502 -0.16531552
0.24473421 -0.07524554 -0.16376936 -0.19357814 0.19504932 -0.27445757 0.058757365 -0.24998155
0.19044448 -0.11924551 0.13124034 -0.051046573 -0.20491798 0.010771222 0.20110686 -0.22380084
0.16731878 -0.07091311 0.41798538 0.13369511 -0.06991892 0.12330415 0.10481594 0.48203015
-0.20709027 -0.013302741 0.09346908 -0.04957334 0.2925069 -0.058442734 -0.028951762 0.24397866
-0.13636078 -0.018633207 -0.14833733 -0.092974804 0.10478126 0.15532711 0.15972015 -0.03703829
-0.066838086 0.013828237 -0.11037361 -0.093270935 0.05852131 0.18775296 -0.18943274 0.027023308
0.15119183 0.2661842 0.2333121 0.16232103 -0.26859257 -0.035749014 0.039283283 -0.12487201
00000000: 0baa b03d 647a 5bbe d010 1bbe 05e9 e03d
00000010: 703a 79bd 2618 5d3e 718f 6cbd 4448 4b3e
00000020: ec50 42bd f686 583c 5f1c 12bd ecb9 11bd
00000030: 5fcf 8dbc 77e2 143e d408 1f3d ccb8 0a3e
00000040: 81db 163e 8815 f0bd c29f 7dbe bad6 34bd
00000050: e00c b83d 9f60 83bd 3efe fabd 299e 34bd
00000060: 44ba 5dbe 9ea5 4d3e aea2 22be 4c51 623e
00000070: e74b 0abd 3338 69be 7489 59bd c983 acbe
00000080: 1f98 3b3e b740 0cbd 5110 d3bc ec6a 2a3e
00000090: fb1b f73d 6b47 06be e7db 87be dbdb bbbd
000000a0: f0bb 213e 65c8 a53d f3ac 2b3e d693 1dbe
000000b0: d5fd cabd 29a4 4bba 87c2 28be 3cbe 1c3d
000000c0: 67d4 8abd 04fb 083e 5d1b 063e 3e69 8cbc
000000d0: b096 55be a898 123d 9884 cc3d ac1e ae3d
000000e0: 04b7 36be b186 84be f494 543d a6fd 9a3d
000000f0: c143 ccbc 4320 f53c 34dd 103e 09e5 af3b
00000100: 294b 74be 6d65 8ebe 0411 0d3e 3614 8cbe
00000110: 9999 8abe 8215 8cbe 7ef4 5a3d cdf7 a6be
00000120: 45be 873e a654 0ebe dc8f 463e cfec 42be
00000130: b3fd be3c e6f7 b2bd 6b71 b1bb 6f80 bb3d
00000140: 8a43 6abe 5405 fa3d ae48 a9bd fb11 5bbe
00000150: 61c2 54be 84a2 97bd 5eb3 263e a99d 0bbe
00000160: e290 c13e 0bd9 99bd 92bd 213f 9532 973e
00000170: 1253 4e3e cbc5 f23d 6682 c4bd 7847 253f
00000180: eb85 fcbd d532 b03d e4b7 6739 6b9b 263e
00000190: 3d04 903d 3e9c 2a3e cd59 b63d 48ac 8fbb
000001a0: 7ee5 9dbc 7009 773e 9c69 c83d e1d8 fbbd
000001b0: 6ec2 24be 8a6d 0a3e d223 b33e 97ac 383e
000001c0: 12fd 033d 6385 c3bc d0be 013e fcf9 debd
000001d0: 9172 0ebe faf5 533e 2d70 4abe 88fe 7dbe
000001e0: a330 3fbb 0e74 b9bc 1868 37bd 6b1e ae3b
000001f0: 9574 7cbd c7d1 c53d 957b 9d3e b096 013e
00000200: eb19 02be 1a84 6f3e e469 95bd 2e5b fb3b
00000210: 665b 3abe 64e8 e1bd a021 ee3a cac4 183d
00000220: 573f 453e 6b90 e73d 50d2 16be 4713 6f3e
00000230: 93fe a43e 9d34 f3be 7398 88bd f1e2 4ebe
00000240: cbae 4e3d cac0 f2bd c9a6 1a3e 0f4e 08bd
00000250: 1a08 0a3e b40a 5bbe 693c cf3d 39d0 9fbe
00000260: 6e9e fb3e ada7 afb9 3040 11be c147 f2be
00000270: e8f4 a73e 44c9 db3c 9c78 123e 33d7 e2be
00000280: bd03 1bbe daae 8f3e 34d3 d73c b09e c0bc
00000290: 1d25 3f3e 4261 a13d 199d 47be 8353 583e
000002a0: 52b5 603d 9665 1ebd 02e8 173d 4f1e f0bc
000002b0: 6ef0 923d 1612 d93b dd82 a23e 7909 abbe
000002c0: f722 01bf f1eb 2b3e e3db bd3b 41ce c63b
000002d0: 41e3 e23e 520c 0bbd 8fc5 61be d8db dfbd
000002e0: 6db4 1a3e 8a63 dc3e 73f3 213b e46e 20be
000002f0: 97b1 a1bd 5a25 5bbd 597c 96be 441d 5e3d
00000300: 95a2 913d c233 fd3a b701 fe3a dc38 483c
00000310: bc8c b6be 7700 55be cb04 eebc 7948 29be
00000320: 9b9b 7a3e 551a 9abd 28b3 27be 5939 46be
00000330: 02bb 473e b485 8cbe 90ab 703d 2afb 7fbe
00000340: e103 433e fd36 f4bd de63 063e 3616 51bd
00000350: 05d6 51be c879 303c f5ee 4d3e 0c2c 65be
00000360: 9d55 2b3e e53a 91bd 2e02 d63e 5fe7 083e
00000370: a731 8fbd e386 fc3d bda9 d63d a8cc f63e
00000380: 790f 54be bdf3 59bc b86c bf3d 6a0d 4bbd
00000390: 77c3 953e a661 6fbd 3f2c edbc 8bd5 793e
000003a0: 29a2 0bbe aba4 98bc bee5 17be 9369 bebd
000003b0: 8f97 d63d 120e 1f3e ae8d 233e 76b5 17bd
000003c0: 68e2 88bd d48f 623c 8f0b e2bd d504 bfbd
000003d0: 0bb4 6f3d 5042 403e a8fa 41be fc5f dd3c
000003e0: 08d2 1a3e 4c49 883e 5ee9 6e3e 7c37 263e
000003f0: f784 89be 8f6d 12bd 82e7 203d e5bc ffbd

linears.1.bias f4 [64]
-0.018335598 -0.033899512 -0.04389989 -0.008609195 -0.07957911 -0.019943118 -0.42483 -0.07440161
-0.029483274 -0.09521532 0.05559326 0.07232421 0.0026566943 -0.36231247 -0.027190918 -0.02053499
0.007376767 0.0065953257 0.005083844 -0.009265072 -0.029604102 -0.15281273 -0.044550963 -0.13522469
0.047298286 -0.013544318 0.1303646 0.0348041 -0.03491001 -0.005765101 -0.029972138 0.024957152
0.039491825 0.039084025 0.012697381 0.021529356 -0.016088644 -0.21528488 -0.029176928 0.01582775
-0.020091841 0.021425521 0.035823967 -0.041107852 -0.019123057 0.02311214 -0.1886002 -0.04311586
-0.24622889 0.029189048 0.010073041 0.04655083 0.0063712476 -0.08721663 0.16845225 -0.009477373
0.038273294 0.02636436 0.034223 0.043118473 -0.004394749 0.0008209863 -0.0853615 0.0046115997
00000000: 8934 96bc 37da 0abd 5fd0 33bd 950d 0dbc
00000010: 5ffa a2bd c05f a3bc 5183 d9be df5f 98bd
00000020: e886 f1bc 4000 c3bd c2b5 633d b71e 943d
00000030: ef1b 2e3b 0581 b9be 7dbf debc ff38 a8bc
00000040: cfb8 f13b 9a1d d83b 6096 a63b 87cc 17bc
00000050: 4d84 f2bc f17a 1cbe 127b 36bd 5778 0abe
00000060: d9bb 413d fde8 5dbc 4c7e 053e be8e 0e3d
00000070: ccfd 0ebd 2ce9 bcbb 2188 f5bc f172 cc3c
00000080: 2ec2 213d 9216 203d ad08 503c 555e b03c
00000090: 55cc 83bc a473 5cbe 7404 efbc 33a9 813c
000000a0: a597 a4bc 9384 af3c 27bc 123d b560 28bd
000000b0: f5a7 9cbc ac55 bd3c 6920 41be 429a 30bd
000000c0: 6d23 7cbe df1d ef3c 6509 253c 15ac 3e3d
000000d0: e6c5 d03b a29e b2bd bf7e 2c3e fc46 1bbc
000000e0: 75c4 1c3d 12fa d73c 6b2d 0c3d ff9c 303d
000000f0: d401 90bb 7537 573a 03d2 aebd e71c 973b

linears.2.weight f4 [64, 64]
0.18272498 -0.15065654 0.04651836 0.11915902 0.04009746 0.02190271 -0.041982017 0.34486216
-0.17740066 0.34000352 -0.17746381 -0.23764335 -0.039330717 -0.0469305 -0.12684855 -0.043208342
-0.02928587 -0.16623735 -0.22826424 -0.10532995 0.032767083 0.37844485 -0.058043536 0.0077713737
-0.047139607 0.14450344 -0.14146063 0.1645796 -0.084652334 0.28996995 0.17648698 0.091906555
0.21364284 0.10219599 -0.18577078 -0.009679294 0.14268954 0.11486152 0.16932042 -0.2510616
0.24786863 -0.069754 -0.046684496 -0.15494831 -0.011493816 0.05796868 -0.16174231 -0.17209579
-0.19147868 0.07931579 0.21411364 -0.0051827496 -0.16872445 -0.10114599 0.423912 -0.14456028
-0.20603065 -0.11788905 -0.04549062 0.015270301 0.24722058 -0.14584592 -0.1413636 -0.23158911
0.13605864 -0.18962088 -0.30508482 -0.0056482037 -0.106084175 -0.3257269 0.10042314 -0.026739337
0.13813253 -0.21179448 0.021014124 0.10667977 0.22334914 -0.2291456 0.06606144 0.11532221
0.4072679 -0.36066195 -0.23490325 -0.33134213 -0.27675533 0.5649659 -0.16422872 0.012365821
0.27036682 -0.12626457 -0.21321854 -0.14955825 -0.14119205 0.36629656 0.022015583 0.029465232
0.20855954 0.065949805 0.059362464 0.0925095 -0.41326043 0.48921648 -0.17442401 -0.18982781
-0.03432659 -0.07007934 0.5072086 -0.2144709 -0.008581224 -0.10776388 -0.18614624 -0.13057113
-0.36369762 0.29553828 0.53675485 -0.3438388 -0.0009558926 -0.056567505 0.48603845 0.37607193
-0.114923276 0.13402404 -0.24279253 -0.13202462 0.14215001 0.19080356 0.25997335 -0.33670014
-0.030881142 -0.02073503 0.20780414 -0.03704376 0.28930205 -0.114219606 0.4764046 0.51402676
0.23143725 0.50294745 -0.1295941 -0.061753992 0.14996967 -0.29397115 0.35809052 0.14072856
0.31313255 0.0791805 0.2701284 0.10830662 -0.10093764 0.62951535 0.14039247 0.2799107
-0.37021014 -0.13594326 -0.57292205 -0.17034224 0.17075524 0.011195737 -0.072841465 -0.013396335
-0.22076286 0.035781506 0.0773111 -0.013617059 0.1736996 0.87236613 0.0007375036 -0.010936126
0.22984035 -0.16408493 0.47889653 0.09286329 0.32364818 -0.06606498 -0.12745534 0.14162983
-0.23415183 -0.26524875 0.25151235 0.5205363 0.22361681 0.3171789 -0.38001373 -0.27640617
-0.27017945 -0.33960432 -0.2914679 -0.234186 0.17414246 -0.08675005 0.2178635 -0.15698671
-0.07466789 -0.066078536 0.026992528 -0.16393642 0.09408913 0.3062392 0.1980439 0.66931933
0.20468125 0.3132005 -0.16039626 -0.45850745 0.0016116288 -0.4593128 0.35719734 0.24910726
0.32998124 -0.40298614 0.4419957 0.4366499 -0.3368157 0.35812142 0.08773549 0.19011992
-0.105165645 -0.12734143 -0.44511062 -0.0026502118 0.00682191 0.22069427 0.267897 -0.2549046
0.17379045 -0.30349314 -0.25714028 0.29444668 0.45298606 0.80227804 0.057922583 0.15557525
0.13032785 -0.075814515 0.54363567 0.060340595 0.4960352 -0.020301253 -0.091205366 0.3974818
-0.47542644 -0.2694879 0.49652767 0.7757287 0.3351264 0.34608892 0.24414979 -0.34647325
-0.2088633 -0.19249626 0.106488325 -0.048655912 0.12282448 -0.059833273 0.56826335 -0.24476947
00000000: 421c 3b3e b545 1abe 098a 3e3d a509 f43d
00000010: 3c3d 243d 506d b33c 56f5 2bbd c691 b03e
00000020: 85a8 35be f114 ae3e 13b9 35be c758 73be
00000030: 3f19 21bd 323a 40bd 96e4 01be 3bfb 30bd
00000040: ece8 efbc 203a 2abe 1abe 69be 3bb7 d7bd
00000050: c736 063d 86c3 c13e 0fbf 6dbd 02a7 fe3b
00000060: 7615 41bd b6f8 133e 0edb 10be 8e87 283e
00000070: 345e adbd f176 943e 01b9 343e 8139 bc3d
00000080: 30c5 5a3e 224c d13d b23a 3ebe e795 1ebc
00000090: 351d 123e 843c eb3d 5562 2d3e 258b 80be
000000a0: 46d1 7d3e 2fdb 8ebd 3e38 3fbd c5aa 1ebe
000000b0: 8f50 3cbc 9170 6d3d c79f 25be e139 30be
000000c0: fd12 44be 5170 a23d 9b40 5b3e 0ed4 a9bb
000000d0: 1ac6 2cbe a125 cfbd fe0a d93e 9c07 14be
000000e0: b3f9 52be d06f f1bd 5f54 3abd 4930 7a3c
000000f0: 6427 7d3e a258 15be 9fc1 10be b225 6dbe
00000100: f552 0b3e fa2b 42be 1434 9cbe 9114 b9bb
00000110: a942 d9bd adc5 a6be a6aa cd3d 740c dbbc
00000120: 9d72 0d3e a7e0 58be d025 ac3c ec7a da3d
00000130: a3b5 643e 25a5 6abe 384b 873d 0d2e ec3d
00000140: 6b85 d03e afa8 b8be 7a8a 70be ada5 a9be
00000150: e0b2 8dbe 9ba1 103f 932b 28be 039a 4a3c
00000160: 856d 8a3e 804b 01be f655 5abe cc25 19be
00000170: a694 10be 398b bb3e 065a b43c 1261 f13c
00000180: a290 553e b110 873d 0e26 733d 9f75 bd3d
00000190: df96 d3be 957a fa3e 359c 32be 3962 42be
000001a0: 0a9a 0cbd c285 8fbd 6cd8 013f 429e 5bbe
000001b0: 4398 0cbc 4fb3 dcbd 1f9d 3ebe 70b4 05be
000001c0: 9336 babe cb50 973e c468 093f a40b b0be
000001d0: de94 7aba 54b3 67bd 08da f83e 808c c03e
000001e0: e55c ebbd 993d 093e 9b9e 78be 7631 07be
000001f0: c68f 113e 0262 433e 3a1b 853e f663 acbe
00000200: 73fa fcbc 82dc a9bc 9cca 543e 33bb 17bd
00000210: 661f 943e f8eb e9bd 4eeb f33e 4297 033f
00000220: e3fd 6c3e 2ac1 003f 51b4 04be c1f1 7cbd
00000230: a691 193e 6383 96be a457 b73e 261b 103e
00000240: e952 a03e 6329 a23d 454e 8a3e dccf dd3d
00000250: 65b8 cebd eb27 213f 0bc3 0f3e 7550 8f3e
00000260: 2f8c bdbe b634 0bbe 05ab 12bf 326e 2ebe
00000270: 76da 2e3e 536e 373c e82d 95bd 4d7c 5bbc
00000280: a90f 62be a18f 123d 4855 9e3d 161a 5fbc
00000290: 4fde 313e 6353 5f3f 0755 413a 702d 33bc
000002a0: 455b 6b3e e105 28be ed31 f53e 1c2f be3d
000002b0: 37b5 a53e 144d 87bd a783 02be 6907 113e
000002c0: 7fc5 6fbe afce 87be 3ac6 803e de41 053f
000002d0: cefb 643e 4665 a23e 2991 c2be 1c85 8dbe
000002e0: f654 8abe 9ee0 adbe 483b 95be 74ce 6fbe
000002f0: 6752 323e 03aa b1bd 9c17 5f3e 20c1 20be
00000300: 7beb 98bd 2f54 87bd 6f1f dd3c f3de 27be
00000310: cdb1 c03d 62cb 9c3e 05cc 4a3e 8358 2b3f
00000320: f697 513e d15b a03e eb3e 24be 7dc1 eabe
00000330: 4a3d d33a 0c2b ebbe 92e2 b63e f915 7f3e
00000340: 4df3 a83e 3354 cebe 434d e23e 9390 df3e
00000350: 1c73 acbe b15b b73e aaae b33d ccae 423e
00000360: 1661 d7bd cb65 02be 8ae5 e3be 2daf 2dbb
00000370: 548a df3b aefd 613e cc29 893e db82 82be
00000380: 20f6 313e 7463 9bbe e4a7 83be b7c1 963e
00000390: caed e73e 1862 4d3f 3b40 6d3d 1e4f 1f3e
000003a0: aa74 053e a444 9bbd b52b 0b3f b327 773d
000003b0: 53f8 fd3e d04e a6bc e1c9 babd bc82 cb3e
000003c0: 186b f3be 51fa 89be e038 fe3e 2896 463f
000003d0: b095 ab3e 9132 b13e 6702 7a3e f164 b1be
000003e0: 43e0 55be bd1d 45be 8d16 da3d 6c4b 47bd
000003f0: 678b fb3d bc13 75bd b579 113f d9a4 7abe

linears.2.bias f4 [64]
-0.021402592 -0.00707296 -0.059988584 -0.048160303 -0.02773056 -0.0065269074 -0.033774376 0.13309903
-0.03943774 -0.03213637 0.024325829 0.014934322 0.032599613 -0.027016358 0.021171346 0.048329335
-0.028383171 0.031217976 0.014876472 0.029876502 0.02933755 0.029294504 0.048062526 -0.026027536
-0.043274224 0.040414974 -0.10909674 0.057871718 -0.024744853 -0.03260113 0.034237277 -0.1414352
-0.02369061 -0.029396214 0.022558644 -0.015987176 0.036567777 -0.04073368 0.036560457 -0.010071433
0.033133417 0.01993995 -0.031379532 0.025030281 0.036667522 0.03335723 0.01697401 -0.023575127
-0.029978225 0.02835999 0.009363537 -0.07172492 0.03461323 -0.01745999 0.019829424 -0.037271876
0.018768942 0.024788748 -0.027176557 0.034240197 0.076870896 0.05749517 0.031125402 0.025663927
00000000: 7d54 afbc 4ac4 e7bb 97b6 75bd bd43 45bd
00000010: 332b e3bc abdf d5bb 0057 0abd 1d4b 083e
00000020: 7889 21bd 6da1 03bd f646 c73c 16af 743c
00000030: 2c87 053d 6951 ddbc 886f ad3c fbf4 453d
00000040: d383 e8bc d7bc ff3c 72bc 733c 91bf f43c
00000050: 4d55 f03c 07fb ef3c 36dd 443d b337 d5bc
00000060: 5040 31bd 2c8a 253d 1d6e dfbd e50a 6d3d
00000070: b8b5 cabc c388 05bd 633c 0c3d 64d4 10be
00000080: cf12 c2bc 54d0 f0bc e8cc b83c 8af7 82bc
00000090: 18c8 153d 5cd8 26bd 6bc0 153d a702 25bc
000000a0: e8b6 073d 1b59 a33c d387 00bd 4e0c cd3c
000000b0: af30 163d 97a1 083d 140d 8b3c a020 c1bc
000000c0: e594 f5bc 3653 e83c 8569 193c 84e4 92bd
000000d0: 9ac6 0d3d 4108 8fbc 5171 a23c 65aa 18bd
000000e0: 53c1 993c c611 cb3c 5fa1 debc 733f 0c3d
000000f0: 7d6e 9d3d 0e80 6b3d b3fa fe3c 283d d23c

linears.3.weight f4 [1, 64]
0.41050583 0.8888836 0.36526734 0.57100445 0.37875035 0.5581054 0.6362764 -0.39345384
0.38773447 0.06860314 -0.28495613 -0.2445389 -0.23908287 0.2311861 -0.15391481 0.48807722
0.39904764 -0.2906575 -0.6926019 -0.31447983 -0.27929294 -0.5017563 -0.520709 0.23211157
0.2937201 -0.17666128 0.32053307 -0.524043 0.31454417 0.108442344 -0.19044776 0.35646433
0.1498586 0.3411659 -0.46343014 0.36233285 -0.4129917 0.45203382 -0.2878286 0.46329236
-0.4566666 -0.36533836 0.2544597 -0.15870558 -0.19154741 -0.26835516 -0.5951937 0.31041563
0.102052696 -0.18415678 -0.32955182 0.14769943 -0.522562 0.19598585 -0.2955866 0.15921871
-0.14046657 -0.2747394 0.29266518 -0.219338 -0.56820846 0.33909997 -0.23184459 -0.28516316
00000000: d22d d23e e08d 633f 5204 bb3e 592d 123f
00000010: 91eb c13e ffdf 0e3f 03e3 223f c872 c9be
00000020: 2285 c63e ce7f 8c3d c5e5 91be 6868 7abe
00000030: 24d2 74be 0dbc 6c3e d89b 1dbe 42e5 f93e
00000040: f94f cc3e 0fd1 94be 5c4e 31bf 8003 a1be
00000050: 7cff 8ebe 1a73 00bf 2f4d 05bf a8ae 6d3e
00000060: 7b62 963e b2e6 34be e91c a43e af27 06bf
00000070: ef0b a13e 0517 de3d bd04 43be 7e82 b63e
00000080: 8874 193e 4cad ae3e b746 edbe b183 b93e
00000090: a673 d3be fa70 e73e 455e 93be a834 ed3e
000000a0: 34d0 e9be a10d bbbe 8b48 823e b783 22be
000000b0: 0125 44be d965 89be 9d5e 18bf ccee 9e3e
000000c0: 0101 d13d 9893 3cbe 04bb a8be 853e 173e
000000d0: a0c6 05bf 84b0 483e 2057 97be 3b0a 233e
000000e0: 78d6 0fbe a5aa 8cbe 36d8 953e 249a 60be
000000f0: 1c76 11bf 839e ad3e ab68 6dbe e800 92be
