Complete_thesis_stage_1_and_2/(d).Code_and_all_other_details/WAAM/PINN_CONSTANT_PROP/Sequential_trail_1/Models/model_epoch_29000.pt (torch, 38264 bytes, 7 tensors)

linears.0.weight f4 [64, 4]
000000 ff c8 3b be e8 b5 0c bd 9d f0 45 3d 36 ac f7 3e
       -0.18338393 -0.034353167 0.04832517 0.48373574
000010 a5 65 1d 3f 11 99 f5 be 2e 90 ec be f7 63 29 be
       0.6148322 -0.47968343 -0.4620375 -0.1654204
000020 31 e9 4c 3c 05 13 c4 3d 56 c6 d6 3d da 26 28 be
       0.012506769 0.0957394 0.10487048 -0.1642107
000030 67 d6 9b 3e 97 98 17 3f e0 67 65 3e 25 d4 18 3e
       0.30437014 0.5921721 0.22402906 0.14924677
000040 91 c6 5b 3e f1 48 da be e5 ca a7 3d 71 a9 ab 3e
       0.21462466 -0.42633775 0.08192996 0.3352771
000050 21 d9 af 3e 5a 16 66 be db e2 fe 3d 20 92 42 3e
       0.34345344 -0.22469464 0.12445613 0.19001055
000060 34 25 d4 3e d4 06 05 bf 26 51 74 be fd 5a 98 be
       0.41434634 -0.51963544 -0.2385908 -0.2975692
000070 27 2c 47 3f d6 ea f5 be 42 0c 8f 3d f8 83 d3 3e
       0.77801746 -0.48030728 0.0698476 0.41311622
000080 74 f6 40 bd 51 85 4c be ce 05 e9 3c e3 ad f5 be
       -0.047110036 -0.19972731 0.02844515 -0.47984228
000090 e1 14 c3 bc d5 b7 b4 3e e5 ec 88 bd 92 fa 2a 3e
       -0.023813667 0.35296503 -0.06685809 0.16697147
0000a0 34 e0 84 be a5 59 f5 bd ab 1e 40 3e f8 c8 91 3e
       -0.25952303 -0.11979989 0.18761699 0.2847364
0000b0 3c 97 b2 3e c8 72 01 bf a4 8f 2c 3e 1f 2c f0 bd
       0.34881008 -0.5056577 0.1685167 -0.117271654
0000c0 c6 ca 45 3e c3 db 45 3f be 15 1b bd eb 22 03 be
       0.19315633 0.77288455 -0.03786253 -0.12806289
0000d0 94 2d 22 bf f0 c2 42 3f dc d2 ed bc 69 ed c7 3e
       -0.63350797 0.760787 -0.02903121 0.39048317
0000e0 7e ae dd be 25 84 e6 bc 1c 98 58 3e ec a3 05 3e
       -0.4329719 -0.028139183 0.21151775 0.13050812
0000f0 9d 49 78 be 57 e8 d8 3e 4e 4f 19 bd c4 92 cb 3e
       -0.24246831 0.4236476 -0.037429146 0.3976041
000100 52 ef ad 3e 76 49 4a 3e 8e 2a 8f 3e 0d 51 17 be
       0.3397165 0.19754586 0.27962154 -0.14777012
000110 fd 88 6b be d7 70 b0 be b6 ca 11 be f8 2a 46 be
       -0.23001476 -0.3446109 -0.14237484 -0.19352329
000120 70 3c 74 be 46 73 90 3e 71 9c 99 be 69 71 ab be
       -0.2385118 0.28212947 -0.30002168 -0.33484963
000130 8d 1f 9d 3e ce 76 df be c4 92 e2 3d b9 e5 8f 3e
       0.30688134 -0.43645328 0.110631496 0.28104952
000140 a6 b0 79 3e 64 9f d6 3d 8a c6 80 3d d8 6a b0 3e
       0.24383792 0.1047962 0.06287868 0.34456515
000150 17 15 52 bf bf ee e9 3d b3 91 19 3f 7f fc 87 3e
       -0.8206343 0.1142249 0.59987944 0.26559827
000160 3e e4 7f be f5 0c 8f be 52 90 54 ba b3 55 98 be
       -0.24989411 -0.27939573 -0.00081086636 -0.29752883
000170 6b cf 7e be 80 34 ac be 8c ec 16 bd 95 62 0f 3f
       -0.24883811 -0.33633804 -0.036846682 0.560098
000180 af 30 59 3e df 5a 08 bc 69 5c 30 3c 4b 86 d3 be
       0.21209978 -0.008322447 0.01076422 -0.41313395
000190 71 d4 ae 3d 44 93 7a 3e d7 32 ad bd ff 5f fe 3d
       0.08536614 0.2447024 -0.084569626 0.124206536
0001a0 48 35 10 bf 34 fe b0 bb f4 00 cb 3e 3f 17 af be
       -0.563313 -0.005401397 0.39649165 -0.34197423
0001b0 b5 32 e6 be 17 ed 8d bb 76 4a 9b 3d d7 31 94 3e
       -0.4496056 -0.004331242 0.07582562 0.28944275
0001c0 46 0e c2 3e f7 a1 a5 be 7d bc 4c 3e 59 56 a6 be
       0.37901515 -0.32350132 0.19993778 -0.32487753
0001d0 51 73 8d 3e cc 82 15 3e 9e 2b 7e 3d 6a 7b 91 be
       0.27627042 0.14600676 0.062053315 -0.2841447
0001e0 41 3a 1b be ab 50 51 be f5 83 a0 be 2a 80 b7 be
       -0.15158941 -0.20440929 -0.31350675 -0.3583997
0001f0 54 09 2f bf 87 61 82 be 4a 48 52 bf d8 04 0e 3f
       -0.6837361 -0.25465032 -0.82141554 0.5547614
000200 83 e5 da bd 28 eb 0f bd 90 53 82 3c 3a 68 24 3f
       -0.10688307 -0.03513637 0.015908986 0.6422154
000210 35 d8 c2 3e 28 06 9d bd 9f 68 46 3e 2a 98 80 be
       0.38055578 -0.0766719 0.19375847 -0.25116092
000220 c3 fb f6 3d f2 4d 79 3c f0 16 74 be 00 85 a4 bd
       0.120597385 0.0152163375 -0.23836875 -0.0803318
000230 e6 c0 7e 3e 15 fa a5 bb c2 0b 6f 3e 0b 5d 82 be
       0.24878272 -0.0050652125 0.23344329 -0.2546161
000240 87 55 1c 3f f7 4e 86 3f 75 91 a4 be 5b d2 9c be
       0.61068004 1.0492848 -0.32142225 -0.30629238
000250 5a 41 fc bd 66 b1 12 bc f4 c7 e3 3d ed 2c a8 bd
       -0.12317152 -0.008953428 0.111221224 -0.08211694
000260 e9 78 80 be 9c aa 18 bc f7 51 9a be 46 42 8d be
       -0.25092247 -0.00931802 -0.3014066 -0.27589625
000270 2c 87 20 3f 26 3a d1 be a3 56 db 3d e1 77 30 bf
       0.62706256 -0.40864676 0.10709884 -0.6893292
000280 42 69 8d 3e d6 02 8e be e3 e8 97 3c 36 8e a1 be
       0.27619368 -0.2773654 0.018543666 -0.3155381
000290 d9 98 d7 3d d8 00 a4 3c ed 92 6b 3e c6 4f 9d bd
       0.105272 0.020019934 0.23005266 -0.07681231
0002a0 8b db cb be 51 c6 20 be 3f 72 be bd b0 73 e1 3e
       -0.39815935 -0.15700652 -0.092991345 0.44033575
0002b0 41 ed fd bb 17 66 b4 3e 2c 4f a8 bd de 03 98 3e
       -0.00774923 0.35234138 -0.08218226 0.2969045
0002c0 09 ca 6e 3e 6f 9f 99 3e 5c 9b f1 3c 31 2e 3d be
       0.23319258 0.3000445 0.029493026 -0.18474652
0002d0 6b 67 70 be 74 48 31 3d d7 5d 2a 3e 62 37 bf 3d
       -0.23476951 0.043281987 0.1663736 0.09336735
0002e0 26 79 0d 3e ef 91 80 bd de 4e 1b be 19 bc 14 be
       0.13815746 -0.062778346 -0.15166804 -0.14524879
0002f0 fd 93 bc be 3a 57 ca 3d 34 43 ca bd 7e 83 7f be
       -0.36831656 0.098799184 -0.09876099 -0.24952504
000300 14 e6 d3 be 06 9b 1f be c0 00 57 be 97 70 3d 3e
       -0.41386473 -0.1558648 -0.2099638 0.18499981
000310 96 7b 02 be 28 2c 96 3e 4e 36 51 be 48 de 4c 3e
       -0.12742457 0.29330564 -0.20430872 0.20006669
000320 66 a5 96 3d 1a d5 1e 3f 0a ed 94 be 49 0e 3a 3e
       0.07355766 0.6204392 -0.29087096 0.18169512
000330 80 35 b2 3e 83 ab 82 3f ea 20 ce 3e 78 2c 99 3e
       0.34806442 1.0208591 0.40259486 0.2991674
000340 5d 39 82 3e 48 85 50 bc c8 8a 28 3d 3b f0 d6 bd
       0.2543439 -0.012727089 0.041147977 -0.10495039
000350 9a 49 7a 3e ac 9f 30 bf 19 f9 51 3d 44 77 bd be
       0.2444214 -0.6899364 0.05126295 -0.37005055
000360 70 25 b7 be 7b 49 41 be 2a 33 3f be 84 95 98 3e
       -0.3577075 -0.18875687 -0.18671861 0.2980157
000370 8f 7d 10 be 96 71 02 be b3 5f 70 be f3 e5 a6 3d
       -0.14110397 -0.12738642 -0.23474006 0.08149328
000380 28 a8 6b 3e 20 05 c8 3d fd 3e 36 be 03 08 b3 be
       0.23013365 0.097666025 -0.17797466 -0.3496705
000390 14 cb d4 3e 80 ca a7 bd 35 01 60 be 77 dc 76 be
       0.41561186 -0.08192921 -0.2187546 -0.24107538
0003a0 15 d6 bc 3e 3f 97 eb 3e d6 b3 00 bd bc a7 c7 be
       0.36882082 0.4601383 -0.031421505 -0.3899516
0003b0 54 e4 46 be 55 a9 b8 3f e3 a8 cc bd 2a 7d 2f bd
       -0.19423038 1.4426676 -0.0999315 -0.042843975
0003c0 7f 4d 66 3d 48 88 a8 bc 31 36 fa bd f7 64 00 3f
       0.05622625 -0.020572796 -0.122173674 0.5015406
0003d0 4d 2a 31 3f 52 a1 1b 3c 77 94 52 3c a4 cc 27 3e
       0.6920517 0.009498911 0.01285278 0.16386658
0003e0 19 1c ed be 4b 41 45 bd 20 0b 15 be ff 3d 06 3b
       -0.463105 -0.04815797 -0.14555025 0.002048373
0003f0 89 14 d9 3e 6e f0 ae 3f 47 90 21 be f4 a6 c4 be
       0.4239848 1.3667123 -0.15777694 -0.38408625

linears.0.bias f4 [64]
000000 7d ea 8d 3e 49 f6 3f 3f 5f c7 89 3c 4c 1f 22 3e
       0.27717963 0.74985176 0.0168187 0.15832251
000010 d7 32 ae 3e 20 1d 76 3e 2e eb aa 3d eb 84 71 3f
       0.34023163 0.24034548 0.08345638 0.9434344
000020 b4 e4 02 bf 68 a4 36 3b 57 6d dd bc 9e 67 ea 3d
       -0.51130223 0.002786899 -0.027029676 0.11445545
000030 ff c5 88 3e 79 9f e6 3d 7f 50 4e bc e9 82 d3 3c
       0.2671356 0.11260886 -0.012592434 0.025819259
000040 d1 84 d8 3d 2d d0 a2 be bb ba 06 be 66 f1 5d 3e
       0.10572208 -0.3179945 -0.1315717 0.21674117
000050 50 18 b8 3e 49 da 0b 3e b1 b7 82 be 75 3d b4 3e
       0.3595605 0.13657488 -0.2553077 0.35203138
000060 9e 58 dc be dd 32 3a 3d d6 51 95 bf e8 26 51 bd
       -0.4303636 0.045458663 -1.1665599 -0.051062495
000070 1a 60 ca bc 84 f5 f7 b9 d0 08 d0 bc ce b4 ce 3d
       -0.024704028 -0.00047294435 -0.025394827 0.100930795
000080 89 75 07 3f fd bc 35 3e f5 5f 89 3c 97 b1 62 3d
       0.5291372 0.17747875 0.016769389 0.055345144
000090 b6 fb ed bd a6 df b4 bc d7 cf ce bd 17 78 62 be
       -0.11620276 -0.0220793 -0.10098236 -0.22116123
0000a0 1e a8 00 3d 50 14 2f 3d 22 f6 d4 3d 70 0b b3 39
       0.03141033 0.04274398 0.103985086 0.00034150062
0000b0 94 8a e3 3d 5f cc d4 3d 3d bc 37 be 4b e2 83 be
       0.11110416 0.10390543 -0.17942901 -0.25758585
0000c0 1e ab 52 bd 7f d1 82 3c 97 8f 74 3d 21 a3 79 3e
       -0.05143272 0.015969036 0.05970725 0.24378635
0000d0 f7 aa 0f 3e 1e f3 ae bd 55 71 e2 bb cc 85 01 bd
       0.14030062 -0.08542465 -0.006910483 -0.03162174
0000e0 8c 6f 83 bd c6 3f 86 bd 50 03 0d 3d 42 72 a0 be
       -0.0641776 -0.065551326 0.034426987 -0.31337172
0000f0 93 40 26 3f 43 a4 aa 3d 98 e4 1d be 23 e6 b5 bd
       0.6494228 0.08332112 -0.15419233 -0.08881786

linears.1.weight f4 [64, 64]
000000 a6 39 05 3e f7 d4 5e be 59 95 13 be 22 7f 07 3e
       0.13010272 -0.21760927 -0.1441244 0.13232091
000010 08 d3 2d bd cf 8f 62 3e 14 af c7 bd be dc 5f 3e
       -0.042437583 0.22125171 -0.097501904 0.2186155
000020 f1 77 b2 bd a4 07 bc 3c 19 68 6e bc bf ad 31 bd
       -0.08714283 0.022952862 -0.014551186 -0.043378588
000030 87 8b 8e 3c 2e 38 7b 3e 4f b3 8f 3d f4 a1 30 3e
       0.017400516 0.2453315 0.07016622 0.1724928
000040 c3 a4 1b 3e 08 e4 0b be f8 b9 7f be 50 a1 69 bd
       0.1519957 -0.13661206 -0.24973285 -0.057038605
000050 9e fa e8 3d 77 ab db bc b4 d4 25 be 85 94 c5 3b
       0.113759264 -0.02681516 -0.16194421 0.006029668
000060 11 68 80 be ca 31 50 3e da be 4b be 24 b8 a7 3e
       -0.25079396 0.20331493 -0.19897023 0.32757676
000070 f4 de 6f bd c3 53 7b be fc 51 7d bd 2e 41 b1 be
       -0.058562234 -0.24543671 -0.061845765 -0.3462004
000080 39 57 66 3e 4c 74 0e bd 23 1f 42 bd ca df 2b 3e
       0.2249421 -0.034778878 -0.047392976 0.16784588
000090 a1 4c a0 3d 4a f7 f4 bd 74 b7 89 be a0 a0 af be
       0.07827116 -0.11961229 -0.26897776 -0.34302235
0000a0 42 94 e9 3d e1 c4 b5 3d d3 29 74 3e 0d 80 19 be
       0.11405231 0.08875442 0.2384408 -0.14990254
0000b0 66 8e c6 bd 13 98 ba 3c 78 7d 3f be 52 7e 1d 3d
       -0.09695129 0.022777593 -0.18700206 0.038450547
0000c0 03 d4 67 bd 9c 3b 0d 3e 18 ef fd 3d a3 fe 52 3c
       -0.056598675 0.1379227 0.12399119 0.012878093
0000d0 9a 8d 5a be a9 96 61 bd 7a 81 dd 3d 8a a9 9d 3d
       -0.21343079 -0.05507532 0.10815711 0.07698353
0000e0 db 51 55 be a6 15 95 be 79 c8 18 3d b9 4a 7e 3d
       -0.20832007 -0.2911808 0.03730056 0.06208298
0000f0 98 09 6d 3c 1a f0 b9 bc 5d 7e 23 3e cb e5 0f bd
       0.014467619 -0.022697497 0.15966173 -0.035131257
000100 67 f7 8b bf 5d 2a 73 bf 41 7a 1e 3e 75 7a 4c bf
       -1.0934876 -0.94986516 0.15476324 -0.79874355
000110 1c 66 5e bf 17 63 ea be 04 20 91 3d f7 58 99 bf
       -0.86874557 -0.45778725 0.070861846 -1.1980275
000120 90 43 75 3f aa 68 40 be d5 60 f4 3d 53 04 67 be
       0.9580622 -0.18789926 0.11932532 -0.22560243
000130 1f dd 08 be b1 17 5f be 08 ea 4f 3c 3d 14 3a 3c
       -0.13365601 -0.21786381 0.012690075 0.011357364
000140 66 b4 8b be 93 51 d0 3e 33 3b b3 3d 8d 6a f2 be
       -0.2728607 0.40687236 0.08751526 -0.47346917
000150 37 8f 09 bf 82 f6 21 be 75 d6 a4 3e 8b 25 28 bf
       -0.53734154 -0.15816692 0.32194868 -0.65682286
000160 53 98 2a 3f b6 39 19 be 0e fd b4 3f 53 fe b6 3e
       0.6663868 -0.14963421 1.4139726 0.3574091
000170 00 a0 8d 3e a8 11 2c 3e 01 bf b5 3b 87 a3 30 3f
       0.27661133 0.1680361 0.005546451 0.6899952
000180 6f 48 c5 bf 3c 1e 0c 3d 55 c5 fd bc c1 dc 26 3e
       -1.541273 0.03420852 -0.030977884 0.16295148
000190 7b ba ca 3d c7 c4 58 3e 6c a5 88 3e a1 0a fe 3e
       0.098988496 0.21168815 0.26688707 0.49617484
0001a0 13 e3 dc 3c ff 00 73 3e 90 24 60 bd 40 03 1c be
       0.026963746 0.23730849 -0.05472237 -0.15235615
0001b0 a6 7e 6c be 6a b0 c6 3d 6d 37 e1 3e 56 f2 f6 3e
       -0.23095188 0.09701617 0.439876 0.48231763
0001c0 80 a4 5e 3d db dc 84 bd 77 fb c2 3d 58 c1 65 bf
       0.0543561 -0.06487437 0.09520619 -0.89748144
0001d0 16 65 99 be 96 eb bb 3e 6d f6 69 be e9 61 7f be
       -0.29959935 0.36703175 -0.2284791 -0.24939694
0001e0 92 8e 2e 3e a9 d2 66 3b 62 19 ed bb e5 ba ae 3d
       0.17046574 0.0035220778 -0.007235692 0.08531741
0001f0 5c fb ae bf 15 81 c2 3d d6 40 1a 3f 2c 44 21 3e
       -1.3670459 0.09497277 0.6025518 0.15748662
000200 bf 66 09 be b2 14 98 3e ef 6f 9d bd da a0 9b 3c
       -0.13418101 0.2970329 -0.07687365 0.018997598
000210 19 19 38 be 8b ef d8 bd 65 2d 39 3d 15 52 18 3d
       -0.17978324 -0.10592564 0.045209307 0.037187655
000220 56 14 41 3e 7c c3 16 3e 22 9f 45 be ab 0e 6c 3e
       0.18855414 0.14723009 -0.19298986 0.2305247
000230 d5 71 c0 3e 2f 72 01 bf e0 5a ee bd 39 c7 55 be
       0.37586847 -0.50564855 -0.11638427 -0.20876779
000240 3f b1 48 3d d0 7f e3 bd 58 38 1c 3e a8 4d f7 bc
       0.04899716 -0.11108363 0.15255868 -0.030188397
000250 13 8b 0d 3e 3e f4 6c be 15 c7 b0 3d 1e e2 a4 be
       0.13822584 -0.23140046 0.08631722 -0.32203764
000260 99 1d fc 3e 23 a9 d8 3d d3 5c 21 be a2 15 3c bf
       0.4924133 0.10579135 -0.15758066 -0.7347051
000270 74 9a a1 3e 73 00 a1 3d 14 a9 15 3e dc fc e0 be
       0.3156315 0.07861414 0.1461528 -0.43942916
000280 6f 0f 1d be d2 a0 8f 3e a1 53 76 3d e6 1e fb bc
       -0.15337919 0.28052384 0.06013835 -0.030654382
000290 7f 19 4f 3e 3d 28 11 3d 3d a4 44 be 9f ed 68 3e
       0.2022457 0.035438765 -0.19203277 0.22746895
0002a0 7b 53 d1 3d b6 1c 5b bd e1 4f 55 bc 8b 58 92 bb
       0.10221001 -0.053494178 -0.013019533 -0.0044661216
0002b0 9e 5a dc 3d 16 a8 65 bc 70 5b a8 3e 53 4f ad be
       0.10759471 -0.014017126 0.3288226 -0.33849582
0002c0 41 68 01 bf 9d c4 46 3e 57 61 78 3d 16 f9 9d 3c
       -0.50549704 0.1941094 0.060639706 0.019283812
0002d0 07 cb e6 3e de dc 49 bd 9d 5a 62 be bb c7 c6 bd
       0.45076773 -0.0492829 -0.22104879 -0.09706064
0002e0 da 95 35 3e 3a aa eb 3e 4c b3 45 3e eb 6d 36 be
       0.17732945 0.4602831 0.19306678 -0.17815368
0002f0 63 fc 90 bd fc c5 15 ba bb 92 97 be 84 4f 05 3d
       -0.07079389 -0.0005713401 -0.29604134 0.032546535
000300 3a 86 51 bf 14 de 5a be 48 cd 1e 3d 4a f3 8f be
       -0.8184544 -0.21373779 0.03876999 -0.28115302
000310 2e c1 33 bf e1 39 96 be 62 27 1f 3d 44 c7 cc be
       -0.70216644 -0.29341033 0.038855918 -0.39995778
000320 c2 0f 85 3f 22 79 07 be 73 07 92 be b9 0f 03 be
       1.0395434 -0.13229802 -0.28521308 -0.12798966
000330 46 da 42 3e 9f 27 e4 be f1 2e 2b 3d ec ce b8 be
       0.19028577 -0.44561478 0.041792814 -0.3609537
000340 e7 e9 6b 3e 44 5b ae bc a1 ae 6f 3e bf 78 46 be
       0.23038445 -0.021283753 0.2340646 -0.19381998
000350 3b 4b dd be 51 84 31 bd d4 b1 97 3e 3c 51 4d bf
       -0.4322146 -0.043339077 0.2962786 -0.8020208
000360 a2 fe ac 3e cb 1b f5 bd ea ba 45 3f 97 4c d2 3c
       0.3378802 -0.11968192 0.77238333 0.025671287
000370 48 3a 59 3d 60 6a 75 3e 5a fb 2f 3e 85 31 f0 3e
       0.053034097 0.2396636 0.17185727 0.4691278
000380 89 61 94 bf d2 90 9e 3c 70 4d ab 3d 7c 9e ee bb
       -1.1592265 0.019356165 0.083643794 -0.0072820764
000390 31 0c a5 3e 3c 77 ea bc e6 5f 5d 3d d2 fb 5e 3f
       0.32235864 -0.028621309 0.054046534 0.87103
0003a0 8f 00 c8 bb d8 f5 38 3c 5d 41 ba be f7 e4 0c be
       -0.006103582 0.0112890825 -0.36377993 -0.13759218
0003b0 73 d7 1d 3e 28 e2 03 3e 03 e5 52 3e 5d 39 de 3d
       0.15414219 0.1287924 0.20595174 0.10850785
0003c0 78 2c 42 be c4 52 35 bd 95 de 13 be c6 2e eb be
       -0.18962276 -0.044268385 -0.14440377 -0.45934123
0003d0 7b d5 9f 3d 34 db ba 3e 59 81 8e be b8 98 68 bc
       0.0780439 0.36495364 -0.2783306 -0.014196567
0003e0 e5 af a0 3e 45 62 9b 3e 98 9a cc 3e b4 45 29 3e
       0.31384197 0.3034841 0.39961696 0.16530496
0003f0 ab 74 6d bf 66 cb c2 bb fd e9 40 3c 67 8e 98 bd
       -0.92756146 -0.005944657 0.011774537 -0.07449036

linears.1.bias f4 [64]
000000 06 d8 a4 bb b6 00 12 be 60 0d 23 bd 86 30 47 bd
       -0.005030635 -0.14258084 -0.039807677 -0.04863026
000010 7e b6 c6 bd 8f 76 d5 bd 84 60 14 bf 18 4a b4 bd
       -0.09702776 -0.10423004 -0.5795977 -0.08803195
000020 76 87 1d bd 13 05 e7 bd 2f aa 99 3d 81 79 ae 3d
       -0.038459264 -0.11280265 0.07503163 0.08519269
000030 1e ee b5 3d ea ce 11 bf 5c 49 17 bd ad 55 b5 bc
       0.08883308 -0.5695635 -0.036935195 -0.02213558
000040 df d4 4a 3d 1f ea 41 bb 50 cc e8 3b 5b 36 34 bc
       0.049519416 -0.002958901 0.007104434 -0.0109992875
000050 98 d0 0b bc c5 1f 18 be c5 bc 00 be 4b 07 17 be
       -0.008533619 -0.14855869 -0.1257201 -0.14748876
000060 54 44 55 3d 0d 3a 14 bc 7e ca 12 3e 89 ca 4a 3d
       0.052067116 -0.0090470435 0.14335057 0.04950956
000070 44 f6 29 bd ec f4 18 3b 09 8e bd bd 01 40 ce 3c
       -0.041494623 0.0023339344 -0.09255607 0.025177004
000080 b3 be 3e 3d e6 9c 4c 3d 0b 8b 31 3c 38 71 92 3c
       0.046568584 0.049954318 0.010836373 0.017876253
000090 0f 17 a2 bc d5 fa 65 be be 5c 17 bd c6 8a c0 3c
       -0.019786386 -0.22458966 -0.03695368 0.023503672
0000a0 6b 47 8f bc d5 72 02 3d 5e 0f dc 3c 88 66 99 bd
       -0.01749011 0.031847794 0.026862796 -0.074902594
0000b0 48 41 a2 bc a3 39 d8 3c 75 2c ae be 35 7c 54 bd
       -0.01980652 0.02639467 -0.34018293 -0.051876266
0000c0 d7 43 d6 be 3d c4 dd 3c b3 8f 6f 3c d8 37 44 3d
       -0.41848633 0.027071113 0.014621663 0.04790482
0000d0 6e 0a 3a 3d 02 a9 bc bd bb 57 4b 3e de cb 3a bb
       0.045420103 -0.09211923 0.19857685 -0.0028502862
0000e0 4c c1 64 3d 64 61 ba 3c ab e0 70 3d 82 3d 4a 3d
       0.055848405 0.022751518 0.05880801 0.049375065
0000f0 dc 61 26 3c 26 d4 01 3e e6 d1 17 be d7 39 02 3d
       0.010155167 0.12678584 -0.14826164 0.03179344

linears.2.weight f4 [64, 64]
000000 70 95 27 3e cb df 10 be 8a 6f 60 3c 46 a3 12 3e
       0.163656 -0.1414787 0.013698468 0.14320096
000010 9d 76 3f 3d 23 05 b4 39 82 1d ff 3b b7 1b b8 3e
       0.046743978 0.00034336103 0.0077855 0.35958645
000020 53 0c 49 be 38 a3 b3 3e b6 90 40 be 2d 92 81 be
       -0.19633608 0.35085464 -0.18805203 -0.25306836
000030 11 85 84 bd b7 51 46 bd 1b 54 e4 bd ef 6c ae bd
       -0.06470693 -0.048417773 -0.11148854 -0.08516871
000040 57 74 56 bd ae c5 0d be d8 d2 6e be fa 96 f8 bd
       -0.052357044 -0.1384494 -0.23322618 -0.121381715
000050 5f e6 13 3d eb e9 b3 3e e3 e3 25 bd 0d 3b ce 3c
       0.03610837 0.35139403 -0.040500533 0.025174642
000060 40 4a 86 bd 5e df 0b 3e 5d 0c 21 be 58 b1 0e 3e
       -0.06557131 0.13659427 -0.15727372 0.13934839
000070 5d 3f b4 bd 2d 8a 7b 3e 04 f7 49 3e 38 e7 f9 3d
       -0.08801148 0.24564429 0.19723135 0.122023046
000080 19 65 86 3e 7d fd c2 3d 94 28 26 be 1c ca c3 bc
       0.26249006 0.09521005 -0.16226417 -0.023900084
000090 5f f8 18 3e 6e 64 27 3e bd 37 32 3e fc 73 9b be
       0.14938496 0.16346905 0.17404075 -0.30361927
0000a0 e2 2e 65 3e de c3 94 bd a3 b9 9b bd 33 8f 19 be
       0.22381166 -0.07263921 -0.07603767 -0.14996032
0000b0 28 d0 8f bd a3 47 9b 3d 85 6f 12 be 74 27 1b be
       -0.070221245 0.07582023 -0.14300354 -0.15151769
0000c0 87 dc 53 be 57 34 dd 3d 93 9f 3c 3e a9 63 c0 bc
       -0.20689593 0.10800999 0.18420248 -0.023485022
0000d0 62 96 ce bd 35 04 89 bd 68 28 e1 3e 46 82 1a be
       -0.10087277 -0.066902556 0.4397614 -0.15088758
0000e0 7b 79 5d be 05 02 fe bd a8 8d 3c bd 3a 57 30 3c
       -0.21628372 -0.12402729 -0.04603353 0.010762984
0000f0 78 47 8b 3e 72 85 5f be 72 6e 89 bd 60 a8 81 be
       0.27202964 -0.21828249 -0.06710519 -0.25323772
000100 1f 64 70 3e ed 51 b9 bd ea e6 f0 be a0 9d 18 3d
       0.23475693 -0.09048829 -0.47051173 0.037259698
000110 52 1a 46 be 14 15 d8 be ca e8 61 3e d5 c2 07 be
       -0.19345978 -0.4220358 0.22061458 -0.13257916
000120 4a df 9b bd 66 19 ac be 86 00 0a 3e 80 8d 42 3e
       -0.076109484 -0.33613127 0.13476762 0.1899929
000130 ad e9 01 3e 02 41 b6 be 6d d7 92 bc 7e 69 28 3d
       0.12686796 -0.35596472 -0.017924989 0.04111623
000140 1b f6 a8 3e a1 71 bf be e7 27 92 be 51 b7 e9 be
       0.33000264 -0.3739138 -0.28546068 -0.45647672
000150 40 65 c9 bd b0 95 23 3f db 7b 07 be 4c b1 0e bd
       -0.09833765 0.6390028 -0.13230841 -0.034837052
000160 00 fc aa 3e d8 cd 2a bd 81 8b d5 bd be 8a 01 bd
       0.33395386 -0.041700214 -0.10426999 -0.031626455
000170 cf ed 82 be 77 d1 bc 3e 93 c4 4f bd ae b6 91 3d
       -0.2557206 0.3687856 -0.050724577 0.071149215
000180 24 00 06 3f c3 a9 4b 3e c4 00 73 bc d5 06 38 3e
       0.52343965 0.19888978 -0.0148317255 0.17971356
000190 19 33 0e bf 05 a3 b3 3e bf 2d b6 be 89 b7 8a be
       -0.5554672 0.35085312 -0.35581776 -0.2709315
0001a0 fc 34 ac bb 62 28 95 bc 70 fa f9 3e ea cc a9 be
       -0.0052553397 -0.018207733 0.4882388 -0.3316415
0001b0 fd 2f e3 bd 4e c5 3d be 97 fa cc bd ff 30 6a be
       -0.110931374 -0.18532297 -0.10008734 -0.22870253
0001c0 20 d4 fc be 2b 77 be 3e cb 3a 17 3f 62 ff 98 be
       -0.4938059 0.37200293 0.59074086 -0.29882342
0001d0 69 02 81 3c 13 91 8c bc 95 c6 12 3f f6 d0 f9 3e
       0.01574822 -0.01715902 0.5733426 0.48792237
0001e0 07 fa 2f bd 40 79 d1 bc 14 0c c0 be a2 97 b0 bd
       -0.042963054 -0.025570512 -0.37509215 -0.08622672
0001f0 31 09 0e 3e d2 28 1a 3f 83 58 10 3f 80 d9 e1 be
       0.13870694 0.60218537 0.5638506 -0.44111252
000200 7d 7a 12 3c ed 58 01 bc 0d 9d 13 3e 69 e7 0c bd
       0.008940336 -0.007894737 0.14415379 -0.034400377
000210 92 88 91 3e e5 d4 22 be f1 49 04 3f 16 19 07 3f
       0.28424507 -0.15901525 0.51675326 0.52772653
000220 cf 7d 63 3e 83 38 03 3f 5e a8 0f be 9b 89 9b bd
       0.22215961 0.51258105 -0.1402907 -0.075946055
000230 f3 59 0c 3e 33 a2 98 be db 0e b9 3e 89 8e 17 3e
       0.13706188 -0.29811248 0.36144146 0.14800467
000240 a0 aa a5 3e 97 a6 ac 3d 01 d5 90 3e 45 4e 8e 3d
       0.3235674 0.08430212 0.2828751 0.069485225
000250 de 56 1c bd bf 9b 3a 3f d9 aa 1e 3e c5 08 99 3e
       -0.03816878 0.728939 0.1549486 0.29889503
000260 00 32 be be bf c1 e2 bd 5c 21 1a bf 5c 44 47 be
       -0.37147522 -0.110721104 -0.6020715 -0.19459671
000270 4d 21 3d 3e bf 93 8b 3d bb f3 1e 39 ea d5 86 3d
       0.18469734 0.0681529 0.00015158851 0.065837696
000280 12 8c 91 be bb 7e 0b 3d 14 b4 88 3d 5f f7 07 bc
       -0.28427178 0.034056406 0.06674972 -0.008298724
000290 88 25 43 3e 9c 66 73 3f e2 5f b5 bb 7a 3b 14 bd
       0.19057286 0.95078444 -0.0055351118 -0.036189534
0002a0 b3 bc 6f 3e 5d b9 32 be 27 9b 14 3f 37 cd af 3d
       0.23411827 -0.17453523 0.58049244 0.085840635
0002b0 99 a6 96 3e 5c 52 8e bd 96 1a db bd 14 51 28 3e
       0.2942398 -0.069493026 -0.1069843 0.16437179
0002c0 c1 5f 6f be 97 45 b2 bd 3c 47 a5 3e f4 cb 0c 3f
       -0.23376371 -0.087046795 0.3228091 0.5499871
0002d0 9b 92 aa 3e 5e 5c b2 3e 80 39 a2 be 32 cf 96 be
       0.33314976 0.34836096 -0.31684494 -0.29454952
0002e0 91 fb 8b be c9 76 b7 be 4e 38 bf be 62 0b 7c be
       -0.27340367 -0.35832813 -0.37347645 -0.24613717
0002f0 17 d0 18 3e 43 02 6c be c5 5f 7f 3e 41 c1 aa be
       0.1492313 -0.23047738 0.24938877 -0.33350566
000300 99 d7 9c bd 78 6d 7d bd 08 12 b4 3d 72 4d 2e be
       -0.076583095 -0.061871976 0.08792502 -0.1702173
000310 9d ce cd 3d 40 34 94 3e 1b 03 6c 3e 0e ab 2a 3f
       0.10049174 0.28946114 0.2304806 0.6666726
000320 7d eb 47 3e 94 1d 9f 3e 81 3d 27 be 04 d7 ee be
       0.19523425 0.31077254 -0.16332056 -0.4664842
000330 75 e3 c7 3b e6 d0 ed be 70 26 bc 3e e9 f9 7e 3e
       0.006100113 -0.4644844 0.36748075 0.2490002
000340 54 07 9e 3e 98 6e ad be 9d ba db 3e 83 bc db 3e
       0.30864966 -0.3387344 0.42915812 0.4291726
000350 66 b3 d0 be 3d bc b3 3e 3c af b5 3d a8 25 4c 3e
       -0.4076187 0.35104552 0.08871314 0.1993624
000360 6d 97 c5 bd aa 62 fd bd 9f 23 e5 be d4 de 53 3c
       -0.09648023 -0.12372334 -0.4475374 0.012931544
000370 1c 35 0c 3c c3 12 5d 3e 22 06 87 3e 0a a6 4d be
       0.008557584 0.21589188 0.26371866 -0.2008287
000380 bf a0 72 3e 7f 37 a4 be 5b 14 89 be e8 74 9d 3e
       0.23694132 -0.3207359 -0.26773342 0.30753255
000390 04 30 f8 3e 64 19 4b 3f 54 46 f1 3d 61 99 17 3e
       0.48474133 0.7933562 0.11780992 0.14804603
0003a0 38 74 08 3e 4c 03 a2 bd ab 6d e7 3e b9 0f 42 3d
       0.13325584 -0.07910785 0.45200858 0.047378276
0003b0 d2 f2 f8 3e 40 df 18 bd ac 7c c9 bd 87 f6 cb 3e
       0.48622757 -0.037322283 -0.098382324 0.39836523
0003c0 d1 c0 00 bf 31 0e ad be f8 8a d8 3e 5d 80 3f 3f
       -0.50294214 -0.3379989 0.42293525 0.7480524
0003d0 ec 7c b7 3e 57 1b ad 3e 70 1f 68 3e 13 8a b0 be
       0.35837495 0.3380992 0.22668242 -0.34480342
0003e0 d0 9d 58 be 91 1e 46 be 5b 2a b7 3d e8 4a 48 bd
       -0.2115395 -0.19347598 0.089436255 -0.04889956
0003f0 3f 07 1a 3e 6e bb 1f be 37 a1 07 3f 51 d8 6c be
       0.15041827 -0.15598843 0.5298037 -0.23129393

linears.2.bias f4 [64]
000000 55 e8 d4 bc 7f e4 a4 3d 8a 3d 81 bd bb dd 6f bd
       -0.02598969 0.08051395 -0.06310566 -0.058561068
000010 ef 14 0e bd 8f e2 f7 3c 2a 13 32 bd 8c 11 9b 3d
       -0.034687933 0.030259399 -0.043475308 0.07571706
000020 d0 e4 43 bd d0 dd 36 bd 39 14 1f 3d 2a cb 30 3d
       -0.047825634 -0.04464513 0.038837645 0.043162502
000030 46 d6 43 3d f6 47 13 bd fb ec fe 3c 1a be 9a 3d
       0.04781177 -0.0359573 0.03111886 0.0755579
000040 06 26 2e bd 59 33 5b 3d 8a 04 85 3b 9a 2e 6d 3d
       -0.04251673 0.053515766 0.004059379 0.05790577
000050 c5 a2 5f 3d 65 3b 2c 3d 39 cf 8c 3d a7 1f 48 bd
       0.05459859 0.04204883 0.06875462 -0.04885831
000060 ae 6f 59 bd fa f1 67 3d 2a 63 e8 bd 9b 1c 93 3d
       -0.05308502 0.05662725 -0.11347039 0.071831904
000070 48 3e fc bc 76 80 66 bd cb 69 64 3d 45 8d 18 be
       -0.030791417 -0.056274854 0.055764955 -0.1489764
000080 91 05 40 ba d9 cc 1c bd 09 1f d2 3c e5 05 c0 39
       -0.0007325048 -0.038281295 0.025649564 0.00036625486
000090 fb e2 71 3d c2 10 25 bd c5 8b 54 3d b3 41 97 bd
       0.059054356 -0.040299185 0.051891107 -0.07385578
0000a0 c7 a9 26 3d d7 1f 01 3c 08 90 21 bd 99 5d 19 3d
       0.040689256 0.007881126 -0.039444 0.037442777
0000b0 72 dc 59 3d 81 31 85 3d ff 9d 99 3c d3 4d ea bc
       0.05318875 0.06503583 0.018752096 -0.028601563
0000c0 c2 49 22 bd 35 cf 4e 3d ce 80 9f bc 82 3a 96 bd
       -0.039621122 0.050490577 -0.019470599 -0.07335378
0000d0 5d 2f 80 3d e3 c2 2f bc 29 52 1e bc 21 c6 41 bd
       0.06259034 -0.010727617 -0.009663143 -0.04730809
0000e0 41 b6 88 3c 40 43 0e 3d 1f 45 d6 bc 75 71 7c 3d
       0.016688468 0.034732103 -0.026156006 0.06163164
0000f0 f5 7d bb 3d 3f 44 00 3e 3c da 3c 3d 0f d0 de 3c
       0.09154884 0.12526034 0.046106562 0.02719882

linears.3.weight f4 [1, 64]
000000 27 46 e1 3e bd 93 6d 3f 4a 60 f1 3e 7a 6a c9 3e
       0.43998834 0.92803556 0.47143775 0.39339048
000010 46 38 da 3e 10 0f 1c 3f fc 07 2c 3f 00 a1 c9 be
       0.42621058 0.60960484 0.67199683 -0.39380646
000020 17 b0 e0 3e c0 ca ae 3d ea ac 9b be c5 d8 97 be
       0.43884346 0.08534765 -0.3040536 -0.2965757
000030 f2 2e 8a be 63 01 86 3e db f5 48 be 6c 29 9a 3f
       -0.2698894 0.26172933 -0.19625036 1.2043891
000040 22 eb e2 3e 97 38 9d be 9f ee 44 bf a3 41 a7 be
       0.44320017 -0.30707237 -0.76926607 -0.32667264
000050 4e c1 97 be 5c 74 02 bf 76 3b 09 bf 50 8e a7 3e
       -0.29639667 -0.509588 -0.53606355 0.32725763
000060 86 d9 a0 3e 3f f4 51 be e4 e0 00 3f bb 2c 14 bf
       0.31415957 -0.20503329 0.50343156 -0.57880753
000070 45 bb b5 3e 5f eb ee 3d 6c d7 8d be 4a 78 14 3f
       0.35494438 0.11665987 -0.27703416 0.57996047
000080 32 74 59 3e d4 7a c3 3e 98 ce 01 bf 9f 26 d1 3e
       0.21235731 0.38179648 -0.5070586 0.40849778
000090 8a e1 e1 be d8 f8 03 3f 93 6d 9d be 88 86 0e 3f
       -0.44117385 0.5155158 -0.3074766 0.5567403
0000a0 19 f5 f8 be cf 81 d2 be d1 b2 8d 3e aa 5c 83 be
       -0.48624495 -0.4111466 0.2767549 -0.25656635
0000b0 8e 33 5c be 61 47 91 be 15 d6 28 bf e8 df c9 3e
       -0.21504042 -0.2837477 -0.65951663 0.3942864
0000c0 ca 05 1b 3e 3e fa 4b be 32 dc bf be 13 13 76 3e
       0.15138927 -0.19919679 -0.37472683 0.24030714
0000d0 df 4b 05 bf d3 fd 70 3e 04 26 b0 be bc 53 4c 3e
       -0.52068895 0.23534326 -0.34404004 0.19953817
0000e0 bf 79 2f be 1a a6 9d be fe e4 d0 3e 3f 45 6d be
       -0.17136286 -0.30790788 0.40799707 -0.23170947
0000f0 58 31 32 bf 73 b3 85 3f a3 d9 85 be 15 3c 9d be
       -0.6960654 1.0445389 -0.26142606 -0.307099
