Complete_thesis_stage_1_and_2/(d).Code_and_all_other_details/WAAM/PINN_CONSTANT_PROP/Sequential_trail_1/Models/model_epoch_22000.pt (torch, 38264 bytes, 7 tensors)

linears.0.weight f4 [64, 4]
00000000: 8042 39be cb33 1d3b 1dfc 463d e37f f63e
00000010: 500b 1e3f 1625 b6be 12d3 e4be 0a48 27be
00000020: 1b1e 323c 7733 da3d 9da8 d23d 442a 28be
00000030: d6a1 9d3e f056 1a3f 90bf 633e df5e 1a3e
00000040: 6882 5c3e ef69 c6be f4df ac3d 59fc a93e
00000050: 795d ae3e d2af 25bd 6a7c ee3d 34e1 383e
00000060: 3741 cc3e 663c a8be a2ac 74be ddd1 95be
00000070: 8106 473f 4df1 15bf 7259 923d 5672 d03e
00000080: ef98 49bd 17c2 30be b558 df3c 4577 f4be
00000090: 6104 c9bc bf37 a63e d640 8abd 46c5 283e
000000a0: 4706 7ebe 0d15 15be f4be 413e 4fa9 923e
000000b0: 9474 b63e 650a 18bf f6f6 3f3e 3492 efbd
000000c0: f0de 373e 81fc 473f 5f85 ef3c f454 e0bd
000000d0: f34d 20bf de46 2d3f 7c4f fdbc c2d2 c83e
000000e0: 3d2e d9be 8525 f5bc 7343 593e cccc 063e
000000f0: c666 77be 85cd d43e 08b0 1fbd ac5d ca3e
00000100: 794d ae3e 7783 513e 402b 8f3e 62b3 18be
00000110: ed3f 6fbe b482 3dbe c631 20be 8de0 41be
00000120: 4a84 77be 440e 4d3e 6a28 99be a202 abbe
00000130: a47c a03e 7a56 e8be e03c e13d 7ed0 8d3e
00000140: 0eec 7e3e 73f1 b13d c399 9e3d d3ba af3e
00000150: b4d4 50bf 9b8b 073e c4d9 193f c6a6 893e
00000160: f26a 80be 446a 75be af27 883b 0be5 95be
00000170: 643c 79be 1150 8abe bde2 1ebd c666 0f3f
00000180: f0e1 4c3e 011d dcbc 2895 383c 2615 d8be
00000190: c0e8 b43d 373f 613e dd04 abbd 3394 013e
000001a0: 0fee 0fbf d4e3 613d ce87 ca3e 8479 acbe
000001b0: 2fa8 e5be b86b 753c 87fd 933d 8f25 8a3e
000001c0: f2b3 c13e 199d a4be e2b3 4c3e 48ae a5be
000001d0: 90c5 8a3e 18ae 063e f89e 7c3d 28d5 90be
000001e0: bdb7 19be 067b 7fbe c98e a0be c279 b4be
000001f0: 04e5 2cbf ceb9 84be a519 53bf e36c 113f
00000200: cc49 d6bd acd4 bd3b 685b 943c d095 233f
00000210: 7cac c43e ac7a d3bd ac15 463e 2482 7fbe
00000220: fcb1 f93d 186b c33b fdbe 74be 2e1e a2bd
00000230: fc57 7c3e 4868 813c f14b 6e3e 8d56 83be
00000240: c7af 1a3f 01d9 883f e49e a2be 2723 99be
00000250: 8d39 fdbd d8ca 88bc 23e9 e23d f1ed a6bd
00000260: 594c 81be ddb5 92bc 016a 98be b021 8bbe
00000270: 7668 1f3f 806d f5be 129e d73d 0d30 30bf
00000280: 0aa3 8d3e de59 85be d016 9d3c 6c6b 9fbe
00000290: be98 d73d 7848 c23c 9394 6b3e 4b1e 9fbd
000002a0: 52cb c7be fe6a bdbd ed6d b9bd 7126 e23e
000002b0: 64ae b7bb 3eee ad3e 5cd9 a8bd 8f7a 993e
000002c0: ea29 613e 2764 913e 9e3a 053d 8e72 3bbe
000002d0: b950 6fbe 9700 0e3d 95a5 2b3e 67dd c23d
000002e0: b6e7 0c3e ad76 82bd 90ca 1bbe e757 15be
000002f0: ac40 babe c7b1 183e 7f78 dabd cb37 73be
00000300: e0aa d3be b978 29be 767d 57be d9b5 3a3e
00000310: d776 01be ed11 903e d1b4 50be 5c07 4c3e
00000320: 2b2b 933d 3abe 0e3f 1bdf 92be 91e0 453e
00000330: e1c8 b53e 2b64 6f3f ee7e cb3e 06b5 9a3e
00000340: caf9 813e bae7 17bd 3347 323d 90e5 cbbd
00000350: fd69 773e 1e05 29bf fb1f 4c3d 7130 bfbe
00000360: 94c7 b5be dbbc 1bbe 022f 41be 0345 973e
00000370: bc2c 0dbe 06c3 05be b451 70be 1d2f a93d
00000380: 4fe3 5f3e 95f8 043e a64e 36be 6599 b2be
00000390: 4f2a d43e c4ce 93bd d119 62be 5550 6dbe
000003a0: 630d b43e 96ce de3e 7f6c e3bc 3a4d c3be
000003b0: a2ef 4dbe 29b4 bc3f ab09 d6bd 3733 4fbd
000003c0: 4792 6f3d 564f a4bc 15fc fbbd 9a8e ff3e
000003d0: b7a8 303f 4ac2 233c b742 7b3c 5e65 253e
000003e0: a4c0 f9be c609 983c 0d65 21be b47f 20bc
000003f0: 028e d63e ae5b b13f 369b 22be e16f c4be
-0.18091774 0.002398717 0.048580278 0.48144445 0.6173601 -0.3557517 -0.44692284 -0.16336074
0.0108714355 0.106543474 0.10286067 -0.16422373 0.30787534 0.60288906 0.22241044 0.15075253
0.21534121 -0.38752696 0.08441153 0.33200338 0.3405569 -0.04045088 0.11644824 0.18054658
0.39893505 -0.3285858 -0.23893979 -0.29261675 0.777443 -0.5857132 0.071459666 0.4071223
-0.049218114 -0.1726154 0.027263978 -0.47747245 -0.02453822 0.32464406 -0.06750648 0.16481504
-0.24807082 -0.14558811 0.18920499 0.28644797 0.35635817 -0.5939086 0.18746552 -0.11697808
0.17956138 0.78119665 0.029238401 -0.109537035 -0.6261894 0.6768626 -0.03092169 0.39223295
-0.4241809 -0.029925117 0.21217136 0.13164061 -0.24160299 0.4156305 -0.038986236 0.3952459
0.34043482 0.20460306 0.27962685 -0.14912179 -0.2336423 -0.1850689 -0.15643987 -0.18933316
-0.24171558 0.20024973 -0.29913646 -0.33400446 0.31345093 -0.45378476 0.10997939 0.2769813
0.24894735 0.08688631 0.077441715 0.34322223 -0.8157456 0.13236849 0.6009791 0.2688505
-0.25081593 -0.23966318 0.0041551213 -0.29276308 -0.24339443 -0.2701421 -0.038790453 0.56016195
0.20008063 -0.026869299 0.01126603 -0.42203635 0.08833456 0.21996771 -0.08350537 0.1265419
-0.56222624 0.055148914 0.39556736 -0.3368646 -0.44854876 0.014979295 0.07226091 0.2698178
0.378326 -0.32151106 0.19990495 -0.3235953 0.27103853 0.13152349 0.061675042 -0.28287625
-0.15011497 -0.24949273 -0.31358936 -0.35249144 -0.6753695 -0.25923008 -0.82461005 0.5680677
-0.104632944 0.0057931747 0.018109992 0.6390047 0.38412845 -0.10326132 0.19344205 -0.24951988
0.12192151 0.0059636943 -0.23900981 -0.079159126 0.24642938 0.015796795 0.23271157 -0.2565197
0.60424465 1.0691224 -0.3176185 -0.29909632 -0.123644926 -0.016698286 0.110796236 -0.081508525
-0.2525356 -0.017908985 -0.29768375 -0.2717414 0.6226877 -0.47935104 0.105281964 -0.6882332
0.2766345 -0.26045126 0.019175917 -0.31136644 0.1052718 0.023716196 0.23005895 -0.0776945
-0.3902231 -0.09248923 -0.0905417 0.44169953 -0.005605506 0.33970827 -0.08244583 0.29976317
0.21988645 0.28396723 0.032526605 -0.18305418 -0.23370637 0.03466853 0.16762383 0.095148854
0.13760266 -0.06370292 -0.1521399 -0.14584313 -0.36377466 0.14911567 -0.10667514 -0.23751752
-0.41341305 -0.16549958 -0.21043953 0.18233432 -0.1264299 0.28138676 -0.20381476 0.19924682
0.07185968 0.5575901 -0.2868584 0.19323947 0.3550482 0.9351222 0.39745277 0.30216235
0.25385886 -0.037086226 0.043524932 -0.09955895 0.24161525 -0.66023433 0.049835186 -0.37341645
-0.3550383 -0.15208761 -0.18865588 0.2954484 -0.13786596 -0.13062677 -0.23468667 0.08260939
0.21864055 0.12985452 -0.1780344 -0.34882656 0.4143853 -0.07217172 -0.2208016 -0.23175175
0.35166463 0.43516988 -0.027761696 -0.38144857 -0.20110944 1.474248 -0.10451063 -0.05058595
0.05848911 -0.020057362 -0.1230394 0.49913484 0.6900744 0.009995053 0.01533573 0.1615195
-0.48779786 0.018559348 -0.15761204 -0.009796072 0.41905218 1.3856103 -0.15879521 -0.38366607

linears.0.bias f4 [64]
00000000: d207 8e3e 8b19 3e3f 6069 7d3c b759 203e
00000010: a04d ae3e 40e3 723e 14c9 e33c dbdc 703f
00000020: e180 01bf 4105 413b cb87 cebc b02c f13d
00000030: ee0d 5a3e 2b39 e53d c7d4 35bc e0de d43c
00000040: 7952 d73d 4063 a3be 9fbe 06be 22d6 5b3e
00000050: 0b58 b43e a47b 0c3e 29d0 7ebe f7da b23e
00000060: dc08 dbbe 68eb 383d 5f1d 95bf d20d 48bd
00000070: fafa c6bc 668a b2b9 291a e5bc 02f4 cf3d
00000080: 5917 073f 148d 343e e663 7e3c 02a0 613d
00000090: b04c e8bd 1293 bbbc bcc3 ccbd dc04 63be
000000a0: bced f43c 040c 2e3d 74e3 d13d 2ec4 723a
000000b0: ffe6 dc3d 9dd9 d13d 01ac 36be aa11 84be
000000c0: fea4 4fbd 062e 803c 5d07 793d 3ee2 743e
000000d0: b8f5 0c3e ef47 aebd baff debb e989 01bd
000000e0: 93b7 84bd 7c19 88bd bc5e f03c c20d 9fbe
000000f0: 0b5f 253f 75cd aa3d 02bd 17be e57e b6bd
0.2774034 0.74257725 0.015467018 0.15659223 0.34043598 0.23719501 0.027805842 0.94087
-0.5058728 0.0029452594 -0.025211236 0.117761016 0.21294376 0.111925445 -0.011098093 0.025985181
0.10513777 -0.3191166 -0.13158654 0.21468404 0.3522342 0.1371904 -0.24884094 0.34932682
-0.42780197 0.045146376 -1.1649588 -0.048841305 -0.024289597 -0.0003405392 -0.027966576 0.10153963
0.5277 0.17631942 0.015526747 0.055084236 -0.11342752 -0.022897277 -0.09998271 -0.22169822
0.029898517 0.042491928 0.10248461 0.00092608004 0.107862465 0.102465846 -0.17839052 -0.25794727
-0.05069446 0.015646946 0.060798038 0.2391443 0.1376561 -0.08509814 -0.0068053873 -0.031625662
-0.064803265 -0.06645486 0.029342048 -0.31065184 0.6459815 0.08339969 -0.14818195 -0.08910922

linears.1.weight f4 [64, 64]
00000000: c533 fa3d 1e1e 66be cc6b 11be d97a 0a3e
00000010: 65d9 36bd 2efa 643e 0e6f c8bd 75ef 593e
00000020: d4d9 9dbd 967d 9a3c 8ece 2ebc 2b21 1dbd
00000030: 5d56 4d3c 24dc 6e3e 3f8c 923d 8b12 293e
00000040: 1747 1f3e c115 0bbe 6611 85be d4ce 4cbd
00000050: e71e dd3d 2f95 cfbc a564 18be 459d cdbb
00000060: d8ef 7abe 8423 4c3e f43b 41be d25d a53e
00000070: 0aa7 48bd 0441 74be c93c afbd 0956 b4be
00000080: 3549 5d3e 20c8 03bd 3cbb 51bd 75b7 2f3e
00000090: 3cb2 9f3d 6020 f0bd ce83 8fbe 65f2 78be
000000a0: e0c2 f63d a472 bd3d 0a6e 593e b14e 1cbe
000000b0: c05b c6bd 1f36 be3c 1a53 3fbe 2f38 153d
000000c0: 34d0 82bd 3c89 073e bc94 f43d 6c72 5d3c
000000d0: 69d9 58be 3e6f 17bd bd1a d13d d375 953d
000000e0: 8c29 56be 1361 95be 7f9d 213d 77e8 813d
000000f0: 2942 853b a59c a1bc 6f30 183e e9ee 0ebd
00000100: be52 6fbf b25a 79bf 89bb 233e 01dd 3cbf
00000110: ebf8 5dbf 9c78 eabe 0d43 5e3d fc63 82bf
00000120: 947d 563f cd45 3fbe fcb7 103e dc48 70be
00000130: 967c f3bd c9f7 46be c1a2 9f3c 4789 8e3c
00000140: ef8d 87be 80d8 c23e 4b85 b03d 6107 f5be
00000150: 35cb 06bf a18e 1cbe c8c7 a33e 782c 1fbf
00000160: dbae 253f 518d 1abe 3bb2 af3f ad5c c03e
00000170: 5ee3 8a3e cb9f 2c3e 37a7 0639 496a 2e3f
00000180: 248a 73bf 002d 1b3d c988 1dbd d32e 2b3e
00000190: dc0a c63d 5abc 5d3e 04bb 853e 43ab df3e
000001a0: e176 a43c 70fe 783e e35f 41bd fc03 1dbe
000001b0: 95b0 64be 986c d63d 6a64 dc3e 21b9 f73e
000001c0: 3274 483d 6ee8 85bd cc61 c23d 3380 38bf
000001d0: 6f16 98be 8fa2 b23e 03e0 6dbe ae62 83be
000001e0: b7bd 0e3e 6915 afbb c840 82bb 735e ce3d
000001f0: 748b 87bf 0f90 b63d 6266 1b3f e5b1 2b3e
00000200: 7ba6 08be 12a9 953e 2d4e a0bd ef51 973c
00000210: d71a 38be 0d14 d9bd bbed 253d d467 1a3d
00000220: b7cf 413e c290 143e 9903 40be 1be2 6b3e
00000230: a083 be3e 631d 00bf 337b e5bd ccb9 49be
00000240: 9679 463d 105c e2bd 7c84 1b3e 508d f9bc
00000250: be41 0d3e 2e97 6cbe 3e35 b23d dd96 a4be
00000260: 4d37 fc3e bfeb bd3d 0187 1ebe 440c 2ebf
00000270: 06b5 a13e 3766 863d 5a6e 143e bfd0 e0be
00000280: 5a2e 1dbe 2c2c 8f3e a45d 6a3d d710 ffbc
00000290: d406 4e3e 5ca4 1d3d 3559 45be d540 673e
000002a0: e31d bb3d a26b 58bd 807b 86bb d880 31bb
000002b0: 1cdd d23d 7473 50bc e70e a83e 4034 adbe
000002c0: bc25 01bf 780c 453e 2257 683d 68c1 983c
000002d0: 38df e53e 3c61 4abd 0d23 60be a982 c7bd
000002e0: 55c8 323e e166 ea3e 3ede 1d3e 75db 32be
000002f0: 03ff 92bd a175 00bb fa3a 97be 0e1b 103d
00000300: e0ed d6be a334 87be a7c8 e63c 3abb 73be
00000310: 35ce 2ebf 107d 91be 672c 063d 3856 c5be
00000320: 520d 4f3f 00cd efbd b1bf 85be 7683 1cbe
00000330: 23f2 3b3e 7763 debe d2bb 173d 3110 adbe
00000340: f77e 603e 7b0a b8bc ad30 5f3e 36ba 3cbe
00000350: c73e d2be 5418 4fbd 8ea3 903e 267d 34bf
00000360: 5682 a93e a8e7 dcbd 9ee5 443f d912 353d
00000370: 9724 ee3c 308a 5e3e 17c9 1c3e 7d2c f43e
00000380: 4009 5dbf 2808 a73b 21f8 b53d 6e47 a4bc
00000390: 1a1d aa3e 806a 19bd 935d 193d ad82 463f
000003a0: c45e 03bd 5891 943a 624b a8be 96c0 fdbd
000003b0: 5d86 0f3e cebc fc3d ed3d 573e ae6e ca3d
000003c0: f797 2bbe 0b97 f1bc 9e23 06be 75c4 c5be
000003d0: 42e3 6a3d 98e4 a93e 32b0 85be f19a 8ebb
000003e0: 63c5 903e 7db9 9c3e b947 bf3e 0378 413e
000003f0: c5c5 52bf bce1 3f39 ec2a 7f3c b4aa 79bd
0.122169055 -0.22472426 -0.14201277 0.13523425 -0.044640917 0.22361061 -0.09786807 0.21282752
-0.07707563 0.018858712 -0.010669364 -0.03836171 0.012532798 0.23326164 0.07155656 0.1651098
0.15554462 -0.13582517 -0.25989836 -0.050001934 0.1079691 -0.025339691 -0.14882143 -0.0062748515
-0.24505556 0.19935423 -0.18870527 0.32298142 -0.048987426 -0.23852926 -0.08556516 -0.3522189
0.21609958 -0.032173276 -0.05120395 0.17159827 0.077976674 -0.11724925 -0.28030246 -0.24311216
0.12048888 0.092503816 0.21233383 -0.15264393 -0.09685469 0.023219166 -0.18684044 0.036430534
-0.06387368 0.13235945 0.11942431 0.01351605 -0.21176685 -0.036971323 0.10210178 0.07297864
-0.20914286 -0.29175624 0.03945684 0.06343167 0.004066725 -0.019728014 0.14862226 -0.03489581
-0.9348563 -0.97404015 0.15989508 -0.73774725 -0.86707944 -0.45795143 0.054263163 -1.0186763
0.83785367 -0.1867897 0.14132684 -0.23465294 -0.11888997 -0.1943046 0.019486787 0.017399443
-0.26475474 0.380558 0.086191736 -0.47857192 -0.5265382 -0.15288784 0.31988358 -0.6217723
0.64719933 -0.1509297 1.3726267 0.37570706 0.27126592 0.16857831 0.00012841528 0.6813093
-0.9513266 0.037884712 -0.038460527 0.16717081 0.0967004 0.21653882 0.26119244 0.4368535
0.020076217 0.2431581 -0.047210585 -0.15333551 -0.22332986 0.10469931 0.4304536 0.4838343
0.048938937 -0.06538473 0.094913095 -0.72070616 -0.29704615 0.34889647 -0.23229985 -0.25661224
0.13939558 -0.0053431285 -0.0039750077 0.100766085 -1.0589433 0.08914196 0.607031 0.1676708
-0.13344757 0.29230553 -0.07827411 0.018471686 -0.17978989 -0.105995275 0.04050992 0.037696674
0.18926893 0.14508346 -0.18751372 0.23035471 0.37209797 -0.5004484 -0.11205139 -0.19699782
0.048455797 -0.11052716 0.15187258 -0.03046289 0.1379461 -0.23104545 0.087015614 -0.3214635
0.4926094 0.092734806 -0.15481187 -0.67987466 0.31583422 0.06562465 0.14495221 -0.4390926
-0.15349713 0.27963388 0.05721821 -0.03113596 0.20119792 0.038486823 -0.19272311 0.22583325
0.0913656 -0.05283702 -0.004104078 -0.0027084854 0.102960795 -0.012722839 0.3282387 -0.33828926
-0.50448203 0.19243038 0.05672372 0.01864691 0.44896865 -0.049409136 -0.21888371 -0.09741718
0.17459233 0.45781615 0.1541681 -0.17466529 -0.07177546 -0.0019601362 -0.29537183 0.03518205
-0.4197836 -0.26407346 0.02817185 -0.2380189 -0.68283397 -0.28415728 0.03275719 -0.38542342
0.808797 -0.117090225 -0.2612281 -0.15284523 0.18354087 -0.4343526 0.037044354 -0.33801416
0.21923433 -0.022465935 0.21795912 -0.18430409 -0.4106352 -0.05056031 0.28249782 -0.7050346
0.3310725 -0.107863724 0.7691287 0.044207428 0.029070182 0.21732402 0.15311085 0.47690192
-0.8634224 0.005097408 0.088852175 -0.020053592 0.33225328 -0.037455082 0.037442755 0.77543145
-0.032072797 0.001133482 -0.32870013 -0.123902485 0.140161 0.12340699 0.21019717 0.09884392
-0.16757189 -0.029490968 -0.13099524 -0.38626447 0.057345636 0.33182216 -0.2611099 -0.0043519665
0.28275594 0.30610266 0.37359408 0.18893437 -0.8233302 0.00018299272 0.015574198 -0.06095381

linears.1.bias f4 [64]
00000000: 5813 e1bb c1aa 0abe 36c9 27bd 2165 68bd
00000010: a9e7 c2bd 86ee 5cbd 6511 13bf e33b b0bd
00000020: 63b3 17bd 2e75 e3bd 695b 953d 85f3 a93d
00000030: 3182 ac3d 7b66 10bf b5d5 0ebd 099c a9bc
00000040: cfdf 463d b060 37bb eeb9 d33b f689 22bc
00000050: c455 89bc 9eed 17be b51b 00be a06b 15be
00000060: 6097 533d e242 afbb 7be3 103e 277e 553d
00000070: 6b4e 28bd 019b 293b 6ed4 acbd 9f33 c63c
00000080: e30d 483d 388f 463d a46c 163c 57a5 a93c
00000090: a3dd 9cbc 6a78 65be 4bcd 10bd 5355 d93c
000000a0: 99bc 75bc e42a ed3c 202b db3c 8b2a 8fbd
000000b0: 780e 9bbc afb4 d13c 8bd7 afbe de26 4fbd
000000c0: 78ca d6be 552a ec3c b06c 673c 06d9 433d
000000d0: 20eb 1e3d bccd bebd 7d8c 473e 0bf6 9bbb
000000e0: 3c04 593d 8daf e83c 5f9c 583d 5f04 443d
000000f0: 9cb3 0d3c 1bff 5f3d b7dd 14be 383a cc3c
-0.006868761 -0.135417 -0.040963374 -0.05673707 -0.09516842 -0.05393841 -0.57448417 -0.086051725
-0.03703631 -0.111063346 0.07292826 0.08298401 0.084232695 -0.5640637 -0.034871776 -0.020704286
0.048553284 -0.0027981214 0.0064613735 -0.009920588 -0.016764529 -0.14836738 -0.1251057 -0.14591837
0.051658034 -0.005348549 0.14149277 0.05212226 -0.04109041 0.0025879743 -0.08438955 0.024194537
0.04884137 0.048476428 0.009181175 0.020708723 -0.019148653 -0.22409216 -0.035352033 0.026529944
-0.0149985785 0.028951116 0.026753962 -0.06990536 -0.018927798 0.025598852 -0.34344134 -0.050574176
-0.41951346 0.02882878 0.014125034 0.04781439 0.03879845 -0.093165845 0.19487186 -0.004759555
0.052982554 0.028404022 0.052883502 0.04785573 0.008648779 0.054686647 -0.14537703 0.024930105

linears.2.weight f4 [64, 64]
00000000: 3a9a 283e e96e 0ebe 2fe4 2f3d 144d 103e
00000010: 729e 3c3d 1f18 06bb 4359 353c 0e0d b83e
00000020: c692 40be fe6c b33e 477b 40be 0ebc 80be
00000030: cd8f 83bd 6762 38bd f102 e2bd ba0a 83bd
00000040: 8b0a 54bd d852 13be f83d 72be 85b7 f7bd
00000050: a736 2c3d 4959 b83e 77f0 1dbd e4a8 b53c
00000060: 668c 88bd 3624 0f3e 9952 22be 66e2 113e
00000070: 179d b4bd 3dca 883e 4682 453e 2abb d33d
00000080: 13cf 7d3e ee51 bf3d bb7a 28be 721f d2bc
00000090: b07c 1f3e 2143 263e daf5 373e 25e2 94be
000000a0: 9a74 663e bf04 9abd a3cd 8cbd 628a 19be
000000b0: bbf0 08bd c9cf 983d 7fce 14be f6d0 1dbe
000000c0: 5471 50be 7dd4 583d 61dd 503e 7626 a5bc
000000d0: 0706 e2bd e497 8fbd 9f68 dc3e e14d 12be
000000e0: e5de 5dbe ebdb f4bd e7a2 4fbd 501a dd3b
000000f0: 84a8 943e 803a 3bbe 0988 8dbd b48f 7dbe
00000100: 7cf9 5a3e 8c6e ffbd 6d46 debe a116 2d3d
00000110: 365f 34be 967c cfbe 02b9 7e3e 2110 d7bd
00000120: cf99 983c 71c7 9abe 046d d13d 16e1 283e
00000130: 9762 0e3e c381 b7be 602e b1bb e329 963d
00000140: e53b b73e 200f c4be 7513 61be 3469 dcbe
00000150: 9780 32be 9cac 263f e232 08be e283 e3bc
00000160: 13bc aa3e df4f 8fbd 7d77 03be bb7f 92bd
00000170: e8c1 36be d6e6 c53e 4bf7 013d d233 943d
00000180: e435 883e 9744 223e 0219 503c 4098 2d3e
00000190: 7cae 01bf 0f35 da3e 52f3 9bbe 8527 54be
000001a0: 8249 583b 68f7 fbbc 038b fb3e 2763 97be
000001b0: 15cb bcbd f832 0fbe 718d e0bd 0353 43be
000001c0: 57ce f2be 21df b93e 2e06 163f 4f88 97be
000001d0: b46d c73d 713f 5fbd 70b8 103f bbd2 b03e
000001e0: 364d 4ebd 544d 703d 9820 9fbe 9586 a2bd
000001f0: eb48 0e3e 1aa4 ab3e 18b5 e83e d161 c0be
00000200: 166c 453b 4be7 7abc 4fc0 1c3e 93e9 2ebd
00000210: 1b98 913e 2e9a 1bbe 4256 033f bf60 063f
00000220: aabf 603e a5a4 023f 64ce 0cbe 99b5 98bd
00000230: 4964 133e 8d03 99be 0406 b83e b0f2 023e
00000240: 3791 a83e a16d d23d 7139 903e d4dc 953d
00000250: a4a2 a6bc 56b0 353f 10c3 123e 53d4 973e
00000260: 1fe5 bdbe 1992 edbd 6fc3 18bf abc4 46be
00000270: 80d2 3a3e c5b9 bf3c 7e9a a7bc 3877 723d
00000280: 733a 94be 640c 183d ff91 813d e1e9 50bc
00000290: 0b5e 463e 7954 713f 3c75 50bc 37c0 30bd
000002a0: 623d 703e 42fe 2fbe 8b17 0e3f 2ce6 b63d
000002b0: eb0e 933e f6e1 94bd 2a26 efbd f1a4 253e
000002c0: 7def 73be 6674 2bbe b2ed 9a3e d649 0b3f
000002d0: 7137 a13e 932e b13e b0ad a9be ea18 94be
000002e0: e9bd 8bbe 9b5b b7be f5b7 b7be 6344 79be
000002f0: d7ce 0c3e 11c6 4cbe 344f 743e 93ce b3be
00000300: 4096 a7bd 889a 76bd 10cf df3d 0a22 29be
00000310: 2888 c53d 547a 943e 0295 6c3e b275 2a3f
00000320: 6069 473e 4d38 9e3e 6e76 23be 9270 edbe
00000330: 2352 703b 7f5d efbe d665 b93e 165c 723e
00000340: 59bd 9c3e 13c0 acbe 9917 dc3e 33ba db3e
00000350: a306 c4be 4ecf ae3e d269 c53d 5933 473e
00000360: 6b8a cabd 16a5 ffbd 48ec e3be b32b da3b
00000370: 0686 2d3c 13eb 473e 0be2 843e 4701 5dbe
00000380: 963f 623e 2ff1 9dbe 45fe 84be 5ad9 993e
00000390: 3ae7 f83e 9e87 4c3f 18ff d23d 0508 1d3e
000003a0: 4fe9 013e 12cb a0bd 680c e43e 4705 3e3d
000003b0: 453c f73e 6d41 05bd 4506 c2bd 14e2 ca3e
000003c0: 27cd 00bf 271c b1be 332d de3e 6041 413f
000003d0: 5078 b53e 7247 af3e 8ccf 693e f1e0 b0be
000003e0: 250f 58be 6236 4cbe c9b8 b73d fb70 37bd
000003f0: e343 223e 357a 1fbe e427 0c3f bf84 74be
0.16465083 -0.13909496 0.042942222 0.14091903 0.046049543 -0.0020461155 0.011068645 0.3594746
-0.1880599 0.35044092 -0.18797027 -0.25143474 -0.06423912 -0.04501572 -0.11035717 -0.0639853
-0.051767867 -0.14387071 -0.23656452 -0.120955504 0.042044308 0.3600562 -0.038559403 0.02217526
-0.06667404 0.13978657 -0.15851821 0.1424652 -0.08819025 0.26716796 0.19287977 0.10338433
0.24786024 0.09341799 -0.16453068 -0.02564976 0.15574908 0.16236545 0.17964879 -0.29078785
0.22505417 -0.075204365 -0.068751596 -0.14994195 -0.033432703 0.07461507 -0.14531897 -0.15411744
-0.20355731 0.05293702 0.2039695 -0.020159941 -0.11036306 -0.07011393 0.4304857 -0.14287521
-0.21667059 -0.119560085 -0.050692465 0.0067475215 0.29034817 -0.18284035 -0.06910712 -0.2476185
0.21384233 -0.12472257 -0.43413106 0.04225791 -0.17614445 -0.4052474 0.24875262 -0.10501123
0.01862803 -0.30230287 0.10225871 0.16492113 0.13904797 -0.35841188 -0.0054071397 0.07332208
0.35787883 -0.3829279 -0.21980079 -0.43049014 -0.17431866 0.6510713 -0.1330066 -0.027772848
0.33346614 -0.06997656 -0.1283855 -0.07153269 -0.17847407 0.38652676 0.031729978 0.072364464
0.26603615 0.15846477 0.012701275 0.1695261 -0.5065687 0.42618605 -0.30459076 -0.207182
0.0033002798 -0.03075762 0.49129495 -0.29567835 -0.09218422 -0.13984287 -0.10964478 -0.19074635
-0.4742305 0.36303046 0.5860318 -0.29596183 0.09737721 -0.05450386 0.5653143 0.34535775
-0.050366603 0.058667496 -0.31079555 -0.07935826 0.13895003 0.33523637 0.45450664 -0.37574628
0.0030124239 -0.015313934 0.15307735 -0.042703222 0.2843636 -0.15195534 0.51303494 0.5249137
0.21948114 0.5103248 -0.13750607 -0.07456512 0.14393725 -0.29885522 0.3594209 0.1278789
0.3292329 0.10274816 0.28168824 0.0731751 -0.020341225 0.7097219 0.14332223 0.29654178
-0.37088868 -0.116001315 -0.5967321 -0.1941096 0.18244362 0.023404012 -0.02045941 0.059195727
-0.28950843 0.03712119 0.06326675 -0.012751074 0.19371812 0.9426952 -0.012723263 -0.04315206
0.23460916 -0.17186835 0.55504674 0.089306206 0.2872232 -0.07269661 -0.11677201 0.16176201
-0.23821826 -0.16743621 0.30259472 0.5440954 0.3148761 0.34605846 -0.33140326 -0.28925258
-0.27293327 -0.35812077 -0.35882536 -0.24342494 0.13750778 -0.19997431 0.23858339 -0.3511854
-0.08182955 -0.060205966 0.10928166 -0.16516891 0.0964511 0.2899958 0.23103717 0.6658584
0.19473791 0.3090233 -0.15963146 -0.46374947 0.003667005 -0.4675102 0.36210507 0.2366794
0.3061321 -0.3374029 0.42986754 0.42915496 -0.38286313 0.34142536 0.09639324 0.19453181
-0.098896824 -0.124826595 -0.44516206 0.0066580414 0.010591036 0.19523267 0.25953707 -0.21582519
0.22094569 -0.3084807 -0.25975242 0.3004864 0.48613912 0.79894435 0.103025615 0.1533509
0.12686656 -0.078512326 0.44540715 0.04639175 0.4828817 -0.032533098 -0.09473852 0.3962561
-0.5031304 -0.3459179 0.4339386 0.7549038 0.35443354 0.34234196 0.22833079 -0.34546617
-0.21099527 -0.1994262 0.08970792 -0.04478548 0.15846209 -0.15573962 0.5474837 -0.23878764

linears.2.bias f4 [64]
00000000: 59a9 d7bc e681 5d3d c731 7cbd 2139 62bd
00000010: 7b03 0bbd 9051 d83c e748 2ebd cabc b93d
00000020: 0e08 42bd 8869 2bbd 66ae 103d bcd4 0c3a
00000030: 06fb 313d 55b3 25bd d7d3 ed3c 46b4 af3d
00000040: 7996 23bd 8b31 4a3d 80cc 7e3b 6a59 453d
00000050: 7774 403d 4f65 223d 6c5c 893d eb06 46bd
00000060: 7ca3 5bbd 5b2b 503d 3ae3 e1bd 4399 913d
00000070: ad11 01bd 3a75 4abd e371 613d 3691 11be
00000080: d2d1 81bc 8040 19bd 8484 db3c 6eca 7fbb
00000090: 9664 623d 0183 2fbd dbdf 403d 1885 55bd
000000a0: a597 1f3d f781 db3b d4f7 20bd 7eaa 343d
000000b0: dedc 433d 05cc 693d febb 8f3c d341 eabc
000000c0: 5d4f 26bd 0929 363d fe5a 82ba 6a51 93bd
000000d0: bbbe 6d3d 128f 52bc e195 37bb 5be1 44bd
000000e0: f08c 823c 0c72 013d 2b2a edbc 8701 5f3d
000000f0: 97bb b73d 4a10 073e 5594 323d 06dd f33c
-0.026325868 0.05407896 -0.06157091 -0.055230264 -0.033938866 0.02640608 -0.042549994 0.09069212
-0.047370963 -0.04184869 0.03532257 0.0005372276 0.043452285 -0.040454227 0.029031677 0.08579306
-0.039938424 0.049363654 0.0038879216 0.048180975 0.04698607 0.039647397 0.06707081 -0.04834644
-0.053622708 0.050822597 -0.11029668 0.071093105 -0.031510998 -0.049428202 0.05504025 -0.1421555
-0.01584712 -0.037415028 0.026796587 -0.003903057 0.055271707 -0.042849544 0.047088485 -0.05212888
0.03896298 0.0066988426 -0.039298847 0.044107907 0.047818057 0.057079334 0.017545696 -0.02859584
-0.04060303 0.044472728 -0.0009945331 -0.07193263 0.058043223 -0.012851493 -0.0028012919 -0.04806648
0.015936345 0.031602904 -0.028950771 0.054444816 0.08971327 0.13189808 0.04359849 0.029768478

linears.3.weight f4 [1, 64]
00000000: a666 df3e 513e 6c3f 8612 e93e 6dda dc3e
00000010: 9b5b d83e bd51 1d3f d95d 2b3f 5759 cfbe
00000020: e9e0 dc3e 447d ac3d 366c 9bbe e420 95be
00000030: b9c9 89be cf79 863e 3177 49be 45ad 933f
00000040: 4596 e33e 2d77 9cbe 7a9f 42bf ecaf a7be
00000050: e60e 98be a888 02bf d229 08bf 9dde a33e
00000060: 1b98 a03e 4472 52be c764 f73e 4300 12bf
00000070: c7a9 b63e 7405 ee3d 597f 9fbe 6cbe 083f
00000080: 48f3 4e3e 22d9 c13e ed89 0bbf 9be6 cd3e
00000090: cf32 e1be a21b 023f ec72 9dbe e799 0b3f
000000a0: be37 f8be f560 d1be da6d 8d3e b58d 7ebe
000000b0: d5c2 5bbe 76a9 90be 5dee 26bf 342c cd3e
000000c0: 9fc9 1e3e 4045 4bbe 1663 bdbe c431 643e
000000d0: f419 05bf 719b 6b3e 2485 adbe f19a 463e
000000e0: b8c9 27be 8012 9cbe d581 cd3e ecae 6cbe
000000f0: 4753 2fbf 3f97 7e3f 262a 84be d98b a9be
0.43633002 0.9228259 0.45521945 0.43135396 0.4225739 0.6145285 0.66940075 -0.40497848
0.43140343 0.0842233 -0.30355996 -0.29126656 -0.26911715 0.26264808 -0.19674374 1.1537253
0.44450584 -0.30559674 -0.7602459 -0.32751405 -0.29698867 -0.5098977 -0.5318881 0.32005778
0.31366047 -0.20551401 0.48319075 -0.5703165 0.35676405 0.11622134 -0.31151846 0.5341556
0.20209992 0.37860972 -0.54507333 0.40215 -0.43984076 0.50823414 -0.3075174 0.5453171
-0.48480028 -0.40894285 0.27622873 -0.24858744 -0.21461041 -0.28254288 -0.65207464 0.40072787
0.155066 -0.19850636 -0.3698966 0.22284609 -0.51992726 0.23008515 -0.3389064 0.19395043
-0.16385543 -0.30482864 0.40138116 -0.23113602 -0.68486446 0.99449533 -0.25813407 -0.33114508
