Complete_thesis_stage_1_and_2/(d).Code_and_all_other_details/WAAM/PINN_CONSTANT_PROP/Sequential_trail_1/Models/model_epoch_49000.pt (torch, 38264 bytes, 7 tensors)

linears.0.weight f4 [64, 4]
00000000: 518b 3dbe 4cea 68bd 2ba3 4c3d 4e49 f93e
00000010: 73f0 1b3f a1aa 06bf bcc0 02bf 676d 2dbe
00000020: 5a90 3c3c c87b c23d 4a9f dd3d e771 24be
00000030: cea4 983e 3176 133f ab43 693e 9c9a 153e
00000040: a585 5d3e fd71 eabe be40 a43d e412 af3e
00000050: 35ec ac3e 7d71 8fbe cf27 0d3e 9dfb 4a3e
00000060: 9a2d db3e 038a 7cbf 9603 7cbe fcb6 9bbe
00000070: 585c 453f 8b7b 8bbe b281 8a3d 0bfe d33e
00000080: 5223 2fbd ca8f 53be 850d b53c 90f1 f5be
00000090: 11ca b6bc 5af5 b93e ce04 88bd f8b2 2d3e
000000a0: ae9f 84be 227c e9bd 1935 3d3e 4193 943e
000000b0: 0d55 ba3e 0010 d8be 06d2 0d3e c180 e4bd
000000c0: e188 4e3e 4414 573f f25f 09be 9679 00be
000000d0: ec7b 26bf 020c 453f 33dc d6bc eef8 c53e
000000e0: 008c e1be 9e1f 18bd b450 523e 1a35 f73d
000000f0: d6c5 7bbe 1ec0 db3e b591 10bd 7b21 cc3e
00000100: be25 a93e afbb 2c3e 6609 8e3e 0268 1cbe
00000110: 8afc 80be 522b 9dbe 7db8 f1bd bd7c 6bbe
00000120: de09 6bbe 9b15 9d3e 0c9e 9bbe e5b9 a8be
00000130: 37b4 8b3e 33ae b3be 3a4e e73d 44fa 8a3e
00000140: 6a67 7e3e 8192 bb3d 6fdf 803d 3878 b43e
00000150: ef25 52bf 516d 033e c44a 193f 8f15 8a3e
00000160: f8a9 80be 2a45 90be 7ff0 e5ba 5a3b a1be
00000170: 03e1 82be d25b c7be 1fd1 16bd 3c84 0f3f
00000180: 75f7 623e 031c 983b edbd 1e3c d132 c8be
00000190: 2982 a63d 76e4 873e 7338 b0bd 6e84 f53d
000001a0: 8ad1 0fbf 2d1f 65bd 48a4 ce3e e243 b0be
000001b0: 9de8 e5be 5447 aebb 88b5 a43d 6aac 9b3e
000001c0: 8b7e c03e 637a a1be a373 4c3e 0d0d a9be
000001d0: 790c 903e 8891 0c3e 2dbf 823d dce9 92be
000001e0: a541 1fbe d30b 30be 94e4 a1be 0c99 bbbe
000001f0: 35d2 2ebf 24cb 70be d263 52bf 4bcd 0d3f
00000200: 0ac3 d9bd c817 d3bd aebc 823c 46e7 253f
00000210: 65c1 bc3e 1dac 63bd 0b52 463e 405f 83be
00000220: ddf1 f33d 9708 183d c5a9 71be 198a 9bbd
00000230: cdd5 793e ea98 4abd bdf4 6e3e 61ed 83be
00000240: ec70 1f3f 2eaa 833f 219c a5be 2eff a0be
00000250: 2640 f5bd f56a 91ba e7f8 e13d f733 a3bd
00000260: 37d9 80be 0020 3a3c de60 9bbe 5274 90be
00000270: 08ff 223f 6376 b9be b6f4 dd3d 6f7c 2fbf
00000280: 3ea4 8b3e 815a 9bbe 83b6 963c 5c8b a5be
00000290: 9bda cf3d 4f2c 6b3c d640 6b3e 99cd 9dbd
000002a0: 7ed5 d1be f80d 8dbe da90 c9bd cbf7 dc3e
000002b0: a62d 33bc d56d a73e 2bf9 a7bd 163a 963e
000002c0: 8a4e 793e 3329 8e3e 6c31 b93c 8cd3 3cbe
000002d0: 62ac 6bbe 8004 5b3d 9533 263e dd9c bf3d
000002e0: 5d75 0d3e 4cbc 80bd 186f 1abe aaaf 12be
000002f0: 193c c2be 1c10 dc3c 3f75 b6bd 0317 8cbe
00000300: f4ec cebe 7600 05be 277e 54be ca46 493e
00000310: 72fa 04be 82f0 a33e 7e11 51be 6274 4a3e
00000320: cf98 a33d 0be6 1b3f 77ea 98be 57ed 2f3e
00000330: c1c6 ab3e d5dc 833f 66c1 d13e d8fb 953e
00000340: bc66 813e 7eeb fbbb 3149 163d 9828 e1bd
00000350: 81ec 803e f342 32bf e128 5a3d 0555 babe
00000360: 49d7 b4be bce1 62be d9c3 3bbe 7762 9c3e
00000370: 4035 0fbe 7dbe e1bd 06b4 6fbe 47df a93d
00000380: 3ab4 723e 821b 183d 3fa0 37be 346c b3be
00000390: 7201 d13e 560b ecbd bfdc 5bbe 71bb 81be
000003a0: d28e bf3e 18ca ee3e a22d 19bd 5464 ccbe
000003b0: 4918 39be bfbe b53f d018 bbbd 0bf0 e4bc
000003c0: 39de 623d f354 bbbb 6f89 edbd 6e7e 013f
000003d0: 71f2 303f 212d 18bb 8ee5 133c 05ed 263e
000003e0: 3667 ecbe 80b2 99bd 8911 01be 6399 0ebc
000003f0: 194a dc3e 17f4 b43f e292 1dbe 47cd c5be
-0.18510176 -0.056864068 0.049960297 0.4868874 0.6091377 -0.5260411 -0.5107534 -0.16936265
0.0115090255 0.09496266 0.108213976 -0.16059075 0.29813236 0.5760222 0.2277972 0.1460976
0.21633013 -0.4579009 0.08020161 0.341941 0.33773962 -0.28016272 0.13784717 0.19822545
0.4280823 -0.9864809 -0.24610743 -0.30413043 0.7709403 -0.27242693 0.06763019 0.41404757
-0.042758293 -0.2066032 0.022101173 -0.4803586 -0.02231315 0.3632 -0.066415414 0.16962802
-0.25903076 -0.114006296 0.18477286 0.29018596 0.36393014 -0.42199707 0.13849649 -0.1115737
0.20169403 0.840153 -0.13415506 -0.12546381 -0.6503284 0.7697145 -0.026228046 0.3866648
-0.44052124 -0.037139527 0.20538598 0.12070675 -0.24587187 0.4292001 -0.035295207 0.39869294
0.33036608 0.1686847 0.27741545 -0.15274051 -0.25192672 -0.30697113 -0.118027665 -0.22996803
-0.22952983 0.30680546 -0.30394018 -0.32954326 0.2728593 -0.3509384 0.112942174 0.27144063
0.24844137 0.09158803 0.062926166 0.3524797 -0.8208913 0.1283467 0.5987971 0.26969573
-0.25129676 -0.28177768 -0.0017542987 -0.31490594 -0.25562295 -0.3893724 -0.036820527 0.5606115
0.2216471 0.004642011 0.0096888365 -0.3910127 0.08130295 0.2654149 -0.08604517 0.119881496
-0.56179106 -0.055937935 0.40359712 -0.3442679 -0.44904032 -0.0053185616 0.08042437 0.3040498
0.37596545 -0.31538686 0.19965987 -0.3301777 0.28134516 0.13727391 0.0638412 -0.28694046
-0.15552385 -0.1719201 -0.31619704 -0.36640203 -0.682895 -0.23514992 -0.82183564 0.5539138
-0.10632904 -0.1030727 0.01595911 0.6480602 0.36866298 -0.055584062 0.19367234 -0.25658607
0.11911366 0.037117567 -0.23599918 -0.075946994 0.24397965 -0.049462236 0.23335548 -0.25767043
0.6228168 1.028631 -0.3234568 -0.31444687 -0.11975126 -0.0011094498 0.110338025 -0.07968896
-0.25165722 0.011360168 -0.3034734 -0.28213745 0.63670397 -0.36223134 0.108376905 -0.68549246
0.27273744 -0.30342487 0.018397575 -0.32332885 0.101491176 0.014353826 0.22973952 -0.0770523
-0.40983194 -0.2754972 -0.09842081 0.431578 -0.010936176 0.32700983 -0.08201822 0.2934119
0.24346367 0.27765808 0.022606574 -0.18440074 -0.23014978 0.05347109 0.16230614 0.09356091
0.13814302 -0.06285915 -0.15081441 -0.14324823 -0.37936476 0.02686315 -0.08909082 -0.27361307
-0.40415156 -0.12988457 -0.20751248 0.1965591 -0.12986162 0.3201943 -0.20416829 0.19770959
0.0798813 0.6089789 -0.29866382 0.17180382 0.33550075 1.0301768 0.40967864 0.29293704
0.25273693 -0.007687985 0.036690895 -0.10994071 0.25180438 -0.69633406 0.05326164 -0.3639299
-0.353205 -0.22156423 -0.18336429 0.30543873 -0.13985157 -0.11022661 -0.23408517 0.0829454
0.23701563 0.03713561 -0.17932223 -0.3504349 0.40821415 -0.115256 -0.21470927 -0.2533832
0.3741365 0.4663856 -0.037397034 -0.39920294 -0.1807567 1.4198836 -0.09135592 -0.027946493
0.05538771 -0.005716914 -0.11598479 0.5058354 0.69119936 -0.0023220258 0.009026898 0.16301353
-0.46172494 -0.07504749 -0.12604345 -0.008703562 0.43025282 1.413699 -0.15388063 -0.38633177

linears.0.bias f4 [64]
00000000: f00b 8e3e 3a18 4a3f bbc5 9b3c ac6b 223e
00000010: 3f70 ae3e 3479 653e 871d 293e f6b0 743f
00000020: 9db5 07bf b36a 053b 9086 ecbc 6db7 dc3d
00000030: e248 a23e cdae ea3d a5e8 64bc 5624 c93c
00000040: 4d07 d93d f8cf a4be 9a34 06be b464 5f3e
00000050: d0cc bc3e ccd3 0a3e ffe6 83be fcdc b53e
00000060: 0dc8 ddbe 2569 3a3d 206e 95bf 4e68 5abd
00000070: 3d24 cabc 9869 f4b9 d928 bebc 9a7e ce3d
00000080: e3de 073f a31d 373e df5b 923c 6cc4 643d
00000090: d816 f1bd a5c7 aabc 051c c9bd ec85 62be
000000a0: 1995 0c3d 8e69 323d a654 da3d 084e a7ba
000000b0: 05f4 e93d 722b da3d 0ae9 39be 6bcb 83be
000000c0: 9e50 54bd c281 813c 9cfb 743d f758 7d3e
000000d0: ffe5 123e 6af6 afbd 265d e8bb e26f 01bd
000000e0: 6df6 81bd 58f3 85bd de1f 263d 62a0 a1be
000000f0: 4ad1 273f 7c59 aa3d eeee 20be b50a b3bd
0.27743483 0.78943217 0.019015184 0.15861386 0.34070012 0.22409517 0.1651517 0.9558252
-0.53011495 0.0020357787 -0.028872758 0.10777173 0.3169623 0.11459122 -0.013971482 0.02455346
0.10597096 -0.32189918 -0.13106003 0.21815759 0.3687501 0.13557357 -0.25762174 0.3552016
-0.4331669 0.04551043 -1.1674232 -0.05332213 -0.024675483 -0.0004661798 -0.023212837 0.10082741
0.53074473 0.178824 0.017866073 0.055851385 -0.11771935 -0.020847151 -0.098197974 -0.221214
0.034321878 0.043557696 0.10660677 -0.0012764344 0.11423496 0.10652818 -0.18155304 -0.25741133
-0.051834695 0.015808944 0.059810266 0.24740969 0.14345549 -0.08591922 -0.0070911823 -0.03160084
-0.0634583 -0.06540555 0.040557735 -0.31567675 0.65553725 0.08317849 -0.15716144 -0.087422766

linears.1.weight f4 [64, 64]
00000000: dd56 f93d 9876 58be d1d6 13be 9a37 e53d
00000010: 56c9 61bd e06e 4d3e f145 afbd a270 5b3e
00000020: 053e a9bd cca2 bd3c 8579 01bd 076b 60bd
00000030: 460e a53c fe49 813e 8ca3 8b3d 67d2 2c3e
00000040: 6f2a 133e a10c 01be 4a96 60be c492 b5bd
00000050: 6b32 cb3d c0b8 f0bc e947 02be 8cf1 523b
00000060: 71b6 7fbe 12cd 4f3e fa8d 50be 8515 a53e
00000070: be12 8dbd e6e9 7cbe 471a 87ba 6ac6 aabe
00000080: fd76 613e 68f1 22bd 3210 1ebd 5c5b 263e
00000090: 77c0 a73d 0f47 f5bd 28f1 71be b7dc b9be
000000a0: 0576 eb3d 479c a63d 041b 713e f1ce 1bbe
000000b0: ff3c c7bd 8185 a53c 5552 3bbe d593 903d
000000c0: 4a52 34bd cdfe 133e bc52 043e 8fc8 babb
000000d0: cbf9 5fbe b78d 51bd 1ab8 ea3d bb7e ae3d
000000e0: 08b3 47be 7b12 93be 66d2 5b3d f513 803d
000000f0: 2b26 643c 8418 19bd c69c 3c3e c679 11bd
00000100: 3c94 a2bf d668 80bf 192d 243e a463 62bf
00000110: fedc 66bf d192 f7be d5fb 803d 750e fabf
00000120: bbc4 d93f d85f 4cbe dc13 093e c22d 64be
00000130: 6e0d 15be 3454 62be eb33 b43c f2ee 9eb9
00000140: 24bb 8cbe 40a5 233f e4be de3d b77a fabe
00000150: 2c0f 13bf 58a8 18be 5333 af3e cb55 3cbf
00000160: 9b61 2c3f dde0 25be aa42 c53f 0229 c03e
00000170: 0d04 923e 30a9 2c3e 2e32 c13c 7fca 2e3f
00000180: b9c0 5ec0 b3d9 0e3d 796b 20bd b861 2b3e
00000190: 7119 a23d 5f37 613e b209 963e 6310 083f
000001a0: cecb 0f3d ce5f 773e ca6e 67bd ef09 26be
000001b0: 7e99 73be 64a5 d13d fc07 e03e 8a64 003f
000001c0: 1199 853d e2d5 99bd 6eec a13d fd4f 93bf
000001d0: 1284 9ebe fffa c73e 77a8 69be b6d6 80be
000001e0: bf96 2f3e 348f 45bb 2765 61bc cbca 813d
000001f0: 0e49 d2bf 6a4a b33d 32b2 223f b5da f53d
00000200: b539 0abe 6334 9b3e 60c7 8ebd b380 a83c
00000210: a22e 36be af26 d5bd fefb 673d aed7 263d
00000220: ceb0 3d3e 67ae 173e c38b 4ebe 78dd 6c3e
00000230: 6dee c33e c68b 04bf 97a5 f5bd 7880 69be
00000240: 736f 513d 347e e7bd ae12 1c3e f8b2 e5bc
00000250: 5992 103e d03c 6bbe ff50 a93d 983c a5be
00000260: 02cd fb3e d44c ec3d eb54 2abe 2b18 4fbf
00000270: bb08 a33e e129 de3d 7c6a 163e 0d1d e2be
00000280: 4e8e 1abe 5023 913e 0ed7 803d d303 dfbc
00000290: 0cbb 543e acbd 193d da94 44be bdc0 6d3e
000002a0: c9b9 f93d 4144 57bd 74ca 23bd f27c 3dbc
000002b0: d623 f03d 5084 6cbc 977c a83e 2de0 aebe
000002c0: a852 02bf 7ad0 463e 20c5 863d 1a87 9d3c
000002d0: 5fd7 e83e 7ca2 4dbd 39a4 6abe 73e0 c9bd
000002e0: 8524 3a3e 5c15 ed3e 090a 953e ec10 38be
000002f0: 8654 88bd 8736 0d3c 3ef8 98be 1c5e 0e3d
00000300: 0e6f cebf b229 96be 0c45 603d 507d 1dbe
00000310: 4ef6 4fbf 3fd8 adbe 1b0a 88bd ce22 0bbf
00000320: a302 a03f 5dc6 09be 93d8 96be 73a6 17be
00000330: b59a 663e 64d2 d5be c48b 533d 9425 bbbe
00000340: 92bb 803e c098 3abd 9939 8b3e c8ab 6cbe
00000350: 0a22 ecbe 81b6 02bd a1ec 9c3e 6bab d2bf
00000360: e827 b13e 66b6 00be 2442 563f 5f3f c23c
00000370: dbd2 823d ff4a 8b3e 613b 333e be29 e53e
00000380: a9ef b4bf d244 fb3c 6c1c 903d 2093 f63b
00000390: 9ddf a03e ae4b 82bc 4c4a 853d 7485 683f
000003a0: c040 03bb 473a db3c c697 dabe 8eba 14be
000003b0: fbf9 3b3e a1e5 0d3e b448 4a3e 5186 023e
000003c0: 5054 67be 63a7 5cbd 67bc 1ebe c2cc 27be
000003d0: 047a b23d 14f1 b53e 546c 9dbe 71a3 0dbd
000003e0: d046 a83e 171f 963e 7b07 eb3e 4b86 433e
000003f0: efc1 85bf d392 56bc 387d 3d3c 3e37 4dbd
0.12174771 -0.2113899 -0.14437415 0.11192246 -0.05512365 0.20061827 -0.08558262 0.21429685
-0.082637824 0.023148917 -0.03161003 -0.05478957 0.020148408 0.25251764 0.068183035 0.16877137
0.14371656 -0.12602474 -0.2193233 -0.08865884 0.09921726 -0.02938497 -0.12722744 0.003218743
-0.2497194 0.20293072 -0.2036666 0.3224298 -0.068883404 -0.246986 -0.0010307514 -0.33354503
0.22018047 -0.039781004 -0.038589664 0.16245788 0.08191007 -0.11976444 -0.2362715 -0.36301205
0.1149712 0.08135276 0.23545462 -0.1521566 -0.09728431 0.020205261 -0.18293126 0.07059447
-0.04402379 0.14452668 0.12922186 -0.005700178 -0.21872632 -0.05116054 0.11460896 0.08520266
-0.19501889 -0.28725037 0.05366745 0.062538065 0.013925116 -0.037376896 0.1841918 -0.035516523
-1.2701488 -1.0031993 0.16032828 -0.8843329 -0.9018096 -0.483542 0.06298033 -1.9535662
1.7013162 -0.19958436 0.13386482 -0.2228308 -0.14555904 -0.22102433 0.021997413 -0.00030314137
-0.27486527 0.63924026 0.10876253 -0.4892175 -0.57445025 -0.14907968 0.34218845 -0.7356841
0.67336434 -0.1619906 1.5410969 0.37531286 0.28518716 0.16861415 0.023583498 0.68277735
-3.4805129 0.034875583 -0.039164994 0.16736495 0.07915009 0.21993779 0.29304272 0.53150004
0.035106473 0.2415764 -0.05650214 -0.16214727 -0.23789021 0.10236624 0.43756092 0.5015341
0.06523336 -0.07511498 0.079064235 -1.1508785 -0.30960137 0.39058682 -0.2281817 -0.2516381
0.17147349 -0.003014517 -0.013757027 0.06337508 -1.6428545 0.08754428 0.63553154 0.12004606
-0.13498576 0.30313405 -0.069716215 0.020569181 -0.17791227 -0.10407769 0.056636803 0.040733032
0.18524477 0.14812623 -0.20170502 0.23131359 0.38267842 -0.5177578 -0.119944744 -0.22802913
0.051131677 -0.11303368 0.152415 -0.02803944 0.14118327 -0.22972417 0.08267402 -0.32272792
0.49179846 0.11538091 -0.16633956 -0.8089625 0.31842598 0.108478315 0.14689058 -0.4416279
-0.15093347 0.28347254 0.062910184 -0.027223503 0.20774478 0.0375344 -0.19197407 0.23218055
0.12193639 -0.052555326 -0.039987996 -0.011565434 0.11725585 -0.014435843 0.32907555 -0.34155408
-0.50907373 0.19415465 0.06580567 0.01922946 0.45476815 -0.050203785 -0.22914208 -0.098572634
0.18177994 0.46305358 0.2910922 -0.17975205 -0.066567466 0.008618957 -0.29876894 0.03475772
-1.6127641 -0.29328686 0.05475335 -0.15379834 -0.81235206 -0.33954045 -0.066425525 -0.5434998
1.2500805 -0.13454576 -0.29462108 -0.14809589 0.22519954 -0.41762078 0.051646963 -0.36552107
0.25143105 -0.04555583 0.2719238 -0.23112404 -0.4611972 -0.03191233 0.30649284 -1.6458563
0.3460076 -0.1256958 0.8369467 0.023711858 0.06387874 0.27205655 0.1750312 0.4475841
-1.4135638 0.030672465 0.07036671 0.007524863 0.31420603 -0.015905228 0.06508312 0.90828633
-0.0020027608 0.026761187 -0.4269392 -0.1452429 0.18357079 0.13857128 0.19754297 0.1274655
-0.22590756 -0.05387057 -0.15501557 -0.16386703 0.08714679 0.3553549 -0.3074671 -0.034579698
0.32866526 0.29320595 0.45904145 0.19094197 -1.0449809 -0.013096529 0.011565499 -0.05010151

linears.1.bias f4 [64]
00000000: 1dbf aabb 6238 11be f6f7 19bd e570 32bd
00000010: c1f1 ccbd f264 08be c015 18bf 37be babd
00000020: 43ef 21bd 10ef ecbd 6e25 a13d 3bb3 b43d
00000030: 33f3 c33d 6da1 12bf a6dd 24bd 7d8f f1bc
00000040: aa5b 663d 9a12 00bb cd1d e13b 0325 4ebc
00000050: ad05 333c 34ea 18be 861b 01be 2ddd 18be
00000060: d631 5d3d 6383 94bc 4801 153e 396b 423d
00000070: f36c 2fbd 1b55 8fba 108e c5bd e030 e03c
00000080: 56f1 633d 5b25 573d 5b6a 543c 6429 883c
00000090: 9b52 bbbc 809b 66be 1cc6 20bd e5b5 bd3c
000000a0: 6975 e1bc 270e 193d d95f d33c d074 a6bd
000000b0: 0134 b1bc 8cac de3c 2845 afbe 70f4 5cbd
000000c0: 1e3d d3be 0cf1 b53c 51c2 6e3c 0ce0 413d
000000d0: 7e10 513d 2d7d c4bd 9740 533e 204f ddba
000000e0: d654 793d a487 2f3c 2dc5 873d 907e 533d
000000f0: 410d 1e3c a967 1f3e 99d5 21be 23a9 2e3d
-0.0052107708 -0.14181665 -0.03758999 -0.043564696 -0.100070484 -0.13319758 -0.5940819 -0.09118312
-0.03953482 -0.11569035 0.07868467 0.08823248 0.09567871 -0.57277566 -0.040250443 -0.029487366
0.05623976 -0.0019542337 0.0068700076 -0.0125820665 0.010926646 -0.14933091 -0.12608156 -0.14928122
0.054002605 -0.018129056 0.1455127 0.047465537 -0.04282851 -0.0010935398 -0.09646237 0.027367055
0.055650078 0.05252586 0.01296481 0.0166213 -0.022866538 -0.22520256 -0.03925143 0.023158023
-0.027521806 0.037367012 0.02580254 -0.08127749 -0.021631243 0.027181886 -0.3423245 -0.05394405
-0.41257566 0.022209667 0.014572696 0.04733281 0.05104112 -0.09594188 0.20630108 -0.0016884543
0.06087192 0.010713492 0.06629405 0.05163437 0.009646715 0.15566887 -0.15804137 0.04264177

linears.2.weight f4 [64, 64]
00000000: 95b7 1a3e 69c4 10be 9816 b9bc 17a1 193e
00000010: 0489 5d3d af4a 2e3c e437 143c 1f37 ba3e
00000020: 1519 59be a23e b63e ff60 48be 6de3 84be
00000030: 5fad 8ebd a499 47bd 7803 d3bd a430 9ebd
00000040: 5b82 72bd bce9 07be 95f0 6ebe 63f9 f8bd
00000050: 9689 52bc 404f aa3e 880f 22bd d48b 073d
00000060: 5b5c 87bd cc9f 043e cb47 24be ed0c 063e
00000070: 025e c2bd bf98 893e f825 3c3e d46c 103e
00000080: 796b 953e a83f c13d 8c98 1bbe 480a cdbc
00000090: 1c5f f13d 4f3b 283e 0189 513e d5df a8be
000000a0: 7e95 5d3e e8e5 96bd 8417 cebd be29 15be
000000b0: 3c0c 0abe 451c a93d 1fe8 0bbe cbc9 12be
000000c0: e5e5 50be 93b5 633e 2e42 1d3e 01a4 30bd
000000d0: 30ea cabd 2d62 7bbd 790b e23e 7a3d 26be
000000e0: a771 60be df68 02be 17bd 0ebd 50ae 453c
000000f0: 870a 7e3e 3da5 91be c4bd 75bd 77ed 78be
00000100: b654 8f3e ab0e 36bd 73f3 ebbe 2533 853d
00000110: cd84 57be 2adb cbbe 80aa 6d3e ae9b 26be
00000120: 7a9a 4cbe ad01 bbbe 3e27 213e fe09 653e
00000130: 192b ed3d 86b3 b0be 7f22 43bb f6c8 133d
00000140: f454 963e d058 c3be eed3 96be eaa6 e2be
00000150: 5e9a 363e 0c89 f03e 739b bebd ed20 13bd
00000160: 70b5 8d3e 8a04 8fbc d371 cbbd a3a0 f0bb
00000170: 7543 b0be cfbb bc3e b7aa 45be 6493 b93c
00000180: 2343 2d3f b6c7 863e fbe9 53bc 1f99 5a3e
00000190: d63c 21bf 28fd 613e cfd5 93be 936c a0be
000001a0: 35fe 0ebc db37 d33c f85d e23e 25c3 aebe
000001b0: e887 f2bd 3985 4bbe fb6c 6fbd bc46 87be
000001c0: eea7 f5be e4ac c13e 987d 153f e3ba 92be
000001d0: 2596 bfbd 50e2 313d 21a1 123f f58d 1d3f
000001e0: 701a 12bd 9c12 7bbd 53ab c2be 3fa5 f9bd
000001f0: f359 043e 77e8 353f a7f9 2a3f beb0 f0be
00000200: 2933 7c3c 0e58 8d3b 59dd 043e a02a b7bc
00000210: 13f5 923e bda5 2abe 7f3b 063f fe21 093f
00000220: a1ac 703e 9341 053f 15ec 17be a4ed a8bd
00000230: b727 033e 0631 97be 3a71 bd3e 89b1 2c3e
00000240: d467 a03e 230a 8c3d 22c5 8e3e 05ea 913d
00000250: acfb 18bd f5f0 403f 6ca5 313e bcdb 9c3e
00000260: b306 c4be d4ee d5bd be02 1ebf d701 48be
00000270: 4323 4c3e 8af9 ba3d c6c0 333d b685 b93d
00000280: 43e7 94be b96b 9b3c e431 8e3d 0332 93bb
00000290: 1c67 343e 54ad 773f ee17 b23c 9175 cfbb
000002a0: 96a1 703e 7be6 34be 1374 1f3f 7a9d af3d
000002b0: 4b05 993e e577 8ebd e0f5 bdbd 278d 2e3e
000002c0: 7b0d 66be 5667 8f3c d656 a93e 1fa1 0c3f
000002d0: 84dd a73e aaae b53e 3cfb 99be 24a4 97be
000002e0: c2f8 8dbe d034 b9be f5af ccbe f860 80be
000002f0: c51d 223e bc80 55be 8164 863e 8ff5 90be
00000300: 2e71 86bd f01e 7cbd d431 8e3d 8344 2fbe
00000310: 87cd d13d 6846 933e a817 6c3e ba1e 2a3f
00000320: b3c9 453e b699 9e3e 2ab9 29be 14dc eebe
00000330: 267c d13b f708 edbe a75b c13e d4ed 913e
00000340: 05c6 9d3e 49e4 afbe 9fc0 de3e ec25 da3e
00000350: 3e6c d8be 1a5f b63e 75a6 a53d a274 503e
00000360: 7477 cfbd 46b2 edbd 6fe3 e6be 2a55 bd3c
00000370: 29cf 823c 6e42 723e 9337 8b3e 030b 38be
00000380: 7578 813e c5b0 acbe 1dec 8ebe cd0e a53e
00000390: 0ce9 fa3e 194c 473f 6554 303e ceca 113e
000003a0: 1729 143e 75cd 9cbd eec4 f03e 4ae9 3d3d
000003b0: 644a 023f e99a 3cbd 4f22 c4bd 5926 cb3e
000003c0: 51d4 00bf 471b acbe a547 d53e 8b38 3f3f
000003d0: e830 be3e c4c5 ab3e 14f4 6b3e 5bd5 afbe
000003e0: bebc 56be 1d33 4cbe 6db9 9f3d c824 5dbd
000003f0: a025 1c3e 56f5 ffbd 5f4e 033f cff2 4dbe
0.15109093 -0.14137425 -0.022593781 0.15002857 0.054085746 0.010637923 0.0090465285 0.3637018
-0.21200974 0.3559466 -0.19568251 -0.25954762 -0.06966662 -0.048730507 -0.10303396 -0.07724121
-0.059206348 -0.13272756 -0.23333962 -0.12156942 -0.012850186 0.33263588 -0.039565593 0.033092335
-0.06609412 0.12951583 -0.16043012 0.13090868 -0.09490587 0.2687435 0.18373859 0.14104015
0.29183558 0.094359696 -0.15194911 -0.025029317 0.11785719 0.16428874 0.20462419 -0.3298327
0.21639058 -0.0736807 -0.10063079 -0.14566705 -0.1348123 0.08257345 -0.13662766 -0.1433479
-0.20400198 0.22237234 0.15357277 -0.043125156 -0.09907949 -0.061372925 0.44149378 -0.16234389
-0.21918355 -0.12735318 -0.0348483 0.012065485 0.24808703 -0.2844638 -0.059995428 -0.24309336
0.27994317 -0.044447582 -0.46084175 0.06503896 -0.21046753 -0.39815646 0.23209572 -0.16270325
-0.19980803 -0.36524716 0.15737626 0.22367093 0.11580486 -0.34511966 -0.00297752 0.036080323
0.2936169 -0.38153696 -0.29458565 -0.4426797 0.17832324 0.46979558 -0.09306993 -0.035920072
0.27677488 -0.01745822 -0.099338196 -0.007343368 -0.34426466 0.36862037 -0.19303404 0.02265329
0.6768057 0.26324242 -0.012934203 0.21347474 -0.62983453 0.22069228 -0.2887406 -0.31332836
-0.0087276 0.02578347 0.44212317 -0.34133258 -0.11842328 -0.19875039 -0.05845354 -0.26421154
-0.47979683 0.37827218 0.58394766 -0.28658208 -0.0935481 0.04342872 0.57277113 0.61544734
-0.035669744 -0.061297044 -0.38021335 -0.12189721 0.12924938 0.7105784 0.6678719 -0.47009844
0.015393057 0.0043134755 0.12975062 -0.022359192 0.28702602 -0.16664787 0.52434534 0.5356749
0.23503353 0.52053183 -0.14836152 -0.08248451 0.12808119 -0.2952959 0.37000448 0.168646
0.31329215 0.06837871 0.27884775 0.07124714 -0.037349388 0.7536767 0.1734826 0.30636394
-0.3828636 -0.104459435 -0.61722934 -0.19531952 0.19935326 0.09129627 0.043885015 0.090587065
-0.2908269 0.018972265 0.0694311 -0.004492046 0.17617458 0.9674885 0.021739926 -0.0063311537
0.2349914 -0.17666046 0.6228649 0.08574958 0.2988685 -0.06956462 -0.092754126 0.17046033
-0.2246608 0.01750533 0.33074063 0.5493335 0.3278619 0.3548482 -0.3007449 -0.29617417
-0.2772885 -0.36173105 -0.39977995 -0.2507398 0.15831669 -0.2084989 0.26248553 -0.28312346
-0.06564556 -0.06155294 0.06943098 -0.17115979 0.10244279 0.28764653 0.23055899 0.66453135
0.19315223 0.30976647 -0.1657454 -0.4665228 0.0063929735 -0.46295902 0.37765238 0.2850176
0.3081514 -0.34353855 0.43506333 0.42607057 -0.42270082 0.35619432 0.0808839 0.20356992
-0.10130206 -0.116062686 -0.45095393 0.023111898 0.015967922 0.23658153 0.27190837 -0.1797295
0.25287214 -0.33728614 -0.27914515 0.32237855 0.49005926 0.7785049 0.17219694 0.1423752
0.144688 -0.07656375 0.47025245 0.04636506 0.5089476 -0.04604617 -0.09576856 0.39677694
-0.5032397 -0.3361456 0.41656223 0.7469565 0.37146688 0.3354932 0.23042327 -0.34342465
-0.20970437 -0.19941373 0.07799039 -0.053990155 0.15248728 -0.12497966 0.5129146 -0.20112155

linears.2.bias f4 [64]
00000000: 016d 00bd 1bc0 e33d 74de 8bbd 0f69 73bd
00000010: f1da 1bbd d6a5 163d 9887 4bbd dd5f 5a3d
00000020: 9f81 53bd b40e 4bbd 9316 3d3d d637 e83d
00000030: bd14 643d 28be 04bd a5b3 1a3d ecb6 8e3d
00000040: 39b7 39bd 63ea 703d f3cd eb3b d364 923d
00000050: bcd6 883d c475 533d 0ac1 8f3d 3caa 4abd
00000060: ba6f 43bd 97bb 8b3d a02f e7bd 2623 983d
00000070: 2464 fabc a00a 90bd 4fe6 5d3d ab27 22be
00000080: da22 003c b42a 29bd 0c50 c13c 6226 093c
00000090: 2e28 8a3d b70b 12bd 12a2 6e3d 42f1 f8bd
000000a0: f0df 3b3d cafa 363c 0f5c 1bbd d3b2 a13c
000000b0: 6dcc 7d3d e551 9e3d abed 8e3c 1727 e4bc
000000c0: 261f 28bd f752 783d b915 adbb b656 9fbd
000000d0: f47a 8d3d 8c71 36bc 1dde 063a 162d 30bd
000000e0: 52cf 8e3c 5a82 233d 4355 a5bc 08e3 993d
000000f0: c861 c73d 4a18 9e3d e7d1 4b3d 3b7c e03c
-0.031353954 0.111206256 -0.06829539 -0.059426364 -0.038050596 0.036779247 -0.04968986 0.05331408
-0.05163729 -0.04957457 0.046164107 0.11338775 0.05568384 -0.03240791 0.03776898 0.06968483
-0.04534075 0.05881728 0.007196182 0.07148137 0.06681582 0.051625982 0.07019241 -0.049478754
-0.047713973 0.06822889 -0.112883806 0.07428579 -0.030565329 -0.070332766 0.054174718 -0.15835445
0.007820809 -0.04130049 0.02359774 0.008370968 0.06745945 -0.035655703 0.05826003 -0.12155391
0.04586786 0.011168191 -0.03792959 0.01973859 0.061962534 0.07730464 0.017447313 -0.02785067
-0.04104533 0.060625996 -0.0052821306 -0.07780211 0.06908217 -0.01113547 0.0005144792 -0.043011747
0.017432842 0.039919235 -0.020182258 0.07514006 0.09735447 0.077194765 0.049760725 0.027402988

linears.3.weight f4 [1, 64]
00000000: 4aba e43e 4267 6f3f 1e5c fc3e 146e c03e
00000010: 6804 da3e ed1c 1b3f 03ce 2c3f 2982 b0be
00000020: 91e3 e63e 6204 b53d 7a33 9cbe bdbd a2be
00000030: fb25 8bbe 7b38 873e 3e71 59be ceb8 9f3f
00000040: 5d16 e23e 7802 9fbe 0591 48bf 9c6e a8be
00000050: 953f 99be e9d9 02bf c628 0cbf 7438 ae3e
00000060: 4a28 a23e af8c 51be 0baa 063f bfc3 16bf
00000070: cad4 b43e a6af f33d 88e7 88be d517 213f
00000080: 6baf 613e fc91 c53e d6bb f6be 1e87 d53e
00000090: 2d65 e3be 68cc 0b3f b8c1 9ebe 5a0c 143f
000000a0: cf45 fabe 5796 d5be 249d 913e f997 90be
000000b0: 720a 5fbe 9f12 93be 9669 29bf d9b9 9c3e
000000c0: 5bd9 223e ffe4 4ebe 8a1f c1be e9eb 7d3e
000000d0: 9d33 06bf 7140 773e 1b5b b6be 98ec 583e
000000e0: 6026 37be 28d2 9fbe 8692 d43e 4334 70be
000000f0: cbb4 36bf abfd 8a3f f1dd 88be 51e2 a4be
0.44673377 0.93516934 0.4928903 0.37583983 0.42581487 0.6059101 0.6750185 -0.34474304
0.45095494 0.088387266 -0.30508024 -0.31785384 -0.27177414 0.2641028 -0.21234605 1.2478273
0.44157687 -0.3105657 -0.7834628 -0.32896888 -0.29931322 -0.51113755 -0.54749715 0.34027445
0.31671363 -0.20463823 0.52603215 -0.58892435 0.35318595 0.11898737 -0.26739144 0.6292699
0.22039573 0.3858794 -0.48190182 0.4170465 -0.44413128 0.54608774 -0.3100717 0.57831347
-0.48881385 -0.41716263 0.284402 -0.28240946 -0.21781328 -0.28725144 -0.66176736 0.3061054
0.15903227 -0.20204543 -0.37719375 0.24797024 -0.52422506 0.24145676 -0.35616383 0.21184003
-0.17885733 -0.31215024 0.4151804 -0.23457436 -0.7136962 1.0858663 -0.26731828 -0.32203916
